OASIS3_VNN_NeurIPS/test41.pth (torch, 10139 bytes, 5 tensors)

GFL.0.weight f8 [5, 1, 6, 1]
00000000: 0ba6 da58 2acb fe3f 9889 ca00 c8b1 c9bf
00000010: 70f7 6f64 fc7e dcbf 6630 2391 83cf eabf
00000020: 6b99 feb2 3b7d e0bf 306c 11e0 cc07 d8bf
00000030: c928 ec1a 7da2 e33f 6d2f 78d9 65fe d4bf
00000040: 29ed 7763 863a c5bf f368 ebe1 c610 d1bf
00000050: f005 1370 05ed 76bf 3814 2281 aaaf 97bf
00000060: 6374 27e9 1bfe ed3f a0cb db71 31f4 723f
00000070: b33e 2c97 39f3 c1bf 98ee 42dc b86b c3bf
00000080: fec9 44a4 5cb1 d1bf 7199 377c 137a c6bf
00000090: 40ae 0b04 3029 e63f ecdb 7abd 78f4 9f3f
000000a0: a4c7 2400 0ee6 dbbf d503 5c09 0a23 c93f
000000b0: 7eee d183 83b9 9f3f 610f 6ce8 0731 b1bf
000000c0: 96cb 1411 cea9 f8bf d38a 688f cf56 cabf
000000d0: 1052 ec8c edda d3bf e10e 78e5 a234 d23f
000000e0: 376b e326 8950 c6bf be60 8573 0716 d73f
1.9246009322035913 -0.20073795355444868 -0.445250604709023 -0.8378312906948053 -0.5152872558581242 -0.3754760921635265 0.6135850454168345 -0.32802721249821937
-0.1658485398946621 -0.26664897978265784 -0.0055971348203356225 -0.02313105023542425 0.9372691682616615 0.004627411979288093 -0.14023513680921482 -0.15172491793588416
-0.2764503101526826 -0.17560046735088577 0.6925277785316624 0.031206022801338593 -0.4359164239314117 0.19638181168559635 0.03098111621919352 -0.06715440201156532
-1.5414562861667256 -0.2057742548214124 -0.3102373005106367 0.28446266564445294 -0.17433275603146978 0.36071954995487576

GFL.0.bias f8 [5, 1]
00000000: 44e2 9870 5b39 f43f 571e a843 3c63 0540
00000010: 6172 b351 194d fc3f c661 2f3e fb19 0240
00000020: c264 24b6 0e38 ff3f
1.2640032194450592 2.6734547887497615 1.7688229743427188 2.2626862390718285 1.9511859049728604

GFL.3.weight f8 [5, 1, 10, 5]
00000000: 4643 d2ac e69e ccbf 0572 cdf7 009d d5bf
00000010: e2b3 0123 71be a5bf c4c4 620f b488 b6bf
00000020: 00bc b97f f614 d5bf f21c 4539 be8a b4bf
00000030: 7bf7 a7ab ab7d dfbf 5130 60b9 f3d1 babf
00000040: 19af 7d93 e3e4 9b3f d7f5 9440 0980 debf
00000050: c7ba 7650 a19f a6bf 91ac 0115 53bb d7bf
00000060: 376b f65a 1853 b3bf 58dc 274e 76ed bfbf
00000070: 8a81 4afe 974c cbbf 1f11 135c 4563 c5bf
00000080: 5e70 91aa b614 d4bf 9c54 b890 19a2 d3bf
00000090: 71f1 e3e2 8071 cdbf daf8 8aae c6af d4bf
000000a0: 6fb7 5876 cc42 d1bf 95c0 c381 5803 cdbf
000000b0: be3a 5dca 2c61 d1bf 0aac 93c1 bb42 cabf
000000c0: 2500 74f9 43c9 cbbf b7ad dae8 291b d2bf
000000d0: c5f6 86e1 803c d1bf b15e 528b 1654 d7bf
000000e0: 2b38 6af7 473f c8bf 5aa4 fa00 a2e3 d8bf
000000f0: ace1 8b9a cdd5 c5bf 2a42 9994 815c cabf
00000100: 5f51 0629 9d91 bfbf be8f 4ca7 985b b0bf
00000110: d1ab ba09 1733 d4bf f022 e34f 7add d3bf
00000120: 6151 66fd d3b7 d2bf 26f2 785f 6432 c4bf
00000130: b6bb cba4 7295 cbbf cfe0 30ab 337d d8bf
00000140: 4f0c be49 aacc b9bf a448 95d5 229e dabf
00000150: 3d6b b14e 4fa6 bcbf 54aa ca78 7a28 c7bf
00000160: df37 7867 b831 d7bf 538e d8a9 87e5 d6bf
00000170: e8de 4827 c1a9 d5bf 3ada 1b56 5c17 d3bf
00000180: f374 a105 70ef c2bf 64e2 dd0f 82ca c5bf
00000190: a5e3 7cfd c1ef f43f d1e8 91f8 fd17 f23f
000001a0: 98df 96ec 7f59 f13f bd3d 5378 e870 f13f
000001b0: 7da9 fdae 11cd e33f d8e2 9aed aece ec3f
000001c0: c194 54cd 3a33 f33f 3f32 a19e 1543 e13f
000001d0: 60d5 1379 fbc4 ef3f 9768 d92f 0285 e83f
000001e0: 47fc 56bc 4b83 e23f 66f3 8247 47f7 ef3f
000001f0: 16b9 013e 3e12 e33f e46a d30b f93f eb3f
00000200: 1a79 fb3e be84 ec3f 508b 2b60 340b e63f
00000210: c7c4 7d2d d2e7 f03f 3ecb c9dd b528 e33f
00000220: c1db 95f4 8f85 ef3f 0333 d73c 9f49 f03f
00000230: 901c 3404 c20c e23f 06a0 1e53 9e09 f43f
00000240: e965 0e8a 12f4 e03f 58ea 0ef7 6863 ef3f
00000250: cb5f 01ab 76c9 ea3f 770d 08c4 bfc0 e23f
00000260: f96e fab4 d5f4 f13f 601d 2ffb 276f db3f
00000270: 8fc9 7868 90cf e93f 4f05 56b7 3815 f13f
00000280: a7ae cf1e 6d34 e03f 3edb fb0c c71b ef3f
00000290: 7b9e 48a8 f279 e23f d1e6 e6f1 0eeb e73f
000002a0: 6e7a 2873 4a56 ea3f 4fcd 4d2f 42c2 e43f
000002b0: 6cac 4a44 fa94 f13f ffd3 f830 987e e43f
000002c0: 264d 9ebc 9c19 ec3f d078 d97f 1682 ec3f
000002d0: 319e ab4a 2f82 e83f c73d 6321 2b09 f33f
000002e0: 7645 145c e2dd db3f 39eb 9e45 de2c ed3f
000002f0: d720 5bcc f5f3 f03f 1794 0e7f 4b8f e73f
00000300: 419f 598c 15db ef3f 3409 728f 6db9 e53f
00000310: a160 822b 9c0d ed3f cbfb ac4f 881d ec3f
00000320: 00fe 63db bee9 f43f 2617 fa35 effb f63f
00000330: 0009 2fc6 66fb ec3f 99a6 5d5a b6d6 f23f
00000340: e8f0 ad69 58a5 e63f 4f5b 98b6 8205 ec3f
00000350: 3b5f 5bb9 b211 f43f 2402 13c2 70ac dc3f
00000360: bbcc b6a5 4991 ed3f 2720 6334 cfe8 eb3f
00000370: 30df 1672 85d6 e63f f965 8e3d c5d4 f33f
00000380: a424 403b 5f3a df3f 58fb 5036 985d e83f
00000390: 1dd8 0092 5950 ed3f d9a5 451c 9d97 e63f
000003a0: cb17 4700 486d f23f 56ae bcb0 693d d93f
000003b0: c7c1 f232 029c ea3f afe2 7d5a e25b f03f
000003c0: 2587 d118 1710 df3f 77f1 8e32 f06f f33f
000003d0: 4f61 5d07 a7f2 e03f c36e a2d0 eefc eb3f
000003e0: 1b4a fdc9 11f1 ef3f 565d 9177 5f1b e23f
000003f0: 6407 7af3 5048 f23f 0f50 655d 3063 e03f
00000400: b79b c624 0a94 ef3f 9968 c79a 1afb eb3f
00000410: a64a 4715 9d15 e13f 6751 34e5 100e f23f
00000420: 59c5 8931 d963 df3f eacd 5500 fdba e93f
00000430: 7cc0 a569 b3da f13f 4f2f 03cb ba90 e63f
00000440: 0724 4b29 0452 f23f e005 ae8c 8691 d93f
00000450: 0997 c6f9 3c2f e93f 0969 acf9 3aec ee3f
00000460: 6ee4 534c f40f e43f 6d2c 7aad b69e f13f
00000470: dcd3 3d15 b43e e33f d70a 331d 0030 ee3f
00000480: e890 d959 e659 ec3f 5333 db15 dbab e53f
00000490: d00e 7696 c442 f23f 1350 995d 1bea e13f
000004a0: 07e6 1545 103a e83f 6ebb abcb a4ac f03f
000004b0: 317d c821 66e7 f63f 9077 3d29 45d3 f23f
000004c0: 924e e07a e5d6 ee3f 04eb 0348 6118 f13f
000004d0: 1ec1 1fc7 4bf5 e13f 10bb e9e0 f82b e63f
000004e0: 5904 40aa 003f f33f 31d2 ff4b 8775 e43f
000004f0: 69fe 39a4 3e4e e83f e094 a7fd 41a7 eb3f
00000500: 1f23 4b00 534f e73f b2a4 3000 46cf f33f
00000510: f780 eaf0 a27f e43f 5de6 f64a 53c7 e83f
00000520: a10a 8f01 af49 ea3f 05b8 1d66 1345 e73f
00000530: 9935 8200 48e4 f03f e6ea 3375 ceb3 da3f
00000540: 4855 025d d96f e83f e312 565d 03bb ef3f
00000550: 5176 2a80 7991 e53f 76ef 4b20 0c94 f23f
00000560: 764f b06e 99f8 e43f 9649 5462 9fc2 ea3f
00000570: 4b3d 8886 4605 ea3f e476 884f fba0 e03f
00000580: 741e 9d53 47a7 f13f 1e50 616b a69d e23f
00000590: 58ba e7e9 ad56 e93f 7cf9 234a 2ccc ea3f
000005a0: b826 f8ce a6fd e03f d5f0 7af2 20df f13f
000005b0: a55b c4d2 7f5d e03f 1038 5c60 6aab ea3f
000005c0: 2c0c 776c 3097 ea3f 8f6c 355c 9d1d e33f
000005d0: a130 c619 718f f03f f2b6 c1ce 7bb2 e03f
000005e0: 8806 760b 2bcd ec3f 8f05 5291 7701 f03f
000005f0: ebac 3fdd 9d88 e43f d689 d4e5 dfc7 f23f
00000600: ffc7 f963 fe86 dc3f efd2 57d7 7cb9 ea3f
00000610: a911 8804 d044 ea3f 5a9f 4701 e4cd e73f
00000620: eaea 79fe 669f f03f e083 cc90 90a4 e33f
00000630: 8e38 c121 a591 ea3f 4ad8 c98f e8bd f03f
00000640: 7593 6f08 f95d f63f 4db1 62ff 7508 f53f
00000650: 54ad 1ef1 51e7 eb3f 31a7 81ca c90e f43f
00000660: 1728 809e 5e40 e13f adec af19 2af2 e33f
00000670: 90f3 e322 a605 f23f 46f2 2df6 eeae dd3f
00000680: 5a97 f48e d265 f03f 28b0 b49e 0294 ef3f
00000690: a5e7 3b00 8c5e e13f fc70 34b3 e265 f13f
000006a0: c38a a4f7 363b da3f a9ba 1163 b610 e73f
000006b0: 0c9e 0bd8 85cc ea3f 57ac e33b 881d e03f
000006c0: fc09 a846 c193 f23f f2f5 b2c4 1545 dc3f
000006d0: 4e2d eae7 133b e93f 8dbf 4089 5f6f ef3f
000006e0: da33 5840 ab25 e13f 1ed9 3b2a d81d f33f
000006f0: 4132 793c 3fdf d83f 6a6e 3144 3b7b eb3f
00000700: 4fff 9aad a1e4 f13f 8c79 cf0c c183 e73f
00000710: 89d5 5b44 5c23 f03f 40de 796b b650 e23f
00000720: b588 53dc 080c ed3f 2159 bfa6 d42d ee3f
00000730: 4442 10cf 5288 e03f e8a2 6398 701d f03f
00000740: a3ac eeb9 4db2 d83f 1f68 2085 166a e93f
00000750: b867 f1a3 9980 f13f 6451 c23b 738e df3f
00000760: 5c3e 9119 c5da f03f 91f3 96ea 111c e13f
00000770: 9948 734f 342e e73f 6a66 cccf 3881 ec3f
00000780: 95c2 e757 17d9 e53f 1e40 3d92 2e99 f13f
00000790: 4caf c84a 153f df3f 12b2 b059 fb9d e83f
000007a0: 3b56 9c26 61de ed3f ea54 7b34 c15e e03f
000007b0: 0c96 1e28 9ba2 f23f 5a07 fa04 74d3 e03f
000007c0: 2355 6028 33c6 ed3f 7387 78b1 eada ee3f
-0.22359927595655388 -0.3377077503153319 -0.04246858169867786 -0.08802342773084876 -0.3294044730491237 -0.08024205110733698 -0.492045323975496 -0.10476611400389514
0.027240329625256885 -0.47656470591377115 -0.044186631271590886 -0.3708083825246798 -0.07548668118253664 -0.12471713455293931 -0.2132749549537148 -0.1670920085508749
-0.31376425416033793 -0.30676879055801876 -0.23002635077126457 -0.32322852177811756 -0.2697020679214494 -0.22666460357823284 -0.27155608904005735 -0.2051615424346383
-0.21707963638618924 -0.2829079412428785 -0.26931783699170025 -0.364507328087238 -0.18943118649298304 -0.38889360519039473 -0.17058725401126418 -0.20594806438249808
-0.12331564189509468 -0.06389764866304312 -0.3156182856570782 -0.31039293099870147 -0.2924699759107821 -0.15778784429302667 -0.21549828573867352 -0.38264171331276214
-0.10077919292784653 -0.415901859833989 -0.11191268607346401 -0.18092280290632579 -0.3624096880383813 -0.3577593954707698 -0.3384859927786992 -0.2983008232980954
-0.1479320552342994 -0.17024255537741617 1.3085346128338895 1.1308574399723066 1.0843505136271911 1.0900654506875604 0.6187828462400798 0.9002298966143725
1.2000072499006793 0.5394390199886131 0.9927956929010797 0.7662363943629938 0.5785273245345558 0.9989353558263303 0.5959769450253443 0.8515591841672543
0.8912039976237651 0.6888677481004866 1.0565969254496836 0.5987195331384567 0.9850539948519029 1.017974126490288 0.5640573579884336 1.2523482558117407
0.5297939964686381 0.9808850121838288 0.837092718119487 0.5860289410342564 1.1222741193259351 0.42865943460170364 0.8065874138322203 1.0676810418666098
0.5063996888906858 0.9721408132162208 0.5773862158575435 0.7474436497352263 0.8230335473234172 0.6487131999878474 1.0988714854854846 0.6404534298404768
0.8781264957382617 0.8908798691807309 0.7658916910558614 1.1897383979993366 0.4354177378855505 0.9117270812779231 1.0595605833678314 0.7362420541363716
0.9954936734402297 0.6788852502507212 0.907911381701542 0.8786050373236035 1.3070667810387704 1.4365074261163016 0.9056886549736021 1.177419999114511
0.7076837600757502 0.8756726805030243 1.254320835161663 0.44802493050159087 0.9239853130915415 0.8721691153705294 0.7136866787250025 1.2394459156552087
0.4879377440088979 0.7614251194826052 0.9160583354594142 0.7060075332821568 1.1516799937103197 0.3943733430812463 0.8315440173228631 1.0224326643785095
0.4853570692413192 1.21482867955555 0.5296206611483657 0.8746255946056966 0.9981774277787879 0.5658414206799687 1.1426553259666088 0.5121080230842397
0.9868212431218727 0.8744023345018547 0.5338883796306007 1.1284340813918676 0.49046926343642877 0.8040757185503342 1.1158937575201255 0.7051671948515635
1.1450234997776094 0.39950717676410186 0.7870163801605666 0.9663367153582679 0.6269475451255297 1.1012484337286665 0.6014042296288795 0.9433594293880913
0.8859740977173063 0.6772284914855881 1.1413007619275284 0.5598275020697677 0.7570878362013794 1.0421493488208529 1.4314938850073526 1.1765796290341974
0.9637324714589843 1.0684521496866077 0.5611933602467933 0.6928676979858626 1.2028814936059204 0.6393467411385868 0.7595513541745734 0.8641672090713222
0.7284331327183259 1.2381038672850022 0.6405806260482042 0.7743317093038048 0.8214945822185947 0.727182101674544 1.055732728945577 0.4172245163496612
0.7636534515938047 0.9915787528012426 0.6740081313361747 1.1611443769060918 0.6553465997589984 0.8362576408856508 0.8131439807492965 0.5196510842685851
1.1033395067369414 0.5817443940418376 0.7918309753857313 0.8374234626824513 0.5309633295412004 1.1169747802624006 0.5114134899657655 0.8334247476611854
0.8309557074029548 0.5973650742484028 1.0350199705890548 0.5217875517098192 0.900044939408148 1.0003581692293186 0.6416768380417158 1.173797509931878
0.4457393623662255 0.8351425367278277 0.820899971819519 0.7438831353183375 1.0389165821531443 0.6138384655097262 0.8302789363167606 1.0463643662201485
1.397942574455752 1.3145656562802117 0.8719873151180004 1.2536104116829387 0.5391076179232667 0.6233110906317926 1.1263791430385233 0.4638020900818315
1.0248590072819384 0.986817655536929 0.5427913670130137 1.0873744011105932 0.40986417945729786 0.7207900938936592 0.8374661655079207 0.50360500046862
1.1610729942336766 0.4417166157616911 0.788461640318397 0.9823453598710202 0.5358482605676003 1.194786229110441 0.38862591653449746 0.8587929088493642
1.1183182507956706 0.7348332643703528 1.008632914568212 0.5723526095525315 0.9077190688369884 0.9430945641313749 0.5166410488328173 1.0071874573424626
0.3858827892060594 0.7942001915100753 1.093896522905636 0.4930694659790531 1.053410625336162 0.5346765119389706 0.7243901778949918 0.8907741602481114
0.6827503888035432 1.0998979294272497 0.48822529128186853 0.7692848922502569 0.9333959344973616 0.5115667367014372 1.1646987502257415 0.5258121583176305
0.930444315776786 0.9642232385851756

GFL.3.bias f8 [5, 1]
00000000: 25e9 516f 2622 cabf 1b26 58c8 ba00 f73f
00000010: a408 61c2 1c3b f83f af45 45ca e9e2 f83f
00000020: 2981 4bc1 aa84 fb3f
-0.20416717944665055 1.4376781297636458 1.5144317238742042 1.5553987408824062 1.7198894072135522

MLP.0.weight f8 [1, 740]
00000000: 4062 0177 fa23 563f 4062 0177 fa23 563f
00000010: 4062 0177 fa23 563f 4062 0177 fa23 563f
00000020: 4062 0177 fa23 563f 4062 0177 fa23 563f
00000030: 4062 0177 fa23 563f 4062 0177 fa23 563f
00000040: 4062 0177 fa23 563f 4062 0177 fa23 563f
00000050: 4062 0177 fa23 563f 4062 0177 fa23 563f
00000060: 4062 0177 fa23 563f 4062 0177 fa23 563f
00000070: 4062 0177 fa23 563f 4062 0177 fa23 563f
00000080: 4062 0177 fa23 563f 4062 0177 fa23 563f
00000090: 4062 0177 fa23 563f 4062 0177 fa23 563f
000000a0: 4062 0177 fa23 563f 4062 0177 fa23 563f
000000b0: 4062 0177 fa23 563f 4062 0177 fa23 563f
000000c0: 4062 0177 fa23 563f 4062 0177 fa23 563f
000000d0: 4062 0177 fa23 563f 4062 0177 fa23 563f
000000e0: 4062 0177 fa23 563f 4062 0177 fa23 563f
000000f0: 4062 0177 fa23 563f 4062 0177 fa23 563f
00000100: 4062 0177 fa23 563f 4062 0177 fa23 563f
00000110: 4062 0177 fa23 563f 4062 0177 fa23 563f
00000120: 4062 0177 fa23 563f 4062 0177 fa23 563f
00000130: 4062 0177 fa23 563f 4062 0177 fa23 563f
00000140: 4062 0177 fa23 563f 4062 0177 fa23 563f
00000150: 4062 0177 fa23 563f 4062 0177 fa23 563f
00000160: 4062 0177 fa23 563f 4062 0177 fa23 563f
00000170: 4062 0177 fa23 563f 4062 0177 fa23 563f
00000180: 4062 0177 fa23 563f 4062 0177 fa23 563f
00000190: 4062 0177 fa23 563f 4062 0177 fa23 563f
000001a0: 4062 0177 fa23 563f 4062 0177 fa23 563f
000001b0: 4062 0177 fa23 563f 4062 0177 fa23 563f
000001c0: 4062 0177 fa23 563f 4062 0177 fa23 563f
000001d0: 4062 0177 fa23 563f 4062 0177 fa23 563f
000001e0: 4062 0177 fa23 563f 4062 0177 fa23 563f
000001f0: 4062 0177 fa23 563f 4062 0177 fa23 563f
00000200: 4062 0177 fa23 563f 4062 0177 fa23 563f
00000210: 4062 0177 fa23 563f 4062 0177 fa23 563f
00000220: 4062 0177 fa23 563f 4062 0177 fa23 563f
00000230: 4062 0177 fa23 563f 4062 0177 fa23 563f
00000240: 4062 0177 fa23 563f 4062 0177 fa23 563f
00000250: 4062 0177 fa23 563f 4062 0177 fa23 563f
00000260: 4062 0177 fa23 563f 4062 0177 fa23 563f
00000270: 4062 0177 fa23 563f 4062 0177 fa23 563f
00000280: 4062 0177 fa23 563f 4062 0177 fa23 563f
00000290: 4062 0177 fa23 563f 4062 0177 fa23 563f
000002a0: 4062 0177 fa23 563f 4062 0177 fa23 563f
000002b0: 4062 0177 fa23 563f 4062 0177 fa23 563f
000002c0: 4062 0177 fa23 563f 4062 0177 fa23 563f
000002d0: 4062 0177 fa23 563f 4062 0177 fa23 563f
000002e0: 4062 0177 fa23 563f 4062 0177 fa23 563f
000002f0: 4062 0177 fa23 563f 4062 0177 fa23 563f
00000300: 4062 0177 fa23 563f 4062 0177 fa23 563f
00000310: 4062 0177 fa23 563f 4062 0177 fa23 563f
00000320: 4062 0177 fa23 563f 4062 0177 fa23 563f
00000330: 4062 0177 fa23 563f 4062 0177 fa23 563f
00000340: 4062 0177 fa23 563f 4062 0177 fa23 563f
00000350: 4062 0177 fa23 563f 4062 0177 fa23 563f
00000360: 4062 0177 fa23 563f 4062 0177 fa23 563f
00000370: 4062 0177 fa23 563f 4062 0177 fa23 563f
00000380: 4062 0177 fa23 563f 4062 0177 fa23 563f
00000390: 4062 0177 fa23 563f 4062 0177 fa23 563f
000003a0: 4062 0177 fa23 563f 4062 0177 fa23 563f
000003b0: 4062 0177 fa23 563f 4062 0177 fa23 563f
000003c0: 4062 0177 fa23 563f 4062 0177 fa23 563f
000003d0: 4062 0177 fa23 563f 4062 0177 fa23 563f
000003e0: 4062 0177 fa23 563f 4062 0177 fa23 563f
000003f0: 4062 0177 fa23 563f 4062 0177 fa23 563f
00000400: 4062 0177 fa23 563f 4062 0177 fa23 563f
00000410: 4062 0177 fa23 563f 4062 0177 fa23 563f
00000420: 4062 0177 fa23 563f 4062 0177 fa23 563f
00000430: 4062 0177 fa23 563f 4062 0177 fa23 563f
00000440: 4062 0177 fa23 563f 4062 0177 fa23 563f
00000450: 4062 0177 fa23 563f 4062 0177 fa23 563f
00000460: 4062 0177 fa23 563f 4062 0177 fa23 563f
00000470: 4062 0177 fa23 563f 4062 0177 fa23 563f
00000480: 4062 0177 fa23 563f 4062 0177 fa23 563f
00000490: 4062 0177 fa23 563f 4062 0177 fa23 563f
000004a0: 4062 0177 fa23 563f 4062 0177 fa23 563f
000004b0: 4062 0177 fa23 563f 4062 0177 fa23 563f
000004c0: 4062 0177 fa23 563f 4062 0177 fa23 563f
000004d0: 4062 0177 fa23 563f 4062 0177 fa23 563f
000004e0: 4062 0177 fa23 563f 4062 0177 fa23 563f
000004f0: 4062 0177 fa23 563f 4062 0177 fa23 563f
00000500: 4062 0177 fa23 563f 4062 0177 fa23 563f
00000510: 4062 0177 fa23 563f 4062 0177 fa23 563f
00000520: 4062 0177 fa23 563f 4062 0177 fa23 563f
00000530: 4062 0177 fa23 563f 4062 0177 fa23 563f
00000540: 4062 0177 fa23 563f 4062 0177 fa23 563f
00000550: 4062 0177 fa23 563f 4062 0177 fa23 563f
00000560: 4062 0177 fa23 563f 4062 0177 fa23 563f
00000570: 4062 0177 fa23 563f 4062 0177 fa23 563f
00000580: 4062 0177 fa23 563f 4062 0177 fa23 563f
00000590: 4062 0177 fa23 563f 4062 0177 fa23 563f
000005a0: 4062 0177 fa23 563f 4062 0177 fa23 563f
000005b0: 4062 0177 fa23 563f 4062 0177 fa23 563f
000005c0: 4062 0177 fa23 563f 4062 0177 fa23 563f
000005d0: 4062 0177 fa23 563f 4062 0177 fa23 563f
000005e0: 4062 0177 fa23 563f 4062 0177 fa23 563f
000005f0: 4062 0177 fa23 563f 4062 0177 fa23 563f
00000600: 4062 0177 fa23 563f 4062 0177 fa23 563f
00000610: 4062 0177 fa23 563f 4062 0177 fa23 563f
00000620: 4062 0177 fa23 563f 4062 0177 fa23 563f
00000630: 4062 0177 fa23 563f 4062 0177 fa23 563f
00000640: 4062 0177 fa23 563f 4062 0177 fa23 563f
00000650: 4062 0177 fa23 563f 4062 0177 fa23 563f
00000660: 4062 0177 fa23 563f 4062 0177 fa23 563f
00000670: 4062 0177 fa23 563f 4062 0177 fa23 563f
00000680: 4062 0177 fa23 563f 4062 0177 fa23 563f
00000690: 4062 0177 fa23 563f 4062 0177 fa23 563f
000006a0: 4062 0177 fa23 563f 4062 0177 fa23 563f
000006b0: 4062 0177 fa23 563f 4062 0177 fa23 563f
000006c0: 4062 0177 fa23 563f 4062 0177 fa23 563f
000006d0: 4062 0177 fa23 563f 4062 0177 fa23 563f
000006e0: 4062 0177 fa23 563f 4062 0177 fa23 563f
000006f0: 4062 0177 fa23 563f 4062 0177 fa23 563f
00000700: 4062 0177 fa23 563f 4062 0177 fa23 563f
00000710: 4062 0177 fa23 563f 4062 0177 fa23 563f
00000720: 4062 0177 fa23 563f 4062 0177 fa23 563f
00000730: 4062 0177 fa23 563f 4062 0177 fa23 563f
00000740: 4062 0177 fa23 563f 4062 0177 fa23 563f
00000750: 4062 0177 fa23 563f 4062 0177 fa23 563f
00000760: 4062 0177 fa23 563f 4062 0177 fa23 563f
00000770: 4062 0177 fa23 563f 4062 0177 fa23 563f
00000780: 4062 0177 fa23 563f 4062 0177 fa23 563f
00000790: 4062 0177 fa23 563f 4062 0177 fa23 563f
000007a0: 4062 0177 fa23 563f 4062 0177 fa23 563f
000007b0: 4062 0177 fa23 563f 4062 0177 fa23 563f
000007c0: 4062 0177 fa23 563f 4062 0177 fa23 563f
000007d0: 4062 0177 fa23 563f 4062 0177 fa23 563f
000007e0: 4062 0177 fa23 563f 4062 0177 fa23 563f
000007f0: 4062 0177 fa23 563f 4062 0177 fa23 563f
0.0013513513513513514 0.0013513513513513514 0.0013513513513513514 0.0013513513513513514 0.0013513513513513514 0.0013513513513513514 0.0013513513513513514 0.0013513513513513514
0.0013513513513513514 0.0013513513513513514 0.0013513513513513514 0.0013513513513513514 0.0013513513513513514 0.0013513513513513514 0.0013513513513513514 0.0013513513513513514
0.0013513513513513514 0.0013513513513513514 0.0013513513513513514 0.0013513513513513514 0.0013513513513513514 0.0013513513513513514 0.0013513513513513514 0.0013513513513513514
0.0013513513513513514 0.0013513513513513514 0.0013513513513513514 0.0013513513513513514 0.0013513513513513514 0.0013513513513513514 0.0013513513513513514 0.0013513513513513514
0.0013513513513513514 0.0013513513513513514 0.0013513513513513514 0.0013513513513513514 0.0013513513513513514 0.0013513513513513514 0.0013513513513513514 0.0013513513513513514
0.0013513513513513514 0.0013513513513513514 0.0013513513513513514 0.0013513513513513514 0.0013513513513513514 0.0013513513513513514 0.0013513513513513514 0.0013513513513513514
0.0013513513513513514 0.0013513513513513514 0.0013513513513513514 0.0013513513513513514 0.0013513513513513514 0.0013513513513513514 0.0013513513513513514 0.0013513513513513514
0.0013513513513513514 0.0013513513513513514 0.0013513513513513514 0.0013513513513513514 0.0013513513513513514 0.0013513513513513514 0.0013513513513513514 0.0013513513513513514
0.0013513513513513514 0.0013513513513513514 0.0013513513513513514 0.0013513513513513514 0.0013513513513513514 0.0013513513513513514 0.0013513513513513514 0.0013513513513513514
0.0013513513513513514 0.0013513513513513514 0.0013513513513513514 0.0013513513513513514 0.0013513513513513514 0.0013513513513513514 0.0013513513513513514 0.0013513513513513514
0.0013513513513513514 0.0013513513513513514 0.0013513513513513514 0.0013513513513513514 0.0013513513513513514 0.0013513513513513514 0.0013513513513513514 0.0013513513513513514
0.0013513513513513514 0.0013513513513513514 0.0013513513513513514 0.0013513513513513514 0.0013513513513513514 0.0013513513513513514 0.0013513513513513514 0.0013513513513513514
0.0013513513513513514 0.0013513513513513514 0.0013513513513513514 0.0013513513513513514 0.0013513513513513514 0.0013513513513513514 0.0013513513513513514 0.0013513513513513514
0.0013513513513513514 0.0013513513513513514 0.0013513513513513514 0.0013513513513513514 0.0013513513513513514 0.0013513513513513514 0.0013513513513513514 0.0013513513513513514
0.0013513513513513514 0.0013513513513513514 0.0013513513513513514 0.0013513513513513514 0.0013513513513513514 0.0013513513513513514 0.0013513513513513514 0.0013513513513513514
0.0013513513513513514 0.0013513513513513514 0.0013513513513513514 0.0013513513513513514 0.0013513513513513514 0.0013513513513513514 0.0013513513513513514 0.0013513513513513514
0.0013513513513513514 0.0013513513513513514 0.0013513513513513514 0.0013513513513513514 0.0013513513513513514 0.0013513513513513514 0.0013513513513513514 0.0013513513513513514
0.0013513513513513514 0.0013513513513513514 0.0013513513513513514 0.0013513513513513514 0.0013513513513513514 0.0013513513513513514 0.0013513513513513514 0.0013513513513513514
0.0013513513513513514 0.0013513513513513514 0.0013513513513513514 0.0013513513513513514 0.0013513513513513514 0.0013513513513513514 0.0013513513513513514 0.0013513513513513514
0.0013513513513513514 0.0013513513513513514 0.0013513513513513514 0.0013513513513513514 0.0013513513513513514 0.0013513513513513514 0.0013513513513513514 0.0013513513513513514
0.0013513513513513514 0.0013513513513513514 0.0013513513513513514 0.0013513513513513514 0.0013513513513513514 0.0013513513513513514 0.0013513513513513514 0.0013513513513513514
0.0013513513513513514 0.0013513513513513514 0.0013513513513513514 0.0013513513513513514 0.0013513513513513514 0.0013513513513513514 0.0013513513513513514 0.0013513513513513514
0.0013513513513513514 0.0013513513513513514 0.0013513513513513514 0.0013513513513513514 0.0013513513513513514 0.0013513513513513514 0.0013513513513513514 0.0013513513513513514
0.0013513513513513514 0.0013513513513513514 0.0013513513513513514 0.0013513513513513514 0.0013513513513513514 0.0013513513513513514 0.0013513513513513514 0.0013513513513513514
0.0013513513513513514 0.0013513513513513514 0.0013513513513513514 0.0013513513513513514 0.0013513513513513514 0.0013513513513513514 0.0013513513513513514 0.0013513513513513514
0.0013513513513513514 0.0013513513513513514 0.0013513513513513514 0.0013513513513513514 0.0013513513513513514 0.0013513513513513514 0.0013513513513513514 0.0013513513513513514
0.0013513513513513514 0.0013513513513513514 0.0013513513513513514 0.0013513513513513514 0.0013513513513513514 0.0013513513513513514 0.0013513513513513514 0.0013513513513513514
0.0013513513513513514 0.0013513513513513514 0.0013513513513513514 0.0013513513513513514 0.0013513513513513514 0.0013513513513513514 0.0013513513513513514 0.0013513513513513514
0.0013513513513513514 0.0013513513513513514 0.0013513513513513514 0.0013513513513513514 0.0013513513513513514 0.0013513513513513514 0.0013513513513513514 0.0013513513513513514
0.0013513513513513514 0.0013513513513513514 0.0013513513513513514 0.0013513513513513514 0.0013513513513513514 0.0013513513513513514 0.0013513513513513514 0.0013513513513513514
0.0013513513513513514 0.0013513513513513514 0.0013513513513513514 0.0013513513513513514 0.0013513513513513514 0.0013513513513513514 0.0013513513513513514 0.0013513513513513514
0.0013513513513513514 0.0013513513513513514 0.0013513513513513514 0.0013513513513513514 0.0013513513513513514 0.0013513513513513514 0.0013513513513513514 0.0013513513513513514
