OASIS3_VNN_NeurIPS/test65.pth (torch, 10139 bytes, 5 tensors)

GFL.0.weight f8 [5, 1, 6, 1]
00000000: bf0a fff9 72da cdbf 2dcb c483 1d37 b9bf
00000010: cd5f ddd4 eb79 d03f d319 3a9c 4541 d63f
00000020: 7a01 c543 b36b 943f afc8 9a66 cc05 e03f
00000030: 9523 9a7d 9511 e13f 6a68 f193 a808 c53f
00000040: 1095 a21a f800 c73f 95bc dfa0 db78 c9bf
00000050: 71ee ad1b 2d65 debf db4c 913e 3098 c03f
00000060: cbd6 145e fa95 fb3f 1e23 5467 0136 debf
00000070: 7ec4 d065 1ae4 e3bf 8b8b fc68 860e d0bf
00000080: de86 2442 a562 643f 287c 41a5 ad5a a8bf
00000090: 280a 538c 1a4f f4bf d084 6ccd 1131 d8bf
000000a0: 9ac2 ffa2 ebcf b3bf 77ed 8aaf e782 cfbf
000000b0: e43d 7f9c 14ce c43f 8a97 c419 3e06 d5bf
000000c0: 37bd 0fea 5082 a43f d1a4 0c3a ea43 a13f
000000d0: 1efe 7aac ac93 943f c9f0 f489 59c2 913f
000000e0: 9a9d 84ff c2bd b03f bfb8 f293 9218 cfbf
-0.23322903830383798 -0.09849724261293309 0.2574414805180794 0.3477338815358994 0.01994209385998278 0.5007078174587799 0.5333964780012247 0.16432673667697212
0.1797170763067375 -0.19900079112219218 -0.4749253053957779 0.1296444230561978 1.7241157221846375 -0.47204623308839355 -0.6215946186622572 -0.25088653805340105
0.0024884441092048867 -0.047566820547892796 -1.2693124276562546 -0.3779949670880116 -0.0773913643786365 -0.24618240424556934 0.16253907815415325 -0.328506016887666
0.040056732723196146 0.03372127493487088 0.020094583537455184 0.017342948003020085 0.06539553392632627 -0.24293739532499178

GFL.0.bias f8 [5, 1]
00000000: a71d 4b60 729e 0240 0665 c12f beaa f93f
00000010: 31bf fe39 d77c 0140 b721 c3d6 5c64 0040
00000020: 8f86 8311 3e48 0340
2.3273665926860363 1.6041852822730234 2.1859573870532576 2.0490052011775464 2.410274636103004

GFL.3.weight f8 [5, 1, 10, 5]
00000000: 0084 47c5 aad1 f13f e08b 763e 8708 e53f
00000010: 05f5 73c9 ffa0 f73f a11a 8f56 fa13 e93f
00000020: d87a 0f60 a7e7 eb3f 1dda 8f39 ec41 ee3f
00000030: 30ac e174 8570 da3f 6eb4 54a5 f28b f13f
00000040: 42d0 ccd9 5131 ee3f e1f6 1688 a43a ef3f
00000050: 2bdb 5b18 05bb f23f 6226 bd22 2545 d93f
00000060: cd3b 04e0 80a0 ee3f 6b33 38ac 1fe6 ec3f
00000070: bbb7 0a00 2ebf eb3f fd4d 6b2b c520 f33f
00000080: edaf e176 f2af cb3f 4246 2248 6e11 f03f
00000090: 76c3 69f6 446f f03f 4a99 e886 840d ef3f
000000a0: e3f9 e6dd 2812 f33f 7318 ef09 7b7e d73f
000000b0: 703e 4583 27a0 ed3f a8f1 4362 ce02 f13f
000000c0: ce82 b042 aa5b e73f d342 a8f7 d0ed ee3f
000000d0: 5113 b5ae 6d60 ca3f b435 5d7c bd34 ed3f
000000e0: 717d 7e1c ed21 eb3f 6cb4 9d1f fa33 ef3f
000000f0: 17de fa2f c679 f23f 7945 342d 3134 de3f
00000100: 1d77 9da9 c4f5 ea3f 41f9 17bc c216 ee3f
00000110: 2e67 eabd 43a2 e83f 72d8 4922 b549 f23f
00000120: 10ec ae05 f6e4 db3f 8b38 30b3 95d5 ed3f
00000130: c1c0 1bbf 64b8 ea3f ed2c 308e 39d7 e63f
00000140: f5a7 529e 6f89 f03f fc80 a433 a76a d03f
00000150: 19d3 87ba f003 ea3f beaa 9400 be35 ec3f
00000160: eaa2 2a19 d19b e73f f2b1 7044 d98f f13f
00000170: 0e86 5cef b6d0 da3f e0a1 f57a 136b ec3f
00000180: f599 dfd8 cc64 ea3f 1e3d 293c 3964 ec3f
00000190: f3ee 1936 a2aa e4bf 5cb6 b9e1 1236 d2bf
000001a0: 7c31 c803 2f5b cabf c9aa e389 7b38 dabf
000001b0: ea40 f488 8dea d3bf 885e cb42 7ae9 dfbf
000001c0: 56aa 0122 0e90 d6bf 6ff5 2ac6 377a c1bf
000001d0: ea20 1909 83b3 d5bf df7a bd1c f1d1 c7bf
000001e0: 62e9 f718 80e3 debf 0e00 d8e8 58de c7bf
000001f0: 07ee 8eef ffc8 ccbf 265a 92eb 65c3 e2bf
00000200: a098 8919 0ebe b8bf 1428 702e 6c00 e2bf
00000210: 44dc 99f7 3b2f bcbf 8c19 9ace b248 b2bf
00000220: 706a 4376 21dd e3bf 13fd 369b 2b2a d3bf
00000230: fc25 9be5 0c27 e3bf a079 64a4 e84e d5bf
00000240: 36d2 7eae df48 c6bf 758d 6145 4d0f e2bf
00000250: 8e46 ed35 d329 d1bf 902b f169 1b3e d7bf
00000260: 5532 61b3 aaae b8bf 9fd8 8c77 515a ccbf
00000270: 260f 0a2e 1fd8 e2bf 56c7 7c4d 4b64 cebf
00000280: 5bad 5531 a5bf d9bf b27d 2be9 623e d1bf
00000290: e91d 0e12 de87 b0bf ed24 e7d1 d10a ddbf
000002a0: 126f 2980 d672 d0bf 4c53 807c aba1 e2bf
000002b0: 92c7 f863 1de5 d2bf 83d5 42fd c70d d3bf
000002c0: 4674 b857 4563 e2bf a750 8bd9 1c02 cabf
000002d0: 127e 4146 f1b0 e1bf ce05 03e7 3162 d7bf
000002e0: fd62 7a38 d241 c7bf aa24 f21c 2fe2 debf
000002f0: 3baa 543e 328e b4bf 65e9 47d2 d520 debf
00000300: ca59 6900 7ed6 cdbf 403b dd3f 4c05 acbf
00000310: 98d6 5e7f 7448 e1bf 7cdc 5db6 9b8a c7bf
00000320: 63d7 a28e f13d f03f 1f6f 3a4c 88ea e63f
00000330: 4d83 4cfe 89a7 f83f ccaa ea31 e96b e93f
00000340: e720 5011 15b0 e83f abb9 252a 2988 f23f
00000350: 442d 0068 b03b c73f 396e 1528 fb3f ed3f
00000360: 0fba 2b1d 8f10 ea3f a37d be8d 0577 e63f
00000370: cc4b c9a0 f35f f03f b12b 8e06 8864 d83f
00000380: 18b8 73fe cff2 ed3f edd7 7147 a4ae ea3f
00000390: fc0a fdc6 5c43 e53f ec03 91d8 82d1 ee3f
000003a0: 46d9 dec7 12c9 d03f ef2e 5514 a192 ee3f
000003b0: a222 c569 8099 f03f dfb8 1c70 5aa6 e43f
000003c0: 5bd1 2586 c6dc f03f f5aa 5f1a b6ee d23f
000003d0: 5912 12fc 2e44 eb3f bdc5 9024 79c4 eb3f
000003e0: ba20 df56 b83f e83f 59a5 36cc 61c8 f03f
000003f0: c1c9 97da a611 c93f c0db f501 34cf e63f
00000400: 4443 8e9d 94ec ef3f 3963 13f2 4955 e73f
00000410: ec38 2c4c 592d f13f 13e2 263a 4758 d33f
00000420: f076 fade 372e ea3f 5249 6e93 a0fa ed3f
00000430: 499e 6632 9b9f e83f af68 b234 e345 ef3f
00000440: 7f65 b21b 6824 d03f b132 36b1 a99a ed3f
00000450: d785 a16f 11cc ed3f ee75 9806 e143 e63f
00000460: f5fc 4ba0 5753 f03f 7698 7b18 89c8 db3f
00000470: fa60 71e4 2d7d ed3f 2e39 5b37 4d9f ec3f
00000480: 3eff 7942 2b46 e83f 8832 2836 68ec f23f
00000490: ba6c 79eb eeff d23f 2652 2af5 365c e93f
000004a0: 64af 55d1 8053 f03f 2cbd 2611 6a69 e93f
000004b0: 1db5 60b6 e68f ea3f fab4 ccfa 4a0f e73f
000004c0: ea79 2ef2 7355 f63f 2c62 4a67 00ca ec3f
000004d0: 33be 7a9b 8734 e93f 296a c535 61c4 f13f
000004e0: a91f 70af 1a50 d93f 60a0 4222 2111 f03f
000004f0: 9323 33dc 5d7b ef3f 9db3 11ef d385 eb3f
00000500: 96ad 65a0 3f25 ef3f cd02 c5bf 9bd6 dd3f
00000510: 60a2 c31e 5822 ee3f 2289 ff61 570b ee3f
00000520: fb28 d4bb 39db e53f 378b 51a4 a6ab f13f
00000530: e44d 983d a3be d23f 6b1d 9ec7 da36 e73f
00000540: 31f9 c839 2891 ef3f 2e8e dbdc b7c9 e53f
00000550: b913 df5d af40 f13f 8492 5292 265e dd3f
00000560: a93f 60f3 ca30 ed3f 649f 0f53 de3e f13f
00000570: d3f6 374b 2198 e63f eecc 1ef9 f770 f13f
00000580: 9e8e 364a 322b cc3f 379c 56da 3742 e73f
00000590: 4d98 ee3d 0ba4 ec3f f03e 7639 3ebc ea3f
000005a0: b025 a4ed bed4 ee3f 865c 0dc9 838c dd3f
000005b0: d9fd aca7 7b8a e83f 679d 0005 6a3d f03f
000005c0: e275 b92e fe9b e73f fc5a 3684 3bda f13f
000005d0: bb0e 68a6 2ba3 ce3f 2b9e d43f 3436 eb3f
000005e0: 45e1 5d1d 1fd1 f13f feb1 267a aafd eb3f
000005f0: 01a1 51bf f627 f33f 0623 127c f46c d33f
00000600: 02ea 8007 8d3f e83f 94fc cbc1 9a60 ee3f
00000610: 7073 d988 091d ed3f d16e bd2a 8376 f23f
00000620: cf37 2bcf 7993 cc3f e1a7 5380 f96e e83f
00000630: adae c586 8f06 ef3f 655f 1239 4726 e73f
00000640: 0035 b067 2da1 f03f e631 c198 abba e73f
00000650: 3334 99af 8fe2 f73f 12b4 36b9 96fe e83f
00000660: baab 9e45 8080 ef3f b58d be0f 5e53 f23f
00000670: 7640 874a 669b dd3f acdf 65e4 3ded f13f
00000680: fed4 be2d cc9a f03f 7345 5eb4 6ca9 e93f
00000690: 1dd4 68d7 aeab f23f 77b6 5f86 6a17 d73f
000006a0: 0f36 916e 78d2 ed3f 1b38 87f1 96e1 ea3f
000006b0: 8140 7457 51a5 ed3f 5167 d9e4 9bea f23f
000006c0: 41aa 9706 3f1c da3f 99e5 63ee 6c15 e83f
000006d0: d867 6ab6 1011 ef3f 0baf c45d eb1c eb3f
000006e0: 9f2b c8d9 8189 f03f 32b8 7b3d d7a9 dd3f
000006f0: f605 7fce 1062 ed3f e8ea 37f3 ca98 ec3f
00000700: 8def c808 188b ee3f dce7 4835 1a7b f03f
00000710: 6ba3 455f 7bed d63f 9aa1 4ef9 d2c1 ea3f
00000720: 456b 5f77 3527 f03f 50c5 b447 c301 ea3f
00000730: 9a2a c910 b129 f13f 5ca6 a52c 39f8 d93f
00000740: 890c 2bbf e2d8 e73f 4ec1 bb67 ce5f ed3f
00000750: 98ee fce9 4140 e93f 3898 3c71 b0c3 f23f
00000760: a625 9346 fd83 d13f 1521 8d1e 29a5 ea3f
00000770: d395 98ee 0737 f13f 6eac 5e7c ef59 ef3f
00000780: 6fac 2776 baff ef3f 9924 59ad ed7f dc3f
00000790: 9550 8345 2cfc ec3f 8d0d c6f2 3dc9 eb3f
000007a0: 5b6a 3dd6 01e3 e63f d5f8 6e0d 2c4b f33f
000007b0: b274 8d37 789f d13f 79cd f67d 8ac2 ed3f
000007c0: 4e0a 7db7 f7bf f13f fd9b 75f4 da17 e93f
1.1136882501816672 0.6572910518628952 1.4768064374214316 0.7836887064557524 0.872028052919485 0.9455472110992705 0.4131177560254313 1.0966669519650867
0.9435204748065262 0.9759085329057734 1.1706591559902317 0.39484527962176774 0.9570927024195669 0.903091274610785 0.8670873642747589 1.195500535589303
0.21630698017850084 1.004255563519465 1.0271653771889908 0.9704001078542117 1.1919335048729571 0.36709476442445704 0.9258000911595001 1.0631851042263438
0.7299395849732606 0.9665303074890182 0.20606776266699936 0.9126880101190893 0.8478913837933942 0.9750948541165037 1.1547300218788956 0.471935552735054
0.8425010025782488 0.9402784036354107 0.7698076924600394 1.142995008410733 0.4358496718884348 0.932322359063407 0.8350089771829731 0.7137725617516516
1.0335537132727926 0.25650959056112277 0.8129809992957205 0.8815603267042531 0.7377706042799137 1.09761931166133 0.4189889276040909 0.8880708123734244
0.8248047099885399 0.8872343230267778 -0.6458293015161573 -0.2845504001951207 -0.20590770420711724 -0.4096974226546704 -0.3111909711306128 -0.4986253406800434
-0.35254243203113356 -0.13654229332125165 -0.3390815342759327 -0.18609441665008483 -0.4826355213005141 -0.18647300118755122 -0.2248840255468709 -0.5863523102769406
-0.09665001033281095 -0.5625515849108091 -0.11009573740908346 -0.07142179054253556 -0.6207434949713626 -0.2994488731164477 -0.5985168919079906 -0.3329412084002801
-0.17409893055232012 -0.5643679003809853 -0.2681777979497405 -0.36316571565537803 -0.09641520385157183 -0.2215062936535945 -0.5888820552067713 -0.23743573459210648
-0.40232209985579964 -0.26943276186463117 -0.06457317295836841 -0.4537853765328482 -0.2570091487484528 -0.5822350913682413 -0.29523405802603364 -0.2977161381962434
-0.5746180260936249 -0.20318947431826936 -0.5528494236168078 -0.36536834296938714 -0.18169620282858281 -0.48255517794366176 -0.08029474279161601 -0.47075410399670253
-0.23310828228086528 -0.054727919383927404 -0.5400946128563247 -0.1839174881422173 1.0151229449961299 0.7161294449647108 1.5409030850934926 0.7944227194724021
0.7714944208283016 1.15824238265814 0.18150906637343145 0.9140601904759428 0.8145213670484867 0.7020290153922598 1.023425701209578 0.38113594665690714
0.9358901948705833 0.8338185687450711 0.6644729506009237 0.963075087529544 0.2622725440845851 0.955399074280164 1.0374759799616773 0.6453067960444762
1.0539002647538698 0.29581978393132086 0.8520731852773437 0.8677335466547259 0.7577783295355609 1.0489213921631146 0.195851189360452 0.712793353871227
0.9976294591198003 0.7291612365762382 1.0735714889047427 0.30226307562728144 0.8181418757482941 0.9368441466815887 0.7694831833259254 0.9772811917530556
0.25222208695193865 0.9251297436872702 0.9311606579105342 0.6957860115832639 1.0203472386927477 0.4341147173967167 0.9215306722426526 0.8944459992579021
0.7585655496950279 1.1827165713795313 0.29687092776812174 0.7925066746125295 1.020386522020055 0.7941179594981 0.8300660669389434 0.7206168077879334
1.395862527867957 0.8996583955186614 0.7876623188694282 1.110444269221839 0.39551417477241074 1.0041819895068542 0.9838094044472306 0.8600864095038677
0.973296941066496 0.4662236569165941 0.9416924095977031 0.9388844408061099 0.6830109280138282 1.104406968945751 0.2928855992806503 0.7254461191923104
0.9864693764318756 0.6808738053918597 1.078292242703567 0.4588715008669981 0.9122061494290296 1.077848743874676 0.7060705632317997 1.090080235601643
0.22006825088202658 0.726833273355516 0.8950248918161009 0.8354788896849339 0.9634699479512872 0.46170134195330836 0.7669046664158784 1.0149936862379378
0.737792102106763 1.1157794155639627 0.23935456872287894 0.8503667113008694 1.1135550639283605 0.874715078903648 1.19725680097514 0.30352508655828137
0.7577576777032962 0.9492925438970752 0.9097945854988279 1.153933684304253 0.2232506047789102 0.7635467058546476 0.9695508606214013 0.7234226336176844
1.0393499422382888 0.7415369018067934 1.4928128108324585 0.7810777299361027 0.9844361648332474 1.1453533759130157 0.46260983732373206 1.1204203531069465
1.0377923762255814 0.8019317171876267 1.1669147886689253 0.36080420610856073 0.9319421920315011 0.8400377957675603 0.9264303882682868 1.1822775782988695
0.4079740108851731 0.7526154190119768 0.9708331644826513 0.8472802001392393 1.0335711009126738 0.46349125866152285 0.918220904648648 0.8936514616355824
0.954479233892458 1.03005429090853 0.3582447462454669 0.8361601704864825 1.0095724738118446 0.8127151871214355 1.0726786285110053 0.4057753501898327
0.7452253087761999 0.9179451013606383 0.7890939302519255 1.1727756903942588 0.2736809910971608 0.8326612087921911 1.0759352989347135 0.9797284535501498
0.9999668414797166 0.4453081314901027 0.905782829062917 0.8683156720803012 0.7152108368275764 1.205852558588551 0.27535825181059714 0.9299976787792011
1.1093671004788521 0.7841620230291252

GFL.3.bias f8 [5, 1]
00000000: 6a44 64c8 48c5 fa3f a614 af1e ad49 d6bf
00000010: fe7a 30d7 f0cc f93f 2716 371c e80f f83f
00000020: 5c4e b743 8276 fb3f
1.6731651141929214 -0.34824684139705153 1.612534370978835 1.5038834669261492 1.7164328236730375

MLP.0.weight f8 [1, 740]
00000000: 4062 0177 fa23 563f 4062 0177 fa23 563f
00000010: 4062 0177 fa23 563f 4062 0177 fa23 563f
00000020: 4062 0177 fa23 563f 4062 0177 fa23 563f
00000030: 4062 0177 fa23 563f 4062 0177 fa23 563f
00000040: 4062 0177 fa23 563f 4062 0177 fa23 563f
00000050: 4062 0177 fa23 563f 4062 0177 fa23 563f
00000060: 4062 0177 fa23 563f 4062 0177 fa23 563f
00000070: 4062 0177 fa23 563f 4062 0177 fa23 563f
00000080: 4062 0177 fa23 563f 4062 0177 fa23 563f
00000090: 4062 0177 fa23 563f 4062 0177 fa23 563f
000000a0: 4062 0177 fa23 563f 4062 0177 fa23 563f
000000b0: 4062 0177 fa23 563f 4062 0177 fa23 563f
000000c0: 4062 0177 fa23 563f 4062 0177 fa23 563f
000000d0: 4062 0177 fa23 563f 4062 0177 fa23 563f
000000e0: 4062 0177 fa23 563f 4062 0177 fa23 563f
000000f0: 4062 0177 fa23 563f 4062 0177 fa23 563f
00000100: 4062 0177 fa23 563f 4062 0177 fa23 563f
00000110: 4062 0177 fa23 563f 4062 0177 fa23 563f
00000120: 4062 0177 fa23 563f 4062 0177 fa23 563f
00000130: 4062 0177 fa23 563f 4062 0177 fa23 563f
00000140: 4062 0177 fa23 563f 4062 0177 fa23 563f
00000150: 4062 0177 fa23 563f 4062 0177 fa23 563f
00000160: 4062 0177 fa23 563f 4062 0177 fa23 563f
00000170: 4062 0177 fa23 563f 4062 0177 fa23 563f
00000180: 4062 0177 fa23 563f 4062 0177 fa23 563f
00000190: 4062 0177 fa23 563f 4062 0177 fa23 563f
000001a0: 4062 0177 fa23 563f 4062 0177 fa23 563f
000001b0: 4062 0177 fa23 563f 4062 0177 fa23 563f
000001c0: 4062 0177 fa23 563f 4062 0177 fa23 563f
000001d0: 4062 0177 fa23 563f 4062 0177 fa23 563f
000001e0: 4062 0177 fa23 563f 4062 0177 fa23 563f
000001f0: 4062 0177 fa23 563f 4062 0177 fa23 563f
00000200: 4062 0177 fa23 563f 4062 0177 fa23 563f
00000210: 4062 0177 fa23 563f 4062 0177 fa23 563f
00000220: 4062 0177 fa23 563f 4062 0177 fa23 563f
00000230: 4062 0177 fa23 563f 4062 0177 fa23 563f
00000240: 4062 0177 fa23 563f 4062 0177 fa23 563f
00000250: 4062 0177 fa23 563f 4062 0177 fa23 563f
00000260: 4062 0177 fa23 563f 4062 0177 fa23 563f
00000270: 4062 0177 fa23 563f 4062 0177 fa23 563f
00000280: 4062 0177 fa23 563f 4062 0177 fa23 563f
00000290: 4062 0177 fa23 563f 4062 0177 fa23 563f
000002a0: 4062 0177 fa23 563f 4062 0177 fa23 563f
000002b0: 4062 0177 fa23 563f 4062 0177 fa23 563f
000002c0: 4062 0177 fa23 563f 4062 0177 fa23 563f
000002d0: 4062 0177 fa23 563f 4062 0177 fa23 563f
000002e0: 4062 0177 fa23 563f 4062 0177 fa23 563f
000002f0: 4062 0177 fa23 563f 4062 0177 fa23 563f
00000300: 4062 0177 fa23 563f 4062 0177 fa23 563f
00000310: 4062 0177 fa23 563f 4062 0177 fa23 563f
00000320: 4062 0177 fa23 563f 4062 0177 fa23 563f
00000330: 4062 0177 fa23 563f 4062 0177 fa23 563f
00000340: 4062 0177 fa23 563f 4062 0177 fa23 563f
00000350: 4062 0177 fa23 563f 4062 0177 fa23 563f
00000360: 4062 0177 fa23 563f 4062 0177 fa23 563f
00000370: 4062 0177 fa23 563f 4062 0177 fa23 563f
00000380: 4062 0177 fa23 563f 4062 0177 fa23 563f
00000390: 4062 0177 fa23 563f 4062 0177 fa23 563f
000003a0: 4062 0177 fa23 563f 4062 0177 fa23 563f
000003b0: 4062 0177 fa23 563f 4062 0177 fa23 563f
000003c0: 4062 0177 fa23 563f 4062 0177 fa23 563f
000003d0: 4062 0177 fa23 563f 4062 0177 fa23 563f
000003e0: 4062 0177 fa23 563f 4062 0177 fa23 563f
000003f0: 4062 0177 fa23 563f 4062 0177 fa23 563f
00000400: 4062 0177 fa23 563f 4062 0177 fa23 563f
00000410: 4062 0177 fa23 563f 4062 0177 fa23 563f
00000420: 4062 0177 fa23 563f 4062 0177 fa23 563f
00000430: 4062 0177 fa23 563f 4062 0177 fa23 563f
00000440: 4062 0177 fa23 563f 4062 0177 fa23 563f
00000450: 4062 0177 fa23 563f 4062 0177 fa23 563f
00000460: 4062 0177 fa23 563f 4062 0177 fa23 563f
00000470: 4062 0177 fa23 563f 4062 0177 fa23 563f
00000480: 4062 0177 fa23 563f 4062 0177 fa23 563f
00000490: 4062 0177 fa23 563f 4062 0177 fa23 563f
000004a0: 4062 0177 fa23 563f 4062 0177 fa23 563f
000004b0: 4062 0177 fa23 563f 4062 0177 fa23 563f
000004c0: 4062 0177 fa23 563f 4062 0177 fa23 563f
000004d0: 4062 0177 fa23 563f 4062 0177 fa23 563f
000004e0: 4062 0177 fa23 563f 4062 0177 fa23 563f
000004f0: 4062 0177 fa23 563f 4062 0177 fa23 563f
00000500: 4062 0177 fa23 563f 4062 0177 fa23 563f
00000510: 4062 0177 fa23 563f 4062 0177 fa23 563f
00000520: 4062 0177 fa23 563f 4062 0177 fa23 563f
00000530: 4062 0177 fa23 563f 4062 0177 fa23 563f
00000540: 4062 0177 fa23 563f 4062 0177 fa23 563f
00000550: 4062 0177 fa23 563f 4062 0177 fa23 563f
00000560: 4062 0177 fa23 563f 4062 0177 fa23 563f
00000570: 4062 0177 fa23 563f 4062 0177 fa23 563f
00000580: 4062 0177 fa23 563f 4062 0177 fa23 563f
00000590: 4062 0177 fa23 563f 4062 0177 fa23 563f
000005a0: 4062 0177 fa23 563f 4062 0177 fa23 563f
000005b0: 4062 0177 fa23 563f 4062 0177 fa23 563f
000005c0: 4062 0177 fa23 563f 4062 0177 fa23 563f
000005d0: 4062 0177 fa23 563f 4062 0177 fa23 563f
000005e0: 4062 0177 fa23 563f 4062 0177 fa23 563f
000005f0: 4062 0177 fa23 563f 4062 0177 fa23 563f
00000600: 4062 0177 fa23 563f 4062 0177 fa23 563f
00000610: 4062 0177 fa23 563f 4062 0177 fa23 563f
00000620: 4062 0177 fa23 563f 4062 0177 fa23 563f
00000630: 4062 0177 fa23 563f 4062 0177 fa23 563f
00000640: 4062 0177 fa23 563f 4062 0177 fa23 563f
00000650: 4062 0177 fa23 563f 4062 0177 fa23 563f
00000660: 4062 0177 fa23 563f 4062 0177 fa23 563f
00000670: 4062 0177 fa23 563f 4062 0177 fa23 563f
00000680: 4062 0177 fa23 563f 4062 0177 fa23 563f
00000690: 4062 0177 fa23 563f 4062 0177 fa23 563f
000006a0: 4062 0177 fa23 563f 4062 0177 fa23 563f
000006b0: 4062 0177 fa23 563f 4062 0177 fa23 563f
000006c0: 4062 0177 fa23 563f 4062 0177 fa23 563f
000006d0: 4062 0177 fa23 563f 4062 0177 fa23 563f
000006e0: 4062 0177 fa23 563f 4062 0177 fa23 563f
000006f0: 4062 0177 fa23 563f 4062 0177 fa23 563f
00000700: 4062 0177 fa23 563f 4062 0177 fa23 563f
00000710: 4062 0177 fa23 563f 4062 0177 fa23 563f
00000720: 4062 0177 fa23 563f 4062 0177 fa23 563f
00000730: 4062 0177 fa23 563f 4062 0177 fa23 563f
00000740: 4062 0177 fa23 563f 4062 0177 fa23 563f
00000750: 4062 0177 fa23 563f 4062 0177 fa23 563f
00000760: 4062 0177 fa23 563f 4062 0177 fa23 563f
00000770: 4062 0177 fa23 563f 4062 0177 fa23 563f
00000780: 4062 0177 fa23 563f 4062 0177 fa23 563f
00000790: 4062 0177 fa23 563f 4062 0177 fa23 563f
000007a0: 4062 0177 fa23 563f 4062 0177 fa23 563f
000007b0: 4062 0177 fa23 563f 4062 0177 fa23 563f
000007c0: 4062 0177 fa23 563f 4062 0177 fa23 563f
000007d0: 4062 0177 fa23 563f 4062 0177 fa23 563f
000007e0: 4062 0177 fa23 563f 4062 0177 fa23 563f
000007f0: 4062 0177 fa23 563f 4062 0177 fa23 563f
0.0013513513513513514 0.0013513513513513514 0.0013513513513513514 0.0013513513513513514 0.0013513513513513514 0.0013513513513513514 0.0013513513513513514 0.0013513513513513514
0.0013513513513513514 0.0013513513513513514 0.0013513513513513514 0.0013513513513513514 0.0013513513513513514 0.0013513513513513514 0.0013513513513513514 0.0013513513513513514
0.0013513513513513514 0.0013513513513513514 0.0013513513513513514 0.0013513513513513514 0.0013513513513513514 0.0013513513513513514 0.0013513513513513514 0.0013513513513513514
0.0013513513513513514 0.0013513513513513514 0.0013513513513513514 0.0013513513513513514 0.0013513513513513514 0.0013513513513513514 0.0013513513513513514 0.0013513513513513514
0.0013513513513513514 0.0013513513513513514 0.0013513513513513514 0.0013513513513513514 0.0013513513513513514 0.0013513513513513514 0.0013513513513513514 0.0013513513513513514
0.0013513513513513514 0.0013513513513513514 0.0013513513513513514 0.0013513513513513514 0.0013513513513513514 0.0013513513513513514 0.0013513513513513514 0.0013513513513513514
0.0013513513513513514 0.0013513513513513514 0.0013513513513513514 0.0013513513513513514 0.0013513513513513514 0.0013513513513513514 0.0013513513513513514 0.0013513513513513514
0.0013513513513513514 0.0013513513513513514 0.0013513513513513514 0.0013513513513513514 0.0013513513513513514 0.0013513513513513514 0.0013513513513513514 0.0013513513513513514
0.0013513513513513514 0.0013513513513513514 0.0013513513513513514 0.0013513513513513514 0.0013513513513513514 0.0013513513513513514 0.0013513513513513514 0.0013513513513513514
0.0013513513513513514 0.0013513513513513514 0.0013513513513513514 0.0013513513513513514 0.0013513513513513514 0.0013513513513513514 0.0013513513513513514 0.0013513513513513514
0.0013513513513513514 0.0013513513513513514 0.0013513513513513514 0.0013513513513513514 0.0013513513513513514 0.0013513513513513514 0.0013513513513513514 0.0013513513513513514
0.0013513513513513514 0.0013513513513513514 0.0013513513513513514 0.0013513513513513514 0.0013513513513513514 0.0013513513513513514 0.0013513513513513514 0.0013513513513513514
0.0013513513513513514 0.0013513513513513514 0.0013513513513513514 0.0013513513513513514 0.0013513513513513514 0.0013513513513513514 0.0013513513513513514 0.0013513513513513514
0.0013513513513513514 0.0013513513513513514 0.0013513513513513514 0.0013513513513513514 0.0013513513513513514 0.0013513513513513514 0.0013513513513513514 0.0013513513513513514
0.0013513513513513514 0.0013513513513513514 0.0013513513513513514 0.0013513513513513514 0.0013513513513513514 0.0013513513513513514 0.0013513513513513514 0.0013513513513513514
0.0013513513513513514 0.0013513513513513514 0.0013513513513513514 0.0013513513513513514 0.0013513513513513514 0.0013513513513513514 0.0013513513513513514 0.0013513513513513514
0.0013513513513513514 0.0013513513513513514 0.0013513513513513514 0.0013513513513513514 0.0013513513513513514 0.0013513513513513514 0.0013513513513513514 0.0013513513513513514
0.0013513513513513514 0.0013513513513513514 0.0013513513513513514 0.0013513513513513514 0.0013513513513513514 0.0013513513513513514 0.0013513513513513514 0.0013513513513513514
0.0013513513513513514 0.0013513513513513514 0.0013513513513513514 0.0013513513513513514 0.0013513513513513514 0.0013513513513513514 0.0013513513513513514 0.0013513513513513514
0.0013513513513513514 0.0013513513513513514 0.0013513513513513514 0.0013513513513513514 0.0013513513513513514 0.0013513513513513514 0.0013513513513513514 0.0013513513513513514
0.0013513513513513514 0.0013513513513513514 0.0013513513513513514 0.0013513513513513514 0.0013513513513513514 0.0013513513513513514 0.0013513513513513514 0.0013513513513513514
0.0013513513513513514 0.0013513513513513514 0.0013513513513513514 0.0013513513513513514 0.0013513513513513514 0.0013513513513513514 0.0013513513513513514 0.0013513513513513514
0.0013513513513513514 0.0013513513513513514 0.0013513513513513514 0.0013513513513513514 0.0013513513513513514 0.0013513513513513514 0.0013513513513513514 0.0013513513513513514
0.0013513513513513514 0.0013513513513513514 0.0013513513513513514 0.0013513513513513514 0.0013513513513513514 0.0013513513513513514 0.0013513513513513514 0.0013513513513513514
0.0013513513513513514 0.0013513513513513514 0.0013513513513513514 0.0013513513513513514 0.0013513513513513514 0.0013513513513513514 0.0013513513513513514 0.0013513513513513514
0.0013513513513513514 0.0013513513513513514 0.0013513513513513514 0.0013513513513513514 0.0013513513513513514 0.0013513513513513514 0.0013513513513513514 0.0013513513513513514
0.0013513513513513514 0.0013513513513513514 0.0013513513513513514 0.0013513513513513514 0.0013513513513513514 0.0013513513513513514 0.0013513513513513514 0.0013513513513513514
0.0013513513513513514 0.0013513513513513514 0.0013513513513513514 0.0013513513513513514 0.0013513513513513514 0.0013513513513513514 0.0013513513513513514 0.0013513513513513514
0.0013513513513513514 0.0013513513513513514 0.0013513513513513514 0.0013513513513513514 0.0013513513513513514 0.0013513513513513514 0.0013513513513513514 0.0013513513513513514
0.0013513513513513514 0.0013513513513513514 0.0013513513513513514 0.0013513513513513514 0.0013513513513513514 0.0013513513513513514 0.0013513513513513514 0.0013513513513513514
0.0013513513513513514 0.0013513513513513514 0.0013513513513513514 0.0013513513513513514 0.0013513513513513514 0.0013513513513513514 0.0013513513513513514 0.0013513513513513514
0.0013513513513513514 0.0013513513513513514 0.0013513513513513514 0.0013513513513513514 0.0013513513513513514 0.0013513513513513514 0.0013513513513513514 0.0013513513513513514
