OASIS3_VNN_NeurIPS/test61.pth (torch, 10139 bytes, 5 tensors)

GFL.0.weight f8 [5, 1, 6, 1]
0.9801197558752002 -0.10869719681874633 -0.02406760460728971 0.17079384711529821 -0.11848938417177565 -0.13509973054565919 1.045506163789667 0.07564550258619326
-0.24754160510651363 -0.4180333582383558 0.007181599611402462 0.020867247571323456 -0.6598054254583496 0.10585216321996299 0.08213990872921577 0.33613493012494094
-0.1751506994917701 -0.14688638125865464 -0.27290185262075556 0.12339335750232396 0.12588316026837798 -0.1499235367225925 -0.15218356018455473 -0.1832529170200292
2.7706370337436175 -0.14734282031905985 -0.9112795771365554 -0.8570692885095589 -0.6283412991080074 -0.8662783563784469
00000000: 3ab8 341b 245d ef3f 37de 8059 94d3 bbbf
00000010: 98b8 b99a 2da5 98bf f4ee dba1 92dc c53f
00000020: 86e2 f0fd 5155 bebf a92d 32ae f24a c1bf
00000030: 7de3 d3ab 64ba f03f 9e7a b2ef 805d b33f
00000040: 2a79 2a7d 71af cfbf a154 91fc 0ec1 dabf
00000050: 3a4c 6cf7 736a 7d3f 0d67 8147 395e 953f
00000060: ae24 8244 201d e5bf a497 3d9b 2019 bb3f
00000070: 6b3b b0fd 1e07 b53f ef82 fb14 3c83 d53f
00000080: 8c26 188f 566b c6bf 2dea dd45 2ccd c2bf
00000090: 8388 0155 3977 d1bf 4920 0403 b596 bf3f
000000a0: bc22 3c7c f01c c03f 74e5 8fc7 b130 c3bf
000000b0: 21a2 fd3a c07a c3bf 3fb2 bfe2 d474 c7bf
000000c0: 4e1f c8bf 432a 0640 df0e 4929 21dc c2bf
000000d0: 0c0e aac9 3329 edbf d3be 9192 1c6d ebbf
000000e0: 37a4 4c36 5f1b e4bf 1619 3c63 8db8 ebbf

GFL.0.bias f8 [5, 1]
2.2763208621330135 1.9103646393729994 1.9685580661390252 2.767944794096545 1.4610075512120446
00000000: b382 50b6 e735 0240 7cab 1883 da90 fe3f
00000010: 8281 25be 367f ff3f 9439 7e3d c024 0640
00000020: eda2 3a74 4960 f73f

GFL.3.weight f8 [5, 1, 10, 5]
1.038792553950285 1.141840331653072 0.7119576100535605 1.0053173421786155 2.26971703581441 0.889924471876389 0.7278308735597958 0.7932264193000601
1.0473286475522061 1.327503807169137 0.9109725558199845 0.7468991468039373 0.6808937942969835 1.0108977848685303 1.2218547693581256 1.0216347056996573
0.64506192271901 0.9037515632033499 1.2043682216288618 1.249108252152497 0.823900828527325 0.8260275201729337 0.664598622875118 1.1996777188083394
1.19838207591978 0.7947296246095761 0.6706477942209095 0.7267280266836442 0.9976124640567491 1.3600167050480594 0.8961703452134248 0.6364402994084118
0.7713554548184816 1.2012490154876097 1.2352697561103778 0.9815990453959507 0.7829166626178179 0.8077239858999051 1.231116568381027 1.3199991917163418
0.9679734585986691 0.5826804739960577 0.8817509969302538 0.985900928058985 1.1138376942716952 0.7897099276659226 0.7477109311366367 0.8889828904810398
1.2338468758172878 1.330560651398054 1.1643537169409337 1.0782210508834655 0.5182676332743833 1.1183159380488001 2.2242406253372686 1.0458007161307261
0.9224212375673025 0.7428395483125153 1.1401439787588286 1.5758749631553166 0.9485597849111189 0.678014173022141 0.6605287889694957 0.9940611863710795
1.352456960502836 1.032322551600102 0.7864038383732848 0.789735516961248 1.0998689154374086 1.127400052080091 1.0024212380796504 0.8341273414592226
0.726911872087509 0.9855452416658325 1.3167412660354572 0.959561685320557 0.8063715174658426 0.916325410146616 1.1826630070158792 1.2136479094108295
0.8427771485969268 0.7396732814288769 0.6634250100856625 1.168208111549038 1.1644991817890884 0.8333443695218479 0.8194496591924552 0.8337225955684725
1.2391765715934064 1.1681158902815136 1.0397422071747713 0.6150636049765801 0.8011556044061143 1.0972966044115386 1.1461810229818767 0.8111857160242502
0.7564700708816315 0.707636097243918 1.1769294754397386 1.3106008042764299 0.5220405234834807 0.5338834095035347 0.3077086408637113 0.6653033432139422
1.8240137140505732 0.3181068216458966 -0.0814318344079963 0.28792006833516154 0.6946143716158943 1.1016418769713265 0.1628556054175233 -0.12630887689814596
0.47967125880489286 0.5294936304463012 0.8685398651792807 0.2654151400624741 -0.18319295173748967 0.2822116765662658 0.6015754925825694 0.7249474891010401
0.17248187317567515 -0.18201541162483842 0.469049026993959 0.5456700876705097 0.7921889312091431 0.2762355794528248 -0.20309226100460018 0.279506495339055
0.3653883669570247 0.662621655567171 0.3000819617924487 -0.002640879950432719 0.18113908071078658 0.3517700037386182 0.7862287225105501 0.15032060987322793
-0.07791892636112671 0.231366203514967 0.43090474149605207 0.6830635939469946 0.06089102191578289 0.009139788639361069 0.24616504048105214 0.5414543233187986
0.6910986567676003 0.3256272899488774 -0.18708039189152245 0.2695513485051996 0.37790296697243764 0.7618082687784729 1.0582645413045062 0.929869556587454
0.4632182684042115 0.8823808152199815 2.3168837843707744 0.9868073843007079 0.6847760291353486 0.8638998181371754 0.9230005050646377 1.4230015437649186
0.9411927948841552 0.6833561448347341 0.7275074436150583 0.9905398286279911 1.402437678533295 0.8445764704554511 0.7023541869002147 0.7871985142009036
1.2029837510754013 1.1996616753073923 0.796769173746473 0.6976255873516869 0.6925070331843557 0.9872216230180292 1.2816634874734563 0.9097222144308823
0.8259815693215052 0.7916382085793967 1.1624144124635039 1.3049858799432996 0.9126250194384063 0.8165794515908577 0.6896048760919312 1.1182408342237509
1.1828051009746592 0.9790809195469402 0.6206118584123717 0.8831048176970694 1.1189100779349557 1.2481856391552428 0.834139726785457 0.7251535234996824
0.8735256263989899 1.1595611038224691 1.232761761686822 0.845988048570676 0.8359343923602707 0.7674378461717266 1.1202458441047705 1.1286124144022092
0.022413182531627444 -0.0677192454173275 -0.021417428288304566 -0.10238771676108448 -0.0593173668565674 0.04585323366902391 0.06455853737912266 -0.0001978377571831046
-0.13862835066932375 -0.05351450489339703 -0.040313893726421794 -0.08825752653075672 -0.1037654019632969 0.11301893814832148 -0.021128891692509384 0.10305526583143726
0.0420069264575177 0.11997982927669366 -0.09627794142319426 0.13895851655273078 -0.12483018456298015 -0.02711979483062199 0.07893161660251569 -0.10954323510877689
-0.0037793860375594864 0.07891578471673037 -0.13904451589276562 0.07228104150393415 -0.13007273139652872 0.0836803566821574 -0.06342320537135064 0.0819217332437649
0.012117651813422227 -0.0106820698834294 0.0987671477260597 -0.07633811309329859 -0.07964130188017875 0.1348958783937142 0.11911237959508471 0.02048709047885948
0.014573305307145913 -0.051390371239448215 0.020243790395107406 -0.09854409191311127 -0.1304779213250338 -0.10585817998010345 -0.11274470933179823 0.03734328053978067
0.02721819028128642 -0.12333648304752376
00000000: 75b7 e8f0 e49e f03f 8342 1b5e fa44 f23f
00000010: 0830 6a53 5bc8 e63f 0624 2ca3 c715 f03f
00000020: c2f9 bf67 6128 0240 2ed0 d3e2 427a ec3f
00000030: 7eab def8 634a e73f 2ff1 265f 1c62 e93f
00000040: 0169 16af dbc1 f03f 00b6 d1a1 743d f53f
00000050: 9d9c d9ea af26 ed3f e3dc 1d0a 99e6 e73f
00000060: b4c1 51c8 e1c9 e53f 35bf d927 a32c f03f
00000070: 26ad 2d96 b78c f33f 8f04 17a2 9d58 f03f
00000080: 0a23 bfe6 58a4 e43f 3c5a f565 88eb ec3f
00000090: 61cd c39c 1745 f33f 058a 42ef 58fc f33f
000000a0: 6082 3545 655d ea3f aea3 1744 d16e ea3f
000000b0: 7ce3 c654 6444 e53f e458 8043 e131 f33f
000000c0: 3b02 03af 922c f33f 1a89 5bd2 6c6e e93f
000000d0: ea06 ea5c f275 e53f f82b 7622 5b41 e73f
000000e0: 3395 66f9 70ec ef3f 1a1f 63e0 a0c2 f53f
000000f0: 29c6 8a6e 6dad ec3f 3519 fa0b b85d e43f
00000100: b22b 81a2 f1ae e83f 96f1 3de3 5038 f33f
00000110: 25b6 4338 aac3 f33f 6c55 b866 4269 ef3f
00000120: dafb ad3e a70d e93f c150 f4f8 dfd8 e93f
00000130: 052a 6c49 a7b2 f33f a1b0 f278 b71e f53f
00000140: 3179 8279 a3f9 ee3f 4b96 7a85 51a5 e23f
00000150: 9dfc e0dd 4d37 ec3f 1e80 631a 808c ef3f
00000160: 032f 5f79 47d2 f13f 6dda 14c1 4d45 e93f
00000170: 77fe 8279 3fed e73f 4b3a 2a3f 8c72 ec3f
00000180: 2c83 be38 d6bd f33f e895 31f7 f949 f53f
00000190: 31cc f35c 31a1 f23f a873 76b7 6440 f13f
000001a0: 3ba4 ef00 a695 e03f 173e c840 9fe4 f13f
000001b0: b510 42ab 3ecb 0140 38a3 1e88 99bb f03f
000001c0: df98 0f8b 7984 ed3f 6faf c571 57c5 e73f
000001d0: ff01 d89c 073e f23f 8a65 55aa c836 f93f
000001e0: 42cf cf0c 9a5a ee3f ba58 6bc7 4ab2 e53f
000001f0: 5418 5645 0d23 e53f d6f9 b567 59cf ef3f
00000200: 46b7 e9e8 a9a3 f53f 3bbb e0a6 6484 f03f
00000210: 5a63 e861 382a e93f a5d2 3a6b 8345 e93f
00000220: f10c db25 1099 f13f 4015 13a3 d409 f23f
00000230: 09e3 25da ea09 f03f 8389 88d2 2bb1 ea3f
00000240: 5e14 b6af dc42 e73f 81dc b52c 9689 ef3f
00000250: a0a7 2e4a 5f11 f53f 3349 1eb5 bab4 ee3f
00000260: 4c22 fea3 cbcd e93f 215a a2aa 8952 ed3f
00000270: d027 950b 30ec f23f d973 fc11 1a6b f33f
00000280: 2147 61c8 07f8 ea3f f4c8 2e4d 67ab e73f
00000290: 1253 3516 c73a e53f 8e66 20fd fab0 f23f
000002a0: da0b e0e4 c9a1 f23f cedd accf c1aa ea3f
000002b0: ea65 de7d ee38 ea3f efe3 3c02 dbad ea3f
000002c0: ca68 0fd0 aad3 f33f 0427 ab49 9ab0 f23f
000002d0: 4d62 81b9 c8a2 f03f 60b2 8ade 99ae e33f
000002e0: d2cd fd13 11a3 e93f bc59 5fe2 868e f13f
000002f0: 3a0c 90e9 c156 f23f d4ce 29bf 3bf5 e93f
00000300: 71dc dab8 0035 e83f ea36 e474 f4a4 e63f
00000310: d064 6b00 b4d4 f23f 32a8 878c 38f8 f43f
00000320: 6d8b f153 8eb4 e03f a23a f6a8 9215 e13f
00000330: 3033 4d95 7fb1 d33f 3fbf a03c 2a4a e53f
00000340: e4d7 1401 292f fd3f e3a1 e6b6 dc5b d43f
00000350: c1b8 a279 b7d8 b4bf 8524 574b 486d d23f
00000360: da7f 2deb 473a e63f 38ef 973b 53a0 f13f
00000370: 9488 9ed5 73d8 c43f 606b bca7 e32a c0bf
00000380: 917b 5914 efb2 de3f 2aa1 46a0 9cf1 e03f
00000390: cbf3 861d 14cb eb3f 199f 9bc8 8ffc d03f
000003a0: 1efd 48dc dd72 c7bf 36b1 5990 c10f d23f
000003b0: 84f3 563f 1b40 e33f 7a33 a013 c532 e73f
000003c0: be9e 38d2 e213 c63f eef8 25f0 474c c7bf
000003d0: 1e38 ca35 e604 de3f cb68 9e1d 2176 e13f
000003e0: a17c f999 9c59 e93f 9b74 effe d7ad d13f
000003f0: 27f0 8a5d edfe c9bf 660d 2036 6fe3 d13f
00000400: 4ad5 9ae3 8562 d73f 3909 8954 3234 e53f
00000410: 5e28 01f9 8a34 d33f 04f6 a1a0 53a2 65bf
00000420: 2515 d7bd 902f c73f bc5a 7155 6683 d63f
00000430: 3d7a 4b23 c928 e93f 38ff a8ab b43d c33f
00000440: 76e1 75a8 7ef2 b3bf 1e8c bf62 689d cd3f
00000450: 20ae 1a7b f193 db3f e9e5 a22e a8db e53f
00000460: 1122 7fa7 1b2d af3f cd23 63aa e1b7 823f
00000470: ec6e 2407 5682 cf3f 5bd3 5d04 9853 e13f
00000480: 3e0b 24ee 7a1d e63f 93fe 40d8 13d7 d43f
00000490: 57cf 7212 40f2 c7bf be0a 9b4c 5440 d13f
000004a0: ac4f 0ded 8f2f d83f ba3a 07bc bb60 e83f
000004b0: 6fb5 b6cc a6ee f03f 34da e2cc 7dc1 ed3f
000004c0: 752c 6d3c 5ea5 dd3f be9a ffb0 763c ec3f
000004d0: a20a 945d fa88 0240 24bb 6014 ed93 ef3f
000004e0: f812 476b afe9 e53f ad6c 3d3b 11a5 eb3f
000004f0: 1436 ee5a 3889 ed3f a00b 4a44 9dc4 f63f
00000500: da43 285a 401e ee3f 0ebf b2b4 0dde e53f
00000510: 2d8b bdb0 bd47 e73f 1ff7 2a95 80b2 ef3f
00000520: 9ba8 bf7d 6270 f63f 0579 f23b c506 eb3f
00000530: 353e de7c af79 e63f 4b7c 3ef0 ba30 e93f
00000540: e3cf c7e3 6b3f f33f 6d5b db70 d031 f33f
00000550: 2477 f610 227f e93f b9e7 50e5 f252 e63f
00000560: 80db 7882 0429 e63f f986 18cd 5197 ef3f
00000570: 14d0 b292 b181 f43f 609c edc2 711c ed3f
00000580: 39b5 6ae6 706e ea3f e499 03a7 1955 e93f
00000590: 7ae0 deda 3f99 f23f 7392 c1df 38e1 f43f
000005a0: 6dfa 7f62 3934 ed3f 1d63 e53a 6b21 ea3f
000005b0: 6543 bf3e 3e11 e63f 2daf 4080 50e4 f13f
000005c0: 75a6 a30a c5ec f23f 55ef 3282 a154 ef3f
000005d0: 6882 6c66 0ddc e33f d75d de08 6542 ec3f
000005e0: bf53 fe40 0ee7 f13f 5423 3881 91f8 f33f
000005f0: 2fd0 dacb 45b1 ea3f 6854 8029 7534 e73f
00000600: 1c40 b303 ecf3 eb3f 4119 aaf1 8f8d f23f
00000610: 9844 a365 64b9 f33f 8b5f 2d87 5512 eb3f
00000620: 723f 997b f9bf ea3f d8a5 60d0 d98e e83f
00000630: f78e fee7 86ec f13f 3179 1be4 cb0e f23f
00000640: 11f6 e337 7bf3 963f 7591 6068 0c56 b1bf
00000650: b132 4048 73ee 95bf 7f3f 00d7 1436 babf
00000660: 7eb3 778d d85e aebf 8c71 0c36 137a a73f
00000670: 918e b886 e886 b03f a034 df64 55ee 29bf
00000680: 472a 36e4 92be c1bf 6eee c1d0 4066 abbf
00000690: df40 42ce 05a4 a4bf da50 1396 0b98 b6bf
000006a0: da7e e38f 5e90 babf dcf9 2c23 cfee bc3f
000006b0: 35bc 47eb cfa2 95bf 4436 6d74 d461 ba3f
000006c0: 1158 ae8e ee81 a53f d54d ec82 ffb6 be3f
000006d0: 8223 bdd1 aba5 b8bf 9a1d 0c86 64c9 c13f
000006e0: ba6b 40f8 def4 bfbf 60ac 7c9f 4ac5 9bbf
000006f0: 889f edc7 dc34 b43f e44c 4a84 060b bcbf
00000700: 51d4 c46d f2f5 6ebf d31c 7f2a d333 b43f
00000710: 524a 39f0 35cc c1bf d355 61a5 0281 b23f
00000720: ab88 b927 39a6 c0bf a479 446b 136c b53f
00000730: 13a0 e0d0 803c b0bf 4c15 1d9d d2f8 b43f
00000740: e196 f1b1 23d1 883f 1f5f 6c26 7be0 85bf
00000750: 9312 67c5 cd48 b93f a58f 2c03 e58a b3bf
00000760: a379 fc52 5f63 b4bf 1879 08a5 4444 c13f
00000770: 49dd e81e 267e be3f 4c38 635e 91fa 943f
00000780: 67b1 82ed 9bd8 8d3f 4eff 9ab7 d64f aabf
00000790: 09b9 c6c6 c9ba 943f bd17 fb83 2f3a b9bf
000007a0: 5975 7822 80b3 c0bf 0d54 078d 8519 bbbf
000007b0: 9689 6057 d6dc bcbf 8494 4991 a81e a33f
000007c0: 322d 75d4 15df 9b3f f8bf 17d1 fa92 bfbf

GFL.3.bias f8 [5, 1]
1.6262862612116091 1.6247183868742756 1.2930487309810617 1.475408868376523 -0.013678804327593726
00000000: 5868 1dbe 4405 fa3f b55b 0db5 d8fe f93f
00000010: da2a bbdd 53b0 f43f 127d 5e54 469b f73f
00000020: 8418 e209 a203 8cbf

MLP.0.weight f8 [1, 740]
0.0013513513513513514 0.0013513513513513514 0.0013513513513513514 0.0013513513513513514 0.0013513513513513514 0.0013513513513513514 0.0013513513513513514 0.0013513513513513514
0.0013513513513513514 0.0013513513513513514 0.0013513513513513514 0.0013513513513513514 0.0013513513513513514 0.0013513513513513514 0.0013513513513513514 0.0013513513513513514
0.0013513513513513514 0.0013513513513513514 0.0013513513513513514 0.0013513513513513514 0.0013513513513513514 0.0013513513513513514 0.0013513513513513514 0.0013513513513513514
0.0013513513513513514 0.0013513513513513514 0.0013513513513513514 0.0013513513513513514 0.0013513513513513514 0.0013513513513513514 0.0013513513513513514 0.0013513513513513514
0.0013513513513513514 0.0013513513513513514 0.0013513513513513514 0.0013513513513513514 0.0013513513513513514 0.0013513513513513514 0.0013513513513513514 0.0013513513513513514
0.0013513513513513514 0.0013513513513513514 0.0013513513513513514 0.0013513513513513514 0.0013513513513513514 0.0013513513513513514 0.0013513513513513514 0.0013513513513513514
0.0013513513513513514 0.0013513513513513514 0.0013513513513513514 0.0013513513513513514 0.0013513513513513514 0.0013513513513513514 0.0013513513513513514 0.0013513513513513514
0.0013513513513513514 0.0013513513513513514 0.0013513513513513514 0.0013513513513513514 0.0013513513513513514 0.0013513513513513514 0.0013513513513513514 0.0013513513513513514
0.0013513513513513514 0.0013513513513513514 0.0013513513513513514 0.0013513513513513514 0.0013513513513513514 0.0013513513513513514 0.0013513513513513514 0.0013513513513513514
0.0013513513513513514 0.0013513513513513514 0.0013513513513513514 0.0013513513513513514 0.0013513513513513514 0.0013513513513513514 0.0013513513513513514 0.0013513513513513514
0.0013513513513513514 0.0013513513513513514 0.0013513513513513514 0.0013513513513513514 0.0013513513513513514 0.0013513513513513514 0.0013513513513513514 0.0013513513513513514
0.0013513513513513514 0.0013513513513513514 0.0013513513513513514 0.0013513513513513514 0.0013513513513513514 0.0013513513513513514 0.0013513513513513514 0.0013513513513513514
0.0013513513513513514 0.0013513513513513514 0.0013513513513513514 0.0013513513513513514 0.0013513513513513514 0.0013513513513513514 0.0013513513513513514 0.0013513513513513514
0.0013513513513513514 0.0013513513513513514 0.0013513513513513514 0.0013513513513513514 0.0013513513513513514 0.0013513513513513514 0.0013513513513513514 0.0013513513513513514
0.0013513513513513514 0.0013513513513513514 0.0013513513513513514 0.0013513513513513514 0.0013513513513513514 0.0013513513513513514 0.0013513513513513514 0.0013513513513513514
0.0013513513513513514 0.0013513513513513514 0.0013513513513513514 0.0013513513513513514 0.0013513513513513514 0.0013513513513513514 0.0013513513513513514 0.0013513513513513514
0.0013513513513513514 0.0013513513513513514 0.0013513513513513514 0.0013513513513513514 0.0013513513513513514 0.0013513513513513514 0.0013513513513513514 0.0013513513513513514
0.0013513513513513514 0.0013513513513513514 0.0013513513513513514 0.0013513513513513514 0.0013513513513513514 0.0013513513513513514 0.0013513513513513514 0.0013513513513513514
0.0013513513513513514 0.0013513513513513514 0.0013513513513513514 0.0013513513513513514 0.0013513513513513514 0.0013513513513513514 0.0013513513513513514 0.0013513513513513514
0.0013513513513513514 0.0013513513513513514 0.0013513513513513514 0.0013513513513513514 0.0013513513513513514 0.0013513513513513514 0.0013513513513513514 0.0013513513513513514
0.0013513513513513514 0.0013513513513513514 0.0013513513513513514 0.0013513513513513514 0.0013513513513513514 0.0013513513513513514 0.0013513513513513514 0.0013513513513513514
0.0013513513513513514 0.0013513513513513514 0.0013513513513513514 0.0013513513513513514 0.0013513513513513514 0.0013513513513513514 0.0013513513513513514 0.0013513513513513514
0.0013513513513513514 0.0013513513513513514 0.0013513513513513514 0.0013513513513513514 0.0013513513513513514 0.0013513513513513514 0.0013513513513513514 0.0013513513513513514
0.0013513513513513514 0.0013513513513513514 0.0013513513513513514 0.0013513513513513514 0.0013513513513513514 0.0013513513513513514 0.0013513513513513514 0.0013513513513513514
0.0013513513513513514 0.0013513513513513514 0.0013513513513513514 0.0013513513513513514 0.0013513513513513514 0.0013513513513513514 0.0013513513513513514 0.0013513513513513514
0.0013513513513513514 0.0013513513513513514 0.0013513513513513514 0.0013513513513513514 0.0013513513513513514 0.0013513513513513514 0.0013513513513513514 0.0013513513513513514
0.0013513513513513514 0.0013513513513513514 0.0013513513513513514 0.0013513513513513514 0.0013513513513513514 0.0013513513513513514 0.0013513513513513514 0.0013513513513513514
0.0013513513513513514 0.0013513513513513514 0.0013513513513513514 0.0013513513513513514 0.0013513513513513514 0.0013513513513513514 0.0013513513513513514 0.0013513513513513514
0.0013513513513513514 0.0013513513513513514 0.0013513513513513514 0.0013513513513513514 0.0013513513513513514 0.0013513513513513514 0.0013513513513513514 0.0013513513513513514
0.0013513513513513514 0.0013513513513513514 0.0013513513513513514 0.0013513513513513514 0.0013513513513513514 0.0013513513513513514 0.0013513513513513514 0.0013513513513513514
0.0013513513513513514 0.0013513513513513514 0.0013513513513513514 0.0013513513513513514 0.0013513513513513514 0.0013513513513513514 0.0013513513513513514 0.0013513513513513514
0.0013513513513513514 0.0013513513513513514 0.0013513513513513514 0.0013513513513513514 0.0013513513513513514 0.0013513513513513514 0.0013513513513513514 0.0013513513513513514
00000000: 4062 0177 fa23 563f 4062 0177 fa23 563f
00000010: 4062 0177 fa23 563f 4062 0177 fa23 563f
00000020: 4062 0177 fa23 563f 4062 0177 fa23 563f
00000030: 4062 0177 fa23 563f 4062 0177 fa23 563f
00000040: 4062 0177 fa23 563f 4062 0177 fa23 563f
00000050: 4062 0177 fa23 563f 4062 0177 fa23 563f
00000060: 4062 0177 fa23 563f 4062 0177 fa23 563f
00000070: 4062 0177 fa23 563f 4062 0177 fa23 563f
00000080: 4062 0177 fa23 563f 4062 0177 fa23 563f
00000090: 4062 0177 fa23 563f 4062 0177 fa23 563f
000000a0: 4062 0177 fa23 563f 4062 0177 fa23 563f
000000b0: 4062 0177 fa23 563f 4062 0177 fa23 563f
000000c0: 4062 0177 fa23 563f 4062 0177 fa23 563f
000000d0: 4062 0177 fa23 563f 4062 0177 fa23 563f
000000e0: 4062 0177 fa23 563f 4062 0177 fa23 563f
000000f0: 4062 0177 fa23 563f 4062 0177 fa23 563f
00000100: 4062 0177 fa23 563f 4062 0177 fa23 563f
00000110: 4062 0177 fa23 563f 4062 0177 fa23 563f
00000120: 4062 0177 fa23 563f 4062 0177 fa23 563f
00000130: 4062 0177 fa23 563f 4062 0177 fa23 563f
00000140: 4062 0177 fa23 563f 4062 0177 fa23 563f
00000150: 4062 0177 fa23 563f 4062 0177 fa23 563f
00000160: 4062 0177 fa23 563f 4062 0177 fa23 563f
00000170: 4062 0177 fa23 563f 4062 0177 fa23 563f
00000180: 4062 0177 fa23 563f 4062 0177 fa23 563f
00000190: 4062 0177 fa23 563f 4062 0177 fa23 563f
000001a0: 4062 0177 fa23 563f 4062 0177 fa23 563f
000001b0: 4062 0177 fa23 563f 4062 0177 fa23 563f
000001c0: 4062 0177 fa23 563f 4062 0177 fa23 563f
000001d0: 4062 0177 fa23 563f 4062 0177 fa23 563f
000001e0: 4062 0177 fa23 563f 4062 0177 fa23 563f
000001f0: 4062 0177 fa23 563f 4062 0177 fa23 563f
00000200: 4062 0177 fa23 563f 4062 0177 fa23 563f
00000210: 4062 0177 fa23 563f 4062 0177 fa23 563f
00000220: 4062 0177 fa23 563f 4062 0177 fa23 563f
00000230: 4062 0177 fa23 563f 4062 0177 fa23 563f
00000240: 4062 0177 fa23 563f 4062 0177 fa23 563f
00000250: 4062 0177 fa23 563f 4062 0177 fa23 563f
00000260: 4062 0177 fa23 563f 4062 0177 fa23 563f
00000270: 4062 0177 fa23 563f 4062 0177 fa23 563f
00000280: 4062 0177 fa23 563f 4062 0177 fa23 563f
00000290: 4062 0177 fa23 563f 4062 0177 fa23 563f
000002a0: 4062 0177 fa23 563f 4062 0177 fa23 563f
000002b0: 4062 0177 fa23 563f 4062 0177 fa23 563f
000002c0: 4062 0177 fa23 563f 4062 0177 fa23 563f
000002d0: 4062 0177 fa23 563f 4062 0177 fa23 563f
000002e0: 4062 0177 fa23 563f 4062 0177 fa23 563f
000002f0: 4062 0177 fa23 563f 4062 0177 fa23 563f
00000300: 4062 0177 fa23 563f 4062 0177 fa23 563f
00000310: 4062 0177 fa23 563f 4062 0177 fa23 563f
00000320: 4062 0177 fa23 563f 4062 0177 fa23 563f
00000330: 4062 0177 fa23 563f 4062 0177 fa23 563f
00000340: 4062 0177 fa23 563f 4062 0177 fa23 563f
00000350: 4062 0177 fa23 563f 4062 0177 fa23 563f
00000360: 4062 0177 fa23 563f 4062 0177 fa23 563f
00000370: 4062 0177 fa23 563f 4062 0177 fa23 563f
00000380: 4062 0177 fa23 563f 4062 0177 fa23 563f
00000390: 4062 0177 fa23 563f 4062 0177 fa23 563f
000003a0: 4062 0177 fa23 563f 4062 0177 fa23 563f
000003b0: 4062 0177 fa23 563f 4062 0177 fa23 563f
000003c0: 4062 0177 fa23 563f 4062 0177 fa23 563f
000003d0: 4062 0177 fa23 563f 4062 0177 fa23 563f
000003e0: 4062 0177 fa23 563f 4062 0177 fa23 563f
000003f0: 4062 0177 fa23 563f 4062 0177 fa23 563f
00000400: 4062 0177 fa23 563f 4062 0177 fa23 563f
00000410: 4062 0177 fa23 563f 4062 0177 fa23 563f
00000420: 4062 0177 fa23 563f 4062 0177 fa23 563f
00000430: 4062 0177 fa23 563f 4062 0177 fa23 563f
00000440: 4062 0177 fa23 563f 4062 0177 fa23 563f
00000450: 4062 0177 fa23 563f 4062 0177 fa23 563f
00000460: 4062 0177 fa23 563f 4062 0177 fa23 563f
00000470: 4062 0177 fa23 563f 4062 0177 fa23 563f
00000480: 4062 0177 fa23 563f 4062 0177 fa23 563f
00000490: 4062 0177 fa23 563f 4062 0177 fa23 563f
000004a0: 4062 0177 fa23 563f 4062 0177 fa23 563f
000004b0: 4062 0177 fa23 563f 4062 0177 fa23 563f
000004c0: 4062 0177 fa23 563f 4062 0177 fa23 563f
000004d0: 4062 0177 fa23 563f 4062 0177 fa23 563f
000004e0: 4062 0177 fa23 563f 4062 0177 fa23 563f
000004f0: 4062 0177 fa23 563f 4062 0177 fa23 563f
00000500: 4062 0177 fa23 563f 4062 0177 fa23 563f
00000510: 4062 0177 fa23 563f 4062 0177 fa23 563f
00000520: 4062 0177 fa23 563f 4062 0177 fa23 563f
00000530: 4062 0177 fa23 563f 4062 0177 fa23 563f
00000540: 4062 0177 fa23 563f 4062 0177 fa23 563f
00000550: 4062 0177 fa23 563f 4062 0177 fa23 563f
00000560: 4062 0177 fa23 563f 4062 0177 fa23 563f
00000570: 4062 0177 fa23 563f 4062 0177 fa23 563f
00000580: 4062 0177 fa23 563f 4062 0177 fa23 563f
00000590: 4062 0177 fa23 563f 4062 0177 fa23 563f
000005a0: 4062 0177 fa23 563f 4062 0177 fa23 563f
000005b0: 4062 0177 fa23 563f 4062 0177 fa23 563f
000005c0: 4062 0177 fa23 563f 4062 0177 fa23 563f
000005d0: 4062 0177 fa23 563f 4062 0177 fa23 563f
000005e0: 4062 0177 fa23 563f 4062 0177 fa23 563f
000005f0: 4062 0177 fa23 563f 4062 0177 fa23 563f
00000600: 4062 0177 fa23 563f 4062 0177 fa23 563f
00000610: 4062 0177 fa23 563f 4062 0177 fa23 563f
00000620: 4062 0177 fa23 563f 4062 0177 fa23 563f
00000630: 4062 0177 fa23 563f 4062 0177 fa23 563f
00000640: 4062 0177 fa23 563f 4062 0177 fa23 563f
00000650: 4062 0177 fa23 563f 4062 0177 fa23 563f
00000660: 4062 0177 fa23 563f 4062 0177 fa23 563f
00000670: 4062 0177 fa23 563f 4062 0177 fa23 563f
00000680: 4062 0177 fa23 563f 4062 0177 fa23 563f
00000690: 4062 0177 fa23 563f 4062 0177 fa23 563f
000006a0: 4062 0177 fa23 563f 4062 0177 fa23 563f
000006b0: 4062 0177 fa23 563f 4062 0177 fa23 563f
000006c0: 4062 0177 fa23 563f 4062 0177 fa23 563f
000006d0: 4062 0177 fa23 563f 4062 0177 fa23 563f
000006e0: 4062 0177 fa23 563f 4062 0177 fa23 563f
000006f0: 4062 0177 fa23 563f 4062 0177 fa23 563f
00000700: 4062 0177 fa23 563f 4062 0177 fa23 563f
00000710: 4062 0177 fa23 563f 4062 0177 fa23 563f
00000720: 4062 0177 fa23 563f 4062 0177 fa23 563f
00000730: 4062 0177 fa23 563f 4062 0177 fa23 563f
00000740: 4062 0177 fa23 563f 4062 0177 fa23 563f
00000750: 4062 0177 fa23 563f 4062 0177 fa23 563f
00000760: 4062 0177 fa23 563f 4062 0177 fa23 563f
00000770: 4062 0177 fa23 563f 4062 0177 fa23 563f
00000780: 4062 0177 fa23 563f 4062 0177 fa23 563f
00000790: 4062 0177 fa23 563f 4062 0177 fa23 563f
000007a0: 4062 0177 fa23 563f 4062 0177 fa23 563f
000007b0: 4062 0177 fa23 563f 4062 0177 fa23 563f
000007c0: 4062 0177 fa23 563f 4062 0177 fa23 563f
000007d0: 4062 0177 fa23 563f 4062 0177 fa23 563f
000007e0: 4062 0177 fa23 563f 4062 0177 fa23 563f
000007f0: 4062 0177 fa23 563f 4062 0177 fa23 563f
