OASIS3_VNN_NeurIPS/test55.pth (torch, 10139 bytes, 5 tensors)

GFL.0.weight f8 [5, 1, 6, 1]
00000000: a8e3 4b74 e5f1 fb3f 000b c2a1 c51a d8bf
00000010: e391 7f54 2389 c1bf 76b2 b9e1 124d e0bf
00000020: c7bd a8e1 97ef e3bf f812 e0d6 614a dcbf
00000030: 5984 6459 cf58 f13f 025e 7cbe 76c7 dbbf
00000040: 8d50 67c3 fc36 cc3f 696c ff1d 0e3f ce3f
00000050: 2e43 b9b9 b9d0 ddbf 6981 4950 8983 c6bf
00000060: 270d 92e3 ebad d3bf b711 9543 7d26 b03f
00000070: 039a 10c6 0b56 b53f 66e4 c8e5 752b d4bf
00000080: 7f4d 42fd 8890 b43f 8acc e8e2 2ac5 b53f
00000090: 2780 a554 8321 adbf 624a 09c0 e105 adbf
000000a0: 46c3 a01d b293 d1bf f005 e44d 01bc d43f
000000b0: b474 1b4c 8150 bc3f bf79 e62f e614 d6bf
000000c0: d6f0 1b78 405d f3bf 0700 45a5 affe bcbf
000000d0: 4a33 1c18 0f51 c13f 73cb 665e bbf0 d6bf
000000e0: bc11 9b0a b823 b03f da3f 7723 e19a bfbf
1.746556715281466 -0.37663403317144173 -0.13699761987585565 -0.5094084175776306 -0.6229972274213019 -0.44203992828288063 1.0841821185970473 -0.43404930688981846
0.22042808095159608 0.23629929032071864 -0.46586459290579085 -0.17588917179365218 -0.3074903223388951 0.0630873003002027 0.08334420762603405 -0.31515262069621597
0.08033043082314427 0.08503978767184797 -0.05689630897791203 -0.05668549985116013 -0.27463963406903635 0.3239749203349609 0.11060340984427591 -0.3450255840088196
-1.2102665607226775 -0.11326120171452213 0.1352862231946353 -0.35844310969257903 0.06304502734116729 -0.1234570228182287

GFL.0.bias f8 [5, 1]
00000000: 51da 4b1c a476 f53f afdc f296 60e7 fd3f
00000010: 0e79 d5bc 3f69 0040 8081 51b4 bf55 0240
00000020: 5b52 24d5 a2ea f53f
1.3414651017498225 1.8689885994370277 2.0513911011358976 2.2918695533155073 1.3697841955046417

GFL.3.weight f8 [5, 1, 10, 5]
00000000: a1ae 699b 0f22 f83f d469 e528 a68a f13f
00000010: 89be 61b5 d8c9 e83f c416 c5a0 5ce4 ec3f
00000020: 7aa1 b846 1950 cc3f 6520 2da1 1a7b e63f
00000030: 676b 5b0f b7ae e73f 376e 7a31 4688 ea3f
00000040: 3331 a4eb 3d7a f03f 58ee cced 853b e13f
00000050: 7bd8 1e4e b381 e73f b024 c93f 8758 ea3f
00000060: 34d8 600e 1d92 ed3f 138b 52f8 18d6 f13f
00000070: 1d1f 48d0 0456 df3f 43ed 9cd1 ed39 e13f
00000080: 07c3 5d4c 2e6a ec3f 954a 4bd3 8094 ef3f
00000090: a798 0635 7cdd f03f 94f4 85d2 e93d e53f
000000a0: aaf1 e399 50dc e33f 4121 83e2 6e88 ea3f
000000b0: 1382 f5d9 0086 f03f 6fa5 e8fb d58c ed3f
000000c0: cd6f 596a 2d00 e03f d3b3 9354 91c3 e43f
000000d0: d49c cfa3 3635 e73f c833 7bc9 341d ec3f
000000e0: 2177 3a72 f55e f03f 8273 1453 e7d5 e63f
000000f0: 5450 0c81 33f3 e23f eb11 8b12 7663 e63f
00000100: d24e 2d77 754c f03f 6e09 22f3 6a73 ec3f
00000110: c200 dceb a49a e53f 4df1 123b c5cf e33f
00000120: 05f2 2cf9 867f e73f 79a9 fe35 7ee5 ec3f
00000130: c64b ba3b 23da ed3f ca6a 59fc 655f e83f
00000140: 673b 604a 0c13 e53f 12ef 963d b840 e73f
00000150: 0a70 f945 14fe ec3f 3b33 08fc 1f9c f13f
00000160: a6d6 793c 81d5 e73f a2c3 9286 f3d6 e53f
00000170: 652c e2b7 1b8e eb3f 0ff0 86b1 d937 e93f
00000180: df7a 1774 6dac f03f 287e bb4c 3a1f e83f
00000190: 2d3e d0c1 c740 f73f dbc8 4cae c0a7 f23f
000001a0: 2b63 234f da8a e33f aff6 7dbc 6a77 e83f
000001b0: 9029 b7c0 8ecc c33f 77d5 d3af 6ee5 e93f
000001c0: 2ea3 f636 b1de e73f 25a1 7235 bab6 ec3f
000001d0: c1a8 4273 8bc2 ea3f 38fb 325e d963 dc3f
000001e0: e532 49b1 7586 e13f a9b9 1aec 10ef e43f
000001f0: 1db8 b900 98df ec3f 64fa 26f5 0b14 ee3f
00000200: 6211 073a 63c1 da3f b539 1d39 9133 e13f
00000210: 3131 1ced 50af e93f adbe 1d8e e5b1 eb3f
00000220: 7771 dfbc 0eb9 eb3f 912e 0359 2391 e53f
00000230: 5f98 3d65 4e77 e63f ce84 ff53 afa8 e63f
00000240: 5aa6 ee74 3def e93f 1b01 c606 2e75 ef3f
00000250: 3856 ec8b fc29 e53f 1432 3d59 5203 e13f
00000260: bf5a 424c 639d eb3f 7c50 2bb0 e046 ea3f
00000270: 89f1 c32b f6be ea3f f8cb b3ca a39e da3f
00000280: 87cc 280a 1b53 e03f 0f0e a48e 8158 e53f
00000290: bbc3 9a3c 53e4 ee3f 20a2 642a dc85 ec3f
000002a0: 6518 296f fb4a dc3f 3879 09c2 ecbc e43f
000002b0: 8839 5adf 3021 eb3f 10b4 21e4 4d78 e83f
000002c0: b054 266f b51a eb3f 564e f42d f99b e53f
000002d0: 1a4c 5ce3 cb8d e53f 5bb4 0c12 ce8b e43f
000002e0: 3f4b 0f2f e3ba ec3f b722 04e3 f617 ef3f
000002f0: 1c19 fa55 381c df3f 5c3d e3d9 f26a e43f
00000300: 928f 5872 a6ff eb3f 3245 aa03 baa1 ef3f
00000310: 6c1f 9ff7 021d ef3f 8c72 6e49 963b e23f
00000320: 1f57 d213 289f f33f be75 2d7e 71b4 ee3f
00000330: de14 1f68 c4bb e33f bfd7 43d4 d1cd ec3f
00000340: c7f3 141a 99ec cc3f ad10 c3bb d228 e33f
00000350: 98cb 9e30 a96c e83f b19b ddae 5e7a e63f
00000360: abd9 28f6 65b1 e63f c1c5 b0fb 452a dd3f
00000370: 2b97 4055 401a e43f 867e ed7e 04ac e23f
00000380: 04ed a1a4 f5c5 e93f a496 60a9 35bc e73f
00000390: 5438 d9bb 77ad db3f 6357 990a e96a da3f
000003a0: 216a ebc9 6f79 e53f 9486 dc7c f6a4 e33f
000003b0: 518c 7417 df9c e73f 839c 63e1 77aa dc3f
000003c0: f37a 7783 9c42 dc3f 7cc4 c8a1 19d7 e03f
000003d0: b980 8a18 6e9c e43f 13b8 9274 95e5 e73f
000003e0: c71a 2b41 979c e33f 414a a812 c877 d83f
000003f0: 15cb 7b4e d3c9 e13f a35d db57 db76 e53f
00000400: 1ec4 76d1 46c1 e53f 1fbc ac7d 8e08 e13f
00000410: 3721 9e6e e9fc e23f d255 1b49 f039 e73f
00000420: ce03 e853 e030 e43f 1f52 1287 c930 ee3f
00000430: daba 8535 faf7 dc3f 1d6c d608 473c e13f
00000440: cce6 563e f65d e43f a9b7 4f05 aaa4 e93f
00000450: 36cd 79fa 84f8 ea3f 5f85 baf9 528f db3f
00000460: cb22 5bd7 7401 e33f 1a57 4a8e 8d9d e63f
00000470: 2e2d f670 e789 e63f 9112 5812 47ac ea3f
00000480: cb0d aa23 ab3f e03f bb73 c546 4b23 de3f
00000490: a706 d45d f1a8 e73f 739b 19d0 6894 ec3f
000004a0: d7e8 e78d 9ebe eb3f 2d8f cf38 426d e03f
000004b0: 2c84 36bd 0d2a f43f 927e c33b d2fa f23f
000004c0: 711d baf2 e85c ed3f 0cae 41b6 deba f03f
000004d0: 8a3e 72a0 941e d03f 5216 3e03 9171 e73f
000004e0: dfe2 97e2 0f6f ed3f 2edf 4253 9ddb e73f
000004f0: e3f3 9ac8 28ae ed3f 2ca9 bf7a 9ad6 dd3f
00000500: d5f7 8532 766d e83f 6be6 e4b4 0e47 e93f
00000510: 32b1 7fd0 0456 e83f fe72 a245 5a9e ed3f
00000520: 550c 4e10 e294 e53f 97b0 cd85 6359 e33f
00000530: e1e2 995b 9d28 ec3f 1a38 68bc e568 f03f
00000540: 36e2 32de dea5 ee3f bdd0 f2d2 4c78 e63f
00000550: a442 3b9d b828 e53f 8fb1 c533 a112 e83f
00000560: 95e8 8be3 422b f03f 529a 7f1e c5f4 ef3f
00000570: fec9 b036 3fb2 e63f b0e5 931e 329f e63f
00000580: 23b2 f4db 1501 e93f 5f75 a8cd c2d4 ef3f
00000590: 4b70 3c44 279b ed3f 5c5d 0937 2a50 e13f
000005a0: d3dd 7077 5d66 e63f 7fff da77 2e45 e43f
000005b0: 5677 5783 0e7c f03f daa7 d713 ad83 f13f
000005c0: 4551 7147 a642 e03f 9d6f a6f0 8f9a e03f
000005d0: eaed 2ad0 93d9 ea3f 84a2 4639 bbeb ee3f
000005e0: 2d23 35cc 5126 ed3f 50ef dcdb c11f e33f
000005f0: 00fe 3537 b762 e83f 0334 2835 a4fb e83f
00000600: 865a 58d7 8c99 f03f 8e49 dcd7 ef0c f03f
00000610: aea0 4cfd 355e e63f 5c98 b82b 99c3 e33f
00000620: 4e0f 56f8 44a8 e93f 9167 849b 21fb ef3f
00000630: 44e9 3319 686a f13f efd1 3839 3e0e e33f
00000640: 7bba e1d3 e813 f63f 08f8 ca75 4db2 f23f
00000650: 182b 0f91 ed9b e53f 9e59 7dd7 34cb ea3f
00000660: 94ed 7e6e b1b9 d13f 17fc 5788 6240 eb3f
00000670: 17b7 19a1 a27b eb3f c52a 6c6b 20a7 e83f
00000680: 025b cc03 6c9b ee3f 93e8 c69d def6 e43f
00000690: 3e3d 9d30 6982 e03f 0fee a119 b5b0 ec3f
000006a0: 9ee6 316a e3ae e73f 1009 bd46 2707 f03f
000006b0: 4a77 375d 397d e53f 31a8 3a1d 4e3a e03f
000006c0: b69f c228 8b16 e73f 6258 8109 e860 ea3f
000006d0: 9794 4ff0 7461 ee3f 1c73 aeef 10f6 e63f
000006e0: 92b8 6d89 7136 e43f c33a e048 328b eb3f
000006f0: 0939 dc14 b34b ed3f 28b7 2012 a760 ec3f
00000700: 9877 ac76 0e29 e03f ba40 1875 efce e03f
00000710: 59e7 fa20 cb27 e63f 4372 2af5 d3df ee3f
00000720: 85e0 6eec 3f96 ec3f 83ab bfae 2b02 e23f
00000730: 424e 6d5f a4f3 dd3f 2c64 70f6 282c e43f
00000740: 4adc 726b 14cf e93f 51b5 546c 29c0 e93f
00000750: 6d7a 6c41 01fd e73f 6d5c 28b1 8550 e53f
00000760: af05 3fb0 e6ab e93f 75fc ccd7 f6eb ec3f
00000770: d7a1 35b4 3e7d ea3f 3126 9442 0201 e63f
00000780: c690 a027 164d e33f 01b4 a907 a609 e53f
00000790: 2d72 0dcc 8a74 e93f 6365 5aa6 f058 ee3f
000007a0: e77a 9f79 9494 e53f f371 0956 130b e23f
000007b0: ce21 57cf 3aeb e53f 7e42 92b8 e150 e83f
000007c0: 6e7f ea1c e12e ee3f eba7 3407 4661 e23f
1.50831566532262 1.0963498685365396 0.7746394674886271 0.9028761997257893 0.2211944194143703 0.7025273464178211 0.7400775241797931 0.8291350332614859
1.0298442082158317 0.5385160107175109 0.7345825696745715 0.823306679326512 0.9240861206842568 1.1147699070067503 0.48962517108928855 0.5383214086536231
0.8879615298775158 0.9868778349721931 1.054073531276609 0.6638077842504964 0.620643902365875 0.8291544364993017 1.0327156557106079 0.9234418792813538
0.5000216557632428 0.6488730098623087 0.7252457808907828 0.8785652098828161 1.0231832944913963 0.7136112806943944 0.5921876450033872 0.699641262261648
1.0186667113638816 0.8890890835466914 0.6751274687412876 0.6191126016415552 0.7343172899923621 0.9030142836175364 0.9328781286770826 0.7616453102776515
0.6585751965193197 0.7266503527566519 0.9060155264555771 1.1006164402962912 0.7448126012011087 0.6824891689667434 0.861097201487962 0.7880676715208227
1.0420965704758414 0.7538119791678968 1.453315503200325 1.1659552391616248 0.6106998010319321 0.7645772630200635 0.15468010339675375 0.8092568811540976
0.7459341119293634 0.8973055881406579 0.8362481356791919 0.443594305030206 0.5476635420432926 0.6541828738607381 0.9022941602868318 0.9399471080904047
0.41805344263800326 0.5375448337088559 0.8026508933121815 0.8654659057337618 0.8663400353357663 0.6739670504116068 0.702063749061164 0.7080914154613767
0.8104541095573936 0.9830541736883193 0.6613753064036194 0.5316554778051477 0.8629623879849858 0.8211520615391374 0.835810742835336 0.4159326056971504
0.5101447294640743 0.667053965182676 0.9653717216189003 0.8913403347006046 0.4420765481521641 0.6480621137414238 0.8478016245224334 0.7646855788895
0.8470103426831397 0.6752897164864844 0.6735591354976151 0.64206603551214 0.8978134078155121 0.9716753419789573 0.48609741588770006 0.6380552535646689
0.8749572976416735 0.9884920188507407 0.9722914539679386 0.5697738107879373 1.2263565801890264 0.9595267738729303 0.6166708024617511 0.9001244684029571
0.22597039960410667 0.5987332980371513 0.7632642697920913 0.7024377265305387 0.70915506437341 0.45570516184951876 0.6282045044979204 0.5834982375199196
0.8054149833182298 0.7417248066091884 0.4324626287897264 0.412775287962509 0.671073812841602 0.6138870657634521 0.7378993471251168 0.44790455828337644
0.4415656360487638 0.5262573394631 0.6440954665486266 0.7467753674334311 0.6128650925464506 0.3823108846856123 0.5558868916399172 0.6707588878588705
0.6798433390705474 0.5322945074639199 0.5933730278493731 0.7258225849024547 0.6309663428111152 0.9434554708591952 0.45263533808512835 0.5386080906495213
0.6364699571197092 0.8013506034601409 0.8428368465523934 0.4306228102451168 0.5939277845546597 0.7067325381383143 0.7043339926034713 0.8335299833566571
0.5077720352714378 0.4709041777730893 0.7393729050238179 0.8931163849309612 0.867018963966326 0.5133372411332623 1.2602670088892962 1.186235650493391
0.9175915470849941 1.0456225509068444 0.2518664900644373 0.7326130927401187 0.9198073793077944 0.7455584169574416 0.9275096815177871 0.4662233542172938
0.7633620249541716 0.7899240048493089 0.7605003425829067 0.925580154423727 0.6744242018179515 0.6046617139195573 0.8799578465542163 1.0256097182896213
0.9577478732890714 0.7021850700462192 0.6612208434035733 0.7522741328407835 1.0105618370567175 0.9986291499779532 0.7092586582351144 0.7069330785008585
0.7813824935925066 0.9947217957266438 0.9251896221862891 0.5410357546742648 0.6999957402066975 0.6334450093199705 1.0302872782262589 1.094647481450457
0.5081359286655603 0.5188674640844401 0.839059740617299 0.9662757986707935 0.9109276760510504 0.5976266187858332 0.7620502546632792 0.7807179487441548
1.0374878322524252 1.0031584198046377 0.6990003535511471 0.617626748459553 0.8017906999889222 0.9994056737370888 1.088478182266571 0.5954886548630024
1.3798607136374403 1.168530902984914 0.6752841790379049 0.8373054703504754 0.2769588069019957 0.8516094840014173 0.8588421961301006 0.7704012010666125
0.9564724039254033 0.6551354486066593 0.5159192990776444 0.8965707302699587 0.7400986742133744 1.0017464411944879 0.6715361424100845 0.507117325866835
0.7215019031618712 0.82432939392562 0.9493965810367112 0.7175373727110101 0.6316459354545876 0.8607417510373455 0.9154906661440531 0.8867984155710689
0.5050117795797062 0.5252606665617556 0.6923576015608247 0.9648227489847802 0.8933410280069586 0.5627649701176413 0.46799573248901905 0.6303906262647891
0.8065282915694152 0.8047072521054962 0.7496343877608759 0.6660793743238976 0.8022340242679799 0.9038042273385957 0.827788688632661 0.6876231479993234
0.6031599782914092 0.6574278020540306 0.795476339855275 0.9483569382747813 0.6743872046898475 0.5638519935997109 0.6849645661941908 0.7598732571514828
0.9432225765958557 0.5743742123352126

GFL.3.bias f8 [5, 1]
00000000: abd1 4822 20a8 f83f 826d 26da 921b f43f
00000010: 4b1f 754f d014 f43f c295 d4bd d011 f73f
00000020: c66b 39fa 914f f83f
1.5410462702976513 1.256731845997678 1.255081472760099 1.4418494620561977 1.519426324309039

MLP.0.weight f8 [1, 740]
00000000: 4062 0177 fa23 563f 4062 0177 fa23 563f
00000010: 4062 0177 fa23 563f 4062 0177 fa23 563f
00000020: 4062 0177 fa23 563f 4062 0177 fa23 563f
00000030: 4062 0177 fa23 563f 4062 0177 fa23 563f
00000040: 4062 0177 fa23 563f 4062 0177 fa23 563f
00000050: 4062 0177 fa23 563f 4062 0177 fa23 563f
00000060: 4062 0177 fa23 563f 4062 0177 fa23 563f
00000070: 4062 0177 fa23 563f 4062 0177 fa23 563f
00000080: 4062 0177 fa23 563f 4062 0177 fa23 563f
00000090: 4062 0177 fa23 563f 4062 0177 fa23 563f
000000a0: 4062 0177 fa23 563f 4062 0177 fa23 563f
000000b0: 4062 0177 fa23 563f 4062 0177 fa23 563f
000000c0: 4062 0177 fa23 563f 4062 0177 fa23 563f
000000d0: 4062 0177 fa23 563f 4062 0177 fa23 563f
000000e0: 4062 0177 fa23 563f 4062 0177 fa23 563f
000000f0: 4062 0177 fa23 563f 4062 0177 fa23 563f
00000100: 4062 0177 fa23 563f 4062 0177 fa23 563f
00000110: 4062 0177 fa23 563f 4062 0177 fa23 563f
00000120: 4062 0177 fa23 563f 4062 0177 fa23 563f
00000130: 4062 0177 fa23 563f 4062 0177 fa23 563f
00000140: 4062 0177 fa23 563f 4062 0177 fa23 563f
00000150: 4062 0177 fa23 563f 4062 0177 fa23 563f
00000160: 4062 0177 fa23 563f 4062 0177 fa23 563f
00000170: 4062 0177 fa23 563f 4062 0177 fa23 563f
00000180: 4062 0177 fa23 563f 4062 0177 fa23 563f
00000190: 4062 0177 fa23 563f 4062 0177 fa23 563f
000001a0: 4062 0177 fa23 563f 4062 0177 fa23 563f
000001b0: 4062 0177 fa23 563f 4062 0177 fa23 563f
000001c0: 4062 0177 fa23 563f 4062 0177 fa23 563f
000001d0: 4062 0177 fa23 563f 4062 0177 fa23 563f
000001e0: 4062 0177 fa23 563f 4062 0177 fa23 563f
000001f0: 4062 0177 fa23 563f 4062 0177 fa23 563f
00000200: 4062 0177 fa23 563f 4062 0177 fa23 563f
00000210: 4062 0177 fa23 563f 4062 0177 fa23 563f
00000220: 4062 0177 fa23 563f 4062 0177 fa23 563f
00000230: 4062 0177 fa23 563f 4062 0177 fa23 563f
00000240: 4062 0177 fa23 563f 4062 0177 fa23 563f
00000250: 4062 0177 fa23 563f 4062 0177 fa23 563f
00000260: 4062 0177 fa23 563f 4062 0177 fa23 563f
00000270: 4062 0177 fa23 563f 4062 0177 fa23 563f
00000280: 4062 0177 fa23 563f 4062 0177 fa23 563f
00000290: 4062 0177 fa23 563f 4062 0177 fa23 563f
000002a0: 4062 0177 fa23 563f 4062 0177 fa23 563f
000002b0: 4062 0177 fa23 563f 4062 0177 fa23 563f
000002c0: 4062 0177 fa23 563f 4062 0177 fa23 563f
000002d0: 4062 0177 fa23 563f 4062 0177 fa23 563f
000002e0: 4062 0177 fa23 563f 4062 0177 fa23 563f
000002f0: 4062 0177 fa23 563f 4062 0177 fa23 563f
00000300: 4062 0177 fa23 563f 4062 0177 fa23 563f
00000310: 4062 0177 fa23 563f 4062 0177 fa23 563f
00000320: 4062 0177 fa23 563f 4062 0177 fa23 563f
00000330: 4062 0177 fa23 563f 4062 0177 fa23 563f
00000340: 4062 0177 fa23 563f 4062 0177 fa23 563f
00000350: 4062 0177 fa23 563f 4062 0177 fa23 563f
00000360: 4062 0177 fa23 563f 4062 0177 fa23 563f
00000370: 4062 0177 fa23 563f 4062 0177 fa23 563f
00000380: 4062 0177 fa23 563f 4062 0177 fa23 563f
00000390: 4062 0177 fa23 563f 4062 0177 fa23 563f
000003a0: 4062 0177 fa23 563f 4062 0177 fa23 563f
000003b0: 4062 0177 fa23 563f 4062 0177 fa23 563f
000003c0: 4062 0177 fa23 563f 4062 0177 fa23 563f
000003d0: 4062 0177 fa23 563f 4062 0177 fa23 563f
000003e0: 4062 0177 fa23 563f 4062 0177 fa23 563f
000003f0: 4062 0177 fa23 563f 4062 0177 fa23 563f
00000400: 4062 0177 fa23 563f 4062 0177 fa23 563f
00000410: 4062 0177 fa23 563f 4062 0177 fa23 563f
00000420: 4062 0177 fa23 563f 4062 0177 fa23 563f
00000430: 4062 0177 fa23 563f 4062 0177 fa23 563f
00000440: 4062 0177 fa23 563f 4062 0177 fa23 563f
00000450: 4062 0177 fa23 563f 4062 0177 fa23 563f
00000460: 4062 0177 fa23 563f 4062 0177 fa23 563f
00000470: 4062 0177 fa23 563f 4062 0177 fa23 563f
00000480: 4062 0177 fa23 563f 4062 0177 fa23 563f
00000490: 4062 0177 fa23 563f 4062 0177 fa23 563f
000004a0: 4062 0177 fa23 563f 4062 0177 fa23 563f
000004b0: 4062 0177 fa23 563f 4062 0177 fa23 563f
000004c0: 4062 0177 fa23 563f 4062 0177 fa23 563f
000004d0: 4062 0177 fa23 563f 4062 0177 fa23 563f
000004e0: 4062 0177 fa23 563f 4062 0177 fa23 563f
000004f0: 4062 0177 fa23 563f 4062 0177 fa23 563f
00000500: 4062 0177 fa23 563f 4062 0177 fa23 563f
00000510: 4062 0177 fa23 563f 4062 0177 fa23 563f
00000520: 4062 0177 fa23 563f 4062 0177 fa23 563f
00000530: 4062 0177 fa23 563f 4062 0177 fa23 563f
00000540: 4062 0177 fa23 563f 4062 0177 fa23 563f
00000550: 4062 0177 fa23 563f 4062 0177 fa23 563f
00000560: 4062 0177 fa23 563f 4062 0177 fa23 563f
00000570: 4062 0177 fa23 563f 4062 0177 fa23 563f
00000580: 4062 0177 fa23 563f 4062 0177 fa23 563f
00000590: 4062 0177 fa23 563f 4062 0177 fa23 563f
000005a0: 4062 0177 fa23 563f 4062 0177 fa23 563f
000005b0: 4062 0177 fa23 563f 4062 0177 fa23 563f
000005c0: 4062 0177 fa23 563f 4062 0177 fa23 563f
000005d0: 4062 0177 fa23 563f 4062 0177 fa23 563f
000005e0: 4062 0177 fa23 563f 4062 0177 fa23 563f
000005f0: 4062 0177 fa23 563f 4062 0177 fa23 563f
00000600: 4062 0177 fa23 563f 4062 0177 fa23 563f
00000610: 4062 0177 fa23 563f 4062 0177 fa23 563f
00000620: 4062 0177 fa23 563f 4062 0177 fa23 563f
00000630: 4062 0177 fa23 563f 4062 0177 fa23 563f
00000640: 4062 0177 fa23 563f 4062 0177 fa23 563f
00000650: 4062 0177 fa23 563f 4062 0177 fa23 563f
00000660: 4062 0177 fa23 563f 4062 0177 fa23 563f
00000670: 4062 0177 fa23 563f 4062 0177 fa23 563f
00000680: 4062 0177 fa23 563f 4062 0177 fa23 563f
00000690: 4062 0177 fa23 563f 4062 0177 fa23 563f
000006a0: 4062 0177 fa23 563f 4062 0177 fa23 563f
000006b0: 4062 0177 fa23 563f 4062 0177 fa23 563f
000006c0: 4062 0177 fa23 563f 4062 0177 fa23 563f
000006d0: 4062 0177 fa23 563f 4062 0177 fa23 563f
000006e0: 4062 0177 fa23 563f 4062 0177 fa23 563f
000006f0: 4062 0177 fa23 563f 4062 0177 fa23 563f
00000700: 4062 0177 fa23 563f 4062 0177 fa23 563f
00000710: 4062 0177 fa23 563f 4062 0177 fa23 563f
00000720: 4062 0177 fa23 563f 4062 0177 fa23 563f
00000730: 4062 0177 fa23 563f 4062 0177 fa23 563f
00000740: 4062 0177 fa23 563f 4062 0177 fa23 563f
00000750: 4062 0177 fa23 563f 4062 0177 fa23 563f
00000760: 4062 0177 fa23 563f 4062 0177 fa23 563f
00000770: 4062 0177 fa23 563f 4062 0177 fa23 563f
00000780: 4062 0177 fa23 563f 4062 0177 fa23 563f
00000790: 4062 0177 fa23 563f 4062 0177 fa23 563f
000007a0: 4062 0177 fa23 563f 4062 0177 fa23 563f
000007b0: 4062 0177 fa23 563f 4062 0177 fa23 563f
000007c0: 4062 0177 fa23 563f 4062 0177 fa23 563f
000007d0: 4062 0177 fa23 563f 4062 0177 fa23 563f
000007e0: 4062 0177 fa23 563f 4062 0177 fa23 563f
000007f0: 4062 0177 fa23 563f 4062 0177 fa23 563f
0.0013513513513513514 0.0013513513513513514 0.0013513513513513514 0.0013513513513513514 0.0013513513513513514 0.0013513513513513514 0.0013513513513513514 0.0013513513513513514
0.0013513513513513514 0.0013513513513513514 0.0013513513513513514 0.0013513513513513514 0.0013513513513513514 0.0013513513513513514 0.0013513513513513514 0.0013513513513513514
0.0013513513513513514 0.0013513513513513514 0.0013513513513513514 0.0013513513513513514 0.0013513513513513514 0.0013513513513513514 0.0013513513513513514 0.0013513513513513514
0.0013513513513513514 0.0013513513513513514 0.0013513513513513514 0.0013513513513513514 0.0013513513513513514 0.0013513513513513514 0.0013513513513513514 0.0013513513513513514
0.0013513513513513514 0.0013513513513513514 0.0013513513513513514 0.0013513513513513514 0.0013513513513513514 0.0013513513513513514 0.0013513513513513514 0.0013513513513513514
0.0013513513513513514 0.0013513513513513514 0.0013513513513513514 0.0013513513513513514 0.0013513513513513514 0.0013513513513513514 0.0013513513513513514 0.0013513513513513514
0.0013513513513513514 0.0013513513513513514 0.0013513513513513514 0.0013513513513513514 0.0013513513513513514 0.0013513513513513514 0.0013513513513513514 0.0013513513513513514
0.0013513513513513514 0.0013513513513513514 0.0013513513513513514 0.0013513513513513514 0.0013513513513513514 0.0013513513513513514 0.0013513513513513514 0.0013513513513513514
0.0013513513513513514 0.0013513513513513514 0.0013513513513513514 0.0013513513513513514 0.0013513513513513514 0.0013513513513513514 0.0013513513513513514 0.0013513513513513514
0.0013513513513513514 0.0013513513513513514 0.0013513513513513514 0.0013513513513513514 0.0013513513513513514 0.0013513513513513514 0.0013513513513513514 0.0013513513513513514
0.0013513513513513514 0.0013513513513513514 0.0013513513513513514 0.0013513513513513514 0.0013513513513513514 0.0013513513513513514 0.0013513513513513514 0.0013513513513513514
0.0013513513513513514 0.0013513513513513514 0.0013513513513513514 0.0013513513513513514 0.0013513513513513514 0.0013513513513513514 0.0013513513513513514 0.0013513513513513514
0.0013513513513513514 0.0013513513513513514 0.0013513513513513514 0.0013513513513513514 0.0013513513513513514 0.0013513513513513514 0.0013513513513513514 0.0013513513513513514
0.0013513513513513514 0.0013513513513513514 0.0013513513513513514 0.0013513513513513514 0.0013513513513513514 0.0013513513513513514 0.0013513513513513514 0.0013513513513513514
0.0013513513513513514 0.0013513513513513514 0.0013513513513513514 0.0013513513513513514 0.0013513513513513514 0.0013513513513513514 0.0013513513513513514 0.0013513513513513514
0.0013513513513513514 0.0013513513513513514 0.0013513513513513514 0.0013513513513513514 0.0013513513513513514 0.0013513513513513514 0.0013513513513513514 0.0013513513513513514
0.0013513513513513514 0.0013513513513513514 0.0013513513513513514 0.0013513513513513514 0.0013513513513513514 0.0013513513513513514 0.0013513513513513514 0.0013513513513513514
0.0013513513513513514 0.0013513513513513514 0.0013513513513513514 0.0013513513513513514 0.0013513513513513514 0.0013513513513513514 0.0013513513513513514 0.0013513513513513514
0.0013513513513513514 0.0013513513513513514 0.0013513513513513514 0.0013513513513513514 0.0013513513513513514 0.0013513513513513514 0.0013513513513513514 0.0013513513513513514
0.0013513513513513514 0.0013513513513513514 0.0013513513513513514 0.0013513513513513514 0.0013513513513513514 0.0013513513513513514 0.0013513513513513514 0.0013513513513513514
0.0013513513513513514 0.0013513513513513514 0.0013513513513513514 0.0013513513513513514 0.0013513513513513514 0.0013513513513513514 0.0013513513513513514 0.0013513513513513514
0.0013513513513513514 0.0013513513513513514 0.0013513513513513514 0.0013513513513513514 0.0013513513513513514 0.0013513513513513514 0.0013513513513513514 0.0013513513513513514
0.0013513513513513514 0.0013513513513513514 0.0013513513513513514 0.0013513513513513514 0.0013513513513513514 0.0013513513513513514 0.0013513513513513514 0.0013513513513513514
0.0013513513513513514 0.0013513513513513514 0.0013513513513513514 0.0013513513513513514 0.0013513513513513514 0.0013513513513513514 0.0013513513513513514 0.0013513513513513514
0.0013513513513513514 0.0013513513513513514 0.0013513513513513514 0.0013513513513513514 0.0013513513513513514 0.0013513513513513514 0.0013513513513513514 0.0013513513513513514
0.0013513513513513514 0.0013513513513513514 0.0013513513513513514 0.0013513513513513514 0.0013513513513513514 0.0013513513513513514 0.0013513513513513514 0.0013513513513513514
0.0013513513513513514 0.0013513513513513514 0.0013513513513513514 0.0013513513513513514 0.0013513513513513514 0.0013513513513513514 0.0013513513513513514 0.0013513513513513514
0.0013513513513513514 0.0013513513513513514 0.0013513513513513514 0.0013513513513513514 0.0013513513513513514 0.0013513513513513514 0.0013513513513513514 0.0013513513513513514
0.0013513513513513514 0.0013513513513513514 0.0013513513513513514 0.0013513513513513514 0.0013513513513513514 0.0013513513513513514 0.0013513513513513514 0.0013513513513513514
0.0013513513513513514 0.0013513513513513514 0.0013513513513513514 0.0013513513513513514 0.0013513513513513514 0.0013513513513513514 0.0013513513513513514 0.0013513513513513514
0.0013513513513513514 0.0013513513513513514 0.0013513513513513514 0.0013513513513513514 0.0013513513513513514 0.0013513513513513514 0.0013513513513513514 0.0013513513513513514
0.0013513513513513514 0.0013513513513513514 0.0013513513513513514 0.0013513513513513514 0.0013513513513513514 0.0013513513513513514 0.0013513513513513514 0.0013513513513513514
