OASIS3_VNN_NeurIPS/test42.pth (torch, 10139 bytes, 5 tensors)

GFL.0.weight f8 [5, 1, 6, 1]
0	0xbff82f932ee25a3f	-1.5116149741567282
1	0xbfc77b0431f969ef	-0.18344166221761735
2	0xbfbf7bd31b149c06	-0.12298316393990669
3	0xbfd11469fd39fd01	-0.26687097291137724
4	0x3fb79cefda3a30b1	0.09223841741385531
5	0x3fc6491277962c58	0.1741049846571936
6	0xbfc5385f7ed6c69f	-0.16578286832150455
7	0x3fc3b5dd78618ffd	0.15398758295043527
8	0x3f87637b437f0b6e	0.011420214650461804
9	0x3fa4cdd8636f4ada	0.04063297475626877
10	0xbfd5b32ecfb86102	-0.3390614536779283
11	0x3fd5727fb25be1a9	0.3351134530817271
12	0x3fe1fa9a5270faf4	0.5618411646063053
13	0x3fca7face57f2836	0.2070213432874099
14	0x3fc6315e7d2457f0	0.17338162527511214
15	0xbfdf26b58f12a1bf	-0.4867376229472277
16	0x3fd018ddc2b8c3be	0.2515177156047307
17	0xbfa1dca3272125e2	-0.0348864541306957
18	0xbfcc604cd8803b81	-0.22168884822209736
19	0xbfaaf2692fd1a264	-0.052630698287263994
20	0xbfc0b5e584f73ba5	-0.13055104248493624
21	0xbfb4e93ef54d549d	-0.08168405045337797
22	0x3fb586bc346750b6	0.08408714560875094
23	0xbfc99a24068325b3	-0.20001650159819703
24	0x3ff1bef78f1394d2	1.1091228093076109
25	0x3f9b659931dff060	0.026754754704583994
26	0xbfc78015712549ea	-0.18359630608263383
27	0xbfcf931e0c525fa8	-0.24667716600083378
28	0xbfc27fac1ac06e2a	-0.14452124887689993
29	0xbfc267be1cfee688	-0.14379097381406702

GFL.0.bias f8 [5, 1]
0	0x3ffff262d70bf74c	1.9966762924445502
1	0x4001bb12d9d2d6b7	2.216344548937595
2	0x3ffe4eba13580671	1.894220424234302
3	0x3fe92da2faace613	0.78682087860142
4	0x40000620af13ed90	2.002992027087835

GFL.3.weight f8 [5, 1, 10, 5]
0	0x3fe441d388e5287a	0.6330354379399659
1	0x3fe9098f373e9a2d	0.7824169234270976
2	0x3feb4d221002c668	0.8531656563483923
3	0x3fa9fd91e6b77252	0.050762710012098325
4	0x3ff39b06bf9818c5	1.2253482326646445
5	0x3ff1109b87a4c32f	1.0665545748308423
6	0x3fee3eb7eed85fd8	0.9451560654588276
7	0x3fe703c2934f1c74	0.7192089917306377
8	0x3fc2196dd3b14c7c	0.14140103184272224
9	0x3fee0ec5676b1c58	0.9393031139269494
10	0x3fee47f4c62ebfc0	0.946283709597985
11	0x3fedd128d6e82ac3	0.9317821690941276
12	0x3fe4829ee6b1f5bf	0.6409449105992094
13	0x3fc084990dc81dd4	0.12904656575140783
14	0x3fed9dd51a8d850c	0.9255166548356626
15	0x3ff164fa82a6b373	1.0871529677926588
16	0x3fed8daff7638b2f	0.923545821362813
17	0x3fe9a7fa10df43d2	0.8017549829038393
18	0x3fd28f3e2f3994c0	0.28999285327729396
19	0x3fe673832b7977ae	0.7016006325827584
20	0x3fec8deb1011d2cd	0.8923240007266827
21	0x3fefa8e819abc79d	0.989368486536694
22	0x3fe33274fff5b810	0.5999093054977056
23	0x3fc3210ba652a301	0.1494459688303991
24	0x3fe81db2ba44b48d	0.7536252630285546
25	0x3fef83772bd788c4	0.9847980362212856
26	0x3ff03058af9cf0d9	1.0118033275494354
27	0x3fe80eda4075eff5	0.7518130549428849
28	0x3fcf4faa6795b8f4	0.24461870248655482
29	0x3fe62ad7716d2b82	0.6927296843872315
30	0x3fef349d05d76a9f	0.9751725305644249
31	0x3ff001643c22b1be	1.0003397320789271
32	0x3fe55d8f62aa32a5	0.6676709105536999
33	0x3fc7cbbb7c43a40a	0.18590491836155848
34	0x3fea31c8caacc810	0.8185771902556116
35	0x3fedafd3442e88df	0.9277130443263352
36	0x3fecce4e1152775f	0.9001837099383286
37	0x3fe7cf2d658d5d0b	0.7440402015153337
38	0x3fce20f30effab32	0.23538053734167758
39	0x3fead19008aa5f14	0.8380813760040575
40	0x3ff17773449c9158	1.0916626625194876
41	0x3fee0008755bb3e8	0.9375040332939735
42	0x3fe82e42bf180d13	0.7556470615676595
43	0x3fbd9fdfd1f6499d	0.11572073818232416
44	0x3fe7d3da9de2ed0d	0.7446110805243805
45	0x3fec6ac83b634870	0.888034931175083
46	0x3ff11a00c346d3c7	1.0688483837122804
47	0x3fe54f7fce507fa9	0.6659544972971975
48	0x3fd4110b40c0d589	0.31354028056679134
49	0x3fea21281941b407	0.8165474408430108
50	0x3fe4fa6d9cfc3a2c	0.6555698457830821
51	0x3feb257bd64fcda1	0.8483256517196659
52	0x3fe9c3335fbb3a84	0.8050782079461247
53	0xbf6a9bcf302de280	-0.003248123802617464
54	0x3ff01b74b0ecd708	1.0067030821932708
55	0x3fee0697922f7f49	0.9383046965776681
56	0x3fefff0ca059156b	0.9998839504047913
57	0x3fe98b533be2bce2	0.7982574624674295
58	0x3fb7a07237192389	0.09229196400805341
59	0x3fee0ee6d1d2e434	0.9393190477486599
60	0x3ff0fac22ff6936d	1.0612203477441782
61	0x3ff1334827fde1e1	1.0750199854065772
62	0x3fea02b2324baf92	0.8128291113221044
63	0x3fd823101374b698	0.3771400632857449
64	0x3fe9909cc1548618	0.7989028717021851
65	0x3ff266d42eed0f61	1.15010469751811
66	0x3ff1b537736d20e4	1.106742335208815
67	0x3fe497c4746ce2f2	0.6435262941295987
68	0x3fc46fe22ec9c6e2	0.1596644142587627
69	0x3fe8d4a01352e1be	0.7759552361886148
70	0x3ff11b41864330d3	1.06915428587222
71	0x3ff0c2a9b1fd562d	1.0475251152723886
72	0x3fe2349501e8aaa5	0.5689187085420896
73	0x3fd28fbcf5149b81	0.2900230782856213
74	0x3fecbaf6ff03af22	0.8978228550672365
75	0x3ff0ed0372f9cf37	1.057864617466249
76	0x3fec9d201503cf58	0.8941803369948316
77	0x3fea2546d60a5b21	0.8170503788449858
78	0x3fcc2601b1943d42	0.2199098698697331
79	0x3fe512d4c48cb4d4	0.6585487212047618
80	0x3ff177774341abef	1.0916664721687501
81	0x3ff08d316376d87c	1.0344709286996752
82	0x3fe6ab3c1eefcc42	0.7084026912911059
83	0x3fca72a8bf38c0b4	0.20662412011143305
84	0x3fecd039a84f869f	0.9004181182210295
85	0x3fee9fa90d9a3ecc	0.9569897905039055
86	0x3feb5e548fc9cb6e	0.8552649315227947
87	0x3fe4e3800873b55f	0.6527710118368012
88	0x3fc5d8a2f47aa897	0.17067372262437594
89	0x3fea1f6305511556	0.8163313964693468
90	0x3fee9c806c4d799b	0.9566042056356311
91	0x3ff2072c8f00e508	1.1267514787744535
92	0x3fe814c6b08cfbfa	0.7525361488586662
93	0x3fc47bdb9f2bb257	0.16002984306341503
94	0x3fe697a4889cd02d	0.7060110729421517
95	0x3ff1cd9b4b4dcdcd	1.1126969281730112
96	0x3ff20abb935ea98a	1.127620292342359
97	0x3fe566bf58a85247	0.6687924129096893
98	0x3fd840b27923f5a4	0.37894880132793163
99	0x3fe74f667ece5f8d	0.7284424282724885
100	0x3fe42ddbeef0eecb	0.6305980364627087
101	0x3fefa782fb4498ce	0.989198199041107
102	0x3fee10bb40b3da7c	0.9395424140664796
103	0x3fafaae1980e29fe	0.061850595294419705
104	0x3ff388f0f66c07cb	1.2209329248294007
105	0x3ff12662a9a8aa31	1.0718714358614643
106	0x3ff03eb93ffbc25f	1.0153133868554034
107	0x3fe51fa9e71cd30c	0.6601151956479909
108	0x3fcc3e5f17776a1b	0.2206534256536806
109	0x3fe84e19312eb91a	0.7595334969135223
110	0x3fedd4754addd9b3	0.9321848356474248
111	0x3fefe8c1577b1510	0.9971625050172026
112	0x3fe7413f7d3a41a0	0.7267148443079812
113	0x3fc96494f2dd8fd5	0.1983820138804037
114	0x3fed1d4e4ddb4956	0.9098273773800354
115	0x3ff1ed7fbaa57bf3	1.1204831400752908
116	0x3ff14179e9abd20f	1.0784854057102427
117	0x3feb2558c825895d	0.8483089360345663
118	0x3fd5466b723be742	0.3324230781141645
119	0x3feca28a1feff134	0.8948412536406409
120	0x3ff12334378b5e83	1.0710947198585081
121	0x3ff189d12a11eb18	1.0961467402800675
122	0x3fe4c74df71c75cf	0.6493291689291086
123	0x3fd2df112e22d3c0	0.2948649359271336
124	0x3febe9ce51efe7a2	0.8722907638868842
125	0x3ff2131fb156cbb5	1.1296688964182355
126	0x3ff01a87851621f2	1.0064768980683962
127	0x3fe64304bba2e342	0.6956809677859399
128	0x3fd521092447d56d	0.33014133971240406
129	0x3fe7a71be391a662	0.7391490406709631
130	0x3ff1448a37473f92	1.07923337548343
131	0x3fecea44fcab4723	0.903597348684546
132	0x3fe53541e1ba0833	0.6627511414265029
133	0x3fd14d8b47161975	0.2703579134180452
134	0x3fe5b24a65b32b66	0.678013991005497
135	0x3feec9ef69d962c3	0.962150294052741
136	0x3ff1a8fa4e3c0441	1.1037543350251016
137	0x3fe502582bfc48c9	0.6565361842242733
138	0x3fce36c724fa7c66	0.2360466890868082
139	0x3fec69ef67a97de0	0.8879315399789753
140	0x3ff1abdd1e1d45c2	1.1044589210836055
141	0x3fedced5ab87063a	0.931498370184449
142	0x3fe84d8853eb7ef0	0.7594644202290208
143	0x3fced47497ab68c5	0.2408586254667339
144	0x3fe8ce29dbeecc60	0.7751664443552606
145	0x3fee56dd0645ec31	0.9481034395715878
146	0x3ff1f19e412eb3d1	1.121488813990471
147	0x3fe87f6535e099b3	0.7655511905948543
148	0x3fd7079cf9840a8d	0.35983967177177406
149	0x3fed7ed7d373022d	0.9217337732189371
150	0x3fe6116c2140a485	0.6896267556632131
151	0x3feb04d012c353dd	0.8443374983277142
152	0x3fea434e35c4c59a	0.8207160043877366
153	0x3fb55e9739d2dac7	0.08347458993635391
154	0x3ff1da42e246fe3a	1.1157864417035754
155	0x3feec9092c9cef32	0.9620405074451581
156	0x3ff0245024350e9f	1.0088654913278459
157	0x3fe8e1ce6a7ef67d	0.7775642471312519
158	0x3fd499b110f0f41d	0.32188059477249614
159	0x3febd151db937e17	0.8693017281147516
160	0x3ff22df4cab0b970	1.1362197797385214
161	0x3ff1342e5a934cec	1.0752395189381856
162	0x3fe4622e7ffd77b9	0.6369850635344313
163	0x3fc79faac99c3b57	0.18456015438320136
164	0x3fe8986baf5b4ced	0.7686060357031274
165	0x3ff0c5ec7ec8832f	1.0483212425680895
166	0x3fed54362b0401bf	0.9165297355794378
167	0x3fe6c0b6275c4892	0.7110243576774045
168	0x3fc1cad762db5b28	0.13900272681231596
169	0x3feb835d58f49c1c	0.8597857224857566
170	0x3ff204c84faf11e8	1.1261675942088178
171	0x3ff0d8f5f6734945	1.052968943306568
172	0x3fe52a076442435d	0.6613804777317501
173	0x3fc3adce161da07b	0.15374160842771176
174	0x3fe8fc153bb6c4f8	0.7807718435562085
175	0x3ff0c87611e8d39c	1.048940725287344
176	0x3febda4aa4998cee	0.8703969206657385
177	0x3fe6378770acd7f3	0.6942784500777165
178	0x3fc39a2fbf7ed0b1	0.15314289903984027
179	0x3fe689f91533e280	0.7043424047579521
180	0x3fed3424dd92d306	0.9126152351005608
181	0x3ff04335c602bc87	1.016408704261069
182	0x3fe3db1308575ca4	0.6204924738803084
183	0x3fc07235f75267a0	0.1284854371668276
184	0x3fe4c6f30dfddfb5	0.6492858193660057
185	0x3ff09760ddb95045	1.036957613095198
186	0x3feb98077d8421cd	0.8623082591521382
187	0x3fe5744e94f3c275	0.6704476269934064
188	0x3fc20c8cc27b5aee	0.14100799080070864
189	0x3fe49d2fc90f8ddb	0.6441878249137817
190	0x3ff1a2e2a9cb5fe5	1.102266944179058
191	0x3fed89a3a37e45d6	0.923051661799202
192	0x3fe3e0839adc0452	0.6211565041159111
193	0x3fd380d1001e6a79	0.30473732959368466
194	0x3fe7fb56bebdae75	0.7494310117157982
195	0x3ff236a1135639a2	1.1383372073501978
196	0x3fec07ab57b85ea4	0.8759361947331468
197	0x3fe76ea6123a2411	0.732256923293905
198	0x3fd69611712fa269	0.35290943196608865
199	0x3fe4570d4a826a5c	0.6356264548551951
200	0x3fe38c07ebed79a6	0.6108436210595769
201	0x3febeda8b96d1aa4	0.8727611180882673
202	0x3fee06015be49a48	0.9382330698761701
203	0x3fa05fd2c7edce69	0.03198107424296099
204	0x3ff19cdbb180287e	1.1007954534166227
205	0x3feacb975713ad5d	0.8373524380416871
206	0x3feb147e6d7721ec	0.8462516916270579
207	0x3fe5fdd897fce65c	0.6872370689881779
208	0xbf91c3f238084130	-0.017349037809311685
209	0x3fe6f824fd0c6a42	0.7177910749772496
210	0x3ff0bb7fc20dab6a	1.0457761364184202
211	0x3feaa824c016e3fa	0.8330253364321145
212	0x3fe3484cf2e78cd8	0.6025757545688988
213	0x3fc878908ee328c0	0.19117934204979825
214	0x3fea8a48baa70a3f	0.8293803830677645
215	0x3ff137bb9c51c58f	1.0761066538073896
216	0x3ff0db0cc7494bda	1.0534789833661677
217	0x3fe947b59c3fbb6d	0.7900035907494903
218	0xbf9126676023c3dd	-0.016748061411764204
219	0x3fea95604755cefc	0.8307343858018323
220	0x3ff0d9a654f986ec	1.0531371421170048
221	0x3fedc9abbaa6cbb8	0.9308680196321495
222	0x3fea366bb28f2818	0.8191431510433658
223	0x3fca4a24ba4dac3b	0.20538767906995922
224	0x3fe551ba8d1a9dde	0.6662266498505536
225	0x3febdf8669489894	0.8710357719726454
226	0x3ff04fd67f2d1b33	1.0194916694469611
227	0x3fe35f2ae67ce3be	0.6053671361652204
228	0x3fc55b02e7921ead	0.1668399458615019
229	0x3feb9f1da97c2410	0.8631733236553618
230	0x3ff0a17dadf518f7	1.0394264979564107
231	0x3febf210445d5837	0.8732987723585727
232	0x3fea5192c63f324f	0.8224576828011524
233	0x3fc2a54656c337a9	0.14566878544286269
234	0x3fed19ca1c00d6a6	0.9093981310786219
235	0x3fecf56d8c54cfea	0.9049594632001547
236	0x3fea93b37208a64c	0.8305299021932995
237	0x3feae327cdc7937c	0.8402289408810328
238	0x3fc18f276c58f3b4	0.1371812132873892
239	0x3feafc9b4e3cc5b3	0.8433357742380195
240	0x3fecda2de6ca901e	0.901633215679343
241	0x3fecd6244e61596f	0.9011403590073267
242	0x3feaebbac6021f0c	0.8412755839680996
243	0x3fccaa4fe242b07f	0.22394751117588282
244	0x3fe99b1ac5dcecdf	0.8001836647521506
245	0x3febf0682046d3ce	0.8730965261844348
246	0x3feafe8d8b0f08d4	0.8435733524313727
247	0x3fe2e8259b9e0695	0.59083824533464
248	0x3fba66f712d3529e	0.103133623214783
249	0x3fea0d19a781c2fd	0.8140991469973354

GFL.3.bias f8 [5, 1]
0	0x3ff6f9f8946a2402	1.4360280797429827
1	0x3ff4b8ec5f1d621e	1.295147296468833
2	0x3ff6b8ded92ae812	1.420134399710609
3	0x3ff6cf7f687e643e	1.425658615282614
4	0x3ff645a5a42fd0e5	1.3920036710306303

MLP.0.weight f8 [1, 740]
0	0x3f5623fa77016240	0.0013513513513513514
1	0x3f5623fa77016240	0.0013513513513513514
2	0x3f5623fa77016240	0.0013513513513513514
3	0x3f5623fa77016240	0.0013513513513513514
4	0x3f5623fa77016240	0.0013513513513513514
5	0x3f5623fa77016240	0.0013513513513513514
6	0x3f5623fa77016240	0.0013513513513513514
7	0x3f5623fa77016240	0.0013513513513513514
8	0x3f5623fa77016240	0.0013513513513513514
9	0x3f5623fa77016240	0.0013513513513513514
10	0x3f5623fa77016240	0.0013513513513513514
11	0x3f5623fa77016240	0.0013513513513513514
12	0x3f5623fa77016240	0.0013513513513513514
13	0x3f5623fa77016240	0.0013513513513513514
14	0x3f5623fa77016240	0.0013513513513513514
15	0x3f5623fa77016240	0.0013513513513513514
16	0x3f5623fa77016240	0.0013513513513513514
17	0x3f5623fa77016240	0.0013513513513513514
18	0x3f5623fa77016240	0.0013513513513513514
19	0x3f5623fa77016240	0.0013513513513513514
20	0x3f5623fa77016240	0.0013513513513513514
21	0x3f5623fa77016240	0.0013513513513513514
22	0x3f5623fa77016240	0.0013513513513513514
23	0x3f5623fa77016240	0.0013513513513513514
24	0x3f5623fa77016240	0.0013513513513513514
25	0x3f5623fa77016240	0.0013513513513513514
26	0x3f5623fa77016240	0.0013513513513513514
27	0x3f5623fa77016240	0.0013513513513513514
28	0x3f5623fa77016240	0.0013513513513513514
29	0x3f5623fa77016240	0.0013513513513513514
30	0x3f5623fa77016240	0.0013513513513513514
31	0x3f5623fa77016240	0.0013513513513513514
32	0x3f5623fa77016240	0.0013513513513513514
33	0x3f5623fa77016240	0.0013513513513513514
34	0x3f5623fa77016240	0.0013513513513513514
35	0x3f5623fa77016240	0.0013513513513513514
36	0x3f5623fa77016240	0.0013513513513513514
37	0x3f5623fa77016240	0.0013513513513513514
38	0x3f5623fa77016240	0.0013513513513513514
39	0x3f5623fa77016240	0.0013513513513513514
40	0x3f5623fa77016240	0.0013513513513513514
41	0x3f5623fa77016240	0.0013513513513513514
42	0x3f5623fa77016240	0.0013513513513513514
43	0x3f5623fa77016240	0.0013513513513513514
44	0x3f5623fa77016240	0.0013513513513513514
45	0x3f5623fa77016240	0.0013513513513513514
46	0x3f5623fa77016240	0.0013513513513513514
47	0x3f5623fa77016240	0.0013513513513513514
48	0x3f5623fa77016240	0.0013513513513513514
49	0x3f5623fa77016240	0.0013513513513513514
50	0x3f5623fa77016240	0.0013513513513513514
51	0x3f5623fa77016240	0.0013513513513513514
52	0x3f5623fa77016240	0.0013513513513513514
53	0x3f5623fa77016240	0.0013513513513513514
54	0x3f5623fa77016240	0.0013513513513513514
55	0x3f5623fa77016240	0.0013513513513513514
56	0x3f5623fa77016240	0.0013513513513513514
57	0x3f5623fa77016240	0.0013513513513513514
58	0x3f5623fa77016240	0.0013513513513513514
59	0x3f5623fa77016240	0.0013513513513513514
60	0x3f5623fa77016240	0.0013513513513513514
61	0x3f5623fa77016240	0.0013513513513513514
62	0x3f5623fa77016240	0.0013513513513513514
63	0x3f5623fa77016240	0.0013513513513513514
64	0x3f5623fa77016240	0.0013513513513513514
65	0x3f5623fa77016240	0.0013513513513513514
66	0x3f5623fa77016240	0.0013513513513513514
67	0x3f5623fa77016240	0.0013513513513513514
68	0x3f5623fa77016240	0.0013513513513513514
69	0x3f5623fa77016240	0.0013513513513513514
70	0x3f5623fa77016240	0.0013513513513513514
71	0x3f5623fa77016240	0.0013513513513513514
72	0x3f5623fa77016240	0.0013513513513513514
73	0x3f5623fa77016240	0.0013513513513513514
74	0x3f5623fa77016240	0.0013513513513513514
75	0x3f5623fa77016240	0.0013513513513513514
76	0x3f5623fa77016240	0.0013513513513513514
77	0x3f5623fa77016240	0.0013513513513513514
78	0x3f5623fa77016240	0.0013513513513513514
79	0x3f5623fa77016240	0.0013513513513513514
80	0x3f5623fa77016240	0.0013513513513513514
81	0x3f5623fa77016240	0.0013513513513513514
82	0x3f5623fa77016240	0.0013513513513513514
83	0x3f5623fa77016240	0.0013513513513513514
84	0x3f5623fa77016240	0.0013513513513513514
85	0x3f5623fa77016240	0.0013513513513513514
86	0x3f5623fa77016240	0.0013513513513513514
87	0x3f5623fa77016240	0.0013513513513513514
88	0x3f5623fa77016240	0.0013513513513513514
89	0x3f5623fa77016240	0.0013513513513513514
90	0x3f5623fa77016240	0.0013513513513513514
91	0x3f5623fa77016240	0.0013513513513513514
92	0x3f5623fa77016240	0.0013513513513513514
93	0x3f5623fa77016240	0.0013513513513513514
94	0x3f5623fa77016240	0.0013513513513513514
95	0x3f5623fa77016240	0.0013513513513513514
96	0x3f5623fa77016240	0.0013513513513513514
97	0x3f5623fa77016240	0.0013513513513513514
98	0x3f5623fa77016240	0.0013513513513513514
99	0x3f5623fa77016240	0.0013513513513513514
100	0x3f5623fa77016240	0.0013513513513513514
101	0x3f5623fa77016240	0.0013513513513513514
102	0x3f5623fa77016240	0.0013513513513513514
103	0x3f5623fa77016240	0.0013513513513513514
104	0x3f5623fa77016240	0.0013513513513513514
105	0x3f5623fa77016240	0.0013513513513513514
106	0x3f5623fa77016240	0.0013513513513513514
107	0x3f5623fa77016240	0.0013513513513513514
108	0x3f5623fa77016240	0.0013513513513513514
109	0x3f5623fa77016240	0.0013513513513513514
110	0x3f5623fa77016240	0.0013513513513513514
111	0x3f5623fa77016240	0.0013513513513513514
112	0x3f5623fa77016240	0.0013513513513513514
113	0x3f5623fa77016240	0.0013513513513513514
114	0x3f5623fa77016240	0.0013513513513513514
115	0x3f5623fa77016240	0.0013513513513513514
116	0x3f5623fa77016240	0.0013513513513513514
117	0x3f5623fa77016240	0.0013513513513513514
118	0x3f5623fa77016240	0.0013513513513513514
119	0x3f5623fa77016240	0.0013513513513513514
120	0x3f5623fa77016240	0.0013513513513513514
121	0x3f5623fa77016240	0.0013513513513513514
122	0x3f5623fa77016240	0.0013513513513513514
123	0x3f5623fa77016240	0.0013513513513513514
124	0x3f5623fa77016240	0.0013513513513513514
125	0x3f5623fa77016240	0.0013513513513513514
126	0x3f5623fa77016240	0.0013513513513513514
127	0x3f5623fa77016240	0.0013513513513513514
128	0x3f5623fa77016240	0.0013513513513513514
129	0x3f5623fa77016240	0.0013513513513513514
130	0x3f5623fa77016240	0.0013513513513513514
131	0x3f5623fa77016240	0.0013513513513513514
132	0x3f5623fa77016240	0.0013513513513513514
133	0x3f5623fa77016240	0.0013513513513513514
134	0x3f5623fa77016240	0.0013513513513513514
135	0x3f5623fa77016240	0.0013513513513513514
136	0x3f5623fa77016240	0.0013513513513513514
137	0x3f5623fa77016240	0.0013513513513513514
138	0x3f5623fa77016240	0.0013513513513513514
139	0x3f5623fa77016240	0.0013513513513513514
140	0x3f5623fa77016240	0.0013513513513513514
141	0x3f5623fa77016240	0.0013513513513513514
142	0x3f5623fa77016240	0.0013513513513513514
143	0x3f5623fa77016240	0.0013513513513513514
144	0x3f5623fa77016240	0.0013513513513513514
145	0x3f5623fa77016240	0.0013513513513513514
146	0x3f5623fa77016240	0.0013513513513513514
147	0x3f5623fa77016240	0.0013513513513513514
148	0x3f5623fa77016240	0.0013513513513513514
149	0x3f5623fa77016240	0.0013513513513513514
150	0x3f5623fa77016240	0.0013513513513513514
151	0x3f5623fa77016240	0.0013513513513513514
152	0x3f5623fa77016240	0.0013513513513513514
153	0x3f5623fa77016240	0.0013513513513513514
154	0x3f5623fa77016240	0.0013513513513513514
155	0x3f5623fa77016240	0.0013513513513513514
156	0x3f5623fa77016240	0.0013513513513513514
157	0x3f5623fa77016240	0.0013513513513513514
158	0x3f5623fa77016240	0.0013513513513513514
159	0x3f5623fa77016240	0.0013513513513513514
160	0x3f5623fa77016240	0.0013513513513513514
161	0x3f5623fa77016240	0.0013513513513513514
162	0x3f5623fa77016240	0.0013513513513513514
163	0x3f5623fa77016240	0.0013513513513513514
164	0x3f5623fa77016240	0.0013513513513513514
165	0x3f5623fa77016240	0.0013513513513513514
166	0x3f5623fa77016240	0.0013513513513513514
167	0x3f5623fa77016240	0.0013513513513513514
168	0x3f5623fa77016240	0.0013513513513513514
169	0x3f5623fa77016240	0.0013513513513513514
170	0x3f5623fa77016240	0.0013513513513513514
171	0x3f5623fa77016240	0.0013513513513513514
172	0x3f5623fa77016240	0.0013513513513513514
173	0x3f5623fa77016240	0.0013513513513513514
174	0x3f5623fa77016240	0.0013513513513513514
175	0x3f5623fa77016240	0.0013513513513513514
176	0x3f5623fa77016240	0.0013513513513513514
177	0x3f5623fa77016240	0.0013513513513513514
178	0x3f5623fa77016240	0.0013513513513513514
179	0x3f5623fa77016240	0.0013513513513513514
180	0x3f5623fa77016240	0.0013513513513513514
181	0x3f5623fa77016240	0.0013513513513513514
182	0x3f5623fa77016240	0.0013513513513513514
183	0x3f5623fa77016240	0.0013513513513513514
184	0x3f5623fa77016240	0.0013513513513513514
185	0x3f5623fa77016240	0.0013513513513513514
186	0x3f5623fa77016240	0.0013513513513513514
187	0x3f5623fa77016240	0.0013513513513513514
188	0x3f5623fa77016240	0.0013513513513513514
189	0x3f5623fa77016240	0.0013513513513513514
190	0x3f5623fa77016240	0.0013513513513513514
191	0x3f5623fa77016240	0.0013513513513513514
192	0x3f5623fa77016240	0.0013513513513513514
193	0x3f5623fa77016240	0.0013513513513513514
194	0x3f5623fa77016240	0.0013513513513513514
195	0x3f5623fa77016240	0.0013513513513513514
196	0x3f5623fa77016240	0.0013513513513513514
197	0x3f5623fa77016240	0.0013513513513513514
198	0x3f5623fa77016240	0.0013513513513513514
199	0x3f5623fa77016240	0.0013513513513513514
200	0x3f5623fa77016240	0.0013513513513513514
201	0x3f5623fa77016240	0.0013513513513513514
202	0x3f5623fa77016240	0.0013513513513513514
203	0x3f5623fa77016240	0.0013513513513513514
204	0x3f5623fa77016240	0.0013513513513513514
205	0x3f5623fa77016240	0.0013513513513513514
206	0x3f5623fa77016240	0.0013513513513513514
207	0x3f5623fa77016240	0.0013513513513513514
208	0x3f5623fa77016240	0.0013513513513513514
209	0x3f5623fa77016240	0.0013513513513513514
210	0x3f5623fa77016240	0.0013513513513513514
211	0x3f5623fa77016240	0.0013513513513513514
212	0x3f5623fa77016240	0.0013513513513513514
213	0x3f5623fa77016240	0.0013513513513513514
214	0x3f5623fa77016240	0.0013513513513513514
215	0x3f5623fa77016240	0.0013513513513513514
216	0x3f5623fa77016240	0.0013513513513513514
217	0x3f5623fa77016240	0.0013513513513513514
218	0x3f5623fa77016240	0.0013513513513513514
219	0x3f5623fa77016240	0.0013513513513513514
220	0x3f5623fa77016240	0.0013513513513513514
221	0x3f5623fa77016240	0.0013513513513513514
222	0x3f5623fa77016240	0.0013513513513513514
223	0x3f5623fa77016240	0.0013513513513513514
224	0x3f5623fa77016240	0.0013513513513513514
225	0x3f5623fa77016240	0.0013513513513513514
226	0x3f5623fa77016240	0.0013513513513513514
227	0x3f5623fa77016240	0.0013513513513513514
228	0x3f5623fa77016240	0.0013513513513513514
229	0x3f5623fa77016240	0.0013513513513513514
230	0x3f5623fa77016240	0.0013513513513513514
231	0x3f5623fa77016240	0.0013513513513513514
232	0x3f5623fa77016240	0.0013513513513513514
233	0x3f5623fa77016240	0.0013513513513513514
234	0x3f5623fa77016240	0.0013513513513513514
235	0x3f5623fa77016240	0.0013513513513513514
236	0x3f5623fa77016240	0.0013513513513513514
237	0x3f5623fa77016240	0.0013513513513513514
238	0x3f5623fa77016240	0.0013513513513513514
239	0x3f5623fa77016240	0.0013513513513513514
240	0x3f5623fa77016240	0.0013513513513513514
241	0x3f5623fa77016240	0.0013513513513513514
242	0x3f5623fa77016240	0.0013513513513513514
243	0x3f5623fa77016240	0.0013513513513513514
244	0x3f5623fa77016240	0.0013513513513513514
245	0x3f5623fa77016240	0.0013513513513513514
246	0x3f5623fa77016240	0.0013513513513513514
247	0x3f5623fa77016240	0.0013513513513513514
248	0x3f5623fa77016240	0.0013513513513513514
249	0x3f5623fa77016240	0.0013513513513513514
250	0x3f5623fa77016240	0.0013513513513513514
251	0x3f5623fa77016240	0.0013513513513513514
252	0x3f5623fa77016240	0.0013513513513513514
253	0x3f5623fa77016240	0.0013513513513513514
254	0x3f5623fa77016240	0.0013513513513513514
255	0x3f5623fa77016240	0.0013513513513513514
