OASIS3_VNN_NeurIPS/test97.pth (torch, 10139 bytes, 5 tensors)

GFL.0.weight f8 [5, 1, 6, 1]
1.2132473728929094 0.03871016515660647 -0.5352645838585846 -0.15580246116514096 -0.10633516908187109 0.013890025607929048 -1.4108070245405935 -0.3596346246410017
0.32304801532871935 0.15395125333401732 -0.21044003453425522 0.02078021758174172 1.6298099129108234 -0.2642971468796708 -0.6271545057812827 -0.5016471720942365
-0.11939781552101608 -0.003267901024393633 0.8241395586660165 0.031738501450665126 -0.09653127631048214 -0.20569765884303504 -0.07319569497758141 0.029354739227270124
1.5446626895928572 0.0009684728883767937 -0.4601268278478758 -0.5574013255057337 0.04012488414373637 -0.5214402092162247
00000000: 0487 c813 7669 f33f e8a2 bd9a d1d1 a33f
00000010: 4226 4c31 e320 e1bf 7898 abc5 55f1 c3bf
00000020: 550b 9f19 c838 bbbf f431 d0ad 5f72 8c3f
00000030: 17e7 f562 aa92 f6bf dee8 d5f1 4004 d7bf
00000040: bbf8 3795 d1ac d43f 6ab8 1fb7 acb4 c33f
00000050: 91ff 0bf5 b2ef cabf 765c abcb 6847 953f
00000060: a560 2a8f b313 fa3f 0b8e 9194 3eea d0bf
00000070: 31d4 7b53 a611 e4bf f5d1 c85e 7e0d e0bf
00000080: 3469 e0f0 da90 bebf a8bd d700 49c5 6abf
00000090: eaee 79ec 595f ea3f 2d62 8263 0740 a03f
000000a0: dc6e cb12 46b6 b8bf e01b cc06 4d54 cabf
000000b0: 02ff 22fc f3bc b2bf f4dc da33 2b0f 9e3f
000000c0: 8c71 7239 f0b6 f83f 4061 fab0 23bc 4f3f
000000d0: 379b 67cb b772 ddbf e669 f94d 3bd6 e1bf
000000e0: ee67 4eb2 3f8b a43f 0ee6 ac60 a3af e0bf

GFL.0.bias f8 [5, 1]
2.0399167895716723 2.0725569805890243 1.7925813086157711 1.642361430548726 1.62904242169065
00000000: 552c cee4 bf51 0040 99cf 15c1 9894 0040
00000010: 57cf febc 69ae fc3f 65b2 86c7 1c47 fa3f
00000020: e653 4fc9 8e10 fa3f

GFL.3.weight f8 [5, 1, 10, 5]
1.2747562838357955 0.46309425479121413 1.3678855152267126 0.7922429035989008 0.9899273552855745 0.9451067293396528 0.7377631393863975 0.8257021314710965
0.49884571230865804 0.7720097679572039 0.8459219319452749 0.8320586815855127 0.9809936497336361 0.4856554537511675 0.6105930556170485 0.7093266318445766
0.8041633552132901 0.8267852790008169 0.40483494862459957 0.7488446926103333 0.8042202760445409 0.8520852781949196 0.8824217071562641 0.5803912589489608
0.6343507269903248 0.6613650750002266 0.8275739932648556 0.8194785259517309 0.551750785692925 0.5976751046756916 0.8781146798747628 0.9802736041213034
0.9264744809859102 0.573453547087227 0.48502007559227717 0.9145063061020543 0.7518926572640904 0.9360064562071969 0.518292124435609 0.6922422356778836
0.8831957250961296 0.7812481080375392 0.8866605975448314 0.5090181756437033 0.665330031574042 0.8065284532886962 0.8098267356096274 0.867506670409488
0.43880543879966527 0.6409612633908555 1.2773044293853404 0.6148297402331235 1.4478293524371482 0.9707847549996099 1.0714243852304743 0.7437458556274488
0.7808417739684693 0.9429513568522431 0.5843755579735653 0.6331688354234813 0.8871469902672997 1.0017594431754424 0.8429937858971536 0.650488515188074
0.5548415069069136 0.701601951872914 0.8728984309706952 0.9899254564745653 0.5176134558789917 0.6901412061785579 0.9133409764377443 0.9856536591082157
0.8472148357452819 0.5054525213060975 0.6290158247185753 0.8933995150360183 0.9990457295419624 0.9475823376317188 0.42048293906376316 0.6979694948433033
0.821478785100866 0.9731274597112729 0.7320278935085238 0.4954435865314217 0.7360451466667854 0.8145901214709037 0.8934027735198874 0.7270909805637337
0.618387973334053 0.6551956110146793 0.8882143450339853 0.8721574107863054 0.743451397160038 0.5188203590298109 0.6700192350189547 0.9121068154720088
0.8979899661854368 0.7285848279153428 0.5968193975502257 0.7178859174604421 1.2677284815097243 0.6956857080425276 1.2963718024548767 0.9294064756896493
1.1775702827229966 0.8967452283479653 0.6953031959489039 0.8026905998134364 0.7030439709026796 0.6147588781743586 0.7286356972494894 0.8631862529864069
0.9039151444489602 0.6256832653350022 0.6959850252363874 0.6898026977113767 0.881222951873932 0.8754358799191208 0.4645379913924199 0.7501709482751805
0.8686002044815582 0.9058969908336301 0.8210607465994928 0.5023305269541686 0.5612674025927967 0.7703677901600743 0.933527556893409 0.7978254422880582
0.44843633225905405 0.5190844969151778 0.7559514432315204 0.9122964387733703 0.7340719201470197 0.5537852025541873 0.6126008430185567 0.7199988722735466
0.8165933278758768 0.6980063683574076 0.44771669414289916 0.6022705263697706 0.8030477654711898 0.9539710436403127 0.972336305542751 0.5896059648279335
0.554495047801064 0.6595977511059741 0.9659944063841822 0.8338185006464098 0.4290859091575446 0.5256195831353598 1.1383245564200808 0.4690456479469254
1.397951330404597 0.9268727575875865 1.1771304549397688 0.800146040414491 0.7928741012177761 0.8524688876084165 0.4874082581719608 0.5649393640032715
0.8889725692261046 0.7537779668335849 0.6942658104233265 0.4446382774381682 0.6838461518541781 0.7775114418902878 0.8651839278235798 0.7560101472856577
0.4761633594568566 0.7078950563060882 0.7790112617547416 0.7529048775364073 0.8632922866826228 0.420980462356543 0.6555108236287837 0.7105232590223464
0.8549638810968657 0.9168648132760139 0.5118630775211748 0.706042782713021 0.8198218757207555 0.8883216694600925 0.7127443747577203 0.38072398413049974
0.6750904157762778 0.8648383377299292 0.9401467397575503 0.7649163685769524 0.4787217282414138 0.5843647116775269 0.8812019055856818 0.8796806923201381
0.8002657609315454 0.43472900100800527 0.5746859251512295 0.6252460786543342 0.8572980405921241 0.9156674263903863 0.5973440507520424 0.7137011932353731
1.1659027063963796 0.5732034805146818 1.1869769584630794 0.7133594268866189 1.2177670205045208 0.7292982276941962 0.8832471245700698 1.0353504786648842
0.41068847504017153 0.8196631114332358 0.8769730826746723 0.9170625898797553 0.7967780703055546 0.34896044713383906 0.5248576545591798 0.6886258463757574
0.7425783072381238 0.9217822104261785 0.3322231635045444 0.5073324896220558 0.8030477247277653 0.8154529894548972 0.7868529243152241 0.33125768290213337
0.7342660528157664 0.7998942525755685 0.8868735246194389 0.7217547970375614 0.572460921029084 0.5306312499900075 0.628370382577575 0.8037119273169281
0.8118991298009344 0.4755063291660907 0.571366579866253 0.7201495437273164 0.9456513021570832 0.9202262144387842 0.5170359523539959 0.6312918813834097
0.8726160062022866 0.6969862520256994 0.6698739898020352 0.4386592411150205 0.5389475281532301 0.7873291120662101 0.7883109196666561 0.7956991293750653
0.31315196488933883 0.6624145712780957
00000000: af1f 57d8 6665 f43f e6cc d215 56a3 dd3f
00000010: 2a22 09ec dbe2 f53f 6340 2eca 0d5a e93f
00000020: 0cc1 0b22 7cad ef3f 61c9 b777 503e ee3f
00000030: d67b 7b71 c19b e73f bdfc 5ce0 266c ea3f
00000040: 8864 0791 16ed df3f 1d33 32d4 4db4 e83f
00000050: 2c92 15df ca11 eb3f aa67 3887 39a0 ea3f
00000060: 9511 66cb 4c64 ef3f 3c0f bf9c fa14 df3f
00000070: 2047 a172 fa89 e33f 8889 bec3 cdb2 e63f
00000080: fa0b e9c9 b4bb e93f 85ed c366 0675 ea3f
00000090: 32b6 27d8 d0e8 d93f fd6c 1125 89f6 e73f
000000a0: 5086 0c29 2cbc e93f fb01 6858 4844 eb3f
000000b0: 5888 b072 cc3c ec3f e23d 82b0 9092 e23f
000000c0: acc0 53e5 994c e43f 41f6 fa16 e729 e53f
000000d0: 3af7 8274 7c7b ea3f 4595 9707 2b39 ea3f
000000e0: 47fd 8243 f1a7 e13f 26e5 868a 2720 e33f
000000f0: 4063 06f5 8319 ec3f 56a8 dabf 665e ef3f
00000100: c637 8dcf ada5 ed3f 8979 d040 bb59 e23f
00000110: 35a0 a4a4 910a df3f f935 96ba a243 ed3f
00000120: 63a8 a130 810f e83f 0d27 c8cf c3f3 ed3f
00000130: af35 875d d995 e03f 97af 6430 d926 e63f
00000140: 0128 68ae 2343 ec3f cda8 4208 fcff e83f
00000150: 786b a30b 865f ec3f 80b2 2e7c e049 e03f
00000160: 7007 d534 624a e53f a563 45c2 14cf e93f
00000170: 4ed5 1bc2 19ea e93f 2c0f 4f59 9dc2 eb3f
00000180: 3ee5 3c68 6315 dc3f b687 0832 c182 e43f
00000190: 87ef f3c4 d66f f43f 241a 5d6b afac e33f
000001a0: a780 6e1c 4f2a f73f e3b7 c530 ab10 ef3f
000001b0: 8b3a 6be5 8d24 f13f e292 ce1b c4cc e73f
000001c0: 4772 51e3 a7fc e83f 53c6 ec52 a82c ee3f
000001d0: bd80 c25e 34b3 e23f 33b0 1f4a eb42 e43f
000001e0: 182c be15 8263 ec3f f65c eee8 3407 f03f
000001f0: a11a a51a cef9 ea3f 0b01 654a cdd0 e43f
00000200: 191d d4f9 42c1 e13f 6853 c3ef 8573 e63f
00000210: 93f6 b7b0 c8ee eb3f f927 a126 78ad ef3f
00000220: ab08 1f18 4a90 e03f b415 c502 a315 e63f
00000230: bcb2 fcda 163a ed3f 3cae e18a 798a ef3f
00000240: afc8 8649 621c eb3f 0518 16c4 aa2c e03f
00000250: e2a5 7acb e520 e43f 54f1 6a94 ba96 ec3f
00000260: 06eb f2bf 2ef8 ef3f a1a7 cc31 9852 ee3f
00000270: 3b82 f345 31e9 da3f e4a4 3e1f c455 e63f
00000280: 88b6 8be0 8d49 ea3f 4c95 c932 dc23 ef3f
00000290: ca1f ccc2 c56c e73f f395 4a04 59b5 df3f
000002a0: 1a07 2a8d ae8d e73f 2297 6b4d 1f11 ea3f
000002b0: 398e cd69 c196 ec3f 1f9c d74d 5444 e73f
000002c0: 0bb4 3693 d5c9 e33f 1c4e 39c9 5cf7 e43f
000002d0: f349 787d 406c ec3f ab51 89a8 b6e8 eb3f
000002e0: ccf8 9e95 5aca e73f 4706 5127 2d9a e03f
000002f0: 7a1d c32d cc70 e53f c926 dda1 fa2f ed3f
00000300: 13e2 1c74 55bc ec3f 0e43 0821 9150 e73f
00000310: b117 43fe 2419 e33f bb0c 38e3 ebf8 e63f
00000320: 0fac 04a9 9d48 f43f d6ca 8aac 0e43 e63f
00000330: 1901 f05b f0bd f43f 9de2 38a6 b2bd ed3f
00000340: 8196 d0ef 53d7 f23f 6e27 930c 23b2 ec3f
00000350: 4df4 ec7c ec3f e63f b02b 6032 a4af e93f
00000360: dba9 d511 567f e63f 93e7 95cf 1aac e33f
00000370: 944f 4ccf fb50 e73f 6ade ddc6 389f eb3f
00000380: 8a8e f873 dfec ec3f 1e96 48e9 9805 e43f
00000390: 2fac 3c63 8245 e63f 2e9d 6b1b dd12 e63f
000003a0: 510f d979 fa32 ec3f 65ec 3f1b 9203 ec3f
000003b0: 14eb 318e fdba dd3f e509 2881 6601 e83f
000003c0: b482 f1a7 92cb eb3f ac9b a5af 1bfd ec3f
000003d0: c292 d52f 2146 ea3f 859e 2178 1713 e03f
000003e0: 3b4d 4e0e e7f5 e13f 4e23 145a daa6 e83f
000003f0: fdb3 d82e 75df ed3f 0068 d138 c987 e93f
00000400: 4f03 594d 2eb3 dc3f c88f 4317 579c e03f
00000410: 6063 c114 c130 e83f 9a3e 194d 8831 ed3f
00000420: 1d30 3e65 847d e73f b953 bfbe 9bb8 e13f
00000430: 0f89 4815 6d9a e33f e44b 3213 3b0a e73f
00000440: 707a ab54 8821 ea3f 5cd5 8f73 1156 e63f
00000450: 1ce3 cdeb 63a7 dc3f b74a c3d6 cc45 e33f
00000460: 7063 3a3a 91b2 e93f 2784 3848 ee86 ee3f
00000470: 64a0 2007 611d ef3f cecc 0e54 0dde e23f
00000480: 522f 0366 6cbe e13f 647d 30be 6c1b e53f
00000490: 753f f119 6de9 ee3f 4a6f e222 a4ae ea3f
000004a0: a163 c0be 2476 db3f 4483 f628 e0d1 e03f
000004b0: 61ed 60cf 9336 f23f d8d7 9009 d804 de3f
000004c0: 88cc d736 025e f63f 6d8b ac0e f1a8 ed3f
000004d0: 7578 71be 86d5 f23f 0f55 73de cb9a e93f
000004e0: 7b6c d281 395f e93f 3c57 24d5 6c47 eb3f
000004f0: 8587 2968 b231 df3f 35bf 93b7 fb13 e23f
00000500: 3ac0 fb99 7672 ec3f 1edc 7ff8 f21e e83f
00000510: d1f8 cfee 6c37 e63f a663 091b f474 dc3f
00000520: 50b1 3653 11e2 e53f 2ae8 e5ac 5fe1 e83f
00000530: 00de 6034 96af eb3f 4427 4131 3c31 e83f
00000540: 9cec 1ae2 7579 de3f 16b6 7a88 13a7 e63f
00000550: 5479 8e06 a9ed e83f 7291 40f8 cb17 e83f
00000560: 071c 4625 17a0 eb3f 49e2 8409 58f1 da3f
00000570: da1b b5d5 f1f9 e43f cb8b 1146 9bbc e63f
00000580: 0b50 9236 dd5b eb3f bff4 7be0 f456 ed3f
00000590: ac77 3fad 2e61 e03f 4b89 aa08 e797 e63f
000005a0: 3f83 1816 fb3b ea3f 5318 d590 216d ec3f
000005b0: 8dc1 7f4a cdce e63f 252c 2921 c85d d83f
000005c0: dc44 3337 579a e53f c910 1c73 c1ac eb3f
000005d0: f463 969d ae15 ee3f a8d1 66e4 317a e83f
000005e0: 3c9d ab75 60a3 de3f 23ed b29f 1db3 e23f
000005f0: 6f3a b556 ce32 ec3f 1401 8e1f 5826 ec3f
00000600: c5e7 e9f0 c69b e93f c2ef 7c96 99d2 db3f
00000610: 84df bfbc d363 e23f 37b9 7810 0402 e43f
00000620: e593 e84c fc6e eb3f 8a7e 4bc6 254d ed3f
00000630: 0216 4e45 711d e33f c1fc 81e2 a3d6 e63f
00000640: 3ca5 a498 89a7 f23f 2172 58d3 ae57 e23f
00000650: 8945 1b8d dbfd f23f bfae 1826 d7d3 e63f
00000660: af6d 7345 f97b f33f 5246 9f3c 6956 e73f
00000670: 4910 4a79 8f43 ec3f cd37 dca9 cb90 f03f
00000680: c710 4950 b848 da3f bcfc 2a22 ae3a ea3f
00000690: b3eb b1da 2910 ec3f 4065 fda4 9358 ed3f
000006a0: 2d3c 44b9 347f e93f 5d64 0233 5e55 d63f
000006b0: d561 ac47 a2cb e03f 83a7 2b12 3909 e63f
000006c0: 28d1 0995 33c3 e73f b314 fa67 3d7f ed3f
000006d0: 8671 8ef1 2443 d53f e9ff 6358 113c e03f
000006e0: a1a7 5a24 91b2 e93f 804b 24de 3018 ea3f
000006f0: 6944 162f e62d e93f f741 a76c 5333 d53f
00000700: e503 6d85 1b7f e73f f740 e2d4 bb98 e93f
00000710: 3fb8 fd95 4461 ec3f fb3c 2084 9d18 e73f
00000720: c3da c190 9951 e23f 752a 1e63 eefa e03f
00000730: 1e43 5e34 9c1b e43f 1967 6713 02b8 e93f
00000740: fcaa 44e2 13fb e93f bacc 3319 b26e de3f
00000750: 98b1 d190 a248 e23f 7e38 510e 770b e73f
00000760: 50e7 0585 c642 ee3f 7df7 fd3e 7e72 ed3f
00000770: 9bee 46fb 8e8b e03f afb4 1808 8b33 e43f
00000780: c95b 1367 78ec eb3f a5c8 c61c b64d e63f
00000790: 4281 d493 9b6f e53f 1c57 ab35 fe12 dc3f
000007a0: 82b3 f5e2 0e3f e13f 3f6b 70d2 cc31 e93f
000007b0: fb88 61d2 d739 e93f f8e3 4305 5e76 e93f
000007c0: b42e f889 ae0a d43f a510 010b 8032 e53f

GFL.3.bias f8 [5, 1]
1.5908200333396025 1.526637362361804 1.5080028753125438 1.303246481345627 1.3659652993643034
00000000: 5a3e 10b5 ff73 f93f 6121 834c 1b6d f83f
00000010: 89dc 7b9f c720 f83f cc1a 80fb 18da f43f
00000020: 39d9 036e feda f53f

MLP.0.weight f8 [1, 740]
0.0013513513513513514 0.0013513513513513514 0.0013513513513513514 0.0013513513513513514 0.0013513513513513514 0.0013513513513513514 0.0013513513513513514 0.0013513513513513514
0.0013513513513513514 0.0013513513513513514 0.0013513513513513514 0.0013513513513513514 0.0013513513513513514 0.0013513513513513514 0.0013513513513513514 0.0013513513513513514
0.0013513513513513514 0.0013513513513513514 0.0013513513513513514 0.0013513513513513514 0.0013513513513513514 0.0013513513513513514 0.0013513513513513514 0.0013513513513513514
0.0013513513513513514 0.0013513513513513514 0.0013513513513513514 0.0013513513513513514 0.0013513513513513514 0.0013513513513513514 0.0013513513513513514 0.0013513513513513514
0.0013513513513513514 0.0013513513513513514 0.0013513513513513514 0.0013513513513513514 0.0013513513513513514 0.0013513513513513514 0.0013513513513513514 0.0013513513513513514
0.0013513513513513514 0.0013513513513513514 0.0013513513513513514 0.0013513513513513514 0.0013513513513513514 0.0013513513513513514 0.0013513513513513514 0.0013513513513513514
0.0013513513513513514 0.0013513513513513514 0.0013513513513513514 0.0013513513513513514 0.0013513513513513514 0.0013513513513513514 0.0013513513513513514 0.0013513513513513514
0.0013513513513513514 0.0013513513513513514 0.0013513513513513514 0.0013513513513513514 0.0013513513513513514 0.0013513513513513514 0.0013513513513513514 0.0013513513513513514
0.0013513513513513514 0.0013513513513513514 0.0013513513513513514 0.0013513513513513514 0.0013513513513513514 0.0013513513513513514 0.0013513513513513514 0.0013513513513513514
0.0013513513513513514 0.0013513513513513514 0.0013513513513513514 0.0013513513513513514 0.0013513513513513514 0.0013513513513513514 0.0013513513513513514 0.0013513513513513514
0.0013513513513513514 0.0013513513513513514 0.0013513513513513514 0.0013513513513513514 0.0013513513513513514 0.0013513513513513514 0.0013513513513513514 0.0013513513513513514
0.0013513513513513514 0.0013513513513513514 0.0013513513513513514 0.0013513513513513514 0.0013513513513513514 0.0013513513513513514 0.0013513513513513514 0.0013513513513513514
0.0013513513513513514 0.0013513513513513514 0.0013513513513513514 0.0013513513513513514 0.0013513513513513514 0.0013513513513513514 0.0013513513513513514 0.0013513513513513514
0.0013513513513513514 0.0013513513513513514 0.0013513513513513514 0.0013513513513513514 0.0013513513513513514 0.0013513513513513514 0.0013513513513513514 0.0013513513513513514
0.0013513513513513514 0.0013513513513513514 0.0013513513513513514 0.0013513513513513514 0.0013513513513513514 0.0013513513513513514 0.0013513513513513514 0.0013513513513513514
0.0013513513513513514 0.0013513513513513514 0.0013513513513513514 0.0013513513513513514 0.0013513513513513514 0.0013513513513513514 0.0013513513513513514 0.0013513513513513514
0.0013513513513513514 0.0013513513513513514 0.0013513513513513514 0.0013513513513513514 0.0013513513513513514 0.0013513513513513514 0.0013513513513513514 0.0013513513513513514
0.0013513513513513514 0.0013513513513513514 0.0013513513513513514 0.0013513513513513514 0.0013513513513513514 0.0013513513513513514 0.0013513513513513514 0.0013513513513513514
0.0013513513513513514 0.0013513513513513514 0.0013513513513513514 0.0013513513513513514 0.0013513513513513514 0.0013513513513513514 0.0013513513513513514 0.0013513513513513514
0.0013513513513513514 0.0013513513513513514 0.0013513513513513514 0.0013513513513513514 0.0013513513513513514 0.0013513513513513514 0.0013513513513513514 0.0013513513513513514
0.0013513513513513514 0.0013513513513513514 0.0013513513513513514 0.0013513513513513514 0.0013513513513513514 0.0013513513513513514 0.0013513513513513514 0.0013513513513513514
0.0013513513513513514 0.0013513513513513514 0.0013513513513513514 0.0013513513513513514 0.0013513513513513514 0.0013513513513513514 0.0013513513513513514 0.0013513513513513514
0.0013513513513513514 0.0013513513513513514 0.0013513513513513514 0.0013513513513513514 0.0013513513513513514 0.0013513513513513514 0.0013513513513513514 0.0013513513513513514
0.0013513513513513514 0.0013513513513513514 0.0013513513513513514 0.0013513513513513514 0.0013513513513513514 0.0013513513513513514 0.0013513513513513514 0.0013513513513513514
0.0013513513513513514 0.0013513513513513514 0.0013513513513513514 0.0013513513513513514 0.0013513513513513514 0.0013513513513513514 0.0013513513513513514 0.0013513513513513514
0.0013513513513513514 0.0013513513513513514 0.0013513513513513514 0.0013513513513513514 0.0013513513513513514 0.0013513513513513514 0.0013513513513513514 0.0013513513513513514
0.0013513513513513514 0.0013513513513513514 0.0013513513513513514 0.0013513513513513514 0.0013513513513513514 0.0013513513513513514 0.0013513513513513514 0.0013513513513513514
0.0013513513513513514 0.0013513513513513514 0.0013513513513513514 0.0013513513513513514 0.0013513513513513514 0.0013513513513513514 0.0013513513513513514 0.0013513513513513514
0.0013513513513513514 0.0013513513513513514 0.0013513513513513514 0.0013513513513513514 0.0013513513513513514 0.0013513513513513514 0.0013513513513513514 0.0013513513513513514
0.0013513513513513514 0.0013513513513513514 0.0013513513513513514 0.0013513513513513514 0.0013513513513513514 0.0013513513513513514 0.0013513513513513514 0.0013513513513513514
0.0013513513513513514 0.0013513513513513514 0.0013513513513513514 0.0013513513513513514 0.0013513513513513514 0.0013513513513513514 0.0013513513513513514 0.0013513513513513514
0.0013513513513513514 0.0013513513513513514 0.0013513513513513514 0.0013513513513513514 0.0013513513513513514 0.0013513513513513514 0.0013513513513513514 0.0013513513513513514
00000000: 4062 0177 fa23 563f 4062 0177 fa23 563f
00000010: 4062 0177 fa23 563f 4062 0177 fa23 563f
00000020: 4062 0177 fa23 563f 4062 0177 fa23 563f
00000030: 4062 0177 fa23 563f 4062 0177 fa23 563f
00000040: 4062 0177 fa23 563f 4062 0177 fa23 563f
00000050: 4062 0177 fa23 563f 4062 0177 fa23 563f
00000060: 4062 0177 fa23 563f 4062 0177 fa23 563f
00000070: 4062 0177 fa23 563f 4062 0177 fa23 563f
00000080: 4062 0177 fa23 563f 4062 0177 fa23 563f
00000090: 4062 0177 fa23 563f 4062 0177 fa23 563f
000000a0: 4062 0177 fa23 563f 4062 0177 fa23 563f
000000b0: 4062 0177 fa23 563f 4062 0177 fa23 563f
000000c0: 4062 0177 fa23 563f 4062 0177 fa23 563f
000000d0: 4062 0177 fa23 563f 4062 0177 fa23 563f
000000e0: 4062 0177 fa23 563f 4062 0177 fa23 563f
000000f0: 4062 0177 fa23 563f 4062 0177 fa23 563f
00000100: 4062 0177 fa23 563f 4062 0177 fa23 563f
00000110: 4062 0177 fa23 563f 4062 0177 fa23 563f
00000120: 4062 0177 fa23 563f 4062 0177 fa23 563f
00000130: 4062 0177 fa23 563f 4062 0177 fa23 563f
00000140: 4062 0177 fa23 563f 4062 0177 fa23 563f
00000150: 4062 0177 fa23 563f 4062 0177 fa23 563f
00000160: 4062 0177 fa23 563f 4062 0177 fa23 563f
00000170: 4062 0177 fa23 563f 4062 0177 fa23 563f
00000180: 4062 0177 fa23 563f 4062 0177 fa23 563f
00000190: 4062 0177 fa23 563f 4062 0177 fa23 563f
000001a0: 4062 0177 fa23 563f 4062 0177 fa23 563f
000001b0: 4062 0177 fa23 563f 4062 0177 fa23 563f
000001c0: 4062 0177 fa23 563f 4062 0177 fa23 563f
000001d0: 4062 0177 fa23 563f 4062 0177 fa23 563f
000001e0: 4062 0177 fa23 563f 4062 0177 fa23 563f
000001f0: 4062 0177 fa23 563f 4062 0177 fa23 563f
00000200: 4062 0177 fa23 563f 4062 0177 fa23 563f
00000210: 4062 0177 fa23 563f 4062 0177 fa23 563f
00000220: 4062 0177 fa23 563f 4062 0177 fa23 563f
00000230: 4062 0177 fa23 563f 4062 0177 fa23 563f
00000240: 4062 0177 fa23 563f 4062 0177 fa23 563f
00000250: 4062 0177 fa23 563f 4062 0177 fa23 563f
00000260: 4062 0177 fa23 563f 4062 0177 fa23 563f
00000270: 4062 0177 fa23 563f 4062 0177 fa23 563f
00000280: 4062 0177 fa23 563f 4062 0177 fa23 563f
00000290: 4062 0177 fa23 563f 4062 0177 fa23 563f
000002a0: 4062 0177 fa23 563f 4062 0177 fa23 563f
000002b0: 4062 0177 fa23 563f 4062 0177 fa23 563f
000002c0: 4062 0177 fa23 563f 4062 0177 fa23 563f
000002d0: 4062 0177 fa23 563f 4062 0177 fa23 563f
000002e0: 4062 0177 fa23 563f 4062 0177 fa23 563f
000002f0: 4062 0177 fa23 563f 4062 0177 fa23 563f
00000300: 4062 0177 fa23 563f 4062 0177 fa23 563f
00000310: 4062 0177 fa23 563f 4062 0177 fa23 563f
00000320: 4062 0177 fa23 563f 4062 0177 fa23 563f
00000330: 4062 0177 fa23 563f 4062 0177 fa23 563f
00000340: 4062 0177 fa23 563f 4062 0177 fa23 563f
00000350: 4062 0177 fa23 563f 4062 0177 fa23 563f
00000360: 4062 0177 fa23 563f 4062 0177 fa23 563f
00000370: 4062 0177 fa23 563f 4062 0177 fa23 563f
00000380: 4062 0177 fa23 563f 4062 0177 fa23 563f
00000390: 4062 0177 fa23 563f 4062 0177 fa23 563f
000003a0: 4062 0177 fa23 563f 4062 0177 fa23 563f
000003b0: 4062 0177 fa23 563f 4062 0177 fa23 563f
000003c0: 4062 0177 fa23 563f 4062 0177 fa23 563f
000003d0: 4062 0177 fa23 563f 4062 0177 fa23 563f
000003e0: 4062 0177 fa23 563f 4062 0177 fa23 563f
000003f0: 4062 0177 fa23 563f 4062 0177 fa23 563f
00000400: 4062 0177 fa23 563f 4062 0177 fa23 563f
00000410: 4062 0177 fa23 563f 4062 0177 fa23 563f
00000420: 4062 0177 fa23 563f 4062 0177 fa23 563f
00000430: 4062 0177 fa23 563f 4062 0177 fa23 563f
00000440: 4062 0177 fa23 563f 4062 0177 fa23 563f
00000450: 4062 0177 fa23 563f 4062 0177 fa23 563f
00000460: 4062 0177 fa23 563f 4062 0177 fa23 563f
00000470: 4062 0177 fa23 563f 4062 0177 fa23 563f
00000480: 4062 0177 fa23 563f 4062 0177 fa23 563f
00000490: 4062 0177 fa23 563f 4062 0177 fa23 563f
000004a0: 4062 0177 fa23 563f 4062 0177 fa23 563f
000004b0: 4062 0177 fa23 563f 4062 0177 fa23 563f
000004c0: 4062 0177 fa23 563f 4062 0177 fa23 563f
000004d0: 4062 0177 fa23 563f 4062 0177 fa23 563f
000004e0: 4062 0177 fa23 563f 4062 0177 fa23 563f
000004f0: 4062 0177 fa23 563f 4062 0177 fa23 563f
00000500: 4062 0177 fa23 563f 4062 0177 fa23 563f
00000510: 4062 0177 fa23 563f 4062 0177 fa23 563f
00000520: 4062 0177 fa23 563f 4062 0177 fa23 563f
00000530: 4062 0177 fa23 563f 4062 0177 fa23 563f
00000540: 4062 0177 fa23 563f 4062 0177 fa23 563f
00000550: 4062 0177 fa23 563f 4062 0177 fa23 563f
00000560: 4062 0177 fa23 563f 4062 0177 fa23 563f
00000570: 4062 0177 fa23 563f 4062 0177 fa23 563f
00000580: 4062 0177 fa23 563f 4062 0177 fa23 563f
00000590: 4062 0177 fa23 563f 4062 0177 fa23 563f
000005a0: 4062 0177 fa23 563f 4062 0177 fa23 563f
000005b0: 4062 0177 fa23 563f 4062 0177 fa23 563f
000005c0: 4062 0177 fa23 563f 4062 0177 fa23 563f
000005d0: 4062 0177 fa23 563f 4062 0177 fa23 563f
000005e0: 4062 0177 fa23 563f 4062 0177 fa23 563f
000005f0: 4062 0177 fa23 563f 4062 0177 fa23 563f
00000600: 4062 0177 fa23 563f 4062 0177 fa23 563f
00000610: 4062 0177 fa23 563f 4062 0177 fa23 563f
00000620: 4062 0177 fa23 563f 4062 0177 fa23 563f
00000630: 4062 0177 fa23 563f 4062 0177 fa23 563f
00000640: 4062 0177 fa23 563f 4062 0177 fa23 563f
00000650: 4062 0177 fa23 563f 4062 0177 fa23 563f
00000660: 4062 0177 fa23 563f 4062 0177 fa23 563f
00000670: 4062 0177 fa23 563f 4062 0177 fa23 563f
00000680: 4062 0177 fa23 563f 4062 0177 fa23 563f
00000690: 4062 0177 fa23 563f 4062 0177 fa23 563f
000006a0: 4062 0177 fa23 563f 4062 0177 fa23 563f
000006b0: 4062 0177 fa23 563f 4062 0177 fa23 563f
000006c0: 4062 0177 fa23 563f 4062 0177 fa23 563f
000006d0: 4062 0177 fa23 563f 4062 0177 fa23 563f
000006e0: 4062 0177 fa23 563f 4062 0177 fa23 563f
000006f0: 4062 0177 fa23 563f 4062 0177 fa23 563f
00000700: 4062 0177 fa23 563f 4062 0177 fa23 563f
00000710: 4062 0177 fa23 563f 4062 0177 fa23 563f
00000720: 4062 0177 fa23 563f 4062 0177 fa23 563f
00000730: 4062 0177 fa23 563f 4062 0177 fa23 563f
00000740: 4062 0177 fa23 563f 4062 0177 fa23 563f
00000750: 4062 0177 fa23 563f 4062 0177 fa23 563f
00000760: 4062 0177 fa23 563f 4062 0177 fa23 563f
00000770: 4062 0177 fa23 563f 4062 0177 fa23 563f
00000780: 4062 0177 fa23 563f 4062 0177 fa23 563f
00000790: 4062 0177 fa23 563f 4062 0177 fa23 563f
000007a0: 4062 0177 fa23 563f 4062 0177 fa23 563f
000007b0: 4062 0177 fa23 563f 4062 0177 fa23 563f
000007c0: 4062 0177 fa23 563f 4062 0177 fa23 563f
000007d0: 4062 0177 fa23 563f 4062 0177 fa23 563f
000007e0: 4062 0177 fa23 563f 4062 0177 fa23 563f
000007f0: 4062 0177 fa23 563f 4062 0177 fa23 563f
