OASIS3_VNN_NeurIPS/test37.pth (torch, 10139 bytes, 5 tensors)

GFL.0.weight f8 [5, 1, 6, 1]
0.6994376027275104 0.22670956757338076 -0.0028774909386195518 0.029635282431436295 -0.06527351193338223 -0.30048275650344297 -1.515492654720909 -0.3356803542880912
-0.017833958053436794 0.1910402874318802 0.07187274649417696 0.10702045527089375 0.687145595328432 0.13168045305887024 -0.38250876373094883 -0.1645245439172567
-0.2722605157749536 0.21894809616174774 0.8953605248760378 0.18588722452325476 -0.14743891602443662 0.06146950646238092 -0.25517492348478177 -0.0870173018168971
-0.48167053500502616 -0.1560388623370677 -0.13070018409510514 -0.25358206886910184 -0.21311753217939206 -0.28276082645651496
00000000: 62d5 a9f7 ca61 e63f 1f80 35b1 d104 cd3f
00000010: fca1 3a2f 8992 67bf fa28 6723 b658 9e3f
00000020: 7d87 0ccf c3b5 b0bf 156e 0c07 1c3b d3bf
00000030: 22ac d539 753f f8bf 4eee e473 c97b d5bf
00000040: c017 64aa 1043 92bf c182 5e15 0274 c83f
00000050: 588b aa97 4066 b23f 9f3a 644b b165 bb3f
00000060: 88d5 70c2 18fd e53f 1185 b4b3 e7da c03f
00000070: a919 aa09 067b d8bf 91c8 c1e7 230f c5bf
00000080: 90b6 cf5e b76c d1bf 35a1 44c0 7d06 cc3f
00000090: 6f1a 8f1d cba6 ec3f cf29 090f 27cb c73f
000000a0: 55c7 3d45 47df c2bf 6014 ea5f ee78 af3f
000000b0: 9817 c833 c954 d0bf 3c5f 7d11 c446 b6bf
000000c0: 3dc7 d2a6 b0d3 debf b245 52d9 14f9 c3bf
000000d0: 1684 229c c8ba c0bf 9a44 2949 b03a d0bf
000000e0: 6e15 756f 6f47 cbbf 591f 8edd c018 d2bf

GFL.0.bias f8 [5, 1]
2.016473537006615 1.3514817241489765 2.14583337581469 2.347190584326383 2.248159064518323
00000000: f98a b5e0 bc21 0040 e6c8 e54c ab9f f53f
00000010: a250 5eb0 aa2a 0140 9e49 69db 0bc7 0240
00000020: 497f d2d1 3afc 0140

GFL.3.weight f8 [5, 1, 10, 5]
0.9696770163827437 0.41260541098545195 1.048497801860378 1.0253447493106091 0.5990690796937794 0.667926829441016 0.5902715620983657 0.8149428140226971
0.9976471641226003 0.619597040612588 0.7909095375134785 0.7305091546725011 0.8259903617711041 0.8880930093258058 0.8529401556725765 0.7452221181984019
0.5724375010646928 0.7756017504934194 0.8563364452243541 0.8369361029688371 0.7640172839386234 0.5585065074012935 0.7071693500342 0.8527585338631939
0.7304709424414874 0.7953759203423477 0.5542831659326921 0.6639262871617271 1.0063176358096244 0.6650636690288864 0.7167275442579694 0.7466663679636142
0.7131771492521156 0.9271841945404891 0.6731963646104089 0.669818988743743 0.7342756447302423 0.679870937085629 0.8364915297573755 0.8763454854051081
0.7370146630069594 0.6740768825958526 0.8756038755806372 0.9539463517147901 0.770159747867349 0.5817097923068751 0.6312898196990726 0.7448958887690733
0.7647199381143259 0.7111463784206373 1.0224330113469546 0.2983652617662036 1.2087519572092034 1.0943882822905115 0.8290201043728443 0.9153655932091856
0.5461766546312848 0.7950261919315609 0.8794501610728072 0.9264417480858138 0.6009459608065947 0.7637528580831904 0.737071448778456 0.8529137571353105
0.8419157038089854 0.638235734248801 0.7125355607377059 0.7750461535290093 1.0318828302272471 0.8428954379324833 0.7850995231738742 0.7864047148301951
0.7093335876276158 1.0097560333067808 0.7750431389673739 0.7101642585856132 0.7589173059093338 0.7880087152225109 0.7706078999890726 0.9519947598638224
0.6838299358422104 0.7580307106753299 0.6936042978021175 0.7647590490141914 0.948012169562097 0.7533783864242574 0.69854191299276 0.9105148949561689
0.9037010743274311 0.8728829087986206 0.6568954414680648 0.7055988125383373 0.887932190932461 1.0306528127314367 0.7957553280601956 0.6398665100551475
0.6780293655891774 0.8315016146633549 0.8204684846072299 0.9292886247671192 0.6813079439804328 -0.15830407083003048 0.571361393723849 0.825675585310969
0.35677293732156146 0.3062730265780643 0.334651114555988 0.35407255080699596 0.649319319717304 0.19075079580034876 0.45982711452904224 0.43389270199192187
0.42159443372462485 0.5020498212231623 0.28772406368402 0.3905209202623703 0.22080875041363904 0.44167844307557436 0.46834156847638014 0.5125142311805613
0.29175951415845275 0.32261527794185313 0.3040723379025071 0.36597549405232976 0.36396971388454025 0.26148607588143896 0.24439732693332755 0.2785037292178844
0.5995096468390915 0.3205450365864078 0.4276917528396334 0.4619846805718626 0.40178054234862776 0.3458143622626773 0.24446589989657702 0.23111932581171102
0.3418512418991702 0.5318670382447142 0.32725930290754357 0.3342304982430971 0.43985385281114164 0.36528087133739034 0.4535762018032961 0.451149482605554
0.42436674871366425 0.3663579734991687 0.3777042415851948 0.4284668437310663 0.45858426385634504 0.31897856528459834 1.0360060496508359 0.41430764132289466
1.0214019694164183 1.254299109355035 0.7162739276846729 0.776731495382576 0.5888776697268806 0.988601137909984 0.9686680216071537 0.830068672405279
0.7944059926500004 0.6374518222475545 0.6878442709782181 0.7728419818217432 0.8637051300247663 0.764082298680754 0.7132611837463702 0.6726924916879913
0.7572783413115162 0.6827521534169724 0.6312743065814799 0.6903529298983911 0.8890476263447034 0.7849909446262656 0.6769605719368742 0.6096131185913095
0.6279211309608862 0.7230847968343554 0.747522610744326 0.8618138046834316 0.7380039986967873 0.5427635147687616 0.8669577254047015 0.7863971452669555
0.636966812783337 0.8026298265233778 0.5914166606570315 0.6670686383093665 0.7813893700949175 0.6515425866998478 0.7035046330940352 0.7295614969948953
0.8672986059596143 0.7990586193854116 0.7776009302303722 0.5817698783524259 0.5680572189706145 0.9117215609008817 0.8613994810538611 0.8075503214470315
1.0765659151111684 0.38594255436697095 1.1917321115713444 1.1690407174076425 0.8224638036035721 0.7888554872987152 0.6126557035762332 0.793704132780621
0.8799157348126972 0.6627537973793992 0.8469035488775548 0.7500873693566267 0.8038941547498384 0.9933059247813556 0.8903748415708502 0.7848180515921033
0.5473538711859568 0.9065547058963617 0.7474258854947949 0.7364319340945211 0.717126443710504 0.7207989960554737 0.7567387669232792 0.9277141897937905
0.8146808495221506 0.7451457662632395 0.7707605315711981 0.7265458960269343 0.8073813793815044 0.817404896893959 0.5898040311245114 0.553977917395227
0.901069657260123 0.8565879644528729 0.653366469575868 0.6686032833884554 0.8076869396831842 0.7673919264977982 0.7450326807529074 0.6681959494984352
0.7715958231897182 0.6681323164987761 0.6707266438754906 0.872942874655923 0.7422226416658702 0.6490567179516598 0.6607622849191186 0.9345130440385093
0.752130689686637 0.886874853522185
00000000: e67e 2118 9807 ef3f 2f73 9586 2068 da3f
00000010: ffb0 8ea1 a5c6 f03f 52a1 56e5 cf67 f03f
00000020: 168c 2aeb 922b e33f 893e 1216 a85f e53f
00000030: 0115 df2f 81e3 e23f 64ce caf3 0214 ea3f
00000040: 9e51 dbbe b9ec ef3f 7324 442c bdd3 e33f
00000050: 42e0 b684 214f e93f 68e7 17bc 5460 e73f
00000060: 7bc7 d356 836e ea3f b389 db07 426b ec3f
00000070: 39e2 4127 494b eb3f 1d60 3d0e dcd8 e73f
00000080: 5175 4273 6851 e23f e8dd 22c3 bad1 e83f
00000090: 6191 53b0 1b67 eb3f 94f8 e238 2ec8 ea3f
000000a0: 560b 0360 d472 e83f 1d89 fc09 49df e13f
000000b0: c62c e49d 21a1 e63f 7579 ca43 cc49 eb3f
000000c0: 13dd 0e99 0460 e73f 5dae bc33 b873 e93f
000000d0: a6ef cc0c b0bc e13f ee0e 4a57 e23e e53f
000000e0: c70b 7385 e019 f03f 2794 879a 3348 e53f
000000f0: 335f 579a 6eef e63f 8da8 eddd b0e4 e73f
00000100: e95a 89e2 58d2 e63f 906c 1d30 7eab ed3f
00000110: a435 391a d38a e53f 079d 5c3b 286f e53f
00000120: dcb3 0ba3 2f7f e73f a913 09b2 80c1 e53f
00000130: c90b 76e2 89c4 ea3f 6bfd f9af 050b ec3f
00000140: fc31 49c6 9f95 e73f 67a4 b7ae 0992 e53f
00000150: 80d4 3b6b f204 ec3f fa1c d87f ba86 ee3f
00000160: d825 390e 26a5 e83f 4712 b7da 5d9d e23f
00000170: d6f7 3cb5 8633 e43f 4a04 26e7 2fd6 e73f
00000180: 069b 99f2 9578 e83f 0889 bf0c b6c1 e63f
00000190: 1f60 a1b7 e25b f03f bc17 639c 6a18 d33f
000001a0: 4608 d34a 0c57 f33f 8903 9949 9d82 f13f
000001b0: 7f40 802b 5587 ea3f 6bf2 d6c8 ac4a ed3f
000001c0: 9d5c af76 477a e13f 34e7 b9c4 da70 e93f
000001d0: e2a0 08aa 7424 ec3f 3caf 352a 69a5 ed3f
000001e0: e17b 0a06 f33a e33f df33 76d5 a970 e83f
000001f0: ac33 eadc 1696 e73f 748c a6ca 114b eb3f
00000200: 3726 bb33 f9f0 ea3f b696 b758 6d6c e43f
00000210: ff5f 5360 17cd e63f ad86 4997 2dcd e83f
00000220: 4314 1292 9782 f03f 7ec3 7bda fff8 ea3f
00000230: 2c62 0409 891f e93f 68b5 7338 3a2a e93f
00000240: 2714 1a5a dcb2 e63f 68dc 3ff1 f527 f03f
00000250: 6954 db44 27cd e83f b839 2d65 aab9 e63f
00000260: f1f7 27f2 0c49 e83f 47ff 9a0d 5e37 e93f
00000270: f8c0 0fe6 d1a8 e83f ff82 f2b6 bd76 ee3f
00000280: 72fa 4e51 efe1 e53f 90da f69e c941 e83f
00000290: be9a eda3 0132 e63f 9fc0 1af8 e778 e83f
000002a0: b755 0f9e 1d56 ee3f ee92 66fd ac1b e83f
000002b0: c70d e691 745a e63f a171 0b22 f022 ed3f
000002c0: 8f15 f383 1eeb ec3f ade0 5023 a8ee eb3f
000002d0: f4e5 bf96 4905 e53f e15a fef5 4394 e63f
000002e0: 87db 23c5 f069 ec3f 1464 c3cd 8d7d f03f
000002f0: 7f5c b4e0 d376 e93f acc2 cf54 c979 e43f
00000300: 52dc dda3 6ab2 e53f 169c 3146 a99b ea3f
00000310: e82c 991f 4741 ea3f 4d6d 7d7f bbbc ed3f
00000320: a8d4 3c51 46cd e53f 6ff2 84cb 4e43 c4bf
00000330: 8bb5 87b0 9748 e23f 4885 8034 ef6b ea3f
00000340: b636 7928 5ed5 d63f b22e 332e fa99 d33f
00000350: 73a0 2582 ec6a d53f 7026 88ea 1fa9 d63f
00000360: e518 5b4f 39c7 e43f 2201 d3a6 856a c83f
00000370: 94d7 adb4 ce6d dd3f f4d0 41e5 e5c4 db3f
00000380: 3f77 4138 67fb da3f 54b7 63c9 ca10 e03f
00000390: b5e2 f230 126a d23f a890 3b75 4bfe d83f
000003a0: 0d3e d90c 7643 cc3f 06e6 16a9 7544 dc3f
000003b0: 4da8 fde9 4ef9 dd3f 88f6 b43e 8466 e03f
000003c0: b3df e618 30ac d23f 3bd0 fc8c baa5 d43f
000003d0: ba35 bad2 eb75 d33f 96e6 857a 246c d73f
000003e0: c696 77a0 474b d73f 374a 1118 30bc d03f
000003f0: 7a48 345f 6948 cf3f b782 334e 01d3 d13f
00000400: dcee d9da 2e2f e33f e128 4254 cf83 d43f
00000410: ddc4 cd3a 4d5f db3f 38c9 9331 2891 dd3f
00000420: af9d 63bc c5b6 d93f 5df0 1990 d221 d63f
00000430: 4a81 859a a84a cf3f f0dc ea6c 5195 cd3f
00000440: 7173 0308 e4e0 d53f 109b e205 0e05 e13f
00000450: 962d d300 d1f1 d43f ade9 d150 0864 d53f
00000460: 1afb 35c6 9026 dc3f 05e7 0f05 c360 d73f
00000470: a54c 3f7a 6407 dd3f b47b 5914 a2df dc3f
00000480: dd0a cf26 d328 db3f 69b2 b3b6 6872 d73f
00000490: 2ccf 4a69 4e2c d83f 8bb2 4f32 006c db3f
000004a0: 8349 eecf 7159 dd3f 326e 8112 256a d43f
000004b0: fc55 5b14 7b93 f03f 26be 7d32 0484 da3f
000004c0: 886a 6b97 a957 f03f 114f 61f1 9b11 f43f
000004d0: ad42 cc4c b7eb e63f 731f 4e02 fcda e83f
000004e0: e34a 9afb 15d8 e23f 9993 83da 9ea2 ef3f
000004f0: da7a 2f14 54ff ee3f 2246 2d2d ec8f ea3f
00000500: 8eb3 c51d c66b e93f f485 2a5d 0166 e43f
00000510: 03f5 12fd d102 e63f 8dce 9c1b 1fbb e83f
00000520: 6700 dbf0 78a3 eb3f b729 89b8 5c73 e83f
00000530: 0f4d 361e 09d3 e63f d011 8267 b286 e53f
00000540: e7dd bcc9 9f3b e83f 1162 460b 1bd9 e53f
00000550: 3252 b22c 6633 e43f 5990 1307 5f17 e63f
00000560: ec94 f701 1473 ec3f 3f6e 5a54 a51e e93f
00000570: 81cf a437 a9a9 e53f e7fd f15e f381 e33f
00000580: 0738 3e0e ee17 e43f 746d 54ba 8223 e73f
00000590: 7e5b c589 b4eb e73f d869 4b8b fa93 eb3f
000005a0: a709 d78f ba9d e73f 5f9a 2c97 515e e13f
000005b0: 7516 b420 1ebe eb3f d5db 9258 2a2a e93f
000005c0: 5256 b139 0862 e43f 34c9 f6be 24af e93f
000005d0: 7c9b faa1 e2ec e23f 3e3b 3754 a058 e53f
000005e0: a2fd bf47 2401 e93f 8777 bad6 6fd9 e43f
000005f0: c525 f725 1c83 e63f af71 405a 9158 e73f
00000600: 5bd0 8e01 e9c0 eb3f b51c bb61 e391 e93f
00000610: 4fb7 9558 1be2 e83f 484a 2add db9d e23f
00000620: 3789 3755 862d e23f 5413 e4b1 d22c ed3f
00000630: d75d fda4 9590 eb3f 3fa8 8fc5 73d7 e93f
00000640: a340 562e 9d39 f13f 8f03 4966 48b3 d83f
00000650: d1ab ccb0 5511 f33f cc54 0f0a 64b4 f23f
00000660: 20e0 539c 9f51 ea3f e2fa e6dc 4d3e e93f
00000670: 5a2b 5222 e09a e33f 17c5 9f35 0666 e93f
00000680: f733 080b 4528 ec3f 276b a173 4735 e53f
00000690: 3574 a978 d519 eb3f b7f0 103a b700 e83f
000006a0: 6813 033c 80b9 e93f 967c bb81 29c9 ef3f
000006b0: a34b 3761 f37d ec3f b6c0 1cbf 3a1d e93f
000006c0: 53a5 0244 ec83 e13f 4083 bb03 7f02 ed3f
000006d0: 9b49 ccb0 e9ea e73f d64f 15b4 d990 e73f
000006e0: 36ab da27 b3f2 e63f 5688 610e c910 e73f
000006f0: 92a0 f137 3437 e83f 0962 26ab d5af ed3f
00000700: 1901 ac92 dd11 ea3f a84f 1bef 3bd8 e73f
00000710: faaa 84fd 11aa e83f 8151 cf2d dd3f e73f
00000720: 49f9 7a79 11d6 e93f 69fe 7750 2e28 ea3f
00000730: dc51 17b4 acdf e23f e765 bde5 2fba e13f
00000740: 7d34 ab08 90d5 ec3f 141d af29 2b69 eb3f
00000750: df33 64cc 60e8 e43f 34da 84b6 3265 e53f
00000760: 290f eb47 92d8 e93f 26b8 7083 798e e83f
00000770: 471e c9c6 4ed7 e73f 574b cd78 dc61 e53f
00000780: ac8f 4ab9 e9b0 e83f 356a 1806 5761 e53f
00000790: c608 00b9 9776 e53f a18c 3de5 25ef eb3f
000007a0: ccc7 89b2 49c0 e73f 483f 1b98 12c5 e43f
000007b0: 180d 85f2 f624 e53f f595 3ae6 87e7 ed3f
000007c0: 79b4 5061 7411 e83f efb8 705f 4761 ec3f

GFL.3.bias f8 [5, 1]
1.4823578156323458 1.539019968454661 1.0443942133657458 1.4003245178151231 1.4521933609153084
00000000: 57c6 31d4 bcb7 f73f a475 0667 d39f f83f
00000010: b399 e8b4 d6b5 f03f c6d8 7cae ba67 f63f
00000020: db97 091b 2f3c f73f

MLP.0.weight f8 [1, 740]
0.0013513513513513514 0.0013513513513513514 0.0013513513513513514 0.0013513513513513514 0.0013513513513513514 0.0013513513513513514 0.0013513513513513514 0.0013513513513513514
0.0013513513513513514 0.0013513513513513514 0.0013513513513513514 0.0013513513513513514 0.0013513513513513514 0.0013513513513513514 0.0013513513513513514 0.0013513513513513514
0.0013513513513513514 0.0013513513513513514 0.0013513513513513514 0.0013513513513513514 0.0013513513513513514 0.0013513513513513514 0.0013513513513513514 0.0013513513513513514
0.0013513513513513514 0.0013513513513513514 0.0013513513513513514 0.0013513513513513514 0.0013513513513513514 0.0013513513513513514 0.0013513513513513514 0.0013513513513513514
0.0013513513513513514 0.0013513513513513514 0.0013513513513513514 0.0013513513513513514 0.0013513513513513514 0.0013513513513513514 0.0013513513513513514 0.0013513513513513514
0.0013513513513513514 0.0013513513513513514 0.0013513513513513514 0.0013513513513513514 0.0013513513513513514 0.0013513513513513514 0.0013513513513513514 0.0013513513513513514
0.0013513513513513514 0.0013513513513513514 0.0013513513513513514 0.0013513513513513514 0.0013513513513513514 0.0013513513513513514 0.0013513513513513514 0.0013513513513513514
0.0013513513513513514 0.0013513513513513514 0.0013513513513513514 0.0013513513513513514 0.0013513513513513514 0.0013513513513513514 0.0013513513513513514 0.0013513513513513514
0.0013513513513513514 0.0013513513513513514 0.0013513513513513514 0.0013513513513513514 0.0013513513513513514 0.0013513513513513514 0.0013513513513513514 0.0013513513513513514
0.0013513513513513514 0.0013513513513513514 0.0013513513513513514 0.0013513513513513514 0.0013513513513513514 0.0013513513513513514 0.0013513513513513514 0.0013513513513513514
0.0013513513513513514 0.0013513513513513514 0.0013513513513513514 0.0013513513513513514 0.0013513513513513514 0.0013513513513513514 0.0013513513513513514 0.0013513513513513514
0.0013513513513513514 0.0013513513513513514 0.0013513513513513514 0.0013513513513513514 0.0013513513513513514 0.0013513513513513514 0.0013513513513513514 0.0013513513513513514
0.0013513513513513514 0.0013513513513513514 0.0013513513513513514 0.0013513513513513514 0.0013513513513513514 0.0013513513513513514 0.0013513513513513514 0.0013513513513513514
0.0013513513513513514 0.0013513513513513514 0.0013513513513513514 0.0013513513513513514 0.0013513513513513514 0.0013513513513513514 0.0013513513513513514 0.0013513513513513514
0.0013513513513513514 0.0013513513513513514 0.0013513513513513514 0.0013513513513513514 0.0013513513513513514 0.0013513513513513514 0.0013513513513513514 0.0013513513513513514
0.0013513513513513514 0.0013513513513513514 0.0013513513513513514 0.0013513513513513514 0.0013513513513513514 0.0013513513513513514 0.0013513513513513514 0.0013513513513513514
0.0013513513513513514 0.0013513513513513514 0.0013513513513513514 0.0013513513513513514 0.0013513513513513514 0.0013513513513513514 0.0013513513513513514 0.0013513513513513514
0.0013513513513513514 0.0013513513513513514 0.0013513513513513514 0.0013513513513513514 0.0013513513513513514 0.0013513513513513514 0.0013513513513513514 0.0013513513513513514
0.0013513513513513514 0.0013513513513513514 0.0013513513513513514 0.0013513513513513514 0.0013513513513513514 0.0013513513513513514 0.0013513513513513514 0.0013513513513513514
0.0013513513513513514 0.0013513513513513514 0.0013513513513513514 0.0013513513513513514 0.0013513513513513514 0.0013513513513513514 0.0013513513513513514 0.0013513513513513514
0.0013513513513513514 0.0013513513513513514 0.0013513513513513514 0.0013513513513513514 0.0013513513513513514 0.0013513513513513514 0.0013513513513513514 0.0013513513513513514
0.0013513513513513514 0.0013513513513513514 0.0013513513513513514 0.0013513513513513514 0.0013513513513513514 0.0013513513513513514 0.0013513513513513514 0.0013513513513513514
0.0013513513513513514 0.0013513513513513514 0.0013513513513513514 0.0013513513513513514 0.0013513513513513514 0.0013513513513513514 0.0013513513513513514 0.0013513513513513514
0.0013513513513513514 0.0013513513513513514 0.0013513513513513514 0.0013513513513513514 0.0013513513513513514 0.0013513513513513514 0.0013513513513513514 0.0013513513513513514
0.0013513513513513514 0.0013513513513513514 0.0013513513513513514 0.0013513513513513514 0.0013513513513513514 0.0013513513513513514 0.0013513513513513514 0.0013513513513513514
0.0013513513513513514 0.0013513513513513514 0.0013513513513513514 0.0013513513513513514 0.0013513513513513514 0.0013513513513513514 0.0013513513513513514 0.0013513513513513514
0.0013513513513513514 0.0013513513513513514 0.0013513513513513514 0.0013513513513513514 0.0013513513513513514 0.0013513513513513514 0.0013513513513513514 0.0013513513513513514
0.0013513513513513514 0.0013513513513513514 0.0013513513513513514 0.0013513513513513514 0.0013513513513513514 0.0013513513513513514 0.0013513513513513514 0.0013513513513513514
0.0013513513513513514 0.0013513513513513514 0.0013513513513513514 0.0013513513513513514 0.0013513513513513514 0.0013513513513513514 0.0013513513513513514 0.0013513513513513514
0.0013513513513513514 0.0013513513513513514 0.0013513513513513514 0.0013513513513513514 0.0013513513513513514 0.0013513513513513514 0.0013513513513513514 0.0013513513513513514
0.0013513513513513514 0.0013513513513513514 0.0013513513513513514 0.0013513513513513514 0.0013513513513513514 0.0013513513513513514 0.0013513513513513514 0.0013513513513513514
0.0013513513513513514 0.0013513513513513514 0.0013513513513513514 0.0013513513513513514 0.0013513513513513514 0.0013513513513513514 0.0013513513513513514 0.0013513513513513514
00000000: 4062 0177 fa23 563f 4062 0177 fa23 563f
00000010: 4062 0177 fa23 563f 4062 0177 fa23 563f
00000020: 4062 0177 fa23 563f 4062 0177 fa23 563f
00000030: 4062 0177 fa23 563f 4062 0177 fa23 563f
00000040: 4062 0177 fa23 563f 4062 0177 fa23 563f
00000050: 4062 0177 fa23 563f 4062 0177 fa23 563f
00000060: 4062 0177 fa23 563f 4062 0177 fa23 563f
00000070: 4062 0177 fa23 563f 4062 0177 fa23 563f
00000080: 4062 0177 fa23 563f 4062 0177 fa23 563f
00000090: 4062 0177 fa23 563f 4062 0177 fa23 563f
000000a0: 4062 0177 fa23 563f 4062 0177 fa23 563f
000000b0: 4062 0177 fa23 563f 4062 0177 fa23 563f
000000c0: 4062 0177 fa23 563f 4062 0177 fa23 563f
000000d0: 4062 0177 fa23 563f 4062 0177 fa23 563f
000000e0: 4062 0177 fa23 563f 4062 0177 fa23 563f
000000f0: 4062 0177 fa23 563f 4062 0177 fa23 563f
00000100: 4062 0177 fa23 563f 4062 0177 fa23 563f
00000110: 4062 0177 fa23 563f 4062 0177 fa23 563f
00000120: 4062 0177 fa23 563f 4062 0177 fa23 563f
00000130: 4062 0177 fa23 563f 4062 0177 fa23 563f
00000140: 4062 0177 fa23 563f 4062 0177 fa23 563f
00000150: 4062 0177 fa23 563f 4062 0177 fa23 563f
00000160: 4062 0177 fa23 563f 4062 0177 fa23 563f
00000170: 4062 0177 fa23 563f 4062 0177 fa23 563f
00000180: 4062 0177 fa23 563f 4062 0177 fa23 563f
00000190: 4062 0177 fa23 563f 4062 0177 fa23 563f
000001a0: 4062 0177 fa23 563f 4062 0177 fa23 563f
000001b0: 4062 0177 fa23 563f 4062 0177 fa23 563f
000001c0: 4062 0177 fa23 563f 4062 0177 fa23 563f
000001d0: 4062 0177 fa23 563f 4062 0177 fa23 563f
000001e0: 4062 0177 fa23 563f 4062 0177 fa23 563f
000001f0: 4062 0177 fa23 563f 4062 0177 fa23 563f
00000200: 4062 0177 fa23 563f 4062 0177 fa23 563f
00000210: 4062 0177 fa23 563f 4062 0177 fa23 563f
00000220: 4062 0177 fa23 563f 4062 0177 fa23 563f
00000230: 4062 0177 fa23 563f 4062 0177 fa23 563f
00000240: 4062 0177 fa23 563f 4062 0177 fa23 563f
00000250: 4062 0177 fa23 563f 4062 0177 fa23 563f
00000260: 4062 0177 fa23 563f 4062 0177 fa23 563f
00000270: 4062 0177 fa23 563f 4062 0177 fa23 563f
00000280: 4062 0177 fa23 563f 4062 0177 fa23 563f
00000290: 4062 0177 fa23 563f 4062 0177 fa23 563f
000002a0: 4062 0177 fa23 563f 4062 0177 fa23 563f
000002b0: 4062 0177 fa23 563f 4062 0177 fa23 563f
000002c0: 4062 0177 fa23 563f 4062 0177 fa23 563f
000002d0: 4062 0177 fa23 563f 4062 0177 fa23 563f
000002e0: 4062 0177 fa23 563f 4062 0177 fa23 563f
000002f0: 4062 0177 fa23 563f 4062 0177 fa23 563f
00000300: 4062 0177 fa23 563f 4062 0177 fa23 563f
00000310: 4062 0177 fa23 563f 4062 0177 fa23 563f
00000320: 4062 0177 fa23 563f 4062 0177 fa23 563f
00000330: 4062 0177 fa23 563f 4062 0177 fa23 563f
00000340: 4062 0177 fa23 563f 4062 0177 fa23 563f
00000350: 4062 0177 fa23 563f 4062 0177 fa23 563f
00000360: 4062 0177 fa23 563f 4062 0177 fa23 563f
00000370: 4062 0177 fa23 563f 4062 0177 fa23 563f
00000380: 4062 0177 fa23 563f 4062 0177 fa23 563f
00000390: 4062 0177 fa23 563f 4062 0177 fa23 563f
000003a0: 4062 0177 fa23 563f 4062 0177 fa23 563f
000003b0: 4062 0177 fa23 563f 4062 0177 fa23 563f
000003c0: 4062 0177 fa23 563f 4062 0177 fa23 563f
000003d0: 4062 0177 fa23 563f 4062 0177 fa23 563f
000003e0: 4062 0177 fa23 563f 4062 0177 fa23 563f
000003f0: 4062 0177 fa23 563f 4062 0177 fa23 563f
00000400: 4062 0177 fa23 563f 4062 0177 fa23 563f
00000410: 4062 0177 fa23 563f 4062 0177 fa23 563f
00000420: 4062 0177 fa23 563f 4062 0177 fa23 563f
00000430: 4062 0177 fa23 563f 4062 0177 fa23 563f
00000440: 4062 0177 fa23 563f 4062 0177 fa23 563f
00000450: 4062 0177 fa23 563f 4062 0177 fa23 563f
00000460: 4062 0177 fa23 563f 4062 0177 fa23 563f
00000470: 4062 0177 fa23 563f 4062 0177 fa23 563f
00000480: 4062 0177 fa23 563f 4062 0177 fa23 563f
00000490: 4062 0177 fa23 563f 4062 0177 fa23 563f
000004a0: 4062 0177 fa23 563f 4062 0177 fa23 563f
000004b0: 4062 0177 fa23 563f 4062 0177 fa23 563f
000004c0: 4062 0177 fa23 563f 4062 0177 fa23 563f
000004d0: 4062 0177 fa23 563f 4062 0177 fa23 563f
000004e0: 4062 0177 fa23 563f 4062 0177 fa23 563f
000004f0: 4062 0177 fa23 563f 4062 0177 fa23 563f
00000500: 4062 0177 fa23 563f 4062 0177 fa23 563f
00000510: 4062 0177 fa23 563f 4062 0177 fa23 563f
00000520: 4062 0177 fa23 563f 4062 0177 fa23 563f
00000530: 4062 0177 fa23 563f 4062 0177 fa23 563f
00000540: 4062 0177 fa23 563f 4062 0177 fa23 563f
00000550: 4062 0177 fa23 563f 4062 0177 fa23 563f
00000560: 4062 0177 fa23 563f 4062 0177 fa23 563f
00000570: 4062 0177 fa23 563f 4062 0177 fa23 563f
00000580: 4062 0177 fa23 563f 4062 0177 fa23 563f
00000590: 4062 0177 fa23 563f 4062 0177 fa23 563f
000005a0: 4062 0177 fa23 563f 4062 0177 fa23 563f
000005b0: 4062 0177 fa23 563f 4062 0177 fa23 563f
000005c0: 4062 0177 fa23 563f 4062 0177 fa23 563f
000005d0: 4062 0177 fa23 563f 4062 0177 fa23 563f
000005e0: 4062 0177 fa23 563f 4062 0177 fa23 563f
000005f0: 4062 0177 fa23 563f 4062 0177 fa23 563f
00000600: 4062 0177 fa23 563f 4062 0177 fa23 563f
00000610: 4062 0177 fa23 563f 4062 0177 fa23 563f
00000620: 4062 0177 fa23 563f 4062 0177 fa23 563f
00000630: 4062 0177 fa23 563f 4062 0177 fa23 563f
00000640: 4062 0177 fa23 563f 4062 0177 fa23 563f
00000650: 4062 0177 fa23 563f 4062 0177 fa23 563f
00000660: 4062 0177 fa23 563f 4062 0177 fa23 563f
00000670: 4062 0177 fa23 563f 4062 0177 fa23 563f
00000680: 4062 0177 fa23 563f 4062 0177 fa23 563f
00000690: 4062 0177 fa23 563f 4062 0177 fa23 563f
000006a0: 4062 0177 fa23 563f 4062 0177 fa23 563f
000006b0: 4062 0177 fa23 563f 4062 0177 fa23 563f
000006c0: 4062 0177 fa23 563f 4062 0177 fa23 563f
000006d0: 4062 0177 fa23 563f 4062 0177 fa23 563f
000006e0: 4062 0177 fa23 563f 4062 0177 fa23 563f
000006f0: 4062 0177 fa23 563f 4062 0177 fa23 563f
00000700: 4062 0177 fa23 563f 4062 0177 fa23 563f
00000710: 4062 0177 fa23 563f 4062 0177 fa23 563f
00000720: 4062 0177 fa23 563f 4062 0177 fa23 563f
00000730: 4062 0177 fa23 563f 4062 0177 fa23 563f
00000740: 4062 0177 fa23 563f 4062 0177 fa23 563f
00000750: 4062 0177 fa23 563f 4062 0177 fa23 563f
00000760: 4062 0177 fa23 563f 4062 0177 fa23 563f
00000770: 4062 0177 fa23 563f 4062 0177 fa23 563f
00000780: 4062 0177 fa23 563f 4062 0177 fa23 563f
00000790: 4062 0177 fa23 563f 4062 0177 fa23 563f
000007a0: 4062 0177 fa23 563f 4062 0177 fa23 563f
000007b0: 4062 0177 fa23 563f 4062 0177 fa23 563f
000007c0: 4062 0177 fa23 563f 4062 0177 fa23 563f
000007d0: 4062 0177 fa23 563f 4062 0177 fa23 563f
000007e0: 4062 0177 fa23 563f 4062 0177 fa23 563f
000007f0: 4062 0177 fa23 563f 4062 0177 fa23 563f
