OASIS3_VNN_NeurIPS/test57.pth (torch, 10139 bytes, 5 tensors)

GFL.0.weight f8 [5, 1, 6, 1]
0	0xbfe4553c1e4fe1ed	-0.6354046432525685
1	0x3fce08195c4fc666	0.23462216384318707
2	0xbfdaf1d77ec8033c	-0.42101085072504296
3	0xbfb962657b0971eb	-0.09915766004400665
4	0xbfd7cd24ee4fd8da	-0.3718960120453524
5	0xbfc00c79c09dcf81	-0.12538072495555855
6	0x3fef9451e025df1f	0.9868554475678798
7	0xbfcc8bd5c59e2c16	-0.2230174269610365
8	0xbfda760e0fdc5d42	-0.41345550106912665
9	0x3fc9ddd5bd4bc87e	0.2020823644921314
10	0xbfc78c8d7d224e55	-0.1839768277173898
11	0xbfa2db4d793252cd	-0.036829396290305995
12	0xbfc97eb4e28c088c	-0.19917927801003932
13	0xbf6cf7ba6685f140	-0.003536094726028477
14	0x3fd6cb9760a7c563	0.356176227941509
15	0xbfbe9a27f4673ed0	-0.1195397350013494
16	0x3fc3f37bd30f475e	0.1558680325093133
17	0x3fd4e5715ad248dc	0.32650407666473114
18	0x3fe78d33d824be3d	0.735986635356262
19	0x3fcc6ff2489e8131	0.22216633363587726
20	0x3fd232032f342541	0.2843025170301026
21	0xbfdb619791e4cffe	-0.42783154723588257
22	0xbfceedf2d4c2fda1	-0.24163661373857528
23	0xbfb0734639580e9d	-0.06425894641875592
24	0x4004b2247158ae84	2.586983571547366
25	0xbfc0eee1898ba25e	-0.1322900697334885
26	0xbfed0c8649a5fd65	-0.90777887711003
27	0xbfe8131215c79df1	-0.7523279595743003
28	0xbfe6e486d62fb5b3	-0.7153963263823954
29	0xbfe3fb47939557a3	-0.6244237787711778

GFL.0.bias f8 [5, 1]
0	0x3ffe82fcda42289d	1.9069794202537544
1	0x3ff92e6c1175ff08	1.5738335306231779
2	0x4002b0da254628ea	2.3363535797153547
3	0x3ffa589d0c5a49f2	1.646634147885035
4	0x3ff78e45d65057ba	1.4722345706590958

GFL.3.weight f8 [5, 1, 10, 5]
0	0x3fe02bb3ac74f2cf	0.5053346985146961
1	0x3ff0c9f7454a9f0c	1.0493080813120654
2	0x3feb41b1d29172b6	0.8517693627032574
3	0x3feafba196d8f2c4	0.8432167001952497
4	0x4000d861e42c5559	2.1056554628400304
5	0x3fe7a4d6ab0dd777	0.7388718930148873
6	0x3fdfef00d82e3bce	0.498962603677623
7	0x3fef444895b7a760	0.9770853923957752
8	0x3fe2fba566d8a683	0.5932185181347481
9	0x3ff596a3cb1f783e	1.3492772993554492
10	0x3fe1a2e7244916ee	0.5511356075955669
11	0x3fe1ce8bde298769	0.5564631785493762
12	0x3ff00a1ab537bd32	1.0024668768708804
13	0x3fdb75c5cb845b42	0.4290632712813257
14	0x3ff3bb74b6a185bb	1.2332656034489975
15	0x3fe84f4f0c7a13d7	0.7596812480629705
16	0x3fdeb22457d2d6e4	0.479622922673441
17	0x3fe95251bfcd3890	0.7912987466932169
18	0x3fe25dce6d5f7dbd	0.5739509712402008
19	0x3ff29239ed98d46b	1.1606997758038016
20	0x3fe91f51af506e60	0.7850731300454292
21	0x3fdbc7e28dec3f9c	0.4340750108685769
22	0x3ff0b6a4b7ec00eb	1.0445906815003194
23	0x3fdad278bbb888cd	0.4190961678706458
24	0x3ff3198b7a49fcbb	1.1937365319170528
25	0x3fe3af4346aaaf0f	0.6151443844041483
26	0x3fe077efeb1df540	0.5146407692078938
27	0x3feb83f4ec3c374c	0.8598579992264859
28	0x3fdd989c1b138839	0.4624395622651068
29	0x3ff200ff5e7caf3f	1.1252435389423707
30	0x3fe646e71696ed8c	0.6961551133348833
31	0x3fda39f0329f830b	0.40978627151166397
32	0x3fe8c6800336eea6	0.77423096301887
33	0x3fe2681ba50c8825	0.5752084945309021
34	0x3ff0edba0474bbb2	1.0580387281477042
35	0x3fe1f0779db54d1a	0.5606039123762543
36	0x3fe0a4f8e989f954	0.5201382218654467
37	0x3fedc81ad97ea497	0.9306768653815592
38	0x3fe0d5c686704f2a	0.5260956407314314
39	0x3feff55d57411053	0.9987017349417421
40	0x3fe84de625f8a5d6	0.7595091573359081
41	0x3fda3e5595187f25	0.4100545841229056
42	0x3ff05f87472a1173	1.0233223705154983
43	0x3fdbc7c4fad3a00a	0.4340679597357854
44	0x3ff2a38367c1c20f	1.1649202397349006
45	0x3fe776a9d9a90eba	0.7332352877787891
46	0x3fe4002d84ef00cf	0.6250217052802557
47	0x3febd8768ac863b1	0.8701737127877235
48	0x3fdeb226e3aa3ac2	0.4796235297480217
49	0x3ff1794a9f1370f6	1.092112180128479
50	0x3fe1dd9a7b57c7c7	0.558301201728903
51	0x3ff05fae1223fec4	1.0233593662850788
52	0x3fe9d9b7013c2f2e	0.8078265213129947
53	0x3fe73fc5eb1f9d96	0.7265348045593096
54	0x4000b115f8dad4fc	2.0864676896841257
55	0x3fe6bc27bd68eb1d	0.710468168202485
56	0x3fdfec7bbf34216f	0.49880880043249126
57	0x3fe8e4e5ed6175fc	0.7779416691152501
58	0x3fe1133d41814e55	0.53359854501691
59	0x3ff5c3ccc71d52c2	1.360302713195026
60	0x3fe69ce7a5dbcce4	0.7066534270692526
61	0x3fdf33d7886e6094	0.4875391800246771
62	0x3ff0c03ce6a5e7d7	1.0469330796899976
63	0x3fdc240ee3c21755	0.4397008156014313
64	0x3ff162b185a5c0af	1.0865950794796324
65	0x3fe5e1aee4e41e8e	0.6837992163209081
66	0x3fe3724d2dca6fc6	0.6077028173781336
67	0x3fec4fb38d3d3129	0.884729171617015
68	0x3fdde6a35b169241	0.46720203299836177
69	0x3ff16ef9b82c3c7b	1.0895936197519223
70	0x3fe17cf97503cc52	0.54650566915951
71	0x3fe01a99f75864ff	0.5032472449267117
72	0x3fedfb21855d32ce	0.9369056324736336
73	0x3fe353efd9742228	0.6039962050572898
74	0x3ff39aa6af46f6bd	1.2252566191449852
75	0x3fe3303ea74b2d56	0.5996392505125339
76	0x3fdff08d2ca2a08a	0.49905709608948057
77	0x3fedb56156e1fb92	0.9283911415985691
78	0x3fe2dae8f972c3c4	0.5892224189793684
79	0x3ff01ba259626ab4	1.0067466250972474
80	0x3fe9a37cd3d55c0c	0.8012069833156388
81	0x3fe029b340b2f037	0.5050903571750557
82	0x3fee7a6497489deb	0.9524405436285951
83	0x3fda6fe415e5e94f	0.4130792821739719
84	0x3ff4103a204ff9c8	1.2539616834834408
85	0x3fe500b969633a55	0.656338411173986
86	0x3fdb88f9c2df057c	0.430235328964123
87	0x3fec0182e4bf51d4	0.875184485218194
88	0x3fdaaac4b8bb44c2	0.4166728786486368
89	0x3ff1272aad2ac61d	1.0720621837939526
90	0x3fe7f9b7bf0ef072	0.749233124886372
91	0x3fe58f3b49332e3f	0.6737343244253181
92	0x3fef58311c92d9cc	0.9795156057432961
93	0x3fe07bf92521af21	0.5151334500528472
94	0x3ff28a435a4b985c	1.1587556388053804
95	0x3fe58b677cd6e471	0.673267120196341
96	0x3fe0c1cbc4d8491c	0.5236567349077492
97	0x3fefa5df99eeb649	0.9889982229703459
98	0x3fe3a2abe7d58280	0.6136073616035702
99	0x3fefe73013dbb1dc	0.9969711673598414
100	0x3fe2ec1d859d24d7	0.5913226709027651
101	0x3feb636fe0381de2	0.8558883075028769
102	0x3feb1ab70a6071fd	0.8470111086531343
103	0x3feaa52c4eacaf9b	0.8326627289402383
104	0x4001ab7c42f8fcdf	2.208733103965286
105	0x3fe6286791277210	0.6924321970978458
106	0x3fe07d3d2ae49cb9	0.5152879560236193
107	0x3fef0b370ccbd94e	0.9701190233161385
108	0x3fe377b0bbb9d756	0.608360640194159
109	0x3ff521b2ceb98fba	1.320727164763396
110	0x3fe88e3da2d2a1e3	0.7673633747227168
111	0x3fe253eeae8d32a4	0.5727456483087576
112	0x3fe8e9a6131a72a9	0.7785215733634533
113	0x3fdb7c8e67669f7a	0.42947731111279774
114	0x3ff23e902e3bf1b2	1.140274220087218
115	0x3fe40f1102a84198	0.6268391658687049
116	0x3fe0be09eb997296	0.5231980897475121
117	0x3ff04b7a67b715bd	1.0184272815107385
118	0x3fe2b43f601105d6	0.5845028759287583
119	0x3ff09836f75f6d7d	1.0371617949484453
120	0x3fe22c81441232b8	0.5679327325356871
121	0x3fe55fa0b3efe520	0.6679233087917602
122	0x3ff07d57f9aa8c95	1.0306014778696284
123	0x3fe160ae8d458d47	0.5430519828045498
124	0x3ff32c312027d949	1.1982890373306694
125	0x3fe731040a8d5f64	0.7247333723162055
126	0x3fdeb31152c949bf	0.4796794231853276
127	0x3febcc92feee7c9a	0.8687224368221849
128	0x3fe251979c1380b2	0.5724599884379329
129	0x3ff122d66067acc8	1.0710052266902483
130	0x3fe791df7c08aef5	0.736556761029958
131	0x3fe0004fd520a157	0.500038067116331
132	0x3fee51f3d3444c36	0.947503960257001
133	0x3fe21ae2faf5ff45	0.565782060773906
134	0x3ff054b023441b8d	1.0206757905559443
135	0x3fe8d829dcac298a	0.7763871488580645
136	0x3fe198064d0fbe60	0.5498076920611759
137	0x3fee4924a16be422	0.9464285996210757
138	0x3fda9cf27555ef5e	0.4158292909485136
139	0x3ff3e531af8b2c23	1.2434555871175312
140	0x3fe99957447a50e5	0.7999683701950998
141	0x3fe203a256bdecd4	0.5629436201264988
142	0x3feb4b9914a7574d	0.8529782679931742
143	0x3fe249c0d3365564	0.5715030789603301
144	0x3ff1c1a71f783e66	1.1097785214696159
145	0x3fe77f05250696f9	0.7342553828391082
146	0x3fde79c04ff4f9dd	0.4761811047391385
147	0x3fef5e23135e315f	0.9802413347511382
148	0x3fe24f33e25a5369	0.5721682949975789
149	0x3ff3d3efb1d51116	1.239242262513533
150	0x3fdbdd3c17409888	0.43537809630141355
151	0x3feb5710a2882946	0.8543780493212487
152	0x3fe21ed95bb4c0dd	0.5662657538541925
153	0x3fec4c6b2f8b3a10	0.8843284538832581
154	0x3fffcbdc44b30ba6	1.9872706111498046
155	0x3fde8ae78e59cf4a	0.4772280588288039
156	0x3fd9afb40983f567	0.40134907654995405
157	0x3fe3b06a8b2c7927	0.6152851789700308
158	0x3fe1130bc56785ff	0.5335749488405667
159	0x3ff178bc31ef41b6	1.091976351792352
160	0x3fdc86583cd56bad	0.44569974842823507
161	0x3fddd82ef9967e6b	0.4663197934514531
162	0x3fe5399ddee3cf97	0.6632832864111035
163	0x3fdef37e63830732	0.48361167638732916
164	0x3ff1b8ace9ffc051	1.1075867786967317
165	0x3fde3a1bd93b7499	0.47229667867743214
166	0x3fde37639a7647e7	0.47213068088706084
167	0x3fe3c4cb5b549f79	0.6177727493095367
168	0x3fe1142b87fb24ef	0.533712163532213
169	0x3fef95dc5840ef34	0.9870435451225377
170	0x3fdf117ee9b3f28d	0.48544285605002174
171	0x3fd7e621c88535c6	0.3734211404997406
172	0x3fe5bc046cee3604	0.6792013289975221
173	0x3fd3f504cffd9014	0.31182976066179546
174	0x3fed505c61ed4742	0.9160596764215614
175	0x3fdda985f705973d	0.46347188113428556
176	0x3fd746ff009c73ad	0.36370825824433944
177	0x3fea3819f1334239	0.819348307699392
178	0x3fd9235c768e770a	0.3927832753923758
179	0x3ff0f44ac15e08a5	1.059641604748813
180	0x3fe3d979da3650a9	0.6202973615604793
181	0x3fda4f7df8f2e6b2	0.41110181151780545
182	0x3fe846866ec1a1db	0.7586090243540257
183	0x3fd95fdbe7f1f14d	0.39647576952826996
184	0x3ff09f5af7ccbe8b	1.038905113189602
185	0x3fdca9873f682359	0.44784718696660303
186	0x3fddc23d3c17a0a6	0.46498041981113614
187	0x3fe5cac04323cf6a	0.6809998809171536
188	0x3fd70548c164c104	0.359697522030743
189	0x3fecf7d07a244a23	0.905250776823156
190	0x3fe335a259c047ae	0.6002971413565683
191	0x3fdf5bef1d51de82	0.48998620856534825
192	0x3fe3872c7155a9a9	0.6102506841246412
193	0x3fe088984a319a47	0.5166741799446947
194	0x3fec492d27d8f7a8	0.8839326647064256
195	0x3fe001a5fa39f283	0.500201214526513
196	0x3fe142609c4576fc	0.5393527080702536
197	0x3fe41aeb871e1dfb	0.6282861365334037
198	0x3fdd1155ff2f48dd	0.4541831008947506
199	0x3fec46f5b936ed89	0.8836620919677652
200	0x3fe1bdc6ec0048ea	0.5544161424061518
201	0x3feec5eb03117744	0.9616599140096942
202	0x3fecab382f267758	0.8959008141425597
203	0x3fee31c97bb4abf9	0.9435775200012123
204	0x400194f1895ea5d1	2.197726319504661
205	0x3fe03877f3e1555d	0.5068931353841141
206	0x3fdf425684c047ce	0.4884239479443949
207	0x3fe962b8c985f66c	0.7933010040284905
208	0x3fe0bebf7d3c5bcf	0.5232846685420273
209	0x3ff6ddbfc7c23218	1.429137974078122
210	0x3fe8c47fd04c4f7d	0.7739867275545148
211	0x3fe4e8dbba6f3eee	0.6534250870990641
212	0x3feae635568830cc	0.8406016054227847
213	0x3fe01432473a5e36	0.5024653807803989
214	0x3ff25a5516c985b3	1.147053803455816
215	0x3fe9268e8a432fcf	0.7859566402853434
216	0x3fe2b984ce07b209	0.5851463340782753
217	0x3fe87445d8f82296	0.7641934621506887
218	0x3fddb9b183118714	0.46445882606177347
219	0x3fefb711a98729fa	0.991097289189667
220	0x3fe3ce45976926e2	0.6189296681634142
221	0x3fdc6b76aef54640	0.4440590580535151
222	0x3fe96cb2be483a28	0.7945188251922604
223	0x3fde288960b62694	0.47122415966496445
224	0x3fefa71b8b1d214d	0.9891488759103965
225	0x3fe907025836bb08	0.782105610172807
226	0x3fd96b0427dbef78	0.39715675251476723
227	0x3fe8bc73eb92b3ab	0.7730044938121997
228	0x3fd8217e2e69d05e	0.3770442441230041
229	0x3fefa312e419f59b	0.9886564688783211
230	0x3fe781f4b65766df	0.7346137582164508
231	0x3fda10105dd981c2	0.40723046460155043
232	0x3fe8075440fa7cec	0.7508946675406185
233	0x3fe348500a2e1fe2	0.602577228434708
234	0x3ff00a3ef9209422	1.0025014621289832
235	0x3fe4afce4e5a8112	0.6464606790869161
236	0x3fe4c508314b5e98	0.6490517580777633
237	0x3fe87955f3f915b2	0.7648114934060486
238	0x3fe32f61cbf4de0d	0.5995339377904557
239	0x3ff11c0ebfdaf7b8	1.0693500036572754
240	0x3fe71632a7dd55d8	0.7214597014050765
241	0x3fe50ba9fc550965	0.6576738289225373
242	0x3fefbb3d4a19c7c0	0.9916063735274676
243	0x3fd7e2b02e587101	0.3732109501450083
244	0x3ff273d5ae304515	1.1532799534073253
245	0x3fe6d558d365f93f	0.7135433319925041
246	0x3fe141222e81a8c0	0.5392008694009505
247	0x3fe9672117225231	0.7938390209042777
248	0x3fe31d5bf606e8e1	0.5973338895048778
249	0x3ff06e92d110a18d	1.0269954840278814

GFL.3.bias f8 [5, 1]
0	0x3ff85edb494e61b1	1.5231583465120873
1	0x3ff9a1381ddecebb	1.6018601576624139
2	0x3ff6a7d240333c63	1.4159719951456047
3	0x3ff469baf6fe1436	1.2758130691666003
4	0x3ff6f9500945fb22	1.4358673441162826

MLP.0.weight f8 [1, 740]
0	0x3f5623fa77016240	0.0013513513513513514
1	0x3f5623fa77016240	0.0013513513513513514
2	0x3f5623fa77016240	0.0013513513513513514
3	0x3f5623fa77016240	0.0013513513513513514
4	0x3f5623fa77016240	0.0013513513513513514
5	0x3f5623fa77016240	0.0013513513513513514
6	0x3f5623fa77016240	0.0013513513513513514
7	0x3f5623fa77016240	0.0013513513513513514
8	0x3f5623fa77016240	0.0013513513513513514
9	0x3f5623fa77016240	0.0013513513513513514
10	0x3f5623fa77016240	0.0013513513513513514
11	0x3f5623fa77016240	0.0013513513513513514
12	0x3f5623fa77016240	0.0013513513513513514
13	0x3f5623fa77016240	0.0013513513513513514
14	0x3f5623fa77016240	0.0013513513513513514
15	0x3f5623fa77016240	0.0013513513513513514
16	0x3f5623fa77016240	0.0013513513513513514
17	0x3f5623fa77016240	0.0013513513513513514
18	0x3f5623fa77016240	0.0013513513513513514
19	0x3f5623fa77016240	0.0013513513513513514
20	0x3f5623fa77016240	0.0013513513513513514
21	0x3f5623fa77016240	0.0013513513513513514
22	0x3f5623fa77016240	0.0013513513513513514
23	0x3f5623fa77016240	0.0013513513513513514
24	0x3f5623fa77016240	0.0013513513513513514
25	0x3f5623fa77016240	0.0013513513513513514
26	0x3f5623fa77016240	0.0013513513513513514
27	0x3f5623fa77016240	0.0013513513513513514
28	0x3f5623fa77016240	0.0013513513513513514
29	0x3f5623fa77016240	0.0013513513513513514
30	0x3f5623fa77016240	0.0013513513513513514
31	0x3f5623fa77016240	0.0013513513513513514
32	0x3f5623fa77016240	0.0013513513513513514
33	0x3f5623fa77016240	0.0013513513513513514
34	0x3f5623fa77016240	0.0013513513513513514
35	0x3f5623fa77016240	0.0013513513513513514
36	0x3f5623fa77016240	0.0013513513513513514
37	0x3f5623fa77016240	0.0013513513513513514
38	0x3f5623fa77016240	0.0013513513513513514
39	0x3f5623fa77016240	0.0013513513513513514
40	0x3f5623fa77016240	0.0013513513513513514
41	0x3f5623fa77016240	0.0013513513513513514
42	0x3f5623fa77016240	0.0013513513513513514
43	0x3f5623fa77016240	0.0013513513513513514
44	0x3f5623fa77016240	0.0013513513513513514
45	0x3f5623fa77016240	0.0013513513513513514
46	0x3f5623fa77016240	0.0013513513513513514
47	0x3f5623fa77016240	0.0013513513513513514
48	0x3f5623fa77016240	0.0013513513513513514
49	0x3f5623fa77016240	0.0013513513513513514
50	0x3f5623fa77016240	0.0013513513513513514
51	0x3f5623fa77016240	0.0013513513513513514
52	0x3f5623fa77016240	0.0013513513513513514
53	0x3f5623fa77016240	0.0013513513513513514
54	0x3f5623fa77016240	0.0013513513513513514
55	0x3f5623fa77016240	0.0013513513513513514
56	0x3f5623fa77016240	0.0013513513513513514
57	0x3f5623fa77016240	0.0013513513513513514
58	0x3f5623fa77016240	0.0013513513513513514
59	0x3f5623fa77016240	0.0013513513513513514
60	0x3f5623fa77016240	0.0013513513513513514
61	0x3f5623fa77016240	0.0013513513513513514
62	0x3f5623fa77016240	0.0013513513513513514
63	0x3f5623fa77016240	0.0013513513513513514
64	0x3f5623fa77016240	0.0013513513513513514
65	0x3f5623fa77016240	0.0013513513513513514
66	0x3f5623fa77016240	0.0013513513513513514
67	0x3f5623fa77016240	0.0013513513513513514
68	0x3f5623fa77016240	0.0013513513513513514
69	0x3f5623fa77016240	0.0013513513513513514
70	0x3f5623fa77016240	0.0013513513513513514
71	0x3f5623fa77016240	0.0013513513513513514
72	0x3f5623fa77016240	0.0013513513513513514
73	0x3f5623fa77016240	0.0013513513513513514
74	0x3f5623fa77016240	0.0013513513513513514
75	0x3f5623fa77016240	0.0013513513513513514
76	0x3f5623fa77016240	0.0013513513513513514
77	0x3f5623fa77016240	0.0013513513513513514
78	0x3f5623fa77016240	0.0013513513513513514
79	0x3f5623fa77016240	0.0013513513513513514
80	0x3f5623fa77016240	0.0013513513513513514
81	0x3f5623fa77016240	0.0013513513513513514
82	0x3f5623fa77016240	0.0013513513513513514
83	0x3f5623fa77016240	0.0013513513513513514
84	0x3f5623fa77016240	0.0013513513513513514
85	0x3f5623fa77016240	0.0013513513513513514
86	0x3f5623fa77016240	0.0013513513513513514
87	0x3f5623fa77016240	0.0013513513513513514
88	0x3f5623fa77016240	0.0013513513513513514
89	0x3f5623fa77016240	0.0013513513513513514
90	0x3f5623fa77016240	0.0013513513513513514
91	0x3f5623fa77016240	0.0013513513513513514
92	0x3f5623fa77016240	0.0013513513513513514
93	0x3f5623fa77016240	0.0013513513513513514
94	0x3f5623fa77016240	0.0013513513513513514
95	0x3f5623fa77016240	0.0013513513513513514
96	0x3f5623fa77016240	0.0013513513513513514
97	0x3f5623fa77016240	0.0013513513513513514
98	0x3f5623fa77016240	0.0013513513513513514
99	0x3f5623fa77016240	0.0013513513513513514
100	0x3f5623fa77016240	0.0013513513513513514
101	0x3f5623fa77016240	0.0013513513513513514
102	0x3f5623fa77016240	0.0013513513513513514
103	0x3f5623fa77016240	0.0013513513513513514
104	0x3f5623fa77016240	0.0013513513513513514
105	0x3f5623fa77016240	0.0013513513513513514
106	0x3f5623fa77016240	0.0013513513513513514
107	0x3f5623fa77016240	0.0013513513513513514
108	0x3f5623fa77016240	0.0013513513513513514
109	0x3f5623fa77016240	0.0013513513513513514
110	0x3f5623fa77016240	0.0013513513513513514
111	0x3f5623fa77016240	0.0013513513513513514
112	0x3f5623fa77016240	0.0013513513513513514
113	0x3f5623fa77016240	0.0013513513513513514
114	0x3f5623fa77016240	0.0013513513513513514
115	0x3f5623fa77016240	0.0013513513513513514
116	0x3f5623fa77016240	0.0013513513513513514
117	0x3f5623fa77016240	0.0013513513513513514
118	0x3f5623fa77016240	0.0013513513513513514
119	0x3f5623fa77016240	0.0013513513513513514
120	0x3f5623fa77016240	0.0013513513513513514
121	0x3f5623fa77016240	0.0013513513513513514
122	0x3f5623fa77016240	0.0013513513513513514
123	0x3f5623fa77016240	0.0013513513513513514
124	0x3f5623fa77016240	0.0013513513513513514
125	0x3f5623fa77016240	0.0013513513513513514
126	0x3f5623fa77016240	0.0013513513513513514
127	0x3f5623fa77016240	0.0013513513513513514
128	0x3f5623fa77016240	0.0013513513513513514
129	0x3f5623fa77016240	0.0013513513513513514
130	0x3f5623fa77016240	0.0013513513513513514
131	0x3f5623fa77016240	0.0013513513513513514
132	0x3f5623fa77016240	0.0013513513513513514
133	0x3f5623fa77016240	0.0013513513513513514
134	0x3f5623fa77016240	0.0013513513513513514
135	0x3f5623fa77016240	0.0013513513513513514
136	0x3f5623fa77016240	0.0013513513513513514
137	0x3f5623fa77016240	0.0013513513513513514
138	0x3f5623fa77016240	0.0013513513513513514
139	0x3f5623fa77016240	0.0013513513513513514
140	0x3f5623fa77016240	0.0013513513513513514
141	0x3f5623fa77016240	0.0013513513513513514
142	0x3f5623fa77016240	0.0013513513513513514
143	0x3f5623fa77016240	0.0013513513513513514
144	0x3f5623fa77016240	0.0013513513513513514
145	0x3f5623fa77016240	0.0013513513513513514
146	0x3f5623fa77016240	0.0013513513513513514
147	0x3f5623fa77016240	0.0013513513513513514
148	0x3f5623fa77016240	0.0013513513513513514
149	0x3f5623fa77016240	0.0013513513513513514
150	0x3f5623fa77016240	0.0013513513513513514
151	0x3f5623fa77016240	0.0013513513513513514
152	0x3f5623fa77016240	0.0013513513513513514
153	0x3f5623fa77016240	0.0013513513513513514
154	0x3f5623fa77016240	0.0013513513513513514
155	0x3f5623fa77016240	0.0013513513513513514
156	0x3f5623fa77016240	0.0013513513513513514
157	0x3f5623fa77016240	0.0013513513513513514
158	0x3f5623fa77016240	0.0013513513513513514
159	0x3f5623fa77016240	0.0013513513513513514
160	0x3f5623fa77016240	0.0013513513513513514
161	0x3f5623fa77016240	0.0013513513513513514
162	0x3f5623fa77016240	0.0013513513513513514
163	0x3f5623fa77016240	0.0013513513513513514
164	0x3f5623fa77016240	0.0013513513513513514
165	0x3f5623fa77016240	0.0013513513513513514
166	0x3f5623fa77016240	0.0013513513513513514
167	0x3f5623fa77016240	0.0013513513513513514
168	0x3f5623fa77016240	0.0013513513513513514
169	0x3f5623fa77016240	0.0013513513513513514
170	0x3f5623fa77016240	0.0013513513513513514
171	0x3f5623fa77016240	0.0013513513513513514
172	0x3f5623fa77016240	0.0013513513513513514
173	0x3f5623fa77016240	0.0013513513513513514
174	0x3f5623fa77016240	0.0013513513513513514
175	0x3f5623fa77016240	0.0013513513513513514
176	0x3f5623fa77016240	0.0013513513513513514
177	0x3f5623fa77016240	0.0013513513513513514
178	0x3f5623fa77016240	0.0013513513513513514
179	0x3f5623fa77016240	0.0013513513513513514
180	0x3f5623fa77016240	0.0013513513513513514
181	0x3f5623fa77016240	0.0013513513513513514
182	0x3f5623fa77016240	0.0013513513513513514
183	0x3f5623fa77016240	0.0013513513513513514
184	0x3f5623fa77016240	0.0013513513513513514
185	0x3f5623fa77016240	0.0013513513513513514
186	0x3f5623fa77016240	0.0013513513513513514
187	0x3f5623fa77016240	0.0013513513513513514
188	0x3f5623fa77016240	0.0013513513513513514
189	0x3f5623fa77016240	0.0013513513513513514
190	0x3f5623fa77016240	0.0013513513513513514
191	0x3f5623fa77016240	0.0013513513513513514
192	0x3f5623fa77016240	0.0013513513513513514
193	0x3f5623fa77016240	0.0013513513513513514
194	0x3f5623fa77016240	0.0013513513513513514
195	0x3f5623fa77016240	0.0013513513513513514
196	0x3f5623fa77016240	0.0013513513513513514
197	0x3f5623fa77016240	0.0013513513513513514
198	0x3f5623fa77016240	0.0013513513513513514
199	0x3f5623fa77016240	0.0013513513513513514
200	0x3f5623fa77016240	0.0013513513513513514
201	0x3f5623fa77016240	0.0013513513513513514
202	0x3f5623fa77016240	0.0013513513513513514
203	0x3f5623fa77016240	0.0013513513513513514
204	0x3f5623fa77016240	0.0013513513513513514
205	0x3f5623fa77016240	0.0013513513513513514
206	0x3f5623fa77016240	0.0013513513513513514
207	0x3f5623fa77016240	0.0013513513513513514
208	0x3f5623fa77016240	0.0013513513513513514
209	0x3f5623fa77016240	0.0013513513513513514
210	0x3f5623fa77016240	0.0013513513513513514
211	0x3f5623fa77016240	0.0013513513513513514
212	0x3f5623fa77016240	0.0013513513513513514
213	0x3f5623fa77016240	0.0013513513513513514
214	0x3f5623fa77016240	0.0013513513513513514
215	0x3f5623fa77016240	0.0013513513513513514
216	0x3f5623fa77016240	0.0013513513513513514
217	0x3f5623fa77016240	0.0013513513513513514
218	0x3f5623fa77016240	0.0013513513513513514
219	0x3f5623fa77016240	0.0013513513513513514
220	0x3f5623fa77016240	0.0013513513513513514
221	0x3f5623fa77016240	0.0013513513513513514
222	0x3f5623fa77016240	0.0013513513513513514
223	0x3f5623fa77016240	0.0013513513513513514
224	0x3f5623fa77016240	0.0013513513513513514
225	0x3f5623fa77016240	0.0013513513513513514
226	0x3f5623fa77016240	0.0013513513513513514
227	0x3f5623fa77016240	0.0013513513513513514
228	0x3f5623fa77016240	0.0013513513513513514
229	0x3f5623fa77016240	0.0013513513513513514
230	0x3f5623fa77016240	0.0013513513513513514
231	0x3f5623fa77016240	0.0013513513513513514
232	0x3f5623fa77016240	0.0013513513513513514
233	0x3f5623fa77016240	0.0013513513513513514
234	0x3f5623fa77016240	0.0013513513513513514
235	0x3f5623fa77016240	0.0013513513513513514
236	0x3f5623fa77016240	0.0013513513513513514
237	0x3f5623fa77016240	0.0013513513513513514
238	0x3f5623fa77016240	0.0013513513513513514
239	0x3f5623fa77016240	0.0013513513513513514
240	0x3f5623fa77016240	0.0013513513513513514
241	0x3f5623fa77016240	0.0013513513513513514
242	0x3f5623fa77016240	0.0013513513513513514
243	0x3f5623fa77016240	0.0013513513513513514
244	0x3f5623fa77016240	0.0013513513513513514
245	0x3f5623fa77016240	0.0013513513513513514
246	0x3f5623fa77016240	0.0013513513513513514
247	0x3f5623fa77016240	0.0013513513513513514
248	0x3f5623fa77016240	0.0013513513513513514
249	0x3f5623fa77016240	0.0013513513513513514
250	0x3f5623fa77016240	0.0013513513513513514
251	0x3f5623fa77016240	0.0013513513513513514
252	0x3f5623fa77016240	0.0013513513513513514
253	0x3f5623fa77016240	0.0013513513513513514
254	0x3f5623fa77016240	0.0013513513513513514
255	0x3f5623fa77016240	0.0013513513513513514
