OASIS3_VNN_NeurIPS/test60.pth (torch, 10139 bytes, 5 tensors)

GFL.0.weight f8 [5, 1, 6, 1]
00000000: 79ff 49dc d0e9 f63f 2a7b 2228 4804 dfbf
00000010: f238 6fde a7a8 e0bf 6944 2d5d ea42 c6bf
00000020: a32d 3cbc 0626 d7bf 0cba 0123 2114 d3bf
00000030: 581e 0c0f dbb2 02c0 82a3 a209 680a df3f
00000040: 3829 1791 2146 a6bf b1a5 98d0 a8e0 b6bf
00000050: cc23 7dde 5c8b e03f 4ab6 d361 a769 e13f
00000060: fa91 872b bd08 e6bf 30f9 99f6 e68a b0bf
00000070: c36c 8986 1535 873f 5331 676d 312b adbf
00000080: 78a6 685e 6424 d2bf 519d 6f1a 6150 bc3f
00000090: 793e 0adc 8c89 f73f b591 aadb 5ad0 d5bf
000000a0: 124c 2382 c7bf cdbf 0efd 301f bac1 dfbf
000000b0: 7861 0663 e92a ccbf f1f1 1897 e129 e2bf
000000c0: 4cbf d413 9386 e93f 9458 a163 b029 a03f
000000d0: ea3f 6429 8073 b1bf 6878 4333 959c a73f
000000e0: 596f 5b50 6c22 c23f eee8 f4bb 5313 d1bf
1.43208395052349 -0.48463634414103984 -0.5205878586218928 -0.1739170985188452 -0.3616959417565459 -0.2981036035406823 -2.3373318839619905 0.4850101560683059
-0.04350380798458037 -0.089365530897928 0.5170120568737899 0.5441471968349074 -0.688566765803045 -0.06461947937529966 0.011331718605268276 -0.05697016201483742
-0.28347119540794763 0.11060149093065276 1.4710815997422328 -0.34084197475229 -0.2324151406706681 -0.4961991600611818 -0.22005956015778927 -0.5676124526140126
0.7976775538754537 0.031568061983010015 -0.06816864977395168 0.04611650706077414 0.14167550967874368 -0.26680463175911384

GFL.0.bias f8 [5, 1]
00000000: 918b 65b6 adb5 fb3f 8195 52f5 d4e8 fd3f
00000010: 05a3 b8ba b617 f73f 3961 5334 a11f f73f
00000020: c85a 3e24 4587 0140
1.7318551182622495 1.8693437178529566 1.4432894986914004 1.4452220958683724 2.1910498458413237

GFL.3.weight f8 [5, 1, 10, 5]
00000000: ca00 684b 726b f13f 3243 5809 f0ca da3f
00000010: dd34 757e 3bfa d63f 1e00 de9b 8b81 f13f
00000020: c42a 2629 9050 f33f 5189 941d da06 ec3f
00000030: 25b6 4a99 5594 ee3f 2e03 3410 6542 df3f
00000040: 150c 5827 8a93 e53f 1327 84eb 53d8 ef3f
00000050: 311a da61 8e0b e83f 2d14 c0fc 5064 f03f
00000060: 479e 6cf1 538c d83f 4190 2f41 e674 df3f
00000070: 7cf9 b2ce d7b6 ed3f 7c9e 4c5b a9f1 eb3f
00000080: 12c4 db57 17d2 f33f e0ea 7973 d83e e23f
00000090: a079 8267 d05f e53f b8e2 0ced 9d1d ee3f
000000a0: d9c5 e1d2 e640 e93f b188 df66 3435 f03f
000000b0: fd87 6e0a 066b df3f 1538 c8d6 2a0c e63f
000000c0: b074 0f8f 20b8 e63f becb 1cf2 bb83 e43f
000000d0: 7546 1031 5411 f23f 2741 1833 322f e53f
000000e0: 5e59 e8fa 8469 e63f fe77 0314 6ee1 ee3f
000000f0: b4f2 7cb2 1e20 ec3f a29e 139c b555 f33f
00000100: d865 1bad ac5a d93f 3700 53ce 355b df3f
00000110: 3866 e1c6 05a0 ec3f 5176 0fbc f185 eb3f
00000120: 2005 3921 6b79 f13f d2af 1303 b04d e33f
00000130: bfad a6de 60f3 dd3f 46bf 5c82 6ae9 e73f
00000140: e89f 764c 66f0 ea3f 3920 53a5 b218 f33f
00000150: 217f e000 8c11 dd3f a3bb 29fb dad7 e23f
00000160: fad2 6391 32e9 ec3f f654 ea54 e414 eb3f
00000170: fd1c 6a7b cc43 f03f 1bc1 204b 3d18 e33f
00000180: 4a94 7d5d daf0 e13f 0676 2340 c4bf ee3f
00000190: db85 bf6b f6fe f33f d9a4 b920 d940 e13f
000001a0: ed03 288f c471 db3f 29b1 a5da 6e45 f23f
000001b0: 79f9 5810 95e2 f23f b603 7939 fdeb e63f
000001c0: e1b9 69f7 29f6 ed3f 7cd0 dfeb 51bf df3f
000001d0: 1254 cfa4 836d e63f 044c 8350 9776 ee3f
000001e0: 6d10 691a 9eb6 ec3f 6132 b827 52f1 f13f
000001f0: 9361 2244 e184 e13f 160a f858 6bcb e53f
00000200: c2d3 1ebe b513 ea3f 03f6 8368 b096 e53f
00000210: e4ef 65eb ebea f13f e529 3fe2 c190 dc3f
00000220: ebbe 2050 8b30 e53f 7f71 c609 b9e6 e73f
00000230: 618e 15b4 4ede e53f 311f 42f6 3fe5 f33f
00000240: 4b86 11f3 bd57 e23f d95b b8c2 2ddf e33f
00000250: 734b 2961 ec05 e93f f7b4 52c6 34c2 e33f
00000260: f87c 6321 4318 f23f 8e42 d52a 3f3e e43f
00000270: b42d dc89 dc16 e43f 6003 8e42 81b2 ee3f
00000280: 1cad 22b1 9dea eb3f fc21 bca8 07ab f23f
00000290: 4b08 503c 53d4 e33f c4d3 0f6e 3b21 e43f
000002a0: 0e17 df3b 1929 ea3f 1d97 343b 2b5d e83f
000002b0: 185e 7cd1 d1ec f33f 70a0 4be3 5a95 e23f
000002c0: b62a 5ee6 3353 e53f 7f7e ec5c eb42 ef3f
000002d0: 5e17 8936 e318 e43f 00cf 14dc 015c f33f
000002e0: cd63 957c ef3b e03f 4b47 4749 0c88 dd3f
000002f0: 1800 f740 fed9 e63f 6ab6 428f 16e6 ea3f
00000300: 4eaf 346c 311f f33f 7811 51b3 a56c da3f
00000310: 8c3b f202 9fd2 e13f a4b9 2d15 c728 eb3f
00000320: cf84 b313 293d f03f 0a6a 9ea0 8380 e03f
00000330: b657 b353 c8dd c93f 45e0 2295 6d20 ef3f
00000340: 8e70 7e16 3690 ed3f 57a3 98ca e03d ee3f
00000350: c0a8 51bb d50d f13f 189f 89c1 f34e dc3f
00000360: ea6e 5eac 0d14 e43f b842 533d ea9e ee3f
00000370: 5861 e53b e408 e73f dd65 3e0d 3288 f03f
00000380: ea53 1389 6521 dc3f 6858 39b5 ae97 e23f
00000390: 39a3 40c7 c28a e63f aa85 9368 a53d ea3f
000003a0: da11 d021 c359 f13f 7220 3e6c 9881 df3f
000003b0: 6771 ec98 ddc0 e63f 8d85 0fc0 9b91 ea3f
000003c0: a354 d83b aaf6 e73f b17d 0e8f 8fc8 f03f
000003d0: 9ce2 ec59 2647 da3f 6125 689b c709 e43f
000003e0: e4fb f817 c9e3 e83f d345 ae9c ac06 eb3f
000003f0: 50d7 37b9 7577 f03f 77ba 1b18 72c1 e13f
00000400: 5abb 0bd2 478b e43f 3f51 5541 6ed8 eb3f
00000410: 6541 81f2 3fdb e63f cd17 c61b 058a f03f
00000420: f8e2 0c82 2f08 e03f ff10 6465 5575 de3f
00000430: 31ab d53b 7d5b e93f cce4 c30d bb2d e33f
00000440: 253d 7f85 a28f f13f 58ce 4337 a3bb dd3f
00000450: a6f7 a43a 91a6 dc3f dadd 9998 cbe0 e83f
00000460: c293 07cb 7177 ea3f 3e19 c06f 42d0 f03f
00000470: 4f51 708a 265b d93f c4b5 abe3 09e9 e33f
00000480: 3e3a bb63 67f3 e83f 5722 1422 e3be ea3f
00000490: 8c32 bd82 f2aa ef3f 46d8 7891 18ed e03f
000004a0: eabc b1a7 7100 e03f 4b21 3f3f 612b e83f
000004b0: 9666 6f42 4aa5 f13f 6b5d c093 6768 e13f
000004c0: dc79 ee7e 38b7 db3f fa3c 9223 e560 f33f
000004d0: 8ce7 6c29 fb44 f33f da7e d15c 1c20 e73f
000004e0: 0951 2936 c593 ee3f 87fe 8b02 76f8 dd3f
000004f0: 6787 3bfc 2aa2 e43f c0b5 a988 eb87 ed3f
00000500: f5e7 6675 7ce4 e83f 6026 89cb 4f21 ef3f
00000510: 98f3 8061 91e4 d73f dbe6 5efa 4171 e43f
00000520: a78b 8c20 45cb ec3f 5408 e1ef f808 e53f
00000530: 2905 6e1a 14e4 f13f 1bce 57cf 3bf4 d93f
00000540: 29e2 721d 1fdc df3f 677e 269b ef1a ed3f
00000550: 21eb 7938 1762 eb3f b2ab 1c7f 39d9 f03f
00000560: f4be 15f7 1d39 d93f ee8a 8852 0ce6 e53f
00000570: e293 eda0 cba4 ed3f 1ea3 fc48 08fb eb3f
00000580: 844f e10e 48b3 f33f 4dfb 28dc ac87 e33f
00000590: 1643 bbfc d756 e43f e227 aea0 6513 e83f
000005a0: 43eb 2d90 b60b ea3f f91a 32db dea2 f03f
000005b0: 1d62 9248 6016 e53f ff6d a9f7 defb e63f
000005c0: 4797 f034 4569 e73f d6f0 19ed 7dab e83f
000005d0: 56c7 19dc 60cc f33f a036 1639 91f6 df3f
000005e0: 8748 7e31 29ae e53f df70 1b94 9266 ea3f
000005f0: cb06 d56e eaca ea3f 9b3a 4ab9 587d f03f
00000600: 2306 740c c727 e53f 1825 0fee b0ab df3f
00000610: 9e5f 859b 0740 ef3f b0a4 c2ad 7002 e53f
00000620: fc10 9cbb 31a0 f33f cc18 41c9 b3fe e13f
00000630: 28aa 253f d886 e63f a35a 26b0 38f8 ea3f
00000640: 6020 e14c 0390 f33f 8ce0 6661 0ece de3f
00000650: 57db f1e8 64bb d13f 8bf6 8bfc e37c f03f
00000660: 475a 06f2 1ff0 ec3f b814 21a7 4515 e83f
00000670: 9c37 7c4b e41d ec3f 85d8 dc7d b1a8 d83f
00000680: 395b 9581 f560 e93f 457e 9c89 8a0f e83f
00000690: d0f9 3330 bbf7 e53f 9274 0d5b 3e20 f13f
000006a0: bf52 bf3b bd02 d83f 4f9d 791f a9de e03f
000006b0: ccc0 99a0 2d95 e83f aeae 8c6b 346d e93f
000006c0: f475 371c cde5 ef3f 4185 e8c7 de78 e33f
000006d0: 3610 ee39 69c4 e23f d40d 7bfc 6b8c e73f
000006e0: 8a53 0c46 174b e43f 1fe5 d45d ebe9 f13f
000006f0: 8440 1cfa 6b6f d93f 00a4 3157 5308 e13f
00000700: 4154 1544 326f e63f 1ba3 d4e7 d774 e93f
00000710: 6ffe 87da 8828 f33f 07fa b257 bf9e dc3f
00000720: a976 de24 7b83 e63f 29a4 949b 91f1 ea3f
00000730: c975 7d6b 71f2 e33f 2569 4778 849a f23f
00000740: 272f be3f 2120 d93f 4bfd 29df c58e e03f
00000750: 92c9 d6c4 3a72 e53f 10c9 8783 9286 e93f
00000760: 27ba 20f0 e770 f03f 4376 1fde 558f dc3f
00000770: 12d2 6d08 7ab4 dc3f e06e 7942 ba50 e53f
00000780: 97a9 96ac 1673 eb3f 3c80 4716 fc9f f13f
00000790: f207 bfa4 00b2 e03f 6d86 d67e da19 e13f
000007a0: 4040 b952 3f29 e83f 9535 3bab 9db0 e83f
000007b0: e269 80bc 1fee ee3f c7b2 d04e 60b3 e03f
000007c0: 62db e349 74cb e43f 0ea7 1e8e 7094 ea3f
1.0887320466572867 0.4186363307244846 0.35902297353170615 1.0941272820055086 1.2071687323938685 0.8758364274729421 0.9556072229367528 0.48842741567937054
0.6742602127491205 0.9951572036672779 0.7514106665774475 1.0244912980135823 0.3835649354609569 0.4915099751071957 0.9285697018711256 0.8732497008504221
1.238791793057548 0.5701715712924305 0.6679460546181879 0.9411153440369935 0.7891725653445817 1.0129894274219107 0.49090720194556053 0.6889852709734919
0.7099764627597747 0.6410808304557276 1.1292306820436384 0.6620112417167875 0.7003807926692323 0.9650183096780436 0.8789208875746994 1.2084251496070597
0.3961593332765836 0.48994202755784805 0.8945340046295263 0.8601006196074171 1.0921431825411858 0.6032333431335195 0.4679796385123289 0.7472431703699633
0.8418456548142759 1.1935297449108602 0.4541959770740381 0.588849535515568 0.9034664954802729 0.8463002832892517 1.0165524311904044 0.5967089145033556
0.5606509996401965 0.9609090092378103 1.2497467240249225 0.5391660346187123 0.428818836022457 1.1419514218242262 1.1803179396225387 0.7163072702897952
0.9362993080410967 0.4960522464236943 0.7008684367125417 0.9519764492528116 0.8972921863392124 1.121416239885683 0.5474706965206216 0.681081460730925
0.8149059975900104 0.6746446648900818 1.1198538966409552 0.4463352879944565 0.662175804614859 0.7469144049569393 0.6833871381063085 1.2434692019905464
0.5732106921606798 0.6209935000541648 0.7819730661088741 0.617456805562738 1.1309233955615223 0.6325984798987336 0.6277907078341998 0.95929015158627
0.8723896464993319 1.1667553511816768 0.6196685960751521 0.6290566587109585 0.8175169152607127 0.7613731533390112 1.2453172858275874 0.5807318152774439
0.6664065837261066 0.9769188704412527 0.6280380311152205 1.209962711040987 0.5073163445732632 0.4614287105188068 0.7141104954571373 0.8405869291361345
1.1951154925145206 0.41288130294221714 0.5569605882209188 0.8487277425427249 1.0149317521648304 0.5156877648435636 0.20208076559964433 0.9727085030381281
0.9238539161047059 0.9450534779508456 1.0658776585719778 0.44231885814814254 0.6274479261951147 0.9568988034971744 0.7198353929370951 1.0332508580526032
0.43953836809424607 0.5810159244090416 0.7044385806703765 0.8200251619820638 1.0844146080790922 0.49228487558912726 0.7110431658543747 0.8302744628128252
0.7488604706619707 1.0489650333546303 0.4105926397492483 0.6261938128747425 0.7778058498587339 0.8445647297068554 1.0291650042613192 0.5548639746537692
0.6420020201165741 0.8701697612801026 0.7142638908790501 1.0336962780870522 0.5009992160840673 0.4759114732880931 0.7924181145329837 0.5993323582507855
1.0975671019294364 0.46457748791656206 0.4476664612483269 0.7774408321847048 0.8270806279584735 1.0508446088075085 0.39618838805588025 0.6221970984167275
0.7797123859289241 0.8358016648863423 0.9896175912377472 0.5289423791171053 0.5000541949538306 0.7552953944478217 1.1028540225146677 0.5439947019357708
0.43305790324839477 1.2111560239316632 1.204341089075089 0.7226697743280639 0.9555383737411215 0.46828985451427524 0.644795887605352 0.9228418034742205
0.7778913777358399 0.9728163695628602 0.3733256771263824 0.6388254060795718 0.899813235828664 0.6573452649247522 1.1181832344448799 0.40553183792437303
0.4978101527772503 0.9095380811958876 0.8557239630748407 1.0530333485901164 0.39411114816083104 0.6843320476512795 0.9263666289449441 0.8743935990833938
1.2312698918585463 0.6103119182588245 0.635601037613102 0.7523677957808526 0.8139298263552991 1.0397633135159465 0.6589814584177166 0.7182459675927361
0.7316003831844932 0.7709340697179197 1.2373970601733695 0.4994242722976683 0.6775098768869307 0.8250210659712386 0.837269989460958 1.030602191723722
0.6611056559779097 0.49485419509854145 0.9765661275405255 0.656547870040546 1.226609928941854 0.5623415880916354 0.7039605363218628 0.8428004684854681
1.2226593974210331 0.481326670760162 0.27706263302336737 1.03049086237971 0.904312107758252 0.7525966896288514 0.8786488985367558 0.38529622355725507
0.7930858164716944 0.7518971145363557 0.6864906255212251 1.0703719670048355 0.37516718706801194 0.5271802534815978 0.7682102333765441 0.7945806599213563
0.9968019057375259 0.6085046677073153 0.5864759570545235 0.7358913356078411 0.6341663711669849 1.1196092286393833 0.39742564606513775 0.5322663023954419
0.70107377336047 0.7955131080571819 1.1973961387992877 0.4471891743122857 0.7035499305818195 0.841988376491945 0.6233450984397503 1.1627239893337642
0.3925860521783186 0.5174283369705476 0.6701940388214089 0.797677285094581 1.0275649433130043 0.44624849979104314 0.44851542304175596 0.6661044405295478
0.8577988978261598 1.1015587682995962 0.5217288224887382 0.5344059445671526 0.7550350776382473 0.7715595573769628 0.9665678674385243 0.5218965091094895
0.6498357241788251 0.8306200767303566

GFL.3.bias f8 [5, 1]
00000000: 87e4 a7bb c74a f63f d2a8 7ad8 97fe f73f
00000010: 6093 7e1b 613d f43f d457 61c0 b042 f63f
00000020: 5c85 11f5 0b89 f63f
1.3932568865114108 1.4996565300194118 1.264985186958448 1.391281844601953 1.4084586689935668

MLP.0.weight f8 [1, 740]
00000000: 4062 0177 fa23 563f 4062 0177 fa23 563f
00000010: 4062 0177 fa23 563f 4062 0177 fa23 563f
00000020: 4062 0177 fa23 563f 4062 0177 fa23 563f
00000030: 4062 0177 fa23 563f 4062 0177 fa23 563f
00000040: 4062 0177 fa23 563f 4062 0177 fa23 563f
00000050: 4062 0177 fa23 563f 4062 0177 fa23 563f
00000060: 4062 0177 fa23 563f 4062 0177 fa23 563f
00000070: 4062 0177 fa23 563f 4062 0177 fa23 563f
00000080: 4062 0177 fa23 563f 4062 0177 fa23 563f
00000090: 4062 0177 fa23 563f 4062 0177 fa23 563f
000000a0: 4062 0177 fa23 563f 4062 0177 fa23 563f
000000b0: 4062 0177 fa23 563f 4062 0177 fa23 563f
000000c0: 4062 0177 fa23 563f 4062 0177 fa23 563f
000000d0: 4062 0177 fa23 563f 4062 0177 fa23 563f
000000e0: 4062 0177 fa23 563f 4062 0177 fa23 563f
000000f0: 4062 0177 fa23 563f 4062 0177 fa23 563f
00000100: 4062 0177 fa23 563f 4062 0177 fa23 563f
00000110: 4062 0177 fa23 563f 4062 0177 fa23 563f
00000120: 4062 0177 fa23 563f 4062 0177 fa23 563f
00000130: 4062 0177 fa23 563f 4062 0177 fa23 563f
00000140: 4062 0177 fa23 563f 4062 0177 fa23 563f
00000150: 4062 0177 fa23 563f 4062 0177 fa23 563f
00000160: 4062 0177 fa23 563f 4062 0177 fa23 563f
00000170: 4062 0177 fa23 563f 4062 0177 fa23 563f
00000180: 4062 0177 fa23 563f 4062 0177 fa23 563f
00000190: 4062 0177 fa23 563f 4062 0177 fa23 563f
000001a0: 4062 0177 fa23 563f 4062 0177 fa23 563f
000001b0: 4062 0177 fa23 563f 4062 0177 fa23 563f
000001c0: 4062 0177 fa23 563f 4062 0177 fa23 563f
000001d0: 4062 0177 fa23 563f 4062 0177 fa23 563f
000001e0: 4062 0177 fa23 563f 4062 0177 fa23 563f
000001f0: 4062 0177 fa23 563f 4062 0177 fa23 563f
00000200: 4062 0177 fa23 563f 4062 0177 fa23 563f
00000210: 4062 0177 fa23 563f 4062 0177 fa23 563f
00000220: 4062 0177 fa23 563f 4062 0177 fa23 563f
00000230: 4062 0177 fa23 563f 4062 0177 fa23 563f
00000240: 4062 0177 fa23 563f 4062 0177 fa23 563f
00000250: 4062 0177 fa23 563f 4062 0177 fa23 563f
00000260: 4062 0177 fa23 563f 4062 0177 fa23 563f
00000270: 4062 0177 fa23 563f 4062 0177 fa23 563f
00000280: 4062 0177 fa23 563f 4062 0177 fa23 563f
00000290: 4062 0177 fa23 563f 4062 0177 fa23 563f
000002a0: 4062 0177 fa23 563f 4062 0177 fa23 563f
000002b0: 4062 0177 fa23 563f 4062 0177 fa23 563f
000002c0: 4062 0177 fa23 563f 4062 0177 fa23 563f
000002d0: 4062 0177 fa23 563f 4062 0177 fa23 563f
000002e0: 4062 0177 fa23 563f 4062 0177 fa23 563f
000002f0: 4062 0177 fa23 563f 4062 0177 fa23 563f
00000300: 4062 0177 fa23 563f 4062 0177 fa23 563f
00000310: 4062 0177 fa23 563f 4062 0177 fa23 563f
00000320: 4062 0177 fa23 563f 4062 0177 fa23 563f
00000330: 4062 0177 fa23 563f 4062 0177 fa23 563f
00000340: 4062 0177 fa23 563f 4062 0177 fa23 563f
00000350: 4062 0177 fa23 563f 4062 0177 fa23 563f
00000360: 4062 0177 fa23 563f 4062 0177 fa23 563f
00000370: 4062 0177 fa23 563f 4062 0177 fa23 563f
00000380: 4062 0177 fa23 563f 4062 0177 fa23 563f
00000390: 4062 0177 fa23 563f 4062 0177 fa23 563f
000003a0: 4062 0177 fa23 563f 4062 0177 fa23 563f
000003b0: 4062 0177 fa23 563f 4062 0177 fa23 563f
000003c0: 4062 0177 fa23 563f 4062 0177 fa23 563f
000003d0: 4062 0177 fa23 563f 4062 0177 fa23 563f
000003e0: 4062 0177 fa23 563f 4062 0177 fa23 563f
000003f0: 4062 0177 fa23 563f 4062 0177 fa23 563f
00000400: 4062 0177 fa23 563f 4062 0177 fa23 563f
00000410: 4062 0177 fa23 563f 4062 0177 fa23 563f
00000420: 4062 0177 fa23 563f 4062 0177 fa23 563f
00000430: 4062 0177 fa23 563f 4062 0177 fa23 563f
00000440: 4062 0177 fa23 563f 4062 0177 fa23 563f
00000450: 4062 0177 fa23 563f 4062 0177 fa23 563f
00000460: 4062 0177 fa23 563f 4062 0177 fa23 563f
00000470: 4062 0177 fa23 563f 4062 0177 fa23 563f
00000480: 4062 0177 fa23 563f 4062 0177 fa23 563f
00000490: 4062 0177 fa23 563f 4062 0177 fa23 563f
000004a0: 4062 0177 fa23 563f 4062 0177 fa23 563f
000004b0: 4062 0177 fa23 563f 4062 0177 fa23 563f
000004c0: 4062 0177 fa23 563f 4062 0177 fa23 563f
000004d0: 4062 0177 fa23 563f 4062 0177 fa23 563f
000004e0: 4062 0177 fa23 563f 4062 0177 fa23 563f
000004f0: 4062 0177 fa23 563f 4062 0177 fa23 563f
00000500: 4062 0177 fa23 563f 4062 0177 fa23 563f
00000510: 4062 0177 fa23 563f 4062 0177 fa23 563f
00000520: 4062 0177 fa23 563f 4062 0177 fa23 563f
00000530: 4062 0177 fa23 563f 4062 0177 fa23 563f
00000540: 4062 0177 fa23 563f 4062 0177 fa23 563f
00000550: 4062 0177 fa23 563f 4062 0177 fa23 563f
00000560: 4062 0177 fa23 563f 4062 0177 fa23 563f
00000570: 4062 0177 fa23 563f 4062 0177 fa23 563f
00000580: 4062 0177 fa23 563f 4062 0177 fa23 563f
00000590: 4062 0177 fa23 563f 4062 0177 fa23 563f
000005a0: 4062 0177 fa23 563f 4062 0177 fa23 563f
000005b0: 4062 0177 fa23 563f 4062 0177 fa23 563f
000005c0: 4062 0177 fa23 563f 4062 0177 fa23 563f
000005d0: 4062 0177 fa23 563f 4062 0177 fa23 563f
000005e0: 4062 0177 fa23 563f 4062 0177 fa23 563f
000005f0: 4062 0177 fa23 563f 4062 0177 fa23 563f
00000600: 4062 0177 fa23 563f 4062 0177 fa23 563f
00000610: 4062 0177 fa23 563f 4062 0177 fa23 563f
00000620: 4062 0177 fa23 563f 4062 0177 fa23 563f
00000630: 4062 0177 fa23 563f 4062 0177 fa23 563f
00000640: 4062 0177 fa23 563f 4062 0177 fa23 563f
00000650: 4062 0177 fa23 563f 4062 0177 fa23 563f
00000660: 4062 0177 fa23 563f 4062 0177 fa23 563f
00000670: 4062 0177 fa23 563f 4062 0177 fa23 563f
00000680: 4062 0177 fa23 563f 4062 0177 fa23 563f
00000690: 4062 0177 fa23 563f 4062 0177 fa23 563f
000006a0: 4062 0177 fa23 563f 4062 0177 fa23 563f
000006b0: 4062 0177 fa23 563f 4062 0177 fa23 563f
000006c0: 4062 0177 fa23 563f 4062 0177 fa23 563f
000006d0: 4062 0177 fa23 563f 4062 0177 fa23 563f
000006e0: 4062 0177 fa23 563f 4062 0177 fa23 563f
000006f0: 4062 0177 fa23 563f 4062 0177 fa23 563f
00000700: 4062 0177 fa23 563f 4062 0177 fa23 563f
00000710: 4062 0177 fa23 563f 4062 0177 fa23 563f
00000720: 4062 0177 fa23 563f 4062 0177 fa23 563f
00000730: 4062 0177 fa23 563f 4062 0177 fa23 563f
00000740: 4062 0177 fa23 563f 4062 0177 fa23 563f
00000750: 4062 0177 fa23 563f 4062 0177 fa23 563f
00000760: 4062 0177 fa23 563f 4062 0177 fa23 563f
00000770: 4062 0177 fa23 563f 4062 0177 fa23 563f
00000780: 4062 0177 fa23 563f 4062 0177 fa23 563f
00000790: 4062 0177 fa23 563f 4062 0177 fa23 563f
000007a0: 4062 0177 fa23 563f 4062 0177 fa23 563f
000007b0: 4062 0177 fa23 563f 4062 0177 fa23 563f
000007c0: 4062 0177 fa23 563f 4062 0177 fa23 563f
000007d0: 4062 0177 fa23 563f 4062 0177 fa23 563f
000007e0: 4062 0177 fa23 563f 4062 0177 fa23 563f
000007f0: 4062 0177 fa23 563f 4062 0177 fa23 563f
0.0013513513513513514 0.0013513513513513514 0.0013513513513513514 0.0013513513513513514 0.0013513513513513514 0.0013513513513513514 0.0013513513513513514 0.0013513513513513514
0.0013513513513513514 0.0013513513513513514 0.0013513513513513514 0.0013513513513513514 0.0013513513513513514 0.0013513513513513514 0.0013513513513513514 0.0013513513513513514
0.0013513513513513514 0.0013513513513513514 0.0013513513513513514 0.0013513513513513514 0.0013513513513513514 0.0013513513513513514 0.0013513513513513514 0.0013513513513513514
0.0013513513513513514 0.0013513513513513514 0.0013513513513513514 0.0013513513513513514 0.0013513513513513514 0.0013513513513513514 0.0013513513513513514 0.0013513513513513514
0.0013513513513513514 0.0013513513513513514 0.0013513513513513514 0.0013513513513513514 0.0013513513513513514 0.0013513513513513514 0.0013513513513513514 0.0013513513513513514
0.0013513513513513514 0.0013513513513513514 0.0013513513513513514 0.0013513513513513514 0.0013513513513513514 0.0013513513513513514 0.0013513513513513514 0.0013513513513513514
0.0013513513513513514 0.0013513513513513514 0.0013513513513513514 0.0013513513513513514 0.0013513513513513514 0.0013513513513513514 0.0013513513513513514 0.0013513513513513514
0.0013513513513513514 0.0013513513513513514 0.0013513513513513514 0.0013513513513513514 0.0013513513513513514 0.0013513513513513514 0.0013513513513513514 0.0013513513513513514
0.0013513513513513514 0.0013513513513513514 0.0013513513513513514 0.0013513513513513514 0.0013513513513513514 0.0013513513513513514 0.0013513513513513514 0.0013513513513513514
0.0013513513513513514 0.0013513513513513514 0.0013513513513513514 0.0013513513513513514 0.0013513513513513514 0.0013513513513513514 0.0013513513513513514 0.0013513513513513514
0.0013513513513513514 0.0013513513513513514 0.0013513513513513514 0.0013513513513513514 0.0013513513513513514 0.0013513513513513514 0.0013513513513513514 0.0013513513513513514
0.0013513513513513514 0.0013513513513513514 0.0013513513513513514 0.0013513513513513514 0.0013513513513513514 0.0013513513513513514 0.0013513513513513514 0.0013513513513513514
0.0013513513513513514 0.0013513513513513514 0.0013513513513513514 0.0013513513513513514 0.0013513513513513514 0.0013513513513513514 0.0013513513513513514 0.0013513513513513514
0.0013513513513513514 0.0013513513513513514 0.0013513513513513514 0.0013513513513513514 0.0013513513513513514 0.0013513513513513514 0.0013513513513513514 0.0013513513513513514
0.0013513513513513514 0.0013513513513513514 0.0013513513513513514 0.0013513513513513514 0.0013513513513513514 0.0013513513513513514 0.0013513513513513514 0.0013513513513513514
0.0013513513513513514 0.0013513513513513514 0.0013513513513513514 0.0013513513513513514 0.0013513513513513514 0.0013513513513513514 0.0013513513513513514 0.0013513513513513514
0.0013513513513513514 0.0013513513513513514 0.0013513513513513514 0.0013513513513513514 0.0013513513513513514 0.0013513513513513514 0.0013513513513513514 0.0013513513513513514
0.0013513513513513514 0.0013513513513513514 0.0013513513513513514 0.0013513513513513514 0.0013513513513513514 0.0013513513513513514 0.0013513513513513514 0.0013513513513513514
0.0013513513513513514 0.0013513513513513514 0.0013513513513513514 0.0013513513513513514 0.0013513513513513514 0.0013513513513513514 0.0013513513513513514 0.0013513513513513514
0.0013513513513513514 0.0013513513513513514 0.0013513513513513514 0.0013513513513513514 0.0013513513513513514 0.0013513513513513514 0.0013513513513513514 0.0013513513513513514
0.0013513513513513514 0.0013513513513513514 0.0013513513513513514 0.0013513513513513514 0.0013513513513513514 0.0013513513513513514 0.0013513513513513514 0.0013513513513513514
0.0013513513513513514 0.0013513513513513514 0.0013513513513513514 0.0013513513513513514 0.0013513513513513514 0.0013513513513513514 0.0013513513513513514 0.0013513513513513514
0.0013513513513513514 0.0013513513513513514 0.0013513513513513514 0.0013513513513513514 0.0013513513513513514 0.0013513513513513514 0.0013513513513513514 0.0013513513513513514
0.0013513513513513514 0.0013513513513513514 0.0013513513513513514 0.0013513513513513514 0.0013513513513513514 0.0013513513513513514 0.0013513513513513514 0.0013513513513513514
0.0013513513513513514 0.0013513513513513514 0.0013513513513513514 0.0013513513513513514 0.0013513513513513514 0.0013513513513513514 0.0013513513513513514 0.0013513513513513514
0.0013513513513513514 0.0013513513513513514 0.0013513513513513514 0.0013513513513513514 0.0013513513513513514 0.0013513513513513514 0.0013513513513513514 0.0013513513513513514
0.0013513513513513514 0.0013513513513513514 0.0013513513513513514 0.0013513513513513514 0.0013513513513513514 0.0013513513513513514 0.0013513513513513514 0.0013513513513513514
0.0013513513513513514 0.0013513513513513514 0.0013513513513513514 0.0013513513513513514 0.0013513513513513514 0.0013513513513513514 0.0013513513513513514 0.0013513513513513514
0.0013513513513513514 0.0013513513513513514 0.0013513513513513514 0.0013513513513513514 0.0013513513513513514 0.0013513513513513514 0.0013513513513513514 0.0013513513513513514
0.0013513513513513514 0.0013513513513513514 0.0013513513513513514 0.0013513513513513514 0.0013513513513513514 0.0013513513513513514 0.0013513513513513514 0.0013513513513513514
0.0013513513513513514 0.0013513513513513514 0.0013513513513513514 0.0013513513513513514 0.0013513513513513514 0.0013513513513513514 0.0013513513513513514 0.0013513513513513514
0.0013513513513513514 0.0013513513513513514 0.0013513513513513514 0.0013513513513513514 0.0013513513513513514 0.0013513513513513514 0.0013513513513513514 0.0013513513513513514
