OASIS3_VNN_NeurIPS/test25.pth (torch, 10139 bytes, 5 tensors)

GFL.0.weight f8 [5, 1, 6, 1]
00000000: f681 7181 209b dcbf e9c9 3eac 691a d13f
00000010: 9d37 3899 eb18 cfbf 63cd bc55 ff78 bf3f
00000020: 3684 d912 67d2 babf c3fd e418 8854 b73f
00000030: 3cd7 dca3 97b9 f2bf 46ad f12c 2007 c03f
00000040: 0296 d277 7537 cc3f b766 fa71 e133 d0bf
00000050: be3c 0317 75e7 bcbf 77c7 ec8d ba83 d0bf
00000060: 41b7 2faf 7fc1 c6bf 0361 e3e0 8971 d2bf
00000070: 8977 54b9 b5e7 d0bf 234f 0a31 9688 cc3f
00000080: 75ad f1b0 a891 d23f 64b6 08e8 f895 afbf
00000090: 738d a1b4 4b2d f63f 85aa c5a5 4fd4 933f
000000a0: 8998 af1f 23b5 d5bf 44e9 05b2 116c dfbf
000000b0: 8204 2d2f eab3 c83f 2766 c634 a0e3 d7bf
000000c0: d8fa 1968 eb2a d63f fcb5 35e5 1fba d43f
000000d0: c329 348c d69c be3f 9d3b 8d2a 5a0f cdbf
000000e0: cdf6 42c1 eb52 d13f 434f 93ac 669d c1bf
-0.44696819916683184 0.2672371084292125 -0.24294800740647995 0.12294002383423712 -0.10477298937031851 0.09113360030914124 -1.170310630882752 0.1252174586728449
0.22044247008049928 -0.25316654329945315 -0.11290675937492531 -0.2580400835023435 -0.17778011373541783 -0.28817984544504344 -0.2641424474585326 0.2229182948545879
0.29014031676953006 -0.06169107277342503 1.386058526601883 0.01936459016125493 -0.3391807374413323 -0.4909710157877678 0.19299056342609694 -0.3732681765919516
0.3463696018806508 0.32386014350672077 0.11958065913146414 -0.22703101232260972 0.2706860911674596 -0.13761599947485523

GFL.0.bias f8 [5, 1]
00000000: 597a 1a56 1150 0340 0ae1 2e18 2c03 f93f
00000010: 4c50 b0d5 dba3 fe3f cf3a 1ef1 4440 0340
00000020: 50f0 6d2d a5ef fb3f
2.414095566447298 1.5632744736340691 1.915004572602828 2.406381496176756 1.7460071348750894

GFL.3.weight f8 [5, 1, 10, 5]
00000000: 3ce1 d131 cc6c e23f e68b 9abe cf96 c23f
00000010: ed37 c9c5 1820 d63f 5332 dc55 5180 f03f
00000020: a7d8 ad74 e1a1 d33f 0f2b eada 5fd9 e13f
00000030: b0de f17c 18bd cb3f cfe4 35ea 314e d73f
00000040: 9802 835d 37fa e63f c102 56ab 8615 d03f
00000050: 6600 719c b7a3 e13f b103 068b c183 d33f
00000060: bc89 f23a 1dc7 db3f c0da a3a6 635f e23f
00000070: a17b 840a 06d0 ba3f 45d7 5bb8 2af8 df3f
00000080: d5fd 0769 fad7 d13f 9070 6eb8 5f95 db3f
00000090: 9999 65b7 92f6 e73f 003c 8ed6 fa79 c43f
000000a0: d3c5 65c6 29dd e43f e19d dc4f fb71 d43f
000000b0: e36f 8d23 417d da3f cf4e 4168 2084 e43f
000000c0: 041d 3210 cfb9 d03f 5e8e 74c7 540d e53f
000000d0: 3c94 7278 73b8 d03f 014e 7360 be60 d43f
000000e0: 909c 0b04 077b e83f eecd 4269 d38a cb3f
000000f0: d4d3 556e 58a3 e33f 36bc d362 d05f d83f
00000100: 5d0b 5f03 707c de3f 0d36 f629 736c e43f
00000110: 6fe8 6515 7b83 cd3f dafc a643 6a30 e43f
00000120: 0767 e536 1820 de3f 8e94 f09a a85d e03f
00000130: 5271 5fbb b82c e73f 8d48 6b42 ba55 d13f
00000140: 8e71 f49b 9ae3 e13f c308 e2bd caa7 d33f
00000150: 34dc ce5c ef77 de3f 312e 0098 8d32 e53f
00000160: 80db e279 2fe5 ba3f ba51 febf 967b e03f
00000170: 44de 9472 51c2 dc3f 2d5c 491a ed73 d33f
00000180: c5cd 53bd 429e e43f 4ed9 e8bc 4ac7 b43f
00000190: ce28 5096 99d2 ee3f b35e b65e 1dfb d03f
000001a0: 07a9 eb4c b021 e73f 8277 648d 5a22 f93f
000001b0: 0f18 7b92 61b1 e93f 24a3 17f8 46e6 f03f
000001c0: e0a1 80cb 02eb e43f aa89 d507 b197 e23f
000001d0: 48a6 6c92 1fe0 f33f 9608 5d4d 4675 e03f
000001e0: 0ee2 fbc4 c65d ee3f 24be 89cb 645f e23f
000001f0: 32b1 aa98 aacf e93f 3cf6 571c ec86 f23f
00000200: 0150 d956 b6bd e73f 0b2f 1bfb a5ef ee3f
00000210: 4b43 c6c2 e897 e73f 5def 066f 4063 e63f
00000220: 6525 606e d16e f33f 550a 3bf1 a2b3 e53f
00000230: 868c 0c14 686a f03f b46a f74d ceea e63f
00000240: 1d9c 2c0a b572 e83f 94f9 b69c 937c f23f
00000250: 303a 6194 2c98 e53f 2bcc 8ec5 a800 f03f
00000260: 0897 b951 6d03 e33f 0a4b 47c0 dc01 e43f
00000270: 7807 bc43 a1d7 ee3f 330d 479b 8f99 e73f
00000280: ce18 2b2d 7e38 ef3f 7546 0bdf d5a1 e63f
00000290: 1f2c 7a93 4070 e43f e481 b83d ca12 f03f
000002a0: 481b 3f62 4d51 e43f 4a39 3d18 e9f3 f23f
000002b0: 2c73 dfe4 0ff1 e13f db4a 572e ca5c e53f
000002c0: 35a8 2e39 2c2c ee3f c49d 72cf 17ea e53f
000002d0: 3b09 2b94 0aa0 f13f 2c35 b51a cb6a e53f
000002e0: 4eaf c162 d776 e93f 5867 4ded 80ac f13f
000002f0: 2812 0c17 a540 e53f ade8 aff5 26bf f13f
00000300: bd8d 4b05 6480 e33f 2d21 4d85 6fa0 e73f
00000310: cce7 6e33 0eac f23f 27c5 56dd 42a6 e63f
00000320: 6231 b8bd 4a1c e63f eaae 8aaf eae3 aebf
00000330: f49b 21aa 1e98 dd3f 3bc6 e7ce 1349 f33f
00000340: 5f45 1618 104c d93f 49c8 1a30 de98 e43f
00000350: 64c8 70c2 5454 cc3f 9891 eb67 d1d7 da3f
00000360: 93bf 77c0 bb9a e63f e676 29e5 314d d53f
00000370: e9fd c42a d198 e63f 8e10 b3a3 ef48 d53f
00000380: b1e3 6a85 730d e13f 0957 1733 27f6 e43f
00000390: d6cb 0736 4863 cd3f 33d0 1e74 05ff e43f
000003a0: e142 0f81 9cf8 e13f 84b8 89ab 29cc dd3f
000003b0: c769 49ea 224e e93f a125 25ba 37e5 d03f
000003c0: 924e 8d12 7bf9 e33f 0701 8fd0 33cc d63f
000003d0: 9cc2 bddc 1427 d63f 5875 ad66 7e6b e83f
000003e0: 4ebd 9aba 4f1e d43f 1ced 840b f5c5 e63f
000003f0: ca31 b1b1 3b53 dd3f de16 cd37 3793 e23f
00000400: 8d2f 85dd fb29 e53f f528 fba0 c376 c73f
00000410: d97d b1eb 5e2a e83f be9f c7f4 8d98 dc3f
00000420: 6ea5 482e 670c e23f 4378 31f7 6d6b eb3f
00000430: a3f6 b3dd b3ec d43f b53f 9ef3 ed67 e53f
00000440: cdc5 7b4e 3d0d e03f 8dea 97f6 2dcf e03f
00000450: 9aa4 cc02 ccc5 ea3f 2d0f e4a4 bbb4 d33f
00000460: f859 ad40 55d5 ea3f d0b4 cc2b 6c56 d23f
00000470: d087 67dc 2087 de3f 1af1 a247 fde2 e73f
00000480: 083f aac3 8ad7 d13f 0c3d 20d1 9925 e63f
00000490: 8412 31d4 2da0 da3f 6a8f aa85 30f3 d73f
000004a0: 33b2 16af d944 e33f cf93 0d2c 7b3e dc3f
000004b0: 0905 6d36 0ccf ee3f f1cd dfa2 b3ed da3f
000004c0: 35af 2880 6196 e03f 2a4f 0da9 d641 f83f
000004d0: 3ce4 30f9 7301 ec3f 2e2d 81ed 0d24 f13f
000004e0: f82d 0092 83b8 e13f 2d0b bbb4 c2c1 e33f
000004f0: f4da 5edf 15b0 f23f df1d cfb4 c888 e83f
00000500: 915e 9f7a ebe6 f23f f14b 0aa8 85f6 ea3f
00000510: 8397 2a9c 5450 e33f b6e4 88b2 3095 f23f
00000520: 584e 5a28 8ee6 de3f 82a0 e94d dfda ed3f
00000530: f7e8 fcac be6f e73f 30db 6e94 9f3c e63f
00000540: 58bb 8ca1 f59f f23f a99d 8080 7892 e43f
00000550: ba7d fc6c b812 f23f d76a acc7 9513 ea3f
00000560: 38f8 89c4 fd1e e83f 33ea 6c21 6a64 f33f
00000570: 9843 6e31 52c1 e53f 729e f6ca c3f7 f03f
00000580: 54c8 67db cb26 e73f c782 7960 d041 e33f
00000590: a270 032b f82c f13f 94cd 2190 fa98 e73f
000005a0: 72b5 7a2a f5da f13f 56d4 9c2f c6d3 e43f
000005b0: 3a4e 0f66 bbf7 e63f 0d5e 1d32 1b48 ef3f
000005c0: e362 8ac0 373c e03f 0f3a 0cc2 0ac0 f03f
000005d0: 1b7b 196a d2a2 e83f f50c d8de 68c1 e73f
000005e0: 8f03 eaa2 7ae2 ef3f 1ba4 8e13 addf de3f
000005f0: e348 e54e d07a ef3f 8abb 5469 e159 eb3f
00000600: cf13 1492 ab64 e63f 6643 9cbf 701e f23f
00000610: 7827 324c 61c1 e33f f2f3 543e e5b5 f23f
00000620: 4a83 6b00 5955 e83f 2c92 29d5 3226 ea3f
00000630: 1202 8fde 3a81 f23f ef69 b72d 0bdf e73f
00000640: 9ab6 b255 a49a ea3f 50cf 2a4d 4436 d23f
00000650: 8ffd 940b 4dcd e63f 49ee 03d9 49e7 f63f
00000660: 23f2 2b88 62f1 e63f 314b 3d37 f87a eb3f
00000670: aa19 da52 e901 e03f 0a79 3b00 89e1 e73f
00000680: 27de 68a6 32ef ef3f 6307 dafe 711f e53f
00000690: 3d38 c496 29be ed3f cb5a 3752 6101 e83f
000006a0: 21de 7ee1 7b3c e23f 0ecf 986b 6dc6 f13f
000006b0: 2044 c42c de22 e23f 773e 9c43 2c31 f13f
000006c0: a8eb a904 8c9d e13f 9884 c20d e1d1 e73f
000006d0: c06b ed5e 0f9e ec3f b99d ae7c c3f2 e23f
000006e0: 3070 7d2a a272 f23f 7c3c ab7f 4258 e33f
000006f0: bf9e 39cc d9ef e83f 11f9 7d4e c9d7 ee3f
00000700: ab0f 579c 7906 e63f d878 cb7d 6cbf ef3f
00000710: 4d8a 6bae 4d30 e43f e05c 3768 ce03 e63f
00000720: 48ad 1ca8 f3ab ef3f 09d3 48a0 6e89 dc3f
00000730: bd55 ecbe 2e47 f03f 3a94 4de5 624f e23f
00000740: 563a b9ad ec92 e43f 0b3e 3684 e3ba f03f
00000750: b967 3c1b 1f06 dc3f bec9 2668 7362 ec3f
00000760: 99a4 9fe5 3dff e63f 840d f9f0 4fad e93f
00000770: 5f82 738d 59f3 ed3f 67ee dfc2 b8ec e53f
00000780: d0fe 2ab1 3d6c ed3f 6ded 0e28 5141 e43f
00000790: f02e 972e 262f eb3f bc84 4425 fac8 ec3f
000007a0: dada 7755 28c5 e03f 19f3 9941 eb74 f13f
000007b0: 60d2 f58a 8cbf e53f 0980 3c8f d8cd e43f
000007c0: f884 51ee 3242 f03f 54d4 45b7 7bfa e43f
0.5757809613269624 0.14522740179845 0.34570903124847413 1.0313275674735862 0.30675541300241566 0.5577849651029697 0.21670824147053258 0.3641476428234229
0.7180439783479242 0.2513138459399152 0.551235013532289 0.3049167497302348 0.43402796513160147 0.5741441969574552 0.10473668820166761 0.49952190402779123
0.27880726105646875 0.43099205981139566 0.7488492567033972 0.159972529185751 0.6519974589302201 0.3194568900966868 0.41389492484972673 0.6411287342293351
0.2613408716355965 0.6578773398982312 0.26125799906214175 0.3184047643564725 0.7650179938326733 0.2151741279572969 0.6136896281228652 0.3808480229481036
0.47634506539559657 0.6382385081830663 0.23057497544124625 0.63091004575099 0.4707088981718787 0.5114329363028831 0.724209180796189 0.27085739599454756
0.5590336843484225 0.30711620848900284 0.47607025206838505 0.6624210327876822 0.10505959249245045 0.51508653162687 0.4493602389297602 0.30395057265326636
0.6443189332771274 0.08116595375108668 0.9632080016902138 0.26532682656532386 0.7228623869280292 1.5708871386663934 0.8029029713586641 1.05622002516811
0.653687856164705 0.5810170319567096 1.242217609377251 0.5143157492641588 0.9489473197309637 0.5741447425224959 0.8065999013684062 1.1579400164768137
0.7419082351939325 0.9667539505403239 0.7372936062039143 0.6996156853196954 1.2145551978631712 0.678178282884185 1.025978163067323 0.7161628268034606
0.7640023421016654 1.1554142114324337 0.6748259447138647 1.0001609532453226 0.594168338412346 0.6252273326338991 0.963822014135288 0.7374952347530893
0.9756461031145365 0.7072553020791036 0.6387026672758828 1.004587403389558 0.634924594772067 1.1845484682886132 0.560676524178779 0.6675768761727697
0.9428921810952092 0.6848258067811277 1.1015725887123853 0.6692863008153487 0.7957570008124806 1.1046151418326726 0.6641412210597695 1.1091680142549578
0.6094226935787713 0.738334427217557 1.1670057305441217 0.7077955554033551 0.69095360807982 -0.060332616737779635 0.46240965475448026 1.2053411562195737
0.39526750900502877 0.6436606349509556 0.22132358068626268 0.41942248486000144 0.7063883551727365 0.33283660296534234 0.706154426130465 0.3325766657474184
0.5328919988452211 0.6550479886888932 0.22959234846311344 0.6561305301643244 0.5615980644889441 0.46558610679392864 0.7907881332314951 0.2639903371642394
0.6242041933387148 0.35621352545787527 0.346135345046642 0.7631217961713146 0.3143500635441868 0.7116646981225219 0.4582051501536425 0.5804706659189056
0.6613749815528408 0.18331189499287573 0.7551722148309025 0.4468111887385894 0.5640140441875425 0.856863959121036 0.3269471802776513 0.6689367063681774
0.5016161473160367 0.5252904716756618 0.8366451315570373 0.30790606596586906 0.8385416281915345 0.28652481343563085 0.4769975807558895 0.7464586638593886
0.2787806425849202 0.692089947175107 0.4160265514549695 0.37421811154694373 0.602154581041367 0.441313546200317 0.962774378109459 0.42075816064536214
0.5183570387939428 1.5160738566964462 0.8751773707400683 1.0713023450396792 0.5537736751152229 0.61740241335824 1.1679896092807072 0.7666972667147397
1.1813769140189019 0.842593029216344 0.6035559702038288 1.1614233945859218 0.48282197895716683 0.9329678079348158 0.7323907259626868 0.6949003123362214
1.164052611402175 0.642879725438367 1.1295704133298003 0.8148907565949582 0.7537831152583356 1.2120152764970384 0.6798487630313614 1.0604894569641172
0.7234858784925202 0.6017839321394484 1.0734788589680098 0.7374241652564018 1.1159564647053597 0.6508513383802306 0.7177407258372519 0.9775520304492048
0.5073508034284625 1.0468852596274052 0.7698757240540063 0.7423595764561514 0.9963963682094902 0.48240210447198856 0.9837419072084937 0.854721742367347
0.6997888424963267 1.1324317440778144 0.6173559654427967 1.169408076747683 0.760418415851839 0.8171629107787957 1.1565502828308394 0.745977010049783
0.8313771890440933 0.28456218276845835 0.7125611520968266 1.4314669110452931 0.7169659289934923 0.8587609366316881 0.5002333276941517 0.7462811474358955
0.9979489565075185 0.6600885369846136 0.9294631905229448 0.7501684766565061 0.5698832897387015 1.110944195080211 0.5667563318585316 1.0745051041630214
0.5504818049515636 0.744370009302787 0.8942944387484815 0.5921342311093475 1.1529866847768169 0.6045238965542832 0.7792786587496819 0.9638411076591941
0.6882904103772395 0.9921171624116836 0.6308964163438958 0.6879646335100027 0.9897402079999802 0.4458881917264966 1.017378564637837 0.5721907118392047
0.6429351227796569 1.0456271328474738 0.4378736272789144 0.8870179208955091 0.718657444461445 0.8024062830449314 0.9359557879179866 0.6851466947695827
0.9194630108176742 0.6329732687367319 0.8495055112811922 0.899533341205959 0.5240670842457249 1.0910446703484864 0.6796324457232679 0.6501276776871246
1.0161618527711749 0.6555765704675971

GFL.3.bias f8 [5, 1]
00000000: ca12 1016 569e f13f e4d4 61c1 3186 f83f
00000010: b8de e7d8 1258 f23f a6da cadc 89a7 f63f
00000020: 6036 8444 95ba f93f
1.1011563169314962 1.5327622941961687 1.1465023491745523 1.415902960272129 1.6080525089668285

MLP.0.weight f8 [1, 740]
00000000: 4062 0177 fa23 563f 4062 0177 fa23 563f
00000010: 4062 0177 fa23 563f 4062 0177 fa23 563f
00000020: 4062 0177 fa23 563f 4062 0177 fa23 563f
00000030: 4062 0177 fa23 563f 4062 0177 fa23 563f
00000040: 4062 0177 fa23 563f 4062 0177 fa23 563f
00000050: 4062 0177 fa23 563f 4062 0177 fa23 563f
00000060: 4062 0177 fa23 563f 4062 0177 fa23 563f
00000070: 4062 0177 fa23 563f 4062 0177 fa23 563f
00000080: 4062 0177 fa23 563f 4062 0177 fa23 563f
00000090: 4062 0177 fa23 563f 4062 0177 fa23 563f
000000a0: 4062 0177 fa23 563f 4062 0177 fa23 563f
000000b0: 4062 0177 fa23 563f 4062 0177 fa23 563f
000000c0: 4062 0177 fa23 563f 4062 0177 fa23 563f
000000d0: 4062 0177 fa23 563f 4062 0177 fa23 563f
000000e0: 4062 0177 fa23 563f 4062 0177 fa23 563f
000000f0: 4062 0177 fa23 563f 4062 0177 fa23 563f
00000100: 4062 0177 fa23 563f 4062 0177 fa23 563f
00000110: 4062 0177 fa23 563f 4062 0177 fa23 563f
00000120: 4062 0177 fa23 563f 4062 0177 fa23 563f
00000130: 4062 0177 fa23 563f 4062 0177 fa23 563f
00000140: 4062 0177 fa23 563f 4062 0177 fa23 563f
00000150: 4062 0177 fa23 563f 4062 0177 fa23 563f
00000160: 4062 0177 fa23 563f 4062 0177 fa23 563f
00000170: 4062 0177 fa23 563f 4062 0177 fa23 563f
00000180: 4062 0177 fa23 563f 4062 0177 fa23 563f
00000190: 4062 0177 fa23 563f 4062 0177 fa23 563f
000001a0: 4062 0177 fa23 563f 4062 0177 fa23 563f
000001b0: 4062 0177 fa23 563f 4062 0177 fa23 563f
000001c0: 4062 0177 fa23 563f 4062 0177 fa23 563f
000001d0: 4062 0177 fa23 563f 4062 0177 fa23 563f
000001e0: 4062 0177 fa23 563f 4062 0177 fa23 563f
000001f0: 4062 0177 fa23 563f 4062 0177 fa23 563f
00000200: 4062 0177 fa23 563f 4062 0177 fa23 563f
00000210: 4062 0177 fa23 563f 4062 0177 fa23 563f
00000220: 4062 0177 fa23 563f 4062 0177 fa23 563f
00000230: 4062 0177 fa23 563f 4062 0177 fa23 563f
00000240: 4062 0177 fa23 563f 4062 0177 fa23 563f
00000250: 4062 0177 fa23 563f 4062 0177 fa23 563f
00000260: 4062 0177 fa23 563f 4062 0177 fa23 563f
00000270: 4062 0177 fa23 563f 4062 0177 fa23 563f
00000280: 4062 0177 fa23 563f 4062 0177 fa23 563f
00000290: 4062 0177 fa23 563f 4062 0177 fa23 563f
000002a0: 4062 0177 fa23 563f 4062 0177 fa23 563f
000002b0: 4062 0177 fa23 563f 4062 0177 fa23 563f
000002c0: 4062 0177 fa23 563f 4062 0177 fa23 563f
000002d0: 4062 0177 fa23 563f 4062 0177 fa23 563f
000002e0: 4062 0177 fa23 563f 4062 0177 fa23 563f
000002f0: 4062 0177 fa23 563f 4062 0177 fa23 563f
00000300: 4062 0177 fa23 563f 4062 0177 fa23 563f
00000310: 4062 0177 fa23 563f 4062 0177 fa23 563f
00000320: 4062 0177 fa23 563f 4062 0177 fa23 563f
00000330: 4062 0177 fa23 563f 4062 0177 fa23 563f
00000340: 4062 0177 fa23 563f 4062 0177 fa23 563f
00000350: 4062 0177 fa23 563f 4062 0177 fa23 563f
00000360: 4062 0177 fa23 563f 4062 0177 fa23 563f
00000370: 4062 0177 fa23 563f 4062 0177 fa23 563f
00000380: 4062 0177 fa23 563f 4062 0177 fa23 563f
00000390: 4062 0177 fa23 563f 4062 0177 fa23 563f
000003a0: 4062 0177 fa23 563f 4062 0177 fa23 563f
000003b0: 4062 0177 fa23 563f 4062 0177 fa23 563f
000003c0: 4062 0177 fa23 563f 4062 0177 fa23 563f
000003d0: 4062 0177 fa23 563f 4062 0177 fa23 563f
000003e0: 4062 0177 fa23 563f 4062 0177 fa23 563f
000003f0: 4062 0177 fa23 563f 4062 0177 fa23 563f
00000400: 4062 0177 fa23 563f 4062 0177 fa23 563f
00000410: 4062 0177 fa23 563f 4062 0177 fa23 563f
00000420: 4062 0177 fa23 563f 4062 0177 fa23 563f
00000430: 4062 0177 fa23 563f 4062 0177 fa23 563f
00000440: 4062 0177 fa23 563f 4062 0177 fa23 563f
00000450: 4062 0177 fa23 563f 4062 0177 fa23 563f
00000460: 4062 0177 fa23 563f 4062 0177 fa23 563f
00000470: 4062 0177 fa23 563f 4062 0177 fa23 563f
00000480: 4062 0177 fa23 563f 4062 0177 fa23 563f
00000490: 4062 0177 fa23 563f 4062 0177 fa23 563f
000004a0: 4062 0177 fa23 563f 4062 0177 fa23 563f
000004b0: 4062 0177 fa23 563f 4062 0177 fa23 563f
000004c0: 4062 0177 fa23 563f 4062 0177 fa23 563f
000004d0: 4062 0177 fa23 563f 4062 0177 fa23 563f
000004e0: 4062 0177 fa23 563f 4062 0177 fa23 563f
000004f0: 4062 0177 fa23 563f 4062 0177 fa23 563f
00000500: 4062 0177 fa23 563f 4062 0177 fa23 563f
00000510: 4062 0177 fa23 563f 4062 0177 fa23 563f
00000520: 4062 0177 fa23 563f 4062 0177 fa23 563f
00000530: 4062 0177 fa23 563f 4062 0177 fa23 563f
00000540: 4062 0177 fa23 563f 4062 0177 fa23 563f
00000550: 4062 0177 fa23 563f 4062 0177 fa23 563f
00000560: 4062 0177 fa23 563f 4062 0177 fa23 563f
00000570: 4062 0177 fa23 563f 4062 0177 fa23 563f
00000580: 4062 0177 fa23 563f 4062 0177 fa23 563f
00000590: 4062 0177 fa23 563f 4062 0177 fa23 563f
000005a0: 4062 0177 fa23 563f 4062 0177 fa23 563f
000005b0: 4062 0177 fa23 563f 4062 0177 fa23 563f
000005c0: 4062 0177 fa23 563f 4062 0177 fa23 563f
000005d0: 4062 0177 fa23 563f 4062 0177 fa23 563f
000005e0: 4062 0177 fa23 563f 4062 0177 fa23 563f
000005f0: 4062 0177 fa23 563f 4062 0177 fa23 563f
00000600: 4062 0177 fa23 563f 4062 0177 fa23 563f
00000610: 4062 0177 fa23 563f 4062 0177 fa23 563f
00000620: 4062 0177 fa23 563f 4062 0177 fa23 563f
00000630: 4062 0177 fa23 563f 4062 0177 fa23 563f
00000640: 4062 0177 fa23 563f 4062 0177 fa23 563f
00000650: 4062 0177 fa23 563f 4062 0177 fa23 563f
00000660: 4062 0177 fa23 563f 4062 0177 fa23 563f
00000670: 4062 0177 fa23 563f 4062 0177 fa23 563f
00000680: 4062 0177 fa23 563f 4062 0177 fa23 563f
00000690: 4062 0177 fa23 563f 4062 0177 fa23 563f
000006a0: 4062 0177 fa23 563f 4062 0177 fa23 563f
000006b0: 4062 0177 fa23 563f 4062 0177 fa23 563f
000006c0: 4062 0177 fa23 563f 4062 0177 fa23 563f
000006d0: 4062 0177 fa23 563f 4062 0177 fa23 563f
000006e0: 4062 0177 fa23 563f 4062 0177 fa23 563f
000006f0: 4062 0177 fa23 563f 4062 0177 fa23 563f
00000700: 4062 0177 fa23 563f 4062 0177 fa23 563f
00000710: 4062 0177 fa23 563f 4062 0177 fa23 563f
00000720: 4062 0177 fa23 563f 4062 0177 fa23 563f
00000730: 4062 0177 fa23 563f 4062 0177 fa23 563f
00000740: 4062 0177 fa23 563f 4062 0177 fa23 563f
00000750: 4062 0177 fa23 563f 4062 0177 fa23 563f
00000760: 4062 0177 fa23 563f 4062 0177 fa23 563f
00000770: 4062 0177 fa23 563f 4062 0177 fa23 563f
00000780: 4062 0177 fa23 563f 4062 0177 fa23 563f
00000790: 4062 0177 fa23 563f 4062 0177 fa23 563f
000007a0: 4062 0177 fa23 563f 4062 0177 fa23 563f
000007b0: 4062 0177 fa23 563f 4062 0177 fa23 563f
000007c0: 4062 0177 fa23 563f 4062 0177 fa23 563f
000007d0: 4062 0177 fa23 563f 4062 0177 fa23 563f
000007e0: 4062 0177 fa23 563f 4062 0177 fa23 563f
000007f0: 4062 0177 fa23 563f 4062 0177 fa23 563f
0.0013513513513513514 0.0013513513513513514 0.0013513513513513514 0.0013513513513513514 0.0013513513513513514 0.0013513513513513514 0.0013513513513513514 0.0013513513513513514
0.0013513513513513514 0.0013513513513513514 0.0013513513513513514 0.0013513513513513514 0.0013513513513513514 0.0013513513513513514 0.0013513513513513514 0.0013513513513513514
0.0013513513513513514 0.0013513513513513514 0.0013513513513513514 0.0013513513513513514 0.0013513513513513514 0.0013513513513513514 0.0013513513513513514 0.0013513513513513514
0.0013513513513513514 0.0013513513513513514 0.0013513513513513514 0.0013513513513513514 0.0013513513513513514 0.0013513513513513514 0.0013513513513513514 0.0013513513513513514
0.0013513513513513514 0.0013513513513513514 0.0013513513513513514 0.0013513513513513514 0.0013513513513513514 0.0013513513513513514 0.0013513513513513514 0.0013513513513513514
0.0013513513513513514 0.0013513513513513514 0.0013513513513513514 0.0013513513513513514 0.0013513513513513514 0.0013513513513513514 0.0013513513513513514 0.0013513513513513514
0.0013513513513513514 0.0013513513513513514 0.0013513513513513514 0.0013513513513513514 0.0013513513513513514 0.0013513513513513514 0.0013513513513513514 0.0013513513513513514
0.0013513513513513514 0.0013513513513513514 0.0013513513513513514 0.0013513513513513514 0.0013513513513513514 0.0013513513513513514 0.0013513513513513514 0.0013513513513513514
0.0013513513513513514 0.0013513513513513514 0.0013513513513513514 0.0013513513513513514 0.0013513513513513514 0.0013513513513513514 0.0013513513513513514 0.0013513513513513514
0.0013513513513513514 0.0013513513513513514 0.0013513513513513514 0.0013513513513513514 0.0013513513513513514 0.0013513513513513514 0.0013513513513513514 0.0013513513513513514
0.0013513513513513514 0.0013513513513513514 0.0013513513513513514 0.0013513513513513514 0.0013513513513513514 0.0013513513513513514 0.0013513513513513514 0.0013513513513513514
0.0013513513513513514 0.0013513513513513514 0.0013513513513513514 0.0013513513513513514 0.0013513513513513514 0.0013513513513513514 0.0013513513513513514 0.0013513513513513514
0.0013513513513513514 0.0013513513513513514 0.0013513513513513514 0.0013513513513513514 0.0013513513513513514 0.0013513513513513514 0.0013513513513513514 0.0013513513513513514
0.0013513513513513514 0.0013513513513513514 0.0013513513513513514 0.0013513513513513514 0.0013513513513513514 0.0013513513513513514 0.0013513513513513514 0.0013513513513513514
0.0013513513513513514 0.0013513513513513514 0.0013513513513513514 0.0013513513513513514 0.0013513513513513514 0.0013513513513513514 0.0013513513513513514 0.0013513513513513514
0.0013513513513513514 0.0013513513513513514 0.0013513513513513514 0.0013513513513513514 0.0013513513513513514 0.0013513513513513514 0.0013513513513513514 0.0013513513513513514
0.0013513513513513514 0.0013513513513513514 0.0013513513513513514 0.0013513513513513514 0.0013513513513513514 0.0013513513513513514 0.0013513513513513514 0.0013513513513513514
0.0013513513513513514 0.0013513513513513514 0.0013513513513513514 0.0013513513513513514 0.0013513513513513514 0.0013513513513513514 0.0013513513513513514 0.0013513513513513514
0.0013513513513513514 0.0013513513513513514 0.0013513513513513514 0.0013513513513513514 0.0013513513513513514 0.0013513513513513514 0.0013513513513513514 0.0013513513513513514
0.0013513513513513514 0.0013513513513513514 0.0013513513513513514 0.0013513513513513514 0.0013513513513513514 0.0013513513513513514 0.0013513513513513514 0.0013513513513513514
0.0013513513513513514 0.0013513513513513514 0.0013513513513513514 0.0013513513513513514 0.0013513513513513514 0.0013513513513513514 0.0013513513513513514 0.0013513513513513514
0.0013513513513513514 0.0013513513513513514 0.0013513513513513514 0.0013513513513513514 0.0013513513513513514 0.0013513513513513514 0.0013513513513513514 0.0013513513513513514
0.0013513513513513514 0.0013513513513513514 0.0013513513513513514 0.0013513513513513514 0.0013513513513513514 0.0013513513513513514 0.0013513513513513514 0.0013513513513513514
0.0013513513513513514 0.0013513513513513514 0.0013513513513513514 0.0013513513513513514 0.0013513513513513514 0.0013513513513513514 0.0013513513513513514 0.0013513513513513514
0.0013513513513513514 0.0013513513513513514 0.0013513513513513514 0.0013513513513513514 0.0013513513513513514 0.0013513513513513514 0.0013513513513513514 0.0013513513513513514
0.0013513513513513514 0.0013513513513513514 0.0013513513513513514 0.0013513513513513514 0.0013513513513513514 0.0013513513513513514 0.0013513513513513514 0.0013513513513513514
0.0013513513513513514 0.0013513513513513514 0.0013513513513513514 0.0013513513513513514 0.0013513513513513514 0.0013513513513513514 0.0013513513513513514 0.0013513513513513514
0.0013513513513513514 0.0013513513513513514 0.0013513513513513514 0.0013513513513513514 0.0013513513513513514 0.0013513513513513514 0.0013513513513513514 0.0013513513513513514
0.0013513513513513514 0.0013513513513513514 0.0013513513513513514 0.0013513513513513514 0.0013513513513513514 0.0013513513513513514 0.0013513513513513514 0.0013513513513513514
0.0013513513513513514 0.0013513513513513514 0.0013513513513513514 0.0013513513513513514 0.0013513513513513514 0.0013513513513513514 0.0013513513513513514 0.0013513513513513514
0.0013513513513513514 0.0013513513513513514 0.0013513513513513514 0.0013513513513513514 0.0013513513513513514 0.0013513513513513514 0.0013513513513513514 0.0013513513513513514
0.0013513513513513514 0.0013513513513513514 0.0013513513513513514 0.0013513513513513514 0.0013513513513513514 0.0013513513513513514 0.0013513513513513514 0.0013513513513513514
