OASIS3_VNN_NeurIPS/test16.pth (torch, 10139 bytes, 5 tensors)

GFL.0.weight f8 [5, 1, 6, 1]
0	0xbfba1f14bd0710ff	-0.1020367585652515
1	0xbfadac6a975d118e	-0.05795605752658438
2	0x3fb16f4548ae88d5	0.06810410522897155
3	0x3fd33ffeda40401f	0.3007809764249049
4	0xbfd4b2cf228054c3	-0.3234136425902074
5	0xbfc75f907020a6d3	-0.1826038882730275
6	0x3fef74fbf4ec404b	0.9830302985810787
7	0xbfd859844b11c44d	-0.38046367007251974
8	0xbfe01c02f129e0b9	-0.5034193716264986
9	0x3fb54834106a1f67	0.08313298607583662
10	0x3fc1ce0a712ed3a3	0.13910036589154826
11	0x3fc431ecb9e0cacf	0.1577735812766918
12	0xbfedbf2aefcb8931	-0.9295859035012538
13	0xbfc54dcf3608518a	-0.1664370549994028
14	0xbfc2bb33a8ef4fd1	-0.14633794544954395
15	0xbfd44bb758f98b09	-0.3171213501829447
16	0xbfc25202c2dc8126	-0.14312777056421416
17	0xbfd92c59ec64d012	-0.3933319862874224
18	0x3fe017f1ca9104ca	0.5029229122520971
19	0xbf9f0bc8871c260c	-0.030318387266595123
20	0xbfd3e63cc58762a0	-0.310927575015322
21	0x3f7647c81b1e01d2	0.005439550079131954
22	0xbfc52166ddfbf834	-0.1650818427951336
23	0x3faa06226ba12de6	0.05082805217588397
24	0x3ff5297a0169271f	1.3226261191470667
25	0xbfbb03bc17138c41	-0.10552573741328876
26	0xbfcca5b9f774973c	-0.22380756933960722
27	0x3fac5b22dbf7c430	0.055382813788931506
28	0xbfda0092ce4f2aa0	-0.40628500125300526
29	0x3f804478bbfa22a6	0.007943099247556273

GFL.0.bias f8 [5, 1]
0	0x3fff990595e8f177	1.9748588424546065
1	0x3ff7ccc2c9afa129	1.4874904516564789
2	0x3ffe0fb7a64d71c5	1.8788372513000564
3	0x40043d960517c343	2.5300712964894116
4	0x400139f266704dd7	2.15329437284684

GFL.3.weight f8 [5, 1, 10, 5]
0	0x3fe57e60eff6360e	0.6716770827058001
1	0x3fee18fd4d5e393a	0.9405504714102684
2	0x3fe10912d6ff2d01	0.5323576163440579
3	0x3ff010df30dbcba9	1.004119101384939
4	0x3ff215e1038afa33	1.1303415430444488
5	0x3fe09627beafbc71	0.5183294987053967
6	0x3fda80b61f5a5334	0.4141059213809968
7	0x3feb36aec7cc9dc9	0.8504251386956919
8	0x3feb9a70e0920d91	0.8626026521819076
9	0x3fedbe37f15a50ef	0.9294700349733186
10	0x3fe164bb260811b2	0.5435462706378102
11	0x3fdd705d45e1c02d	0.4599831755103903
12	0x3fe67306d5231c41	0.7015413439593275
13	0x3feaf78105e634c1	0.8427128901691036
14	0x3fedb750345eae5a	0.9286271117065994
15	0x3fe9a41fd0afc6e1	0.8012847019110404
16	0x3fe022d7b5f38b95	0.5042532495248105
17	0x3feba49c698effeb	0.86384411446488
18	0x3fedcd67a569a94f	0.9313238363950321
19	0x3fea2a22e77d6a4b	0.8176435967719241
20	0x3fe9b7f2cd895eb3	0.8037046446215385
21	0x3fe30c754c0e74de	0.5952707753637261
22	0x3fe7451db0818885	0.7271870086081128
23	0x3fef1653ce3239aa	0.9714755084294684
24	0x3fec0484481053cb	0.8755513579841304
25	0x3fe83e3a2049d6ac	0.7575960760720668
26	0x3fe1c05ef60e333c	0.5547327810068974
27	0x3fe91e9432cd511f	0.7849827759005484
28	0x3fec3de3e170224b	0.8825549510084526
29	0x3fe62bd8b44ed88f	0.6928523561134784
30	0x3fe98c7d96fcd850	0.7983997296312371
31	0x3fe0a8680017d393	0.5205574037378135
32	0x3fe87e015c08c9e7	0.765381507639458
33	0x3ff05ff1e2d79e8e	1.023424039938536
34	0x3fe9c217aa0951b1	0.8049429245971195
35	0x3fe2cb6ea0d1970d	0.5873330250730945
36	0x3fe348446d2da100	0.6025716907870731
37	0x3fe962bbdd2f7689	0.7933024711635009
38	0x3fe9fe29a404ce2e	0.8122757152072546
39	0x3fe8bd1f04cf2bd8	0.7730860799723542
40	0x3fe97bc1b6b5a2d6	0.7963570183320268
41	0x3fdcbbdb4097a5d8	0.4489658480439096
42	0x3fe4e10b1edda96b	0.6524711230133965
43	0x3feef1d96fb21d2a	0.967022627025391
44	0x3feb015c1af85dba	0.8439159895669299
45	0x3fe2d30d6cb15afc	0.5882632372766632
46	0x3fe2080136d89940	0.5634771414959587
47	0x3fe464fdf5f71caa	0.6373281291970632
48	0x3ff0636cb8c8eb12	1.024273607078332
49	0x3fec6c56df798070	0.888225017999515
50	0x3fe65177e520de9a	0.6974448657192227
51	0x3fedd61f234df42f	0.9323878945866734
52	0x3fda093cea57eb3d	0.40681383977032565
53	0x3feffe87c2f84e98	0.9998205955511876
54	0x3ff5124726b1c596	1.3169623862744166
55	0x3fe84b9db1c70f60	0.7592304680078819
56	0x3fdf1ada61a96c03	0.48601398026738724
57	0x3fe3209cc70c2122	0.5977310073513176
58	0x3fec80a125152c6e	0.8907018398543991
59	0x3ff081e44f167083	1.031711872993612
60	0x3fe12e8a7ed2a217	0.5369312741286788
61	0x3fde4b860c2f5481	0.4733595961564064
62	0x3febc7298ff175f3	0.8680618106261008
63	0x3ff09ac9141d0d54	1.0377894197161668
64	0x3fef5d42fb7f3778	0.980134478764497
65	0x3fe58790b66457b6	0.6727984964697871
66	0x3fdf34ded62f95cf	0.4876019565257054
67	0x3fe45c2cd17242fa	0.6362518397091599
68	0x3ff0b3bfda8ba853	1.043884137815003
69	0x3feec53746e7bd10	0.9615742096774813
70	0x3fe2cc7ea67b1b65	0.5874627353267498
71	0x3fde8a59143daaab	0.4771940896668336
72	0x3fe8a912c5ae8911	0.7706388340923543
73	0x3feb8397116aab8e	0.8598132457894836
74	0x3fed1b099c0d5280	0.9095504806414993
75	0x3fe664533bc611d5	0.6997467200713411
76	0x3fe2fb7ef926a22f	0.5932001939991717
77	0x3feb506ecf76ac2f	0.853568463518405
78	0x3fee94fd3754711d	0.9556871491109039
79	0x3fec543b5b6cfb49	0.8852822099359879
80	0x3fe7911169e1ef0e	0.7364584987658149
81	0x3fd893bb62ecb875	0.3840168443738386
82	0x3fe559a65c4ab9de	0.667193584687819
83	0x3fed0b0f84ca8952	0.9076001733376791
84	0x3fe8bc00b4f3eb12	0.7729495558008657
85	0x3fe7049c6b6cf922	0.7193128679425949
86	0x3fe2accf7e7897af	0.5835950346124629
87	0x3fe93b4d08a41e08	0.7884888809939534
88	0x3febd309b3ee54e5	0.8695114626194963
89	0x3fe936ff0d8d546b	0.7879634155930381
90	0x3fe5624eb6762095	0.668250423784246
91	0x3fe1d3251330db8f	0.5570245146580975
92	0x3fe7c6ce5834b5ae	0.7430183146258764
93	0x3fee515ae409e8e8	0.9474310354119355
94	0x3fe717aa20c7953a	0.7216387405611961
95	0x3fe999d9eafc172c	0.8000306691689949
96	0x3fe1017718da9eb4	0.5314288602284791
97	0x3fe517fa14e17e68	0.6591768653706369
98	0x3fe9cdd5835750fb	0.8063762250190217
99	0x3fec05a5904e9309	0.8756892984862087
100	0x3fe23b8e3471f13b	0.569769957000552
101	0x3fea43b120a23e81	0.8207631718996283
102	0x3fe4ca8cc98fcf1c	0.6497253357651718
103	0x3ff27609949fbcb8	1.1538177304862938
104	0x3ff2a9e78ee95219	1.1664805967785752
105	0x3fe1606db57df653	0.5430210633055118
106	0x3fe523de68d51bf7	0.6606285140522904
107	0x3fe87f2531876c20	0.7655206649172932
108	0x3fee48c1f3e4af37	0.9463815463582027
109	0x3feb3621604e3ed2	0.8503577118844652
110	0x3fe875cb2e280255	0.7643791104783967
111	0x3fe0618e07b24396	0.5119085455245223
112	0x3fe930c52dc1c748	0.7872033971491215
113	0x3ff11fe81de93021	1.070289723243157
114	0x3feaa540bc518008	0.8326724699109045
115	0x3fe909118469c258	0.7823569856828483
116	0x3fd6800c17cea954	0.35156538319519837
117	0x3feb78f4816724b5	0.8585150267982927
118	0x3fee459215bec3e3	0.9459925102911452
119	0x3fe71d040a98b1ec	0.7222919661485867
120	0x3fea4a168744f9b8	0.8215439455014382
121	0x3fd7a5f4cf825179	0.36950416817241877
122	0x3febdd964dec4558	0.8707992097790038
123	0x3fedc6b4056d615c	0.9305057626725488
124	0x3fef44db5508264c	0.9771553669717803
125	0x3fe9a777f5477f1f	0.8016929426775937
126	0x3fdd54bab39f4cac	0.45829646626698195
127	0x3feb5558467bd5e7	0.8541680695186046
128	0x3ff02604ca45381e	1.009281911963178
129	0x3feefe59bc5b9000	0.968548648725573
130	0x3fe3d8cd2738d73e	0.6202150121741636
131	0x3fe2f6894104adee	0.5925947446716557
132	0x3fe97140c25fbb50	0.7950748249403237
133	0x3ff10e13153a8726	1.0659361676448014
134	0x3feb8e98ff022b99	0.861156938613351
135	0x3fe7e940e7d1b516	0.7472233321874764
136	0x3fdc3ab27a0c358e	0.441082591235351
137	0x3fe8f37ab63cbc3b	0.7797215995141252
138	0x3ff0bdd95632ac61	1.0463498465640202
139	0x3fe85c70dfeced61	0.7612842916054597
140	0x3fe8a71cd4ddccec	0.7703994901225122
141	0x3fe26a5fd5394bf8	0.5754851498153348
142	0x3feb1fc7d59eced3	0.8476294681808788
143	0x3fed66fd625c2913	0.9188219948858055
144	0x3fee8a52c27170db	0.9543851659505224
145	0x3fea079863ae4305	0.8134271571053381
146	0x3fe0771272d64f1f	0.5145351641571984
147	0x3fed2bdbb28170f7	0.9116037832677922
148	0x3ff0e4afc7faa906	1.0558317004857272
149	0x3feb90113abe3a77	0.8613363406492017
150	0x3fcfffce1d680834	0.24999405322893298
151	0x3fe4b3c57cfe249c	0.6469447556747983
152	0xbfa35d29dfc546e5	-0.037820156636952075
153	0x3fe327a37fc4b6db	0.5985887046315058
154	0x3fe5f50393de56f5	0.6861589325005456
155	0x3fc276db6d8c2b29	0.14425223206520713
156	0x3fc7355bf6dc04a7	0.18131589463886152
157	0x3fd27942bbabad9b	0.2886511643143536
158	0x3fe2ee3bcf09df98	0.5915812534067184
159	0x3fe0b6fbfbc1f73a	0.5223369519369279
160	0x3fc3bf56cde01f0e	0.15427670528901455
161	0x3fc7ea1b933fee1e	0.18683190050056536
162	0x3fd6c7fb750404b0	0.35595594813646425
163	0x3fe459bd2a4d9905	0.6359544588310945
164	0x3fde69ffef66dd37	0.4752197111042337
165	0x3fd652ac0126d94a	0.3487958918807591
166	0x3fd1b3e50fc02c5c	0.2766049054923252
167	0x3fe14bdd00e52993	0.5405106561168388
168	0x3fddd846dbb97a86	0.4663254876849482
169	0x3fe2ac449797f383	0.583528801041766
170	0x3fd1ebb3788ce57f	0.2800110509156965
171	0x3fd11da868cbea36	0.26743517145192486
172	0x3fd23195391de4c6	0.28427630021867534
173	0x3fe65dfdfc5451e4	0.6989736488636109
174	0x3fd77b98f338a7e2	0.36691879036027164
175	0x3fd515f9403f189b	0.3294661643416334
176	0x3fd25ffa0ce53cd8	0.2871079564983581
177	0x3fdcb87d497381f1	0.4487603394791498
178	0x3fe297efc699200e	0.5810469511861827
179	0x3fe0d9481dd11b58	0.5265236456260523
180	0x3fd00b5242687749	0.2506909988895712
181	0x3fc5cda234965d91	0.1703379399084324
182	0x3fd3363c89ec4715	0.30018533200301195
183	0x3fe05082893d4e07	0.5098278694590029
184	0x3fd7755aa8de1e45	0.3665377282236231
185	0x3fcae06fa7f5103e	0.20997424794234293
186	0x3fc4e58bff37f23c	0.16325521432726642
187	0x3fd4deb967f47f4c	0.3260940089403348
188	0x3fe2d094bb038f74	0.587961545239962
189	0x3fe02efedd58d64a	0.5057367633041363
190	0x3fc9e47152f9642d	0.20228401710008495
191	0x3fb53dc7036b78f1	0.08297389825336034
192	0x3fd5643dd8232298	0.3342432604518222
193	0x3fdfc92bd32a0cc8	0.49665351506719135
194	0x3fe1d61b10988288	0.5573859523902494
195	0x3fdb1ff500ee1a28	0.42382550326184054
196	0x3fc08789a5d0c5c6	0.12913628193341092
197	0x3fe05fa64fb101d9	0.5116759830926255
198	0x3fdfd7b86a5b236c	0.49754152666405704
199	0x3fe34e894fdd28fd	0.6033369598237922
200	0x3fe728ad5a03931d	0.7237154729924417
201	0x3fed00fa94ddf1f4	0.9063694865758962
202	0x3fe34582888ad13d	0.6022350947228358
203	0x3ff136920a546e59	1.0758228686817317
204	0x3ff214ed3fdc9492	1.1301090712161437
205	0x3fe2ba44e6bbc36c	0.5852379328263004
206	0x3fdf3bd87cc9d061	0.4880276888500302
207	0x3fe7adea4684a86c	0.7399798753078932
208	0x3ff106fe0702ab6f	1.064207103142248
209	0x3febfac01aacbe81	0.874359180545028
210	0x3fe83e5e4b8e0e56	0.7576133227998507
211	0x3fdb840d9a4fe6bf	0.42993488378088424
212	0x3fe5f899efd7ddd8	0.6865968403280318
213	0x3ff16bbbea234524	1.088802256203345
214	0x3fe95c4d2e0e3a17	0.7925172709963729
215	0x3fe46bd32f0cfe8f	0.6381622237167494
216	0x3fdde0d9f5e0e781	0.46684884082389294
217	0x3fe7dbabcee6e17b	0.7455653229763323
218	0x3fed7fd5a975628d	0.9218548116433155
219	0x3fea1df48285a942	0.8161566304454839
220	0x3fe37bf8a8ab8553	0.6088832182250975
221	0x3fdad884f16431af	0.4194652898156858
222	0x3fee6bd2871d8904	0.9506619109127148
223	0x3fed403b78685c1e	0.9140908576690696
224	0x3fed484dd8536217	0.9150761818992262
225	0x3fe6864de23796c0	0.7038945596984476
226	0x3fde1e76c0a4e3d7	0.47060936749363463
227	0x3fe9aa85d2e69afc	0.8020657653003975
228	0x3ff134db67197e8a	1.0754045512511845
229	0x3fe8b111487465fa	0.7716146865015496
230	0x3fe4fb00da476d2d	0.6556400550138385
231	0x3fe387d4ef9520eb	0.610331027922283
232	0x3fea5beca5b87ca3	0.8237212406856042
233	0x3fef302854bbeec2	0.9746286063159106
234	0x3fe917aabd63f17c	0.7841390322715109
235	0x3fe585ba15e24d70	0.6725740840360412
236	0x3fde62c63eba6f60	0.4747787106114085
237	0x3fe6d4d4d38d05b3	0.7134803897717376
238	0x3ff014a37a354020	1.0050387166738872
239	0x3fee72ad828b64a4	0.951498751611457
240	0x3fe53c6888792c85	0.6636240640158496
241	0x3fe385003180e98b	0.6099854437700726
242	0x3fe951a7221f68e8	0.7912173906763913
243	0x3fed6f5ca459ab6a	0.9198439798322913
244	0x3fe8f517ce015b24	0.7799185775319057
245	0x3fe8cb747aaa949b	0.7748358150316962
246	0x3fdf98c82ec30896	0.4937000710161866
247	0x3fe854435274a01e	0.7602860079250637
248	0x3ff07defb69e8369	1.0307461865961278
249	0x3fecdceef2935a31	0.9019694078259076

GFL.3.bias f8 [5, 1]
0	0x3ff61020c51ae17f	1.3789375018514816
1	0x3ff5e5c0fb4375f9	1.3685922446232992
2	0x3ff885ffbc9a2ba2	1.5327145926737349
3	0x3ff28f6713a40c50	1.1600104109973195
4	0x3ff7daa931254dbd	1.490884010291537

MLP.0.weight f8 [1, 740]
0	0x3f5623fa77016240	0.0013513513513513514
1	0x3f5623fa77016240	0.0013513513513513514
2	0x3f5623fa77016240	0.0013513513513513514
3	0x3f5623fa77016240	0.0013513513513513514
4	0x3f5623fa77016240	0.0013513513513513514
5	0x3f5623fa77016240	0.0013513513513513514
6	0x3f5623fa77016240	0.0013513513513513514
7	0x3f5623fa77016240	0.0013513513513513514
8	0x3f5623fa77016240	0.0013513513513513514
9	0x3f5623fa77016240	0.0013513513513513514
10	0x3f5623fa77016240	0.0013513513513513514
11	0x3f5623fa77016240	0.0013513513513513514
12	0x3f5623fa77016240	0.0013513513513513514
13	0x3f5623fa77016240	0.0013513513513513514
14	0x3f5623fa77016240	0.0013513513513513514
15	0x3f5623fa77016240	0.0013513513513513514
16	0x3f5623fa77016240	0.0013513513513513514
17	0x3f5623fa77016240	0.0013513513513513514
18	0x3f5623fa77016240	0.0013513513513513514
19	0x3f5623fa77016240	0.0013513513513513514
20	0x3f5623fa77016240	0.0013513513513513514
21	0x3f5623fa77016240	0.0013513513513513514
22	0x3f5623fa77016240	0.0013513513513513514
23	0x3f5623fa77016240	0.0013513513513513514
24	0x3f5623fa77016240	0.0013513513513513514
25	0x3f5623fa77016240	0.0013513513513513514
26	0x3f5623fa77016240	0.0013513513513513514
27	0x3f5623fa77016240	0.0013513513513513514
28	0x3f5623fa77016240	0.0013513513513513514
29	0x3f5623fa77016240	0.0013513513513513514
30	0x3f5623fa77016240	0.0013513513513513514
31	0x3f5623fa77016240	0.0013513513513513514
32	0x3f5623fa77016240	0.0013513513513513514
33	0x3f5623fa77016240	0.0013513513513513514
34	0x3f5623fa77016240	0.0013513513513513514
35	0x3f5623fa77016240	0.0013513513513513514
36	0x3f5623fa77016240	0.0013513513513513514
37	0x3f5623fa77016240	0.0013513513513513514
38	0x3f5623fa77016240	0.0013513513513513514
39	0x3f5623fa77016240	0.0013513513513513514
40	0x3f5623fa77016240	0.0013513513513513514
41	0x3f5623fa77016240	0.0013513513513513514
42	0x3f5623fa77016240	0.0013513513513513514
43	0x3f5623fa77016240	0.0013513513513513514
44	0x3f5623fa77016240	0.0013513513513513514
45	0x3f5623fa77016240	0.0013513513513513514
46	0x3f5623fa77016240	0.0013513513513513514
47	0x3f5623fa77016240	0.0013513513513513514
48	0x3f5623fa77016240	0.0013513513513513514
49	0x3f5623fa77016240	0.0013513513513513514
50	0x3f5623fa77016240	0.0013513513513513514
51	0x3f5623fa77016240	0.0013513513513513514
52	0x3f5623fa77016240	0.0013513513513513514
53	0x3f5623fa77016240	0.0013513513513513514
54	0x3f5623fa77016240	0.0013513513513513514
55	0x3f5623fa77016240	0.0013513513513513514
56	0x3f5623fa77016240	0.0013513513513513514
57	0x3f5623fa77016240	0.0013513513513513514
58	0x3f5623fa77016240	0.0013513513513513514
59	0x3f5623fa77016240	0.0013513513513513514
60	0x3f5623fa77016240	0.0013513513513513514
61	0x3f5623fa77016240	0.0013513513513513514
62	0x3f5623fa77016240	0.0013513513513513514
63	0x3f5623fa77016240	0.0013513513513513514
64	0x3f5623fa77016240	0.0013513513513513514
65	0x3f5623fa77016240	0.0013513513513513514
66	0x3f5623fa77016240	0.0013513513513513514
67	0x3f5623fa77016240	0.0013513513513513514
68	0x3f5623fa77016240	0.0013513513513513514
69	0x3f5623fa77016240	0.0013513513513513514
70	0x3f5623fa77016240	0.0013513513513513514
71	0x3f5623fa77016240	0.0013513513513513514
72	0x3f5623fa77016240	0.0013513513513513514
73	0x3f5623fa77016240	0.0013513513513513514
74	0x3f5623fa77016240	0.0013513513513513514
75	0x3f5623fa77016240	0.0013513513513513514
76	0x3f5623fa77016240	0.0013513513513513514
77	0x3f5623fa77016240	0.0013513513513513514
78	0x3f5623fa77016240	0.0013513513513513514
79	0x3f5623fa77016240	0.0013513513513513514
80	0x3f5623fa77016240	0.0013513513513513514
81	0x3f5623fa77016240	0.0013513513513513514
82	0x3f5623fa77016240	0.0013513513513513514
83	0x3f5623fa77016240	0.0013513513513513514
84	0x3f5623fa77016240	0.0013513513513513514
85	0x3f5623fa77016240	0.0013513513513513514
86	0x3f5623fa77016240	0.0013513513513513514
87	0x3f5623fa77016240	0.0013513513513513514
88	0x3f5623fa77016240	0.0013513513513513514
89	0x3f5623fa77016240	0.0013513513513513514
90	0x3f5623fa77016240	0.0013513513513513514
91	0x3f5623fa77016240	0.0013513513513513514
92	0x3f5623fa77016240	0.0013513513513513514
93	0x3f5623fa77016240	0.0013513513513513514
94	0x3f5623fa77016240	0.0013513513513513514
95	0x3f5623fa77016240	0.0013513513513513514
96	0x3f5623fa77016240	0.0013513513513513514
97	0x3f5623fa77016240	0.0013513513513513514
98	0x3f5623fa77016240	0.0013513513513513514
99	0x3f5623fa77016240	0.0013513513513513514
100	0x3f5623fa77016240	0.0013513513513513514
101	0x3f5623fa77016240	0.0013513513513513514
102	0x3f5623fa77016240	0.0013513513513513514
103	0x3f5623fa77016240	0.0013513513513513514
104	0x3f5623fa77016240	0.0013513513513513514
105	0x3f5623fa77016240	0.0013513513513513514
106	0x3f5623fa77016240	0.0013513513513513514
107	0x3f5623fa77016240	0.0013513513513513514
108	0x3f5623fa77016240	0.0013513513513513514
109	0x3f5623fa77016240	0.0013513513513513514
110	0x3f5623fa77016240	0.0013513513513513514
111	0x3f5623fa77016240	0.0013513513513513514
112	0x3f5623fa77016240	0.0013513513513513514
113	0x3f5623fa77016240	0.0013513513513513514
114	0x3f5623fa77016240	0.0013513513513513514
115	0x3f5623fa77016240	0.0013513513513513514
116	0x3f5623fa77016240	0.0013513513513513514
117	0x3f5623fa77016240	0.0013513513513513514
118	0x3f5623fa77016240	0.0013513513513513514
119	0x3f5623fa77016240	0.0013513513513513514
120	0x3f5623fa77016240	0.0013513513513513514
121	0x3f5623fa77016240	0.0013513513513513514
122	0x3f5623fa77016240	0.0013513513513513514
123	0x3f5623fa77016240	0.0013513513513513514
124	0x3f5623fa77016240	0.0013513513513513514
125	0x3f5623fa77016240	0.0013513513513513514
126	0x3f5623fa77016240	0.0013513513513513514
127	0x3f5623fa77016240	0.0013513513513513514
128	0x3f5623fa77016240	0.0013513513513513514
129	0x3f5623fa77016240	0.0013513513513513514
130	0x3f5623fa77016240	0.0013513513513513514
131	0x3f5623fa77016240	0.0013513513513513514
132	0x3f5623fa77016240	0.0013513513513513514
133	0x3f5623fa77016240	0.0013513513513513514
134	0x3f5623fa77016240	0.0013513513513513514
135	0x3f5623fa77016240	0.0013513513513513514
136	0x3f5623fa77016240	0.0013513513513513514
137	0x3f5623fa77016240	0.0013513513513513514
138	0x3f5623fa77016240	0.0013513513513513514
139	0x3f5623fa77016240	0.0013513513513513514
140	0x3f5623fa77016240	0.0013513513513513514
141	0x3f5623fa77016240	0.0013513513513513514
142	0x3f5623fa77016240	0.0013513513513513514
143	0x3f5623fa77016240	0.0013513513513513514
144	0x3f5623fa77016240	0.0013513513513513514
145	0x3f5623fa77016240	0.0013513513513513514
146	0x3f5623fa77016240	0.0013513513513513514
147	0x3f5623fa77016240	0.0013513513513513514
148	0x3f5623fa77016240	0.0013513513513513514
149	0x3f5623fa77016240	0.0013513513513513514
150	0x3f5623fa77016240	0.0013513513513513514
151	0x3f5623fa77016240	0.0013513513513513514
152	0x3f5623fa77016240	0.0013513513513513514
153	0x3f5623fa77016240	0.0013513513513513514
154	0x3f5623fa77016240	0.0013513513513513514
155	0x3f5623fa77016240	0.0013513513513513514
156	0x3f5623fa77016240	0.0013513513513513514
157	0x3f5623fa77016240	0.0013513513513513514
158	0x3f5623fa77016240	0.0013513513513513514
159	0x3f5623fa77016240	0.0013513513513513514
160	0x3f5623fa77016240	0.0013513513513513514
161	0x3f5623fa77016240	0.0013513513513513514
162	0x3f5623fa77016240	0.0013513513513513514
163	0x3f5623fa77016240	0.0013513513513513514
164	0x3f5623fa77016240	0.0013513513513513514
165	0x3f5623fa77016240	0.0013513513513513514
166	0x3f5623fa77016240	0.0013513513513513514
167	0x3f5623fa77016240	0.0013513513513513514
168	0x3f5623fa77016240	0.0013513513513513514
169	0x3f5623fa77016240	0.0013513513513513514
170	0x3f5623fa77016240	0.0013513513513513514
171	0x3f5623fa77016240	0.0013513513513513514
172	0x3f5623fa77016240	0.0013513513513513514
173	0x3f5623fa77016240	0.0013513513513513514
174	0x3f5623fa77016240	0.0013513513513513514
175	0x3f5623fa77016240	0.0013513513513513514
176	0x3f5623fa77016240	0.0013513513513513514
177	0x3f5623fa77016240	0.0013513513513513514
178	0x3f5623fa77016240	0.0013513513513513514
179	0x3f5623fa77016240	0.0013513513513513514
180	0x3f5623fa77016240	0.0013513513513513514
181	0x3f5623fa77016240	0.0013513513513513514
182	0x3f5623fa77016240	0.0013513513513513514
183	0x3f5623fa77016240	0.0013513513513513514
184	0x3f5623fa77016240	0.0013513513513513514
185	0x3f5623fa77016240	0.0013513513513513514
186	0x3f5623fa77016240	0.0013513513513513514
187	0x3f5623fa77016240	0.0013513513513513514
188	0x3f5623fa77016240	0.0013513513513513514
189	0x3f5623fa77016240	0.0013513513513513514
190	0x3f5623fa77016240	0.0013513513513513514
191	0x3f5623fa77016240	0.0013513513513513514
192	0x3f5623fa77016240	0.0013513513513513514
193	0x3f5623fa77016240	0.0013513513513513514
194	0x3f5623fa77016240	0.0013513513513513514
195	0x3f5623fa77016240	0.0013513513513513514
196	0x3f5623fa77016240	0.0013513513513513514
197	0x3f5623fa77016240	0.0013513513513513514
198	0x3f5623fa77016240	0.0013513513513513514
199	0x3f5623fa77016240	0.0013513513513513514
200	0x3f5623fa77016240	0.0013513513513513514
201	0x3f5623fa77016240	0.0013513513513513514
202	0x3f5623fa77016240	0.0013513513513513514
203	0x3f5623fa77016240	0.0013513513513513514
204	0x3f5623fa77016240	0.0013513513513513514
205	0x3f5623fa77016240	0.0013513513513513514
206	0x3f5623fa77016240	0.0013513513513513514
207	0x3f5623fa77016240	0.0013513513513513514
208	0x3f5623fa77016240	0.0013513513513513514
209	0x3f5623fa77016240	0.0013513513513513514
210	0x3f5623fa77016240	0.0013513513513513514
211	0x3f5623fa77016240	0.0013513513513513514
212	0x3f5623fa77016240	0.0013513513513513514
213	0x3f5623fa77016240	0.0013513513513513514
214	0x3f5623fa77016240	0.0013513513513513514
215	0x3f5623fa77016240	0.0013513513513513514
216	0x3f5623fa77016240	0.0013513513513513514
217	0x3f5623fa77016240	0.0013513513513513514
218	0x3f5623fa77016240	0.0013513513513513514
219	0x3f5623fa77016240	0.0013513513513513514
220	0x3f5623fa77016240	0.0013513513513513514
221	0x3f5623fa77016240	0.0013513513513513514
222	0x3f5623fa77016240	0.0013513513513513514
223	0x3f5623fa77016240	0.0013513513513513514
224	0x3f5623fa77016240	0.0013513513513513514
225	0x3f5623fa77016240	0.0013513513513513514
226	0x3f5623fa77016240	0.0013513513513513514
227	0x3f5623fa77016240	0.0013513513513513514
228	0x3f5623fa77016240	0.0013513513513513514
229	0x3f5623fa77016240	0.0013513513513513514
230	0x3f5623fa77016240	0.0013513513513513514
231	0x3f5623fa77016240	0.0013513513513513514
232	0x3f5623fa77016240	0.0013513513513513514
233	0x3f5623fa77016240	0.0013513513513513514
234	0x3f5623fa77016240	0.0013513513513513514
235	0x3f5623fa77016240	0.0013513513513513514
236	0x3f5623fa77016240	0.0013513513513513514
237	0x3f5623fa77016240	0.0013513513513513514
238	0x3f5623fa77016240	0.0013513513513513514
239	0x3f5623fa77016240	0.0013513513513513514
240	0x3f5623fa77016240	0.0013513513513513514
241	0x3f5623fa77016240	0.0013513513513513514
242	0x3f5623fa77016240	0.0013513513513513514
243	0x3f5623fa77016240	0.0013513513513513514
244	0x3f5623fa77016240	0.0013513513513513514
245	0x3f5623fa77016240	0.0013513513513513514
246	0x3f5623fa77016240	0.0013513513513513514
247	0x3f5623fa77016240	0.0013513513513513514
248	0x3f5623fa77016240	0.0013513513513513514
249	0x3f5623fa77016240	0.0013513513513513514
250	0x3f5623fa77016240	0.0013513513513513514
251	0x3f5623fa77016240	0.0013513513513513514
252	0x3f5623fa77016240	0.0013513513513513514
253	0x3f5623fa77016240	0.0013513513513513514
254	0x3f5623fa77016240	0.0013513513513513514
255	0x3f5623fa77016240	0.0013513513513513514
