OASIS3_VNN_NeurIPS/test36.pth (torch, 10139 bytes, 5 tensors)

GFL.0.weight f8 [5, 1, 6, 1]
000000 9d 36 45 c8 8c c0 f1 3f ea 6c cf 98 af 67 a5 3f
       1.1095092604695431 0.041806685832591686
000010 b9 dd 66 20 c8 fb 82 3f ba 40 56 95 55 da cf bf
       0.009269298065972419 -0.24885053436128662
000020 f5 ba e0 fb a0 3e dd bf 4d 53 f5 6a 90 2f d4 bf
       -0.45694756123968655 -0.3154030842318221
000030 38 71 61 d6 5a f0 f8 bf 18 cb 61 cc 92 ac 82 bf
       -1.558680379318572 -0.009118220197910129
000040 8a 31 08 ab 5c d3 c4 bf cd 81 8b b7 cf e0 d1 3f
       -0.1627002558819977 0.2793463985854288
000050 cb 80 ba 6c 2f a4 c0 bf 86 c9 0d 56 22 f5 bd bf
       -0.13001053627977507 -0.1170216999142096
000060 7a 30 67 a6 ed 60 fa 3f 77 30 fe 12 f3 57 c4 bf
       1.6486641407127807 -0.15893400599850668
000070 16 da 82 75 6e d6 d5 bf 9e 08 f6 ae 4a a9 ce bf
       -0.34121285892197883 -0.23954137366314837
000080 64 52 73 da 88 14 d0 bf d8 0c 19 4a c4 c4 dd bf
       -0.2512533314996175 -0.4651346896755064
000090 91 f5 40 9a 49 f0 d6 3f 20 f6 2d 33 30 29 d8 bf
       0.35841598571627126 -0.3775139331627049
0000a0 a7 b1 f4 b2 eb e8 9b bf 04 1e ae 08 52 e8 d6 bf
       -0.02725570945510616 -0.3579297146575018
0000b0 c7 2f dd 63 7b 40 85 bf 39 94 6d 81 a8 bc b6 bf
       -0.010376895890338645 -0.08881619605888681
0000c0 32 bb 8a 51 0b ac f6 3f 17 67 6d 18 53 af d1 bf
       1.4170029816847998 -0.2763259638355619
0000d0 a8 e0 e9 e4 53 5c c8 3f f1 10 0a 72 80 8a c0 bf
       0.19031761815472703 -0.12922673767400952
0000e0 02 d1 cd 7e ae f2 d5 bf cc 16 52 18 19 5b d1 bf
       -0.3429371107406639 -0.27118518233360756

GFL.0.bias f8 [5, 1]
000000 00 08 53 e4 bc 84 f4 3f 79 cc 2c 16 2c 45 00 40
       1.2824067038459361 2.0337754948064313
000010 2c 26 ba 41 52 9d f7 3f ea 31 ae 72 a8 6a fd 3f
       1.4759085242716408 1.8385395507531208
000020 18 ff 6a 5e 2b 9c 02 40
       2.326254594459794

GFL.3.weight f8 [5, 1, 10, 5]
000000 cd f3 54 2e 96 d5 f0 3f 58 47 af 03 89 bd e6 3f
       1.052145176872034 0.7106366226164296
000010 d6 66 07 20 3b 64 f1 3f 2a c2 46 f0 aa e9 e3 3f
       1.0869704486016665 0.6222738926790659
000020 56 15 e3 1c 6d 95 fa 3f f2 a2 95 12 f0 4b de 3f
       1.6614810112381142 0.47338487448591515
000030 9e ce e2 6f 5c 54 e6 3f b2 9b 1d 21 57 d1 e4 3f
       0.6977979836724051 0.6505542418279815
000040 8b 4b 80 e1 93 d5 e0 3f 16 e2 eb 1e f2 ec f2 3f
       0.5260714916533841 1.1828480918758308
000050 41 86 6d 18 d1 08 d4 3f 18 0d a4 a0 57 12 e8 3f
       0.31303813348322157 0.7522390496746167
000060 ed 1a d8 1c e1 56 e3 3f 6c a7 d7 4f 88 97 e2 3f
       0.604355388962032 0.5809976157590717
000070 78 dd 7a fa 80 a3 ee 3f 31 f3 d1 06 31 9a dd 3f
       0.9574589626489987 0.46253610292460495
000080 7c fa 1f b4 b2 fa eb 3f bf 54 4f 7a 90 68 e0 3f
       0.8743527906479609 0.5127642048706987
000090 e9 60 eb e1 42 f1 de 3f 51 c9 1e 17 83 58 ee 3f
       0.4834754186863522 0.9483046962325635
0000a0 5e e9 9c 9a c3 ba dd 3f af ee 38 d2 97 07 e8 3f
       0.46452417467994234 0.7509268861681074
0000b0 27 91 aa 87 21 bd e1 3f a6 28 a7 09 0b 93 e6 3f
       0.5543372773868541 0.7054495991262868
0000c0 e0 aa 8e 40 4c ab ec 3f c6 6e 35 ee fc 40 d3 3f
       0.8959103833088555 0.3008415533310934
0000d0 c7 a1 36 bf d7 bb eb 3f b5 a7 4d 89 c8 fe e1 3f
       0.8666800245892369 0.5623514825540413
0000e0 ab f1 04 25 30 ae e3 3f a0 cd 84 6e 3a fc f1 3f
       0.6150131915124367 1.1240791623248256
0000f0 e7 11 c4 bf d4 4c dc 3f a2 a3 8f f4 01 1c ee 3f
       0.44218939520967954 0.9409189011176873
000100 90 cb ae 8b a4 24 d8 3f 5c 69 6d ff 65 70 e5 3f
       0.37723649636171164 0.6699705113235654
000110 e2 f5 ec f5 e6 bb f0 3f 50 c5 07 b3 a8 31 d7 3f
       1.0458745581121254 0.36240594371254975
000120 65 5c 33 21 9b 31 ee 3f 37 c6 fb 6f 58 39 dd 3f
       0.9435554169130113 0.4566250890339662
000130 4b bd 30 57 78 aa e2 3f af cb 99 f9 f3 02 f0 3f
       0.5833093359887384 1.0007209539441921
000140 11 e8 f7 9e 22 ed da 3f 3f d8 91 cc 97 84 ed 3f
       0.42072358631378487 0.922435664701659
000150 7f fd 9b ee eb 71 e0 3f 0e 5b d5 b7 c4 ae e4 3f
       0.5139064464892015 0.646334036874437
000160 4a 40 ce 05 1e 1b ee 3f 47 a5 23 42 92 46 d4 3f
       0.9408102143661463 0.31680733164701674
000170 6d 35 28 8b d6 68 ec 3f bb 52 1f ed 90 07 dd 3f
       0.887797614852088 0.4535867992065438
000180 4c 05 97 f1 f7 54 e6 3f 27 c6 0e 4c e5 ad ef 3f
       0.6978721350243773 0.9899775014402551
000190 71 d2 e5 c3 8d 4b ee 3f 9e 8a 99 af 22 1b e4 3f
       0.9467228723647861 0.6283124379809413
0001a0 16 3c e8 08 2c a3 f0 3f 62 f0 f9 ee 74 72 e6 3f
       1.039836916726704 0.7014717738634426
0001b0 fe b6 7e b4 d0 13 fb 3f 69 7f b2 00 ce 27 e1 3f
       1.6923377085290094 0.5361089719408315
0001c0 09 0e ed d8 a0 c2 e6 3f 63 97 1f 44 e4 59 e2 3f
       0.7112583386264656 0.5734731035742978
0001d0 02 cb 9e 1c 03 00 e0 3f 89 bc 57 da 5b ce f3 3f
       0.5000014838209099 1.2378805665028116
0001e0 d1 fd 1c 6e 87 04 e1 3f b3 60 dc d3 d9 b0 eb 3f
       0.5318028593682645 0.8653382432849156
0001f0 3f 7e fa 32 ff 73 e0 3f 82 1d cd 00 77 df e3 3f
       0.5141597743676768 0.6210284248017361
000200 e7 ee 25 7d 44 53 f0 3f 4c 2b 0d 53 8c b4 d7 3f
       1.0203289879418038 0.3703947840737569
000210 82 43 fe 7a fc 02 f0 3f 25 f8 b7 e0 91 2b e6 3f
       1.0007290653631746 0.6928185833965058
000220 e2 2c b4 7e 00 0f de 3f 10 02 94 e9 77 aa f0 3f
       0.4696656453458684 1.0416182636400926
000230 04 ce d2 f0 2e 44 ce 3f 8d 7b f3 3a 41 a4 ea 3f
       0.2364557910819799 0.8325506354702711
000240 4a fd 07 3f dc 20 e2 3f 78 ce da cb f1 3e e7 3f
       0.5665112715795797 0.7264336568391192
000250 7d fe 7b 70 e3 cc f1 3f 00 a7 38 8d 85 04 d9 3f
       1.1125215906066892 0.39090098181860355
000260 0d 06 c0 1d 01 9a ef 3f b6 23 af da 47 78 e5 3f
       0.9875493603760234 0.6709327002691825
000270 60 ee 21 b0 d2 1a e6 3f ff 70 64 26 1d d9 f2 3f
       0.6907742920006505 1.1780063152028217
000280 21 13 84 fe 32 3b d5 3f 42 1f 3e 4f 13 8b ec 3f
       0.33173823218412407 0.8919769809444704
000290 43 a0 af 6c 91 cf e0 3f 63 13 de 45 5b 54 e7 3f
       0.5253378985189631 0.7290474285697254
0002a0 67 a9 30 f9 78 b8 f1 3f ba 02 7d 0f ee f1 d8 3f
       1.1075372442233744 0.3897662307027009
0002b0 68 fb ed 7a b5 c8 ea 3f a8 b6 15 03 bf e7 e2 3f
       0.8370005989998903 0.5907893238306388
0002c0 af 6d ad d4 d5 49 e6 3f 99 17 46 1f 4c c9 f0 3f
       0.696513095269827 1.0491448613770216
0002d0 f6 2e a9 0c 04 ae dd 3f e1 23 a6 9f a1 55 ec 3f
       0.4637460826531731 0.8854530447143781
0002e0 89 01 6d 63 0d 00 e3 3f 56 b0 6b 96 f8 72 e5 3f
       0.5937563840780494 0.670284551420546
0002f0 31 e3 ca 5f fa 22 f0 3f 86 3a 7a 72 69 62 ce 3f
       1.0085395566840811 0.23737829293937213
000300 91 b2 10 c0 fd ca f0 3f f7 6a 6a 78 d2 3c e3 3f
       1.049558401350769 0.6011745788449322
000310 99 2a 19 ba 84 54 e5 3f 4a d1 14 11 ad ca ef 3f
       0.6665671953899902 0.9934907277698042
000320 cf b8 98 c5 23 b1 ed 3f e3 5c 5e c0 ca f0 df 3f
       0.9278735026653296 0.49907177721020285
000330 df 73 64 ae 57 a2 f2 3f 83 ec 61 f4 1b 78 e2 3f
       1.1646344005778173 0.5771617673011779
000340 9f b8 29 3c ad ad f8 3f 82 8f e6 f4 71 54 e0 3f
       1.5424015379062792 0.5103082450118424
000350 08 2b c3 af bb 8e e9 3f ff b9 70 44 9b 3e e2 3f
       0.7986734803065199 0.5701423966145852
000360 93 c3 3d e7 53 2d e0 3f 91 79 11 4e 01 c4 f3 3f
       0.5055331722670523 1.2353528070012525
000370 e1 21 bc 48 70 f1 db 3f 5c 35 6e 91 66 23 ef 3f
       0.4366112432767562 0.9730713692130553
000380 b5 56 71 7d c1 89 dd 3f 8f b2 fa 76 9d 32 e2 3f
       0.4615329480196622 0.5686786006750298
000390 ff 99 4d 8c cb 16 f2 3f 95 a0 f5 81 e7 71 d2 3f
       1.1305652123061234 0.2882021683822214
0003a0 3c 88 7d 75 2c 67 e9 3f 3a 9b b2 8c 60 fa e1 3f
       0.7938444418653101 0.5618136165620407
0003b0 9f a4 4e b3 b6 9f e6 3f 03 1b 3f de 5d 6d f1 3f
       0.7069962980359782 1.0892008477691781
0003c0 56 9e a0 08 b3 d9 d9 3f 29 41 c2 7f f3 6f e9 3f
       0.4039123138668165 0.794915914086265
0003d0 23 dc 21 3d 92 ad db 3f 92 25 ec bd 92 93 de 3f
       0.4324689480776575 0.47775715396036234
0003e0 f3 ea 61 41 e2 22 ee 3f c9 f9 16 10 a7 13 cd 3f
       0.9417582776071342 0.22716224942810317
0003f0 5d 8b 59 94 82 52 e9 3f a7 e4 e9 f1 a3 d4 da 3f
       0.7913220307785697 0.41922854065303244
000400 39 2e 82 06 15 95 e1 3f 0d 80 86 fa 2f 98 ec 3f
       0.5494485022658814 0.8935775654863406
000410 5e df 32 14 8b 54 dc 3f 55 28 8e 5f 0c 1a ea 3f
       0.4426601121190198 0.8156797281565199
000420 5b 39 88 5d 12 a1 db 3f c4 0a 46 e4 7d 5e e3 3f
       0.43170603879925346 0.6052846392124924
000430 b6 3f c2 16 3c b5 f0 3f 25 ed d6 21 34 78 cc 3f
       1.044246758367064 0.22241832401582787
000440 c1 9f 1c 13 72 a3 e9 3f b3 61 c4 ae 82 4b e3 3f
       0.8012018559720603 0.6029675877971868
000450 3a e7 1d 07 25 47 e1 3f 6a 5a 62 bd a6 75 ed 3f
       0.5399346484184442 0.9206117342863085
000460 4f 95 53 78 43 ac d0 3f fd 1e d9 2e a8 13 ee 3f
       0.2605141329825828 0.9398995318415185
000470 0c f1 38 6a 47 09 df 3f 32 4f 25 75 fb 9d e6 3f
       0.4849413430527114 0.7067849433901527
000480 80 10 a7 34 76 78 f2 3f d0 2b 52 7f 48 88 cb 3f
       1.1544096047155392 0.21509653298229958
000490 d4 58 e8 8a 29 8d ed 3f b9 57 a7 34 f4 85 d8 3f
       0.9234817231215637 0.38317589895211374
0004a0 90 b9 b5 c2 05 2a e0 3f 2a e9 f8 6f 2a de f0 3f
       0.5051296999861723 1.054239690200641
0004b0 7f 6b 82 2d fb 9e f0 3f c4 3a 38 7f 0b b9 dd 3f
       1.0388137605393408 0.464419244993149
0004c0 77 5d 60 f3 92 be f3 3f 2c a9 96 a2 c9 8f e4 3f
       1.2340268618480346 0.6425522018010148
0004d0 a8 d4 6d 68 9d bb f7 3f 2d 4d 9e ff d1 64 e4 3f
       1.4833044127711137 0.6373071663423723
0004e0 63 23 04 89 f3 62 eb 3f fa f7 51 d8 6b ce e1 3f
       0.8558290172669384 0.5564479088786805
0004f0 65 6c 88 1b fd a5 e6 3f 23 e5 74 4d af 84 f2 3f
       0.7077622926475554 1.1573937440537712
000500 62 69 2c 6d ef 66 de 3f 4b 3e de dc 7b db ec 3f
       0.47503266965363455 0.9017924608069249
000510 b3 f5 d1 9a 9a 4b e6 3f fa 2f 95 62 fc cd e2 3f
       0.6967289947348746 0.5876447606510731
000520 9b 58 ca 56 bb ca f1 3f a1 92 7d dd 88 e6 da 3f
       1.1119950666666572 0.4203207171433779
000530 9d 4a 3e 93 63 93 ed 3f f3 ed 38 73 c3 fa e2 3f
       0.924241817078229 0.5931107759892583
000540 0b 48 db a0 27 c6 e4 3f 7a cf a6 2a 63 05 f0 3f
       0.6491888181428761 1.0013152757719284
000550 43 f6 1f 8b ae 06 ce 3f 4f bb 83 62 6f e2 ee 3f
       0.23457891267018924 0.9651410030472592
000560 e2 44 a3 08 03 55 e4 3f e4 55 fe 2d cb cf e1 3f
       0.6353774231630747 0.5566154383001813
000570 3d 48 c2 66 d2 9b f1 3f c0 fe 13 0c 48 0e dd 3f
       1.1005424512882336 0.453996669573808
000580 0a 84 87 93 95 b3 ec 3f 54 06 36 e7 d6 96 e1 3f
       0.8969219094689163 0.5496630206909665
000590 3c 0a a7 96 9c 85 e4 3f 37 13 bc df 53 99 f1 3f
       0.6413100187713279 1.0999335040698506
0005a0 81 85 01 b9 17 fd d1 3f 54 50 af c8 26 89 f0 3f
       0.2810725504587808 1.0334842528582344
0005b0 fd 32 db be aa 82 e0 3f bb 9d 96 0b 8f 70 e1 3f
       0.5159505584393568 0.5449900842985963
0005c0 ee 1f e7 3a 4f e8 ed 3f e2 96 c9 4c 36 9f d3 3f
       0.9346080923505704 0.30659253596091507
0005d0 3a d4 90 35 3c 57 ee 3f fa b9 06 5a 34 82 dc 3f
       0.9481488271909548 0.44544705192211576
0005e0 fd aa d4 fc a9 66 e7 3f 75 5a 6a 21 c7 f2 f1 3f
       0.7312822282886767 1.1217719369211896
0005f0 8a 2c 4d 77 fe 9f d3 3f 87 fc 2c 52 28 e3 ee 3f
       0.3066402592709855 0.9652291874880498
000600 4b d2 02 b9 b7 25 e6 3f 0c 99 b4 87 60 ce e4 3f
       0.6921042073723326 0.6501925135133049
000610 e1 ad ea fd 03 4c f0 3f 5b 37 a6 ba 98 90 d8 3f
       1.0185584944364268 0.38382547595471345
000620 39 9a 2e 6d 98 6c f0 3f 4b c8 22 f3 6c 6d e6 3f
       1.026512552730891 0.7008576153514324
000630 ed 0e de ce 9b 49 e6 3f 63 53 99 2c 54 c0 f1 3f
       0.696485427892609 1.1094552747865343
000640 dc f8 b7 15 9c 02 ed 3f 67 87 d1 f1 d4 0d e5 3f
       0.9065685676758011 0.6579384539620435
000650 3b d5 5b b9 da 4d f3 3f f9 f4 73 19 49 57 e1 3f
       1.2065074196410268 0.5419049737098752
000660 be d8 2e 92 0b f4 f9 3f 96 df de 19 d5 7b db 3f
       1.6220813474915725 0.42943313146997164
000670 1d ac f9 92 38 6a ef 3f cb 12 80 1e 69 11 e5 3f
       0.9817164297686564 0.6583753200253225
000680 f6 11 ec 7e be b9 e1 3f 62 58 31 3f d1 b7 f0 3f
       0.5539238432834839 1.0448772877184855
000690 33 eb 43 18 e3 e8 d5 3f e6 23 53 7d 0f c8 e8 3f
       0.3423392998662848 0.7744214484929415
0006a0 68 94 ee ba 51 12 e1 3f 91 a0 58 81 bb b0 e2 3f
       0.5334862376227081 0.5840737844746561
0006b0 a2 ee 04 b5 9a 9c f0 3f 6d cb ce a1 de be d4 3f
       1.038233477694043 0.32414975930730955
0006c0 03 b9 18 ca 55 08 f0 3f 21 ea f1 66 62 1f db 3f
       1.0020349401852975 0.42379055073948463
0006d0 c6 16 68 6c 4f 73 e3 3f fb c6 4e 5e a7 98 ed 3f
       0.607825957996021 0.924884494967244
0006e0 e1 d0 d9 08 09 ef d7 3f 08 1e a6 dd 8c c0 ea 3f
       0.37396455635395226 0.8360046700553889
0006f0 38 28 af 13 1e 8c e2 3f 57 40 f5 0f f1 27 e7 3f
       0.5796041855294396 0.7236256896667425
000700 db 20 d8 b9 b3 ff f2 3f 4a 90 f4 a4 ee 0c d0 3f
       1.1874272594014232 0.2507893191234457
000710 67 b0 0d 97 f0 93 f0 3f 69 8d d9 0d b5 8d e0 3f
       1.0361181164289748 0.5172982473854236
000720 90 ee a0 e4 23 2c e1 3f a1 ea 48 4f 6c 71 f2 3f
       0.5366382089045647 1.1526911828101805
000730 76 d1 c4 e2 6e 8f d3 3f 36 00 d3 aa 7c ca eb 3f
       0.3056294645823735 0.8684676491175256
000740 97 5d 62 35 98 48 e3 3f 0f 74 ba 35 56 91 e0 3f
       0.6026116411839436 0.5177413033849251
000750 98 4c 9b ee 44 1b ed 3f 4d f4 ab cf c2 cb d4 3f
       0.9095787678037537 0.32493658333243475
000760 ca b9 5b d2 27 74 ed 3f 39 3a 9c 17 ec d7 e0 3f
       0.9204291447220438 0.5263576947343785
000770 aa 82 f3 6e 77 85 e2 3f d6 2b 36 9b 63 30 f1 3f
       0.578792301847064 1.0743137419656157
000780 27 c8 ba ce 54 ab cc 3f 27 33 6e d9 6e 57 e9 3f
       0.22397861570567665 0.7919229742707089
000790 09 69 58 5b c7 c2 de 3f 39 ce 15 d4 0e c2 e0 3f
       0.4806383506817303 0.5236887113846428
0007a0 44 8d f7 a0 a3 d5 f0 3f 85 f4 17 9f 92 f6 d2 3f
       1.052158001687375 0.29629960571748654
0007b0 78 41 5c 17 55 20 f0 3f 2a b1 62 4f d0 f7 da 3f
       1.007893649341069 0.4213753485917261
0007c0 6b 0b 07 08 88 f5 e3 3f 83 8e e5 cd 8d a7 f1 3f
       0.623722091368433 1.103406719478614

GFL.3.bias f8 [5, 1]
000000 43 0b 3b b3 f8 8d f7 3f 8d 68 ae 4a de f5 f9 3f
       1.4721610070416353 1.6225264470327005
000010 a8 1e cd 68 dd 03 fa 3f ce 2a 6d 3c 4f 67 fa 3f
       1.625943574314002 1.650222049752006
000020 3f 7c 7a ea 91 74 f9 3f
       1.590959468776205

MLP.0.weight f8 [1, 740]
000000 40 62 01 77 fa 23 56 3f 40 62 01 77 fa 23 56 3f
       0.0013513513513513514 0.0013513513513513514
000010 40 62 01 77 fa 23 56 3f 40 62 01 77 fa 23 56 3f
       0.0013513513513513514 0.0013513513513513514
000020 40 62 01 77 fa 23 56 3f 40 62 01 77 fa 23 56 3f
       0.0013513513513513514 0.0013513513513513514
000030 40 62 01 77 fa 23 56 3f 40 62 01 77 fa 23 56 3f
       0.0013513513513513514 0.0013513513513513514
000040 40 62 01 77 fa 23 56 3f 40 62 01 77 fa 23 56 3f
       0.0013513513513513514 0.0013513513513513514
000050 40 62 01 77 fa 23 56 3f 40 62 01 77 fa 23 56 3f
       0.0013513513513513514 0.0013513513513513514
000060 40 62 01 77 fa 23 56 3f 40 62 01 77 fa 23 56 3f
       0.0013513513513513514 0.0013513513513513514
000070 40 62 01 77 fa 23 56 3f 40 62 01 77 fa 23 56 3f
       0.0013513513513513514 0.0013513513513513514
000080 40 62 01 77 fa 23 56 3f 40 62 01 77 fa 23 56 3f
       0.0013513513513513514 0.0013513513513513514
000090 40 62 01 77 fa 23 56 3f 40 62 01 77 fa 23 56 3f
       0.0013513513513513514 0.0013513513513513514
0000a0 40 62 01 77 fa 23 56 3f 40 62 01 77 fa 23 56 3f
       0.0013513513513513514 0.0013513513513513514
0000b0 40 62 01 77 fa 23 56 3f 40 62 01 77 fa 23 56 3f
       0.0013513513513513514 0.0013513513513513514
0000c0 40 62 01 77 fa 23 56 3f 40 62 01 77 fa 23 56 3f
       0.0013513513513513514 0.0013513513513513514
0000d0 40 62 01 77 fa 23 56 3f 40 62 01 77 fa 23 56 3f
       0.0013513513513513514 0.0013513513513513514
0000e0 40 62 01 77 fa 23 56 3f 40 62 01 77 fa 23 56 3f
       0.0013513513513513514 0.0013513513513513514
0000f0 40 62 01 77 fa 23 56 3f 40 62 01 77 fa 23 56 3f
       0.0013513513513513514 0.0013513513513513514
000100 40 62 01 77 fa 23 56 3f 40 62 01 77 fa 23 56 3f
       0.0013513513513513514 0.0013513513513513514
000110 40 62 01 77 fa 23 56 3f 40 62 01 77 fa 23 56 3f
       0.0013513513513513514 0.0013513513513513514
000120 40 62 01 77 fa 23 56 3f 40 62 01 77 fa 23 56 3f
       0.0013513513513513514 0.0013513513513513514
000130 40 62 01 77 fa 23 56 3f 40 62 01 77 fa 23 56 3f
       0.0013513513513513514 0.0013513513513513514
000140 40 62 01 77 fa 23 56 3f 40 62 01 77 fa 23 56 3f
       0.0013513513513513514 0.0013513513513513514
000150 40 62 01 77 fa 23 56 3f 40 62 01 77 fa 23 56 3f
       0.0013513513513513514 0.0013513513513513514
000160 40 62 01 77 fa 23 56 3f 40 62 01 77 fa 23 56 3f
       0.0013513513513513514 0.0013513513513513514
000170 40 62 01 77 fa 23 56 3f 40 62 01 77 fa 23 56 3f
       0.0013513513513513514 0.0013513513513513514
000180 40 62 01 77 fa 23 56 3f 40 62 01 77 fa 23 56 3f
       0.0013513513513513514 0.0013513513513513514
000190 40 62 01 77 fa 23 56 3f 40 62 01 77 fa 23 56 3f
       0.0013513513513513514 0.0013513513513513514
0001a0 40 62 01 77 fa 23 56 3f 40 62 01 77 fa 23 56 3f
       0.0013513513513513514 0.0013513513513513514
0001b0 40 62 01 77 fa 23 56 3f 40 62 01 77 fa 23 56 3f
       0.0013513513513513514 0.0013513513513513514
0001c0 40 62 01 77 fa 23 56 3f 40 62 01 77 fa 23 56 3f
       0.0013513513513513514 0.0013513513513513514
0001d0 40 62 01 77 fa 23 56 3f 40 62 01 77 fa 23 56 3f
       0.0013513513513513514 0.0013513513513513514
0001e0 40 62 01 77 fa 23 56 3f 40 62 01 77 fa 23 56 3f
       0.0013513513513513514 0.0013513513513513514
0001f0 40 62 01 77 fa 23 56 3f 40 62 01 77 fa 23 56 3f
       0.0013513513513513514 0.0013513513513513514
000200 40 62 01 77 fa 23 56 3f 40 62 01 77 fa 23 56 3f
       0.0013513513513513514 0.0013513513513513514
000210 40 62 01 77 fa 23 56 3f 40 62 01 77 fa 23 56 3f
       0.0013513513513513514 0.0013513513513513514
000220 40 62 01 77 fa 23 56 3f 40 62 01 77 fa 23 56 3f
       0.0013513513513513514 0.0013513513513513514
000230 40 62 01 77 fa 23 56 3f 40 62 01 77 fa 23 56 3f
       0.0013513513513513514 0.0013513513513513514
000240 40 62 01 77 fa 23 56 3f 40 62 01 77 fa 23 56 3f
       0.0013513513513513514 0.0013513513513513514
000250 40 62 01 77 fa 23 56 3f 40 62 01 77 fa 23 56 3f
       0.0013513513513513514 0.0013513513513513514
000260 40 62 01 77 fa 23 56 3f 40 62 01 77 fa 23 56 3f
       0.0013513513513513514 0.0013513513513513514
000270 40 62 01 77 fa 23 56 3f 40 62 01 77 fa 23 56 3f
       0.0013513513513513514 0.0013513513513513514
000280 40 62 01 77 fa 23 56 3f 40 62 01 77 fa 23 56 3f
       0.0013513513513513514 0.0013513513513513514
000290 40 62 01 77 fa 23 56 3f 40 62 01 77 fa 23 56 3f
       0.0013513513513513514 0.0013513513513513514
0002a0 40 62 01 77 fa 23 56 3f 40 62 01 77 fa 23 56 3f
       0.0013513513513513514 0.0013513513513513514
0002b0 40 62 01 77 fa 23 56 3f 40 62 01 77 fa 23 56 3f
       0.0013513513513513514 0.0013513513513513514
0002c0 40 62 01 77 fa 23 56 3f 40 62 01 77 fa 23 56 3f
       0.0013513513513513514 0.0013513513513513514
0002d0 40 62 01 77 fa 23 56 3f 40 62 01 77 fa 23 56 3f
       0.0013513513513513514 0.0013513513513513514
0002e0 40 62 01 77 fa 23 56 3f 40 62 01 77 fa 23 56 3f
       0.0013513513513513514 0.0013513513513513514
0002f0 40 62 01 77 fa 23 56 3f 40 62 01 77 fa 23 56 3f
       0.0013513513513513514 0.0013513513513513514
000300 40 62 01 77 fa 23 56 3f 40 62 01 77 fa 23 56 3f
       0.0013513513513513514 0.0013513513513513514
000310 40 62 01 77 fa 23 56 3f 40 62 01 77 fa 23 56 3f
       0.0013513513513513514 0.0013513513513513514
000320 40 62 01 77 fa 23 56 3f 40 62 01 77 fa 23 56 3f
       0.0013513513513513514 0.0013513513513513514
000330 40 62 01 77 fa 23 56 3f 40 62 01 77 fa 23 56 3f
       0.0013513513513513514 0.0013513513513513514
000340 40 62 01 77 fa 23 56 3f 40 62 01 77 fa 23 56 3f
       0.0013513513513513514 0.0013513513513513514
000350 40 62 01 77 fa 23 56 3f 40 62 01 77 fa 23 56 3f
       0.0013513513513513514 0.0013513513513513514
000360 40 62 01 77 fa 23 56 3f 40 62 01 77 fa 23 56 3f
       0.0013513513513513514 0.0013513513513513514
000370 40 62 01 77 fa 23 56 3f 40 62 01 77 fa 23 56 3f
       0.0013513513513513514 0.0013513513513513514
000380 40 62 01 77 fa 23 56 3f 40 62 01 77 fa 23 56 3f
       0.0013513513513513514 0.0013513513513513514
000390 40 62 01 77 fa 23 56 3f 40 62 01 77 fa 23 56 3f
       0.0013513513513513514 0.0013513513513513514
0003a0 40 62 01 77 fa 23 56 3f 40 62 01 77 fa 23 56 3f
       0.0013513513513513514 0.0013513513513513514
0003b0 40 62 01 77 fa 23 56 3f 40 62 01 77 fa 23 56 3f
       0.0013513513513513514 0.0013513513513513514
0003c0 40 62 01 77 fa 23 56 3f 40 62 01 77 fa 23 56 3f
       0.0013513513513513514 0.0013513513513513514
0003d0 40 62 01 77 fa 23 56 3f 40 62 01 77 fa 23 56 3f
       0.0013513513513513514 0.0013513513513513514
0003e0 40 62 01 77 fa 23 56 3f 40 62 01 77 fa 23 56 3f
       0.0013513513513513514 0.0013513513513513514
0003f0 40 62 01 77 fa 23 56 3f 40 62 01 77 fa 23 56 3f
       0.0013513513513513514 0.0013513513513513514
000400 40 62 01 77 fa 23 56 3f 40 62 01 77 fa 23 56 3f
       0.0013513513513513514 0.0013513513513513514
000410 40 62 01 77 fa 23 56 3f 40 62 01 77 fa 23 56 3f
       0.0013513513513513514 0.0013513513513513514
000420 40 62 01 77 fa 23 56 3f 40 62 01 77 fa 23 56 3f
       0.0013513513513513514 0.0013513513513513514
000430 40 62 01 77 fa 23 56 3f 40 62 01 77 fa 23 56 3f
       0.0013513513513513514 0.0013513513513513514
000440 40 62 01 77 fa 23 56 3f 40 62 01 77 fa 23 56 3f
       0.0013513513513513514 0.0013513513513513514
000450 40 62 01 77 fa 23 56 3f 40 62 01 77 fa 23 56 3f
       0.0013513513513513514 0.0013513513513513514
000460 40 62 01 77 fa 23 56 3f 40 62 01 77 fa 23 56 3f
       0.0013513513513513514 0.0013513513513513514
000470 40 62 01 77 fa 23 56 3f 40 62 01 77 fa 23 56 3f
       0.0013513513513513514 0.0013513513513513514
000480 40 62 01 77 fa 23 56 3f 40 62 01 77 fa 23 56 3f
       0.0013513513513513514 0.0013513513513513514
000490 40 62 01 77 fa 23 56 3f 40 62 01 77 fa 23 56 3f
       0.0013513513513513514 0.0013513513513513514
0004a0 40 62 01 77 fa 23 56 3f 40 62 01 77 fa 23 56 3f
       0.0013513513513513514 0.0013513513513513514
0004b0 40 62 01 77 fa 23 56 3f 40 62 01 77 fa 23 56 3f
       0.0013513513513513514 0.0013513513513513514
0004c0 40 62 01 77 fa 23 56 3f 40 62 01 77 fa 23 56 3f
       0.0013513513513513514 0.0013513513513513514
0004d0 40 62 01 77 fa 23 56 3f 40 62 01 77 fa 23 56 3f
       0.0013513513513513514 0.0013513513513513514
0004e0 40 62 01 77 fa 23 56 3f 40 62 01 77 fa 23 56 3f
       0.0013513513513513514 0.0013513513513513514
0004f0 40 62 01 77 fa 23 56 3f 40 62 01 77 fa 23 56 3f
       0.0013513513513513514 0.0013513513513513514
000500 40 62 01 77 fa 23 56 3f 40 62 01 77 fa 23 56 3f
       0.0013513513513513514 0.0013513513513513514
000510 40 62 01 77 fa 23 56 3f 40 62 01 77 fa 23 56 3f
       0.0013513513513513514 0.0013513513513513514
000520 40 62 01 77 fa 23 56 3f 40 62 01 77 fa 23 56 3f
       0.0013513513513513514 0.0013513513513513514
000530 40 62 01 77 fa 23 56 3f 40 62 01 77 fa 23 56 3f
       0.0013513513513513514 0.0013513513513513514
000540 40 62 01 77 fa 23 56 3f 40 62 01 77 fa 23 56 3f
       0.0013513513513513514 0.0013513513513513514
000550 40 62 01 77 fa 23 56 3f 40 62 01 77 fa 23 56 3f
       0.0013513513513513514 0.0013513513513513514
000560 40 62 01 77 fa 23 56 3f 40 62 01 77 fa 23 56 3f
       0.0013513513513513514 0.0013513513513513514
000570 40 62 01 77 fa 23 56 3f 40 62 01 77 fa 23 56 3f
       0.0013513513513513514 0.0013513513513513514
000580 40 62 01 77 fa 23 56 3f 40 62 01 77 fa 23 56 3f
       0.0013513513513513514 0.0013513513513513514
000590 40 62 01 77 fa 23 56 3f 40 62 01 77 fa 23 56 3f
       0.0013513513513513514 0.0013513513513513514
0005a0 40 62 01 77 fa 23 56 3f 40 62 01 77 fa 23 56 3f
       0.0013513513513513514 0.0013513513513513514
0005b0 40 62 01 77 fa 23 56 3f 40 62 01 77 fa 23 56 3f
       0.0013513513513513514 0.0013513513513513514
0005c0 40 62 01 77 fa 23 56 3f 40 62 01 77 fa 23 56 3f
       0.0013513513513513514 0.0013513513513513514
0005d0 40 62 01 77 fa 23 56 3f 40 62 01 77 fa 23 56 3f
       0.0013513513513513514 0.0013513513513513514
0005e0 40 62 01 77 fa 23 56 3f 40 62 01 77 fa 23 56 3f
       0.0013513513513513514 0.0013513513513513514
0005f0 40 62 01 77 fa 23 56 3f 40 62 01 77 fa 23 56 3f
       0.0013513513513513514 0.0013513513513513514
000600 40 62 01 77 fa 23 56 3f 40 62 01 77 fa 23 56 3f
       0.0013513513513513514 0.0013513513513513514
000610 40 62 01 77 fa 23 56 3f 40 62 01 77 fa 23 56 3f
       0.0013513513513513514 0.0013513513513513514
000620 40 62 01 77 fa 23 56 3f 40 62 01 77 fa 23 56 3f
       0.0013513513513513514 0.0013513513513513514
000630 40 62 01 77 fa 23 56 3f 40 62 01 77 fa 23 56 3f
       0.0013513513513513514 0.0013513513513513514
000640 40 62 01 77 fa 23 56 3f 40 62 01 77 fa 23 56 3f
       0.0013513513513513514 0.0013513513513513514
000650 40 62 01 77 fa 23 56 3f 40 62 01 77 fa 23 56 3f
       0.0013513513513513514 0.0013513513513513514
000660 40 62 01 77 fa 23 56 3f 40 62 01 77 fa 23 56 3f
       0.0013513513513513514 0.0013513513513513514
000670 40 62 01 77 fa 23 56 3f 40 62 01 77 fa 23 56 3f
       0.0013513513513513514 0.0013513513513513514
000680 40 62 01 77 fa 23 56 3f 40 62 01 77 fa 23 56 3f
       0.0013513513513513514 0.0013513513513513514
000690 40 62 01 77 fa 23 56 3f 40 62 01 77 fa 23 56 3f
       0.0013513513513513514 0.0013513513513513514
0006a0 40 62 01 77 fa 23 56 3f 40 62 01 77 fa 23 56 3f
       0.0013513513513513514 0.0013513513513513514
0006b0 40 62 01 77 fa 23 56 3f 40 62 01 77 fa 23 56 3f
       0.0013513513513513514 0.0013513513513513514
0006c0 40 62 01 77 fa 23 56 3f 40 62 01 77 fa 23 56 3f
       0.0013513513513513514 0.0013513513513513514
0006d0 40 62 01 77 fa 23 56 3f 40 62 01 77 fa 23 56 3f
       0.0013513513513513514 0.0013513513513513514
0006e0 40 62 01 77 fa 23 56 3f 40 62 01 77 fa 23 56 3f
       0.0013513513513513514 0.0013513513513513514
0006f0 40 62 01 77 fa 23 56 3f 40 62 01 77 fa 23 56 3f
       0.0013513513513513514 0.0013513513513513514
000700 40 62 01 77 fa 23 56 3f 40 62 01 77 fa 23 56 3f
       0.0013513513513513514 0.0013513513513513514
000710 40 62 01 77 fa 23 56 3f 40 62 01 77 fa 23 56 3f
       0.0013513513513513514 0.0013513513513513514
000720 40 62 01 77 fa 23 56 3f 40 62 01 77 fa 23 56 3f
       0.0013513513513513514 0.0013513513513513514
000730 40 62 01 77 fa 23 56 3f 40 62 01 77 fa 23 56 3f
       0.0013513513513513514 0.0013513513513513514
000740 40 62 01 77 fa 23 56 3f 40 62 01 77 fa 23 56 3f
       0.0013513513513513514 0.0013513513513513514
000750 40 62 01 77 fa 23 56 3f 40 62 01 77 fa 23 56 3f
       0.0013513513513513514 0.0013513513513513514
000760 40 62 01 77 fa 23 56 3f 40 62 01 77 fa 23 56 3f
       0.0013513513513513514 0.0013513513513513514
000770 40 62 01 77 fa 23 56 3f 40 62 01 77 fa 23 56 3f
       0.0013513513513513514 0.0013513513513513514
000780 40 62 01 77 fa 23 56 3f 40 62 01 77 fa 23 56 3f
       0.0013513513513513514 0.0013513513513513514
000790 40 62 01 77 fa 23 56 3f 40 62 01 77 fa 23 56 3f
       0.0013513513513513514 0.0013513513513513514
0007a0 40 62 01 77 fa 23 56 3f 40 62 01 77 fa 23 56 3f
       0.0013513513513513514 0.0013513513513513514
0007b0 40 62 01 77 fa 23 56 3f 40 62 01 77 fa 23 56 3f
       0.0013513513513513514 0.0013513513513513514
0007c0 40 62 01 77 fa 23 56 3f 40 62 01 77 fa 23 56 3f
       0.0013513513513513514 0.0013513513513513514
0007d0 40 62 01 77 fa 23 56 3f 40 62 01 77 fa 23 56 3f
       0.0013513513513513514 0.0013513513513513514
0007e0 40 62 01 77 fa 23 56 3f 40 62 01 77 fa 23 56 3f
       0.0013513513513513514 0.0013513513513513514
0007f0 40 62 01 77 fa 23 56 3f 40 62 01 77 fa 23 56 3f
       0.0013513513513513514 0.0013513513513513514
