OASIS3_VNN_NeurIPS/test21.pth (torch, 10139 bytes, 5 tensors)

GFL.0.weight f8 [5, 1, 6, 1]
000000 f9 4d 31 3a 95 91 ed bf f3 76 ea a7 e0 47 b5 bf
       -0.924021352441229 -0.08312801455982903
000010 de 27 cb 78 15 b3 cd 3f fd 9c a4 4d 2e 7d e3 3f
       0.23202770612834817 0.6090308681931728
000020 a5 7a 95 cf 18 ce e0 3f ed 13 24 f9 a7 e5 ba bf
       0.5251583151219462 -0.10506677467863286
000030 20 f7 33 f0 28 58 e7 3f 46 9e ff 9a 6a b9 d5 3f
       0.7295117083992615 0.33944192062924505
000040 de cb 0a c4 f6 6e c4 3f 72 60 b5 10 32 2a a2 bf
       0.15963635036823026 -0.035478176631557626
000050 75 c9 0b bc 82 c3 b1 3f 9a 07 db e3 74 3c d0 bf
       0.06938950625388947 -0.2536899781372256
000060 17 9a b8 24 cc 2c f6 bf 72 ce f2 e3 50 cb d2 3f
       -1.385936873857309 0.2936594224986272
000070 b6 96 05 70 15 f8 ae 3f f5 4f 06 4c f3 eb c6 bf
       0.06048647873357764 -0.17907563411847574
000080 49 19 5e 08 16 ea c2 3f f5 91 27 4e 7a bd d8 bf
       0.14776873978207508 -0.38656480438501656
000090 72 f0 b7 54 43 2d ed 3f 2b d2 fb 43 10 56 d3 bf
       0.9117752699526263 -0.30212790144949747
0000a0 e4 51 00 a4 c0 2e c0 3f 8d d4 28 c9 44 c3 ab bf
       0.12642677314637674 -0.05422415690956326
0000b0 2f c3 fd ee 55 0d b7 bf 40 c4 fa ed f3 07 b7 bf
       -0.09004723629710719 -0.08996510086105136
0000c0 ba e1 1d d8 c4 ec e3 bf e7 d4 ee de 70 c0 da bf
       -0.6226524563817784 -0.4179956605033354
0000d0 f9 f3 e2 ca 1c 1f d5 bf 2f 43 d2 14 81 d2 d2 3f
       -0.3300239545167752 0.2940981582005859
0000e0 1f 71 41 95 bb da 80 3f 3e 44 cf 52 eb 6a cb bf
       0.008229699604435368 -0.2142004160255357

GFL.0.bias f8 [5, 1]
000000 7f 9b b2 8a dc 7a f8 3f d8 09 79 fb 58 ba 02 40
       1.5299954812887504 2.3409900327981
000010 68 26 d9 10 db 08 fa 3f e5 bc 96 e3 a4 63 fa 3f
       1.6271620424398865 1.649327172297313
000020 4e 29 8b 56 5f 50 01 40
       2.1642443429201768

GFL.3.weight f8 [5, 1, 10, 5]
000000 56 ed cb fe e2 b6 d7 3f b6 f1 a4 29 b3 fc f1 3f
       0.37053751833419335 1.1241943003397927
000010 47 15 f2 9f 3e d1 d3 3f 76 f1 0e 13 08 9e ea 3f
       0.3096462785691369 0.8317909595712496
000020 18 e9 95 98 f7 03 e4 3f 07 75 47 ad cf d6 e3 3f
       0.6254842739283815 0.619972074924278
000030 13 92 7a d6 81 a6 eb 3f 72 1d 30 be 89 96 e9 3f
       0.8640755833662886 0.799626227818335
000040 db ba 73 5e 22 32 e3 3f 65 cc 7c ac 07 8c e7 3f
       0.5998699040190688 0.7358435028931011
000050 8a 51 41 7c b5 f3 e2 3f 64 bd c4 a2 f2 1a f0 3f
       0.592249624906388 1.0065790517945397
000060 5a 91 e6 6e 13 06 e9 3f 2d 8e c9 26 0c fc df 3f
       0.7819916883495737 0.49975875652146123
000070 16 6d eb 83 cf 9f e7 3f b0 f8 ec 51 8b 49 e7 3f
       0.738258130698713 0.7277275657759414
000080 68 7b a1 d8 a2 c1 e9 3f b0 82 3b d0 7c 0e e7 3f
       0.8048872214384177 0.7205185000458041
000090 5b b1 9d 83 b5 1d dd 3f da c1 1a b8 1b 1d ec 3f
       0.4549382958710077 0.8785532565871634
0000a0 db 11 bb f3 57 d9 e5 3f 56 cf 37 f7 70 b6 ef 3f
       0.6827811966291465 0.9910206631161411
0000b0 76 e2 84 b3 87 b7 eb 3f 61 4b 4a fc c6 48 e2 3f
       0.866153574584202 0.5713839461844651
0000c0 a6 c1 5e f8 4a 1a e8 3f b3 47 e9 d7 56 9b e5 3f
       0.7532095767001479 0.6752123085991485
0000d0 d3 93 5c 23 c7 2a ea 3f 04 3a 3c 71 bd 60 e5 3f
       0.8177219095856522 0.6680590831400086
0000e0 5b 9d 10 fe ad a5 d9 3f e9 9d a7 45 54 f5 e9 3f
       0.40073728381181234 0.8111974106258774
0000f0 54 84 f6 4e ed fc e3 3f b5 4c 4e 1e 52 0b f0 3f
       0.6246248762364623 1.002763861067064
000100 6f d4 bb b7 7a 2d e4 3f 09 cf 2b 8a 70 ce d8 3f
       0.6305516804265049 0.3876000737502499
000110 ef e3 e8 0c 40 f4 e8 3f b4 03 4c 3a b3 17 e6 3f
       0.7798156978743672 0.690393079625315
000120 b4 b6 b0 73 df 6e f0 3f c0 4f 4b 24 3f 59 eb 3f
       1.0270685691024655 0.8546443661566556
000130 83 2a 4d 7f 96 d2 e0 3f 41 9a d4 a4 99 25 ec 3f
       0.5257065283161214 0.8795898646683967
000140 c6 6a 6b ad 92 a9 e6 3f 1d 20 66 25 c1 1f ea 3f
       0.7081998240567706 0.8163762789199641
000150 f7 83 ce f9 d3 c9 e6 3f ec 81 6d 73 be 17 e4 3f
       0.712137210754121 0.6278984312485227
000160 6e c0 48 c5 6e 8a eb 3f ec fa 42 40 91 f9 e6 3f
       0.8606485226828349 0.7179647688970738
000170 36 da cf c8 cd c0 ef 3f 90 87 c6 11 41 3e e6 3f
       0.9922856256587866 0.6950993868997433
000180 58 d1 ae 35 c1 61 e1 3f b3 17 25 eb 29 04 eb 3f
       0.5431829498761926 0.8442582695649804
000190 a3 ec 74 75 e3 95 d4 3f 96 89 c6 29 88 92 f4 3f
       0.32164846868881564 1.2857743865830336
0001a0 a3 81 a9 45 1a 78 e1 3f db a4 82 e1 1f 2b ef 3f
       0.5459109650219499 0.9740142254351228
0001b0 87 7a fd 0e e9 7a e2 3f 66 a8 6b 80 92 be e4 3f
       0.5775037091041931 0.6482632168019904
0001c0 12 4b 8a 83 65 76 f0 3f 0f 9e 36 a6 07 88 e7 3f
       1.0289054048814177 0.7353552099565962
0001d0 86 f6 2f 81 61 d9 e7 3f e8 6e dd 92 a7 72 e5 3f
       0.7452857516470466 0.6702459209877505
0001e0 6f 0a b6 6f b6 39 e3 3f 22 12 18 62 ce cc ec 3f
       0.6007950002534254 0.9000007549189528
0001f0 b4 ce 01 cc 38 5a e5 3f f5 31 ca c9 c6 42 e6 3f
       0.6672634109986206 0.6956514302451625
000200 3b 7b 27 22 fe e6 ec 3f b8 d6 0f 8b f5 85 e2 3f
       0.9031973521303834 0.5788524356891775
000210 d6 c8 f2 4c 45 ac ec 3f 4d 18 2f 76 2a d2 e9 3f
       0.8960291388414372 0.8069050129204328
000220 9e 5c 4c 03 d5 81 e5 3f 31 78 f0 ec 17 ef eb 3f
       0.6720986427707378 0.8729362132760398
000230 86 c8 49 18 6a 28 e9 3f 31 c7 01 a7 9c 8d ec 3f
       0.7861834024790972 0.8922866117338569
000240 38 84 f3 18 5a b5 e3 3f f6 56 bf 1e a7 bb e1 3f
       0.6158876883820374 0.5541568375144539
000250 87 5f c2 83 1c 43 ec 3f b1 53 a8 17 d2 96 e3 3f
       0.8831923077986951 0.6121607267438006
000260 f1 4f fc 2b 47 c9 eb 3f 39 a2 ed a7 ae 2c eb 3f
       0.8683200701802872 0.8492043762062799
000270 b9 7a 8b 66 bc 87 e2 3f 71 00 dc ac 60 d2 e5 3f
       0.5790693285778935 0.6819308639678764
000280 ae 7a e1 da 06 5a e2 3f a6 ac d9 dd fc cb f0 3f
       0.573489596845169 1.0498016992594699
000290 3f 47 be d9 a0 44 eb 3f 0f 4c 23 76 f7 16 e3 3f
       0.8521274807737668 0.596553545702024
0002a0 13 a5 87 bf f6 c8 ed 3f 3e a0 64 29 60 90 e7 3f
       0.9307817211930874 0.7363739784677887
0002b0 d5 f5 b7 b4 a7 54 ea 3f c2 a0 8c 94 76 95 e5 3f
       0.822833874670034 0.6744950200418531
0002c0 c9 e5 56 fe 5f 01 e1 3f 1e a5 c8 ac 2c c5 ec 3f
       0.5314178435866604 0.899069154232311
0002d0 3d ec 8e b3 8d 63 e3 3f ca 01 93 18 76 85 ef 3f
       0.6059025294301886 0.9850416641202682
0002e0 14 79 d6 a1 92 16 e7 3f 86 07 6c 89 74 ee dc 3f
       0.7215054665464629 0.45205415172687713
0002f0 d2 8d cc 31 87 34 e6 3f b4 55 a3 0c f8 8b e6 3f
       0.6939121220242959 0.7045860525928931
000300 8d 24 15 ee f5 63 f0 3f bf 5b 90 08 86 14 eb 3f
       1.0244044590092785 0.8462553183807059
000310 cc 19 02 d4 ee 71 dd 3f 8f db 38 19 e8 75 eb 3f
       0.46007891372610454 0.8581428997630257
000320 2a e1 87 3f 2d 12 d6 3f b4 71 04 48 13 15 f0 3f
       0.3448594208162087 1.0051453412225841
000330 c4 34 be 2a 47 a4 de 3f 48 4d 85 0e 60 56 ee 3f
       0.47877673315163016 0.9480438502891184
000340 c6 18 c3 50 c8 0a e7 3f 28 9d 5e ee df dc e3 3f
       0.7200662209877684 0.6207122474342315
000350 b5 c8 2d 0d cf 3e ee 3f 65 bd 2d 83 fc 45 e3 3f
       0.9451670892142575 0.6022932588656827
000360 bd 07 55 81 a7 4f e3 3f 08 46 a6 8a b0 9e e8 3f
       0.6034734273928205 0.7693712909696737
000370 99 6d 5a 72 1e 0c e9 3f ed 1c e1 08 50 3f ed 3f
       0.7827293618642442 0.91397859319923
000380 2d 29 6f c3 54 b8 e9 3f 4c f7 7a d9 73 bd e4 3f
       0.8037513558458947 0.6481265304243862
000390 d3 2c 6e 29 2e 36 eb 3f fb 19 08 79 b1 69 e9 3f
       0.8503638085543578 0.7941520084285111
0003a0 42 37 5c 3d 95 37 eb 3f 17 b5 91 23 43 81 e5 3f
       0.850535030216385 0.6720290846548406
0003b0 ed 1b 0b c7 42 38 da 3f 5d f3 b2 bf 67 f3 ec 3f
       0.40968388974982767 0.9047125572320557
0003c0 f8 59 36 1d c2 fb ea 3f ef f7 8b a9 8b 2c f0 3f
       0.8432322092583595 1.0108753798408505
0003d0 fa f1 91 04 31 e1 e6 3f 03 89 3f 6a d9 e3 db 3f
       0.7149891938457238 0.43578181625174767
0003e0 a7 4f 80 9c 1e 68 e7 3f 0f b8 6e 1f 8a 01 e5 3f
       0.7314599091209758 0.6564379323879183
0003f0 c8 ee 68 11 2a 92 e8 3f 67 06 89 7d a1 af e9 3f
       0.7678423252140982 0.8026893092976025
000400 3e aa a9 05 3e 3f e0 3f c7 8d f4 e2 c6 5f ec 3f
       0.5077200041390098 0.8866915161819912
000410 b0 ed 3c 77 94 2a ea 3f cb 60 e4 db 8b 15 ee 3f
       0.8176977471224998 0.9401301665084473
000420 a9 98 cc 60 08 bb e3 3f 1d cd 6f ee 3f a7 e1 3f
       0.6165811434373342 0.5516662270514733
000430 4e 88 7c fb 29 33 ea 3f 25 eb dc d4 6d c2 e7 3f
       0.8187456046910115 0.7424840123634097
000440 10 62 09 2d 73 45 ee 3f 94 c6 80 fd 90 d9 e5 3f
       0.9459777717229958 0.6828083945494705
000450 a1 59 27 0d 8d e2 e4 3f f2 2c c6 0e 80 c6 ea 3f
       0.6526551491650033 0.8367309845501991
000460 12 1d 19 9c eb bd e8 3f b7 a8 c3 3d 35 cc ed 3f
       0.7731836365500462 0.9311777311643458
000470 81 46 c1 25 6b 7e e4 3f 48 10 02 b7 ff 76 e0 3f
       0.6404319512750619 0.5145262312294188
000480 09 9d 9b f5 50 94 ec 3f 62 90 ff 73 61 f4 ea 3f
       0.8931050107029544 0.8423316255180107
000490 9e be a6 66 c5 f0 ef 3f 2d 2e 59 2b 1f 18 e7 3f
       0.9981410031231979 0.7216945501945183
0004a0 04 6b 6a ad 67 3f db 3f 57 8d 0e 1d 45 c5 e8 3f
       0.4257449334633494 0.7740808074490059
0004b0 07 5d aa 8d 08 73 de 3f ab db 09 c3 71 68 f3 3f
       0.47577108225364423 1.212999116772816
0004c0 31 4a 79 ac 09 a8 db 3f 58 8a 0b 2c b9 cc ea 3f
       0.4321312126459445 0.8374906406646216
0004d0 4b f4 7f 4b 77 88 e3 3f 62 ad 66 eb a2 37 e5 3f
       0.6104084467512022 0.6630415532758145
0004e0 ec c1 a5 55 ef 61 f0 3f 90 5c 51 a4 93 24 ea 3f
       1.0239098878483857 0.8169649323780437
0004f0 5a 38 78 d4 3c e5 dc 3f 5d 1d 5f c3 72 e5 ec 3f
       0.4514915537737402 0.9030088249063898
000500 2e 20 b9 d8 25 a6 e2 3f 3a 45 95 64 cb e9 ee 3f
       0.5827817185281725 0.9660393681062154
000510 4b c8 48 88 cb 7e eb 3f ee 0e 2b 60 bd 1f e2 3f
       0.8592279111674171 0.5663744810376252
000520 6e 66 83 0a 3d b8 ee 3f 6a 18 11 36 17 c8 e8 3f
       0.9599900441491636 0.7744251304618619
000530 bf e9 66 38 83 5c e8 3f 52 a7 be b6 87 b2 ea 3f
       0.7612930394746441 0.8342932290299621
000540 40 50 5e 87 9e 0d da 3f 37 4d e9 63 47 6f ed 3f
       0.40708125323840605 0.9198338462250949
000550 f8 26 a7 52 0e 92 e4 3f 74 87 4b c7 88 87 eb 3f
       0.6428290952983096 0.860294713256947
000560 9e c4 a6 6a ae 90 e3 3f a3 a7 ba 28 d2 15 e4 3f
       0.6114112933193103 0.6276636882296213
000570 5f 13 e4 60 de 1c e9 3f 22 96 4b 39 90 cf e4 3f
       0.7847740070725243 0.6503373259590186
000580 02 a3 21 24 bc d4 ef 3f bb 01 86 85 0b f7 e3 3f
       0.9947186189357071 0.6239068611030726
000590 f8 c0 41 99 1d ca e0 3f e1 60 a4 fc 7c a8 eb 3f
       0.5246723168657175 0.8643174108902053
0005a0 cc 63 6e 2e ce ba e6 3f 80 17 bc 5c 1b 54 e8 3f
       0.7103033930644584 0.7602669535851732
0005b0 ff 11 5d 6c c3 b5 e9 3f 12 28 91 59 0e 14 df 3f
       0.8034379116512013 0.4855991244008929
0005c0 51 0c 36 90 a2 28 ee 3f 9a 44 e9 e8 cc 14 e4 3f
       0.9424603287337822 0.627539114861196
0005d0 37 cf 53 a4 b1 b6 eb 3f df b3 e8 f3 37 3a e7 3f
       0.8660515031356003 0.7258567584846068
0005e0 1d 48 85 c9 5c 36 e3 3f a7 40 55 d4 a8 d7 e8 3f
       0.6003860412549816 0.7763256213311437
0005f0 5e 62 6a 5b 79 39 e3 3f 90 da b9 52 8d b2 ee 3f
       0.6007658753833984 0.959295903753473
000600 73 03 0b f0 77 8b eb 3f 4b 80 b7 f5 3c 28 d8 3f
       0.8607749641742956 0.37745594020635015
000610 9b 41 1f c9 cf eb ee 3f 29 2a 5f 0e 72 df e9 3f
       0.9662856033483423 0.8085260658929815
000620 29 35 03 84 0d 0b ec 3f 1c 3d d1 ab 79 26 e9 3f
       0.8763492182130551 0.7859466892058751
000630 7e c2 74 8a 56 ec db 3f 45 51 8d ca 05 38 ec 3f
       0.4362999298200875 0.881838698968331
000640 7b 3e b4 38 32 81 d4 3f 0c 27 95 bb 27 db f4 3f
       0.32038550889499334 1.3035046889730806
000650 38 9b ab 51 e9 56 da 3f 17 e7 1e 06 a3 3f e8 3f
       0.4115546510278594 0.7577681655450047
000660 4e a7 e3 ca d4 72 e8 3f 6b 30 27 14 3e 1a e4 3f
       0.7640174830132567 0.62820342956685
000670 61 e0 78 84 31 ae f1 3f bf 4b 48 22 af 48 e7 3f
       1.1050276922888076 0.7276225728586424
000680 80 38 60 06 4f d4 e1 3f e8 5c 5d 03 90 39 ea 3f
       0.5571665882614667 0.8195266786305213
000690 ba 0f 93 96 eb 9b e6 3f ec 30 0e c8 c5 87 f0 3f
       0.7065332356364629 1.0331476034798994
0006a0 de 44 b5 e2 ee b8 e9 3f ac 13 83 c0 ca 2f e1 3f
       0.8038248470203617 0.5370839843750352
0006b0 c2 e0 c9 35 e9 b1 e6 3f 90 5a 04 35 fb 36 e3 3f
       0.7092176485594097 0.6004615817535797
0006c0 2e 50 b4 60 9d cc ed 3f 3b 2b f7 fb d2 11 ea 3f
       0.9312273873097234 0.8146758004380453
0006d0 b2 5f 48 ed 5f 90 e2 3f 42 8d 8b 3f 73 b8 e6 3f
       0.5801238665035184 0.7100158921352107
0006e0 e0 ba 50 88 93 6c e3 3f 5c 24 0a b6 31 ae e9 3f
       0.6070039427193841 0.8025139384709621
0006f0 2d d9 a2 ce 92 40 eb 3f 02 01 ba 1a 5f 5f e3 3f
       0.851632503114876 0.6053920289996599
000700 78 63 e2 e1 44 3f ee 3f 3a dd 5c 8e 3b eb e2 3f
       0.9452232753566099 0.5912149220011209
000710 a8 bb 21 54 bd 01 ef 3f 0f f9 26 38 05 94 e3 3f
       0.968962349243033 0.6118188950274844
000720 ab f6 86 a4 d2 0a e3 3f 73 38 c2 4a 86 0e e7 3f
       0.5950711453840162 0.7205230198030804
000730 f9 c5 0f fc 8e 7d e6 3f 7d b5 de 3f ee b8 eb 3f
       0.7028269694403085 0.8663245437107175
000740 53 d4 49 b7 b2 b8 e4 3f 5f b5 2a ee f4 5f dc 3f
       0.647546155915402 0.4433567357871961
000750 6b 12 4c 88 fb 52 ee 3f 8b bd a9 3b 0b dc e2 3f
       0.9476297056249455 0.589360825089828
000760 29 6c 51 e3 34 2c eb 3f 80 3f 2d eb 2b 1f e9 3f
       0.8491463126951021 0.7850551217361357
000770 5e 79 e3 1f eb 44 e2 3f 85 5c 5a bb f5 b5 ed 3f
       0.5709128973792692 0.9284619006383684
000780 4e 7b c7 62 9c 0c e6 3f 8b 75 66 9b 36 f8 ee 3f
       0.6890394143373244 0.9677994761620295
000790 d1 e3 90 f4 78 e7 ea 3f ed 53 d4 00 e9 59 da 3f
       0.8407559181861136 0.41173768120762483
0007a0 a8 04 93 8f 0a 9c eb 3f 61 24 23 be d9 17 e3 3f
       0.8627980045495365 0.5966614450091009
0007b0 39 f0 d8 d2 fe 8a f0 3f 2e 5d 2e 91 dd 65 eb 3f
       1.0339344249941986 0.8561847529953519
0007c0 0f 0a 88 ab 35 66 e3 3f 75 b3 fd 0a 2a 12 ec 3f
       0.6062267637465214 0.8772173132580138

GFL.3.bias f8 [5, 1]
000000 0f e5 fe 0b fd ae f8 3f 61 b1 1c 17 ad fd f5 3f
       1.542721793039451 1.3744326498809516
000010 f5 df 46 12 f8 e0 f5 3f 6f 5a 5c 93 96 68 f6 3f
       1.3674240793170587 1.4005342251090516
000020 08 db ca 16 17 18 fa 3f
       1.6308813944176013

MLP.0.weight f8 [1, 740]
000000 40 62 01 77 fa 23 56 3f 40 62 01 77 fa 23 56 3f
       0.0013513513513513514 0.0013513513513513514
000010 40 62 01 77 fa 23 56 3f 40 62 01 77 fa 23 56 3f
       0.0013513513513513514 0.0013513513513513514
000020 40 62 01 77 fa 23 56 3f 40 62 01 77 fa 23 56 3f
       0.0013513513513513514 0.0013513513513513514
000030 40 62 01 77 fa 23 56 3f 40 62 01 77 fa 23 56 3f
       0.0013513513513513514 0.0013513513513513514
000040 40 62 01 77 fa 23 56 3f 40 62 01 77 fa 23 56 3f
       0.0013513513513513514 0.0013513513513513514
000050 40 62 01 77 fa 23 56 3f 40 62 01 77 fa 23 56 3f
       0.0013513513513513514 0.0013513513513513514
000060 40 62 01 77 fa 23 56 3f 40 62 01 77 fa 23 56 3f
       0.0013513513513513514 0.0013513513513513514
000070 40 62 01 77 fa 23 56 3f 40 62 01 77 fa 23 56 3f
       0.0013513513513513514 0.0013513513513513514
000080 40 62 01 77 fa 23 56 3f 40 62 01 77 fa 23 56 3f
       0.0013513513513513514 0.0013513513513513514
000090 40 62 01 77 fa 23 56 3f 40 62 01 77 fa 23 56 3f
       0.0013513513513513514 0.0013513513513513514
0000a0 40 62 01 77 fa 23 56 3f 40 62 01 77 fa 23 56 3f
       0.0013513513513513514 0.0013513513513513514
0000b0 40 62 01 77 fa 23 56 3f 40 62 01 77 fa 23 56 3f
       0.0013513513513513514 0.0013513513513513514
0000c0 40 62 01 77 fa 23 56 3f 40 62 01 77 fa 23 56 3f
       0.0013513513513513514 0.0013513513513513514
0000d0 40 62 01 77 fa 23 56 3f 40 62 01 77 fa 23 56 3f
       0.0013513513513513514 0.0013513513513513514
0000e0 40 62 01 77 fa 23 56 3f 40 62 01 77 fa 23 56 3f
       0.0013513513513513514 0.0013513513513513514
0000f0 40 62 01 77 fa 23 56 3f 40 62 01 77 fa 23 56 3f
       0.0013513513513513514 0.0013513513513513514
000100 40 62 01 77 fa 23 56 3f 40 62 01 77 fa 23 56 3f
       0.0013513513513513514 0.0013513513513513514
000110 40 62 01 77 fa 23 56 3f 40 62 01 77 fa 23 56 3f
       0.0013513513513513514 0.0013513513513513514
000120 40 62 01 77 fa 23 56 3f 40 62 01 77 fa 23 56 3f
       0.0013513513513513514 0.0013513513513513514
000130 40 62 01 77 fa 23 56 3f 40 62 01 77 fa 23 56 3f
       0.0013513513513513514 0.0013513513513513514
000140 40 62 01 77 fa 23 56 3f 40 62 01 77 fa 23 56 3f
       0.0013513513513513514 0.0013513513513513514
000150 40 62 01 77 fa 23 56 3f 40 62 01 77 fa 23 56 3f
       0.0013513513513513514 0.0013513513513513514
000160 40 62 01 77 fa 23 56 3f 40 62 01 77 fa 23 56 3f
       0.0013513513513513514 0.0013513513513513514
000170 40 62 01 77 fa 23 56 3f 40 62 01 77 fa 23 56 3f
       0.0013513513513513514 0.0013513513513513514
000180 40 62 01 77 fa 23 56 3f 40 62 01 77 fa 23 56 3f
       0.0013513513513513514 0.0013513513513513514
000190 40 62 01 77 fa 23 56 3f 40 62 01 77 fa 23 56 3f
       0.0013513513513513514 0.0013513513513513514
0001a0 40 62 01 77 fa 23 56 3f 40 62 01 77 fa 23 56 3f
       0.0013513513513513514 0.0013513513513513514
0001b0 40 62 01 77 fa 23 56 3f 40 62 01 77 fa 23 56 3f
       0.0013513513513513514 0.0013513513513513514
0001c0 40 62 01 77 fa 23 56 3f 40 62 01 77 fa 23 56 3f
       0.0013513513513513514 0.0013513513513513514
0001d0 40 62 01 77 fa 23 56 3f 40 62 01 77 fa 23 56 3f
       0.0013513513513513514 0.0013513513513513514
0001e0 40 62 01 77 fa 23 56 3f 40 62 01 77 fa 23 56 3f
       0.0013513513513513514 0.0013513513513513514
0001f0 40 62 01 77 fa 23 56 3f 40 62 01 77 fa 23 56 3f
       0.0013513513513513514 0.0013513513513513514
000200 40 62 01 77 fa 23 56 3f 40 62 01 77 fa 23 56 3f
       0.0013513513513513514 0.0013513513513513514
000210 40 62 01 77 fa 23 56 3f 40 62 01 77 fa 23 56 3f
       0.0013513513513513514 0.0013513513513513514
000220 40 62 01 77 fa 23 56 3f 40 62 01 77 fa 23 56 3f
       0.0013513513513513514 0.0013513513513513514
000230 40 62 01 77 fa 23 56 3f 40 62 01 77 fa 23 56 3f
       0.0013513513513513514 0.0013513513513513514
000240 40 62 01 77 fa 23 56 3f 40 62 01 77 fa 23 56 3f
       0.0013513513513513514 0.0013513513513513514
000250 40 62 01 77 fa 23 56 3f 40 62 01 77 fa 23 56 3f
       0.0013513513513513514 0.0013513513513513514
000260 40 62 01 77 fa 23 56 3f 40 62 01 77 fa 23 56 3f
       0.0013513513513513514 0.0013513513513513514
000270 40 62 01 77 fa 23 56 3f 40 62 01 77 fa 23 56 3f
       0.0013513513513513514 0.0013513513513513514
000280 40 62 01 77 fa 23 56 3f 40 62 01 77 fa 23 56 3f
       0.0013513513513513514 0.0013513513513513514
000290 40 62 01 77 fa 23 56 3f 40 62 01 77 fa 23 56 3f
       0.0013513513513513514 0.0013513513513513514
0002a0 40 62 01 77 fa 23 56 3f 40 62 01 77 fa 23 56 3f
       0.0013513513513513514 0.0013513513513513514
0002b0 40 62 01 77 fa 23 56 3f 40 62 01 77 fa 23 56 3f
       0.0013513513513513514 0.0013513513513513514
0002c0 40 62 01 77 fa 23 56 3f 40 62 01 77 fa 23 56 3f
       0.0013513513513513514 0.0013513513513513514
0002d0 40 62 01 77 fa 23 56 3f 40 62 01 77 fa 23 56 3f
       0.0013513513513513514 0.0013513513513513514
0002e0 40 62 01 77 fa 23 56 3f 40 62 01 77 fa 23 56 3f
       0.0013513513513513514 0.0013513513513513514
0002f0 40 62 01 77 fa 23 56 3f 40 62 01 77 fa 23 56 3f
       0.0013513513513513514 0.0013513513513513514
000300 40 62 01 77 fa 23 56 3f 40 62 01 77 fa 23 56 3f
       0.0013513513513513514 0.0013513513513513514
000310 40 62 01 77 fa 23 56 3f 40 62 01 77 fa 23 56 3f
       0.0013513513513513514 0.0013513513513513514
000320 40 62 01 77 fa 23 56 3f 40 62 01 77 fa 23 56 3f
       0.0013513513513513514 0.0013513513513513514
000330 40 62 01 77 fa 23 56 3f 40 62 01 77 fa 23 56 3f
       0.0013513513513513514 0.0013513513513513514
000340 40 62 01 77 fa 23 56 3f 40 62 01 77 fa 23 56 3f
       0.0013513513513513514 0.0013513513513513514
000350 40 62 01 77 fa 23 56 3f 40 62 01 77 fa 23 56 3f
       0.0013513513513513514 0.0013513513513513514
000360 40 62 01 77 fa 23 56 3f 40 62 01 77 fa 23 56 3f
       0.0013513513513513514 0.0013513513513513514
000370 40 62 01 77 fa 23 56 3f 40 62 01 77 fa 23 56 3f
       0.0013513513513513514 0.0013513513513513514
000380 40 62 01 77 fa 23 56 3f 40 62 01 77 fa 23 56 3f
       0.0013513513513513514 0.0013513513513513514
000390 40 62 01 77 fa 23 56 3f 40 62 01 77 fa 23 56 3f
       0.0013513513513513514 0.0013513513513513514
0003a0 40 62 01 77 fa 23 56 3f 40 62 01 77 fa 23 56 3f
       0.0013513513513513514 0.0013513513513513514
0003b0 40 62 01 77 fa 23 56 3f 40 62 01 77 fa 23 56 3f
       0.0013513513513513514 0.0013513513513513514
0003c0 40 62 01 77 fa 23 56 3f 40 62 01 77 fa 23 56 3f
       0.0013513513513513514 0.0013513513513513514
0003d0 40 62 01 77 fa 23 56 3f 40 62 01 77 fa 23 56 3f
       0.0013513513513513514 0.0013513513513513514
0003e0 40 62 01 77 fa 23 56 3f 40 62 01 77 fa 23 56 3f
       0.0013513513513513514 0.0013513513513513514
0003f0 40 62 01 77 fa 23 56 3f 40 62 01 77 fa 23 56 3f
       0.0013513513513513514 0.0013513513513513514
000400 40 62 01 77 fa 23 56 3f 40 62 01 77 fa 23 56 3f
       0.0013513513513513514 0.0013513513513513514
000410 40 62 01 77 fa 23 56 3f 40 62 01 77 fa 23 56 3f
       0.0013513513513513514 0.0013513513513513514
000420 40 62 01 77 fa 23 56 3f 40 62 01 77 fa 23 56 3f
       0.0013513513513513514 0.0013513513513513514
000430 40 62 01 77 fa 23 56 3f 40 62 01 77 fa 23 56 3f
       0.0013513513513513514 0.0013513513513513514
000440 40 62 01 77 fa 23 56 3f 40 62 01 77 fa 23 56 3f
       0.0013513513513513514 0.0013513513513513514
000450 40 62 01 77 fa 23 56 3f 40 62 01 77 fa 23 56 3f
       0.0013513513513513514 0.0013513513513513514
000460 40 62 01 77 fa 23 56 3f 40 62 01 77 fa 23 56 3f
       0.0013513513513513514 0.0013513513513513514
000470 40 62 01 77 fa 23 56 3f 40 62 01 77 fa 23 56 3f
       0.0013513513513513514 0.0013513513513513514
000480 40 62 01 77 fa 23 56 3f 40 62 01 77 fa 23 56 3f
       0.0013513513513513514 0.0013513513513513514
000490 40 62 01 77 fa 23 56 3f 40 62 01 77 fa 23 56 3f
       0.0013513513513513514 0.0013513513513513514
0004a0 40 62 01 77 fa 23 56 3f 40 62 01 77 fa 23 56 3f
       0.0013513513513513514 0.0013513513513513514
0004b0 40 62 01 77 fa 23 56 3f 40 62 01 77 fa 23 56 3f
       0.0013513513513513514 0.0013513513513513514
0004c0 40 62 01 77 fa 23 56 3f 40 62 01 77 fa 23 56 3f
       0.0013513513513513514 0.0013513513513513514
0004d0 40 62 01 77 fa 23 56 3f 40 62 01 77 fa 23 56 3f
       0.0013513513513513514 0.0013513513513513514
0004e0 40 62 01 77 fa 23 56 3f 40 62 01 77 fa 23 56 3f
       0.0013513513513513514 0.0013513513513513514
0004f0 40 62 01 77 fa 23 56 3f 40 62 01 77 fa 23 56 3f
       0.0013513513513513514 0.0013513513513513514
000500 40 62 01 77 fa 23 56 3f 40 62 01 77 fa 23 56 3f
       0.0013513513513513514 0.0013513513513513514
000510 40 62 01 77 fa 23 56 3f 40 62 01 77 fa 23 56 3f
       0.0013513513513513514 0.0013513513513513514
000520 40 62 01 77 fa 23 56 3f 40 62 01 77 fa 23 56 3f
       0.0013513513513513514 0.0013513513513513514
000530 40 62 01 77 fa 23 56 3f 40 62 01 77 fa 23 56 3f
       0.0013513513513513514 0.0013513513513513514
000540 40 62 01 77 fa 23 56 3f 40 62 01 77 fa 23 56 3f
       0.0013513513513513514 0.0013513513513513514
000550 40 62 01 77 fa 23 56 3f 40 62 01 77 fa 23 56 3f
       0.0013513513513513514 0.0013513513513513514
000560 40 62 01 77 fa 23 56 3f 40 62 01 77 fa 23 56 3f
       0.0013513513513513514 0.0013513513513513514
000570 40 62 01 77 fa 23 56 3f 40 62 01 77 fa 23 56 3f
       0.0013513513513513514 0.0013513513513513514
000580 40 62 01 77 fa 23 56 3f 40 62 01 77 fa 23 56 3f
       0.0013513513513513514 0.0013513513513513514
000590 40 62 01 77 fa 23 56 3f 40 62 01 77 fa 23 56 3f
       0.0013513513513513514 0.0013513513513513514
0005a0 40 62 01 77 fa 23 56 3f 40 62 01 77 fa 23 56 3f
       0.0013513513513513514 0.0013513513513513514
0005b0 40 62 01 77 fa 23 56 3f 40 62 01 77 fa 23 56 3f
       0.0013513513513513514 0.0013513513513513514
0005c0 40 62 01 77 fa 23 56 3f 40 62 01 77 fa 23 56 3f
       0.0013513513513513514 0.0013513513513513514
0005d0 40 62 01 77 fa 23 56 3f 40 62 01 77 fa 23 56 3f
       0.0013513513513513514 0.0013513513513513514
0005e0 40 62 01 77 fa 23 56 3f 40 62 01 77 fa 23 56 3f
       0.0013513513513513514 0.0013513513513513514
0005f0 40 62 01 77 fa 23 56 3f 40 62 01 77 fa 23 56 3f
       0.0013513513513513514 0.0013513513513513514
000600 40 62 01 77 fa 23 56 3f 40 62 01 77 fa 23 56 3f
       0.0013513513513513514 0.0013513513513513514
000610 40 62 01 77 fa 23 56 3f 40 62 01 77 fa 23 56 3f
       0.0013513513513513514 0.0013513513513513514
000620 40 62 01 77 fa 23 56 3f 40 62 01 77 fa 23 56 3f
       0.0013513513513513514 0.0013513513513513514
000630 40 62 01 77 fa 23 56 3f 40 62 01 77 fa 23 56 3f
       0.0013513513513513514 0.0013513513513513514
000640 40 62 01 77 fa 23 56 3f 40 62 01 77 fa 23 56 3f
       0.0013513513513513514 0.0013513513513513514
000650 40 62 01 77 fa 23 56 3f 40 62 01 77 fa 23 56 3f
       0.0013513513513513514 0.0013513513513513514
000660 40 62 01 77 fa 23 56 3f 40 62 01 77 fa 23 56 3f
       0.0013513513513513514 0.0013513513513513514
000670 40 62 01 77 fa 23 56 3f 40 62 01 77 fa 23 56 3f
       0.0013513513513513514 0.0013513513513513514
000680 40 62 01 77 fa 23 56 3f 40 62 01 77 fa 23 56 3f
       0.0013513513513513514 0.0013513513513513514
000690 40 62 01 77 fa 23 56 3f 40 62 01 77 fa 23 56 3f
       0.0013513513513513514 0.0013513513513513514
0006a0 40 62 01 77 fa 23 56 3f 40 62 01 77 fa 23 56 3f
       0.0013513513513513514 0.0013513513513513514
0006b0 40 62 01 77 fa 23 56 3f 40 62 01 77 fa 23 56 3f
       0.0013513513513513514 0.0013513513513513514
0006c0 40 62 01 77 fa 23 56 3f 40 62 01 77 fa 23 56 3f
       0.0013513513513513514 0.0013513513513513514
0006d0 40 62 01 77 fa 23 56 3f 40 62 01 77 fa 23 56 3f
       0.0013513513513513514 0.0013513513513513514
0006e0 40 62 01 77 fa 23 56 3f 40 62 01 77 fa 23 56 3f
       0.0013513513513513514 0.0013513513513513514
0006f0 40 62 01 77 fa 23 56 3f 40 62 01 77 fa 23 56 3f
       0.0013513513513513514 0.0013513513513513514
000700 40 62 01 77 fa 23 56 3f 40 62 01 77 fa 23 56 3f
       0.0013513513513513514 0.0013513513513513514
000710 40 62 01 77 fa 23 56 3f 40 62 01 77 fa 23 56 3f
       0.0013513513513513514 0.0013513513513513514
000720 40 62 01 77 fa 23 56 3f 40 62 01 77 fa 23 56 3f
       0.0013513513513513514 0.0013513513513513514
000730 40 62 01 77 fa 23 56 3f 40 62 01 77 fa 23 56 3f
       0.0013513513513513514 0.0013513513513513514
000740 40 62 01 77 fa 23 56 3f 40 62 01 77 fa 23 56 3f
       0.0013513513513513514 0.0013513513513513514
000750 40 62 01 77 fa 23 56 3f 40 62 01 77 fa 23 56 3f
       0.0013513513513513514 0.0013513513513513514
000760 40 62 01 77 fa 23 56 3f 40 62 01 77 fa 23 56 3f
       0.0013513513513513514 0.0013513513513513514
000770 40 62 01 77 fa 23 56 3f 40 62 01 77 fa 23 56 3f
       0.0013513513513513514 0.0013513513513513514
000780 40 62 01 77 fa 23 56 3f 40 62 01 77 fa 23 56 3f
       0.0013513513513513514 0.0013513513513513514
000790 40 62 01 77 fa 23 56 3f 40 62 01 77 fa 23 56 3f
       0.0013513513513513514 0.0013513513513513514
0007a0 40 62 01 77 fa 23 56 3f 40 62 01 77 fa 23 56 3f
       0.0013513513513513514 0.0013513513513513514
0007b0 40 62 01 77 fa 23 56 3f 40 62 01 77 fa 23 56 3f
       0.0013513513513513514 0.0013513513513513514
0007c0 40 62 01 77 fa 23 56 3f 40 62 01 77 fa 23 56 3f
       0.0013513513513513514 0.0013513513513513514
0007d0 40 62 01 77 fa 23 56 3f 40 62 01 77 fa 23 56 3f
       0.0013513513513513514 0.0013513513513513514
0007e0 40 62 01 77 fa 23 56 3f 40 62 01 77 fa 23 56 3f
       0.0013513513513513514 0.0013513513513513514
0007f0 40 62 01 77 fa 23 56 3f 40 62 01 77 fa 23 56 3f
       0.0013513513513513514 0.0013513513513513514
