OASIS3_VNN_NeurIPS/test28.pth (torch, 10139 bytes, 5 tensors)

GFL.0.weight f8 [5, 1, 6, 1]
-1.1072983108927021 0.13731039636562756 0.39775350527817477 0.02700672822636595 -0.22465568389803403 -0.22659755538310336 -0.3932345143792017 0.05250126499028322
0.0658217735804846 -0.4201421164099336 -0.2392988862967008 -0.3920789120359632 0.92843470526486 0.15580215557534857 -0.12996419819852909 0.03343510680657996
-0.023920946754981215 -0.0005323421611201592 -1.4707046548646923 0.35034407789737454 -0.34453401500949404 -0.23411774601371943 0.40783685494906846 0.21606953929723666
1.103522609987477 -0.211345246716314 0.174041821984214 0.30501149991179355 -0.1866503129297068 -0.4960428917474335
00000000: 0134 036f 7eb7 f1bf fb44 e516 6393 c13f
00000010: 0281 421e cb74 d93f 7d4d 04da a6a7 9b3f
00000020: d0ed 9977 84c1 ccbf 4dab dc10 2601 cdbf
00000030: fbb1 ba18 c12a d9bf e687 4320 72e1 aa3f
00000040: fa94 e41c b2d9 b03f f2c8 69c2 9be3 dabf
00000050: e388 4e8d 58a1 cebf 8553 2926 d217 d9bf
00000060: e8af f2b2 bcb5 ed3f 9fd4 6b35 53f1 c33f
00000070: 07ef 74b6 aaa2 c0bf c888 8b04 681e a13f
00000080: b80c 0290 bb7e 98bf d4b2 0d16 9c71 41bf
00000090: 4a80 ab9a 0188 f7bf f0a7 3a91 096c d63f
000000a0: 89d2 b465 d80c d6bf 7a65 45ff 91f7 cdbf
000000b0: 0f06 87c0 ff19 da3f eec1 78aa 2aa8 cb3f
000000c0: 37af 0453 07a8 f13f 2ae3 676d 5c0d cbbf
000000d0: 637b c79e 0047 c63f 969a 41f4 4e85 d33f
000000e0: f01e e94e 28e4 c7bf d3fb 5daf 2abf dfbf

GFL.0.bias f8 [5, 1]
1.5123056058737412 1.701277130266526 2.2964165980533786 1.8401833741025604 2.036021136047016
00000000: 1d90 ec5c 6732 f83f e1d6 3e5e 6e38 fb3f
00000010: f50b 55aa 0f5f 0240 699d 261f 6471 fd3f
00000020: 2a4b 0a73 c549 0040

GFL.3.weight f8 [5, 1, 10, 5]
0.2591580144551294 0.44654850791659173 1.201209016245872 0.7032831320620209 1.351485227009449 0.687521914529912 0.6249079044963411 1.0603344362976455
0.6494790199876534 0.7618461505676504 0.5168779600354828 0.5505953420541375 1.058193898237656 0.7867840680794406 0.8286348098463143 0.587652516674761
0.5631522334406032 0.9784452716190822 0.9120530519592968 0.8329697155375251 0.47253639897008165 0.5888381024148417 1.05713875453235 0.9262209772275467
0.7971123659024795 0.5118022715315653 0.5429823491205484 1.0128500883151363 0.7184080457441196 0.8797712105284395 0.7302500769210182 0.4667951445238597
0.8974655750914464 0.8688076151393573 0.7770720368712903 0.5651241018872454 0.5176773027268415 0.9080993906435154 0.7350174269961459 0.9253734837211416
0.5015498334730153 0.5924965047529934 0.9969878826563844 0.9427850644780226 0.6659581033310669 0.5281246777753115 0.5230966734348651 1.009775943007166
0.8303566468796925 0.8925154688131202 0.11405629664276459 0.3895523759644571 0.964660264151723 0.22314215664996054 1.0076318112824958 0.3367921082291159
0.2684311518624349 0.8896852519167217 0.7199724643759638 0.640316214652772 0.3214069490078832 0.3279490524540878 0.6626785976144082 0.6411146621955022
0.7125893976400176 0.3347155404108104 0.22280488920196043 0.5901183656632193 0.7351564415143593 0.6989401298582625 0.313292346369178 0.2763829693259095
0.6754337997163764 0.6773833888989841 0.5451351033108076 0.4723638091861071 0.31651403475321715 0.7798037653673123 0.7142999913026592 0.554423369050169
0.3831653417363171 0.3728977173483043 0.8234258887125274 0.6257166891268771 0.6990520227990402 0.4512635641172238 0.42746788378149086 0.8142546814785105
0.6282405015024194 0.5823479961029284 0.5218280765349458 0.3942379177098978 0.7095710385103737 0.7040583850757615 0.6939504324653948 0.5129259288045076
0.3578301041036201 0.6032694425681113 0.5942195574645657 0.5115505974478679 0.43416506322172266 0.5272126634056483 1.324171197257436 0.4964987097885539
1.1541747630437944 0.6234574135886023 0.5308744892445817 1.0906924752660045 0.901132236409373 0.9412897884988481 0.6833995577673385 0.640088132709964
1.001963415047365 0.9559041968528258 0.7006229925606955 0.6568547764918151 0.5291180069612876 0.8639340612097279 0.9402865348921708 0.8604061803653585
0.4965953006166284 0.5706095356958286 1.0041144172833456 0.8225463350965723 0.8221475323847761 0.6322902955073082 0.5364730494763631 0.8667958808836201
0.9186663846440714 0.9301844525245354 0.6923609307924188 0.6163977861569746 0.9633145841902738 0.8000529019551529 0.8623922467010221 0.7430973676723467
0.46349128519979255 1.0939687416768324 0.7061543385643365 0.8782351255853693 0.48237054528113416 0.5027063816638516 0.9983232944444153 0.9661781105593017
0.736283479343697 0.568580235885653 0.4445551593860297 0.8817376009842073 0.7611585971059207 0.7230585891978187 0.49156839475210745 0.5252040748963814
1.2831752498709212 0.6148298785907946 1.29357728555963 0.6506862925561565 0.45293563843543155 0.9355239609855138 0.8822924983944427 0.9146485348450195
0.5953663106275268 0.5564922636090174 0.9726378506183646 0.8852223440131786 0.9004921907296918 0.7799504561887275 0.6470406001228285 1.0444518455997467
0.7751024071997034 0.9159861957468589 0.7054378831688664 0.6481602849884415 0.9677490739611967 0.9689737422181429 0.7328865109925243 0.7271757897232289
0.6541203502283722 0.8828141834530671 0.9805212858445337 0.9289380210841999 0.714866040403952 0.6758390158778415 0.8580131232923898 0.7402775965558719
0.8807115748752984 0.7050715423168729 0.6916208014864996 1.0488871190866116 0.9023422471395971 0.8373649536006116 0.5993341080001603 0.7265721510527732
1.088695860713396 0.964362614376969 0.892262962871089 0.5518096055947629 0.5542295834258645 0.862172076263904 0.7358465772299028 0.9097472891609704
0.43177615945424364 0.5396275309092052 1.3436090042447728 0.6395204975970874 1.1755260793261721 0.5199703663772266 0.6932519599116683 1.0949826011203878
0.9414662540529766 0.8886789071631629 0.5293843033920228 0.6186078020716069 1.0056502641873815 0.965598882176085 0.7582190455552064 0.7592544571360739
0.5654590607464004 0.8734479491211075 0.8984895870456323 0.8639837796703214 0.6918811333149821 0.6737989023042127 1.0800124257602186 0.8937539977054563
0.8029371883612476 0.6254138566288707 0.450698863137303 0.9519545182717982 0.7582220860094891 0.7966723428333228 0.5271235159544485 0.6815092187511521
0.8397481572884673 0.8454878897214424 0.7460058581587979 0.5334677874760704 0.4668354497053378 0.9847037379316868 1.0087481679722163 0.833742667006139
0.5450205400778255 0.6829764895401005 1.0917013146253067 0.9255388400133682 0.7801477723150791 0.543073972935464 0.5840390881356151 0.8366399127975797
0.9163643162300381 0.7213918916550133
00000000: 5a30 257f 0b96 d03f 3614 6531 4094 dc3f
00000010: 4dfb 06f2 2638 f33f 511d 81a0 4b81 e63f
00000020: 0586 30f9 ae9f f53f 930e 46f5 2d00 e63f
00000030: 8f5b 9adc 3eff e33f 2589 eb3d 21f7 f03f
00000040: 8e1f c939 88c8 e43f 8ab0 a82d 0b61 e83f
00000050: dd04 cca5 438a e03f 817a 6e1f 7a9e e13f
00000060: a81e 9cb9 5cee f03f f747 2dc8 552d e93f
00000070: 46bf 1326 2d84 ea3f 58f7 90a6 0cce e23f
00000080: f67e 29d5 5705 e23f 15f4 5075 6c4f ef3f
00000090: b93a cce1 892f ed3f d458 d91a b0a7 ea3f
000000a0: 3fc0 ef4e 093e de3f 8e55 1001 c3d7 e23f
000000b0: 52cf a053 0aea f03f 98f7 c12c 9aa3 ed3f
000000c0: 0a3a d9ca f181 e93f 06e4 4728 af60 e03f
000000d0: 75e5 f884 1c60 e13f 0e07 514b a234 f03f
000000e0: bfef b4de 32fd e63f c5d2 25f4 1527 ec3f
000000f0: 4bdf c868 355e e73f 2d57 eabd f8df dd3f
00000100: 0cb7 c9b9 09b8 ec3f e641 b1a0 45cd eb3f
00000110: 0ff2 1f2d c6dd e83f d92f f923 7f15 e23f
00000120: 1efc a2fd cf90 e03f 0d9b 0a74 260f ed3f
00000130: 4f08 5e44 4385 e73f 5e5f 25da a89c ed3f
00000140: 4c96 823c b20c e03f bd11 dd3a bbf5 e23f
00000150: 018f d021 53e7 ef3f 37e4 6295 4b2b ee3f
00000160: 1605 4a5e 874f e53f 102d 68b9 65e6 e03f
00000170: 8992 213c 35bd e03f ac0d b8d1 0a28 f03f
00000180: fba9 4b1a 4892 ea3f 273f b799 7c8f ec3f
00000190: d6c9 fb1f cb32 bd3f 112c b616 6dee d83f
000001a0: 3009 c933 7fde ee3f 99d2 9514 ec8f cc3f
000001b0: 8ae1 bd88 421f f03f c946 997c 008e d53f
000001c0: 5b83 9eda f92d d13f 2be8 9634 4d78 ec3f
000001d0: 417d 90b1 030a e73f 8d07 216e 787d e43f
000001e0: 3b8b ac73 ee91 d43f 04d9 c205 1efd d43f
000001f0: b76a 10bf a934 e53f 62b4 63e5 0284 e43f
00000200: 0be3 ca47 88cd e63f e0c0 e1ba fa6b d53f
00000210: 0d73 41e0 de84 cc3f 215c 29e9 3fe2 e23f
00000220: e1ee 37cd 6686 e73f aa4d f3b0 b75d e63f
00000230: ca88 6f57 fb0c d43f 1546 9b31 42b0 d13f
00000240: 9ea2 0c58 279d e53f d997 c5ed 1fad e53f
00000250: 54e3 132c bf71 e13f 102c 116a 353b de3f
00000260: 645d ff14 c441 d43f c39b b106 27f4 e83f
00000270: 39b2 c5a7 8bdb e63f f8ac c613 d6bd e13f
00000280: 1af6 edec c785 d83f afe5 3063 8edd d73f
00000290: bc66 d63f 8159 ea3f 1090 8b01 df05 e43f
000002a0: 1afc 0359 a25e e63f cca1 7092 80e1 dc3f
000002b0: 23a3 3b41 a25b db3f 4c15 72d5 5f0e ea3f
000002c0: 8b37 ffd2 8b1a e43f 1fe7 c443 98a2 e23f
000002d0: 0945 5bcb d0b2 e03f c00e daac 313b d93f
000002e0: eee7 9252 ceb4 e63f c1ff 4b73 a587 e63f
000002f0: 557c 8f89 d734 e63f 8c8b 2fa3 e369 e03f
00000300: 858e a93c b0e6 d63f b232 d0b7 fb4d e33f
00000310: 5e86 bebb d803 e33f 1936 c95b 9f5e e03f
00000320: b898 e642 5cc9 db3f 79a8 6b17 edde e03f
00000330: e469 2823 ce2f f53f fe12 4386 a2c6 df3f
00000340: 2f44 d2f4 7f77 f23f 35fa 39f6 5cf3 e33f
00000350: 01c2 327f ecfc e03f 262c f4f3 7973 f13f
00000360: b4fc 9745 13d6 ec3f 7329 35c3 0b1f ee3f
00000370: 47c5 d6bf 68de e53f 0d81 911b 9a7b e43f
00000380: a7ab 36ca 0a08 f03f eff1 f265 c496 ee3f
00000390: 7cf6 fbe8 806b e63f 9a1e e84e f404 e53f
000003a0: 25f3 f3e2 88ee e03f d47a 590b 59a5 eb3f
000003b0: a764 87c9 d316 ee3f 7941 be8a 7288 eb3f
000003c0: acb9 dfa7 37c8 df3f b32d d3ed 6e42 e23f
000003d0: fac8 7a47 da10 f03f e4e6 15b1 4c52 ea3f
000003e0: 058d 8257 084f ea3f ac06 99db b83b e43f
000003f0: bdf6 5587 c92a e13f 317c 16b7 cabc eb3f
00000400: 1163 bf0b b765 ed3f bde5 5a2f 12c4 ed3f
00000410: 8602 591c d227 e63f 4bdf 9bd9 87b9 e33f
00000420: 136d 5b1b 79d3 ee3f edf3 1e8b 089a e93f
00000430: 90f4 fc9f b798 eb3f 72af 7c21 74c7 e73f
00000440: e880 fa59 d7a9 dd3f 8192 055e e580 f13f
00000450: aafe c1fb d098 e63f bccd d28c 801a ec3f
00000460: 6b50 22b5 28df de3f 5993 97b1 2b16 e03f
00000470: e528 8fb1 43f2 ef3f 22d3 5e5b eeea ee3f
00000480: 7cb8 0b5f a28f e73f affc c82d cf31 e23f
00000490: 2b30 b57b 9773 dc3f 6e2e fcc5 3137 ec3f
000004a0: 1474 3446 695b e83f fa49 36c4 4b23 e73f
000004b0: 0048 cd48 db75 df3f 13fd acc6 78ce e03f
000004c0: 3cb7 53c5 e287 f43f ecd5 a4b5 afac e33f
000004d0: a73b 8518 7eb2 f43f 687e 4f0f 6cd2 e43f
000004e0: cd79 91c2 e5fc dc3f 45d4 21f2 cfef ed3f
000004f0: 4887 437a bd3b ec3f 30cc 0f01 cd44 ed3f
00000500: 0922 29a6 3d0d e33f 0db0 15dd c8ce e13f
00000510: 563e e869 d91f ef3f b833 27cf bd53 ec3f
00000520: f398 afff d4d0 ec3f 7396 baa8 5af5 e83f
00000530: c1c6 167d 8eb4 e43f 6690 7123 13b6 f03f
00000540: bd27 3f90 a3cd e83f 303f 4a48 c24f ed3f
00000550: 643b b277 f292 e63f b7ec 52a3 babd e43f
00000560: 58b9 ece7 ccf7 ee3f 1f4f b038 d501 ef3f
00000570: d78e 8c69 ce73 e73f 58bc 6929 0645 e73f
00000580: 2720 fccc 8dee e43f 1b07 cc87 0340 ec3f
00000590: 137e f72c 6e60 ef3f c129 923a dcb9 ed3f
000005a0: a8ca 11bf 2ee0 e63f 03cc d124 79a0 e53f
000005b0: 548c 02f0 d774 eb3f 0e68 65a4 5ab0 e73f
000005c0: b989 690a ca2e ec3f 83eb f231 f28f e63f
000005d0: 37c5 73f2 c121 e63f 31c3 1adc 3dc8 f03f
000005e0: 6370 28d9 fcdf ec3f 76ff 5096 b1cb ea3f
000005f0: dd9d 27b9 be2d e33f d297 5e3d 1440 e73f
00000600: acdf d059 4c6b f13f 167e 47fc 0edc ee3f
00000610: 16d4 9e0e 6b8d ec3f c5bd 349e 6ca8 e13f
00000620: f945 e9ad 3fbc e13f 0a7e e2e4 e996 eb3f
00000630: 5a6e 021f 0e8c e73f d245 d258 a61c ed3f
00000640: ee19 0379 38a2 db3f 2bd7 a8f4 a044 e13f
00000650: 927a bd27 6c7f f53f eaa2 c9b0 f376 e43f
00000660: f1d0 246f f4ce f23f a456 cfe4 98a3 e03f
00000670: 2fac f6bb 1e2f e63f 6b04 d879 0c85 f13f
00000680: c43e 6ed6 7d20 ee3f 5025 5dbf 0e70 ec3f
00000690: 0fb4 c259 b7f0 e03f f555 de96 a2cb e33f
000006a0: 8460 3ebb 2417 f03f a003 80a0 2fe6 ee3f
000006b0: 71a5 7b96 5443 e83f c5bb d700 d04b e83f
000006c0: cf3e a499 3d18 e23f 3f78 071d 49f3 eb3f
000006d0: 890a 053c 6dc0 ec3f 08ac be4f c1a5 eb3f
000006e0: 1cd5 09e7 e323 e63f fb45 2fb7 c28f e53f
000006f0: ca9e fe1b bb47 f13f e00d dafb a199 ec3f
00000700: b91e 9854 a9b1 e93f 9ef5 95eb 6303 e43f
00000710: e038 610b 40d8 dc3f c537 6852 6976 ee3f
00000720: 3f80 d0f6 5a43 e83f 2919 43ff 567e e93f
00000730: b042 bf22 32de e03f bdad ce6b ecce e53f
00000740: 74c4 0d87 37df ea3f 9690 709e 3c0e eb3f
00000750: 9353 6dad 47df e73f 03bc 9509 2b12 e13f
00000760: a543 46cb a1e0 dd3f 2e4c d569 b182 ef3f
00000770: 0873 751e d523 f03f 2647 021a 05ae ea3f
00000780: 630a 69ea ce70 e13f 2c5f d082 f1da e53f
00000790: ec0d 35cc 9b77 f13f 4c20 21a1 039e ed3f
000007a0: 227f 0476 f8f6 e83f a521 22ab dc60 e13f
000007b0: a119 e4bd 72b0 e23f 00ce ff10 c1c5 ea3f
000007c0: c6bd 2d42 db52 ed3f 5e40 c872 a415 e73f

GFL.3.bias f8 [5, 1]
1.5485611857772759 1.276605523703174 1.4903412188437921 1.6085834691431413 1.5363994606747056
00000000: 494b 0c18 e8c6 f83f 5b2b e3e9 f96c f43f
00000010: b109 ad08 70d8 f73f 3fb2 0d05 c2bc f93f
00000020: d309 d399 1795 f83f

MLP.0.weight f8 [1, 740]
0.0013513513513513514 0.0013513513513513514 0.0013513513513513514 0.0013513513513513514 0.0013513513513513514 0.0013513513513513514 0.0013513513513513514 0.0013513513513513514
0.0013513513513513514 0.0013513513513513514 0.0013513513513513514 0.0013513513513513514 0.0013513513513513514 0.0013513513513513514 0.0013513513513513514 0.0013513513513513514
0.0013513513513513514 0.0013513513513513514 0.0013513513513513514 0.0013513513513513514 0.0013513513513513514 0.0013513513513513514 0.0013513513513513514 0.0013513513513513514
0.0013513513513513514 0.0013513513513513514 0.0013513513513513514 0.0013513513513513514 0.0013513513513513514 0.0013513513513513514 0.0013513513513513514 0.0013513513513513514
0.0013513513513513514 0.0013513513513513514 0.0013513513513513514 0.0013513513513513514 0.0013513513513513514 0.0013513513513513514 0.0013513513513513514 0.0013513513513513514
0.0013513513513513514 0.0013513513513513514 0.0013513513513513514 0.0013513513513513514 0.0013513513513513514 0.0013513513513513514 0.0013513513513513514 0.0013513513513513514
0.0013513513513513514 0.0013513513513513514 0.0013513513513513514 0.0013513513513513514 0.0013513513513513514 0.0013513513513513514 0.0013513513513513514 0.0013513513513513514
0.0013513513513513514 0.0013513513513513514 0.0013513513513513514 0.0013513513513513514 0.0013513513513513514 0.0013513513513513514 0.0013513513513513514 0.0013513513513513514
0.0013513513513513514 0.0013513513513513514 0.0013513513513513514 0.0013513513513513514 0.0013513513513513514 0.0013513513513513514 0.0013513513513513514 0.0013513513513513514
0.0013513513513513514 0.0013513513513513514 0.0013513513513513514 0.0013513513513513514 0.0013513513513513514 0.0013513513513513514 0.0013513513513513514 0.0013513513513513514
0.0013513513513513514 0.0013513513513513514 0.0013513513513513514 0.0013513513513513514 0.0013513513513513514 0.0013513513513513514 0.0013513513513513514 0.0013513513513513514
0.0013513513513513514 0.0013513513513513514 0.0013513513513513514 0.0013513513513513514 0.0013513513513513514 0.0013513513513513514 0.0013513513513513514 0.0013513513513513514
0.0013513513513513514 0.0013513513513513514 0.0013513513513513514 0.0013513513513513514 0.0013513513513513514 0.0013513513513513514 0.0013513513513513514 0.0013513513513513514
0.0013513513513513514 0.0013513513513513514 0.0013513513513513514 0.0013513513513513514 0.0013513513513513514 0.0013513513513513514 0.0013513513513513514 0.0013513513513513514
0.0013513513513513514 0.0013513513513513514 0.0013513513513513514 0.0013513513513513514 0.0013513513513513514 0.0013513513513513514 0.0013513513513513514 0.0013513513513513514
0.0013513513513513514 0.0013513513513513514 0.0013513513513513514 0.0013513513513513514 0.0013513513513513514 0.0013513513513513514 0.0013513513513513514 0.0013513513513513514
0.0013513513513513514 0.0013513513513513514 0.0013513513513513514 0.0013513513513513514 0.0013513513513513514 0.0013513513513513514 0.0013513513513513514 0.0013513513513513514
0.0013513513513513514 0.0013513513513513514 0.0013513513513513514 0.0013513513513513514 0.0013513513513513514 0.0013513513513513514 0.0013513513513513514 0.0013513513513513514
0.0013513513513513514 0.0013513513513513514 0.0013513513513513514 0.0013513513513513514 0.0013513513513513514 0.0013513513513513514 0.0013513513513513514 0.0013513513513513514
0.0013513513513513514 0.0013513513513513514 0.0013513513513513514 0.0013513513513513514 0.0013513513513513514 0.0013513513513513514 0.0013513513513513514 0.0013513513513513514
0.0013513513513513514 0.0013513513513513514 0.0013513513513513514 0.0013513513513513514 0.0013513513513513514 0.0013513513513513514 0.0013513513513513514 0.0013513513513513514
0.0013513513513513514 0.0013513513513513514 0.0013513513513513514 0.0013513513513513514 0.0013513513513513514 0.0013513513513513514 0.0013513513513513514 0.0013513513513513514
0.0013513513513513514 0.0013513513513513514 0.0013513513513513514 0.0013513513513513514 0.0013513513513513514 0.0013513513513513514 0.0013513513513513514 0.0013513513513513514
0.0013513513513513514 0.0013513513513513514 0.0013513513513513514 0.0013513513513513514 0.0013513513513513514 0.0013513513513513514 0.0013513513513513514 0.0013513513513513514
0.0013513513513513514 0.0013513513513513514 0.0013513513513513514 0.0013513513513513514 0.0013513513513513514 0.0013513513513513514 0.0013513513513513514 0.0013513513513513514
0.0013513513513513514 0.0013513513513513514 0.0013513513513513514 0.0013513513513513514 0.0013513513513513514 0.0013513513513513514 0.0013513513513513514 0.0013513513513513514
0.0013513513513513514 0.0013513513513513514 0.0013513513513513514 0.0013513513513513514 0.0013513513513513514 0.0013513513513513514 0.0013513513513513514 0.0013513513513513514
0.0013513513513513514 0.0013513513513513514 0.0013513513513513514 0.0013513513513513514 0.0013513513513513514 0.0013513513513513514 0.0013513513513513514 0.0013513513513513514
0.0013513513513513514 0.0013513513513513514 0.0013513513513513514 0.0013513513513513514 0.0013513513513513514 0.0013513513513513514 0.0013513513513513514 0.0013513513513513514
0.0013513513513513514 0.0013513513513513514 0.0013513513513513514 0.0013513513513513514 0.0013513513513513514 0.0013513513513513514 0.0013513513513513514 0.0013513513513513514
0.0013513513513513514 0.0013513513513513514 0.0013513513513513514 0.0013513513513513514 0.0013513513513513514 0.0013513513513513514 0.0013513513513513514 0.0013513513513513514
0.0013513513513513514 0.0013513513513513514 0.0013513513513513514 0.0013513513513513514 0.0013513513513513514 0.0013513513513513514 0.0013513513513513514 0.0013513513513513514
00000000: 4062 0177 fa23 563f 4062 0177 fa23 563f
00000010: 4062 0177 fa23 563f 4062 0177 fa23 563f
00000020: 4062 0177 fa23 563f 4062 0177 fa23 563f
00000030: 4062 0177 fa23 563f 4062 0177 fa23 563f
00000040: 4062 0177 fa23 563f 4062 0177 fa23 563f
00000050: 4062 0177 fa23 563f 4062 0177 fa23 563f
00000060: 4062 0177 fa23 563f 4062 0177 fa23 563f
00000070: 4062 0177 fa23 563f 4062 0177 fa23 563f
00000080: 4062 0177 fa23 563f 4062 0177 fa23 563f
00000090: 4062 0177 fa23 563f 4062 0177 fa23 563f
000000a0: 4062 0177 fa23 563f 4062 0177 fa23 563f
000000b0: 4062 0177 fa23 563f 4062 0177 fa23 563f
000000c0: 4062 0177 fa23 563f 4062 0177 fa23 563f
000000d0: 4062 0177 fa23 563f 4062 0177 fa23 563f
000000e0: 4062 0177 fa23 563f 4062 0177 fa23 563f
000000f0: 4062 0177 fa23 563f 4062 0177 fa23 563f
00000100: 4062 0177 fa23 563f 4062 0177 fa23 563f
00000110: 4062 0177 fa23 563f 4062 0177 fa23 563f
00000120: 4062 0177 fa23 563f 4062 0177 fa23 563f
00000130: 4062 0177 fa23 563f 4062 0177 fa23 563f
00000140: 4062 0177 fa23 563f 4062 0177 fa23 563f
00000150: 4062 0177 fa23 563f 4062 0177 fa23 563f
00000160: 4062 0177 fa23 563f 4062 0177 fa23 563f
00000170: 4062 0177 fa23 563f 4062 0177 fa23 563f
00000180: 4062 0177 fa23 563f 4062 0177 fa23 563f
00000190: 4062 0177 fa23 563f 4062 0177 fa23 563f
000001a0: 4062 0177 fa23 563f 4062 0177 fa23 563f
000001b0: 4062 0177 fa23 563f 4062 0177 fa23 563f
000001c0: 4062 0177 fa23 563f 4062 0177 fa23 563f
000001d0: 4062 0177 fa23 563f 4062 0177 fa23 563f
000001e0: 4062 0177 fa23 563f 4062 0177 fa23 563f
000001f0: 4062 0177 fa23 563f 4062 0177 fa23 563f
00000200: 4062 0177 fa23 563f 4062 0177 fa23 563f
00000210: 4062 0177 fa23 563f 4062 0177 fa23 563f
00000220: 4062 0177 fa23 563f 4062 0177 fa23 563f
00000230: 4062 0177 fa23 563f 4062 0177 fa23 563f
00000240: 4062 0177 fa23 563f 4062 0177 fa23 563f
00000250: 4062 0177 fa23 563f 4062 0177 fa23 563f
00000260: 4062 0177 fa23 563f 4062 0177 fa23 563f
00000270: 4062 0177 fa23 563f 4062 0177 fa23 563f
00000280: 4062 0177 fa23 563f 4062 0177 fa23 563f
00000290: 4062 0177 fa23 563f 4062 0177 fa23 563f
000002a0: 4062 0177 fa23 563f 4062 0177 fa23 563f
000002b0: 4062 0177 fa23 563f 4062 0177 fa23 563f
000002c0: 4062 0177 fa23 563f 4062 0177 fa23 563f
000002d0: 4062 0177 fa23 563f 4062 0177 fa23 563f
000002e0: 4062 0177 fa23 563f 4062 0177 fa23 563f
000002f0: 4062 0177 fa23 563f 4062 0177 fa23 563f
00000300: 4062 0177 fa23 563f 4062 0177 fa23 563f
00000310: 4062 0177 fa23 563f 4062 0177 fa23 563f
00000320: 4062 0177 fa23 563f 4062 0177 fa23 563f
00000330: 4062 0177 fa23 563f 4062 0177 fa23 563f
00000340: 4062 0177 fa23 563f 4062 0177 fa23 563f
00000350: 4062 0177 fa23 563f 4062 0177 fa23 563f
00000360: 4062 0177 fa23 563f 4062 0177 fa23 563f
00000370: 4062 0177 fa23 563f 4062 0177 fa23 563f
00000380: 4062 0177 fa23 563f 4062 0177 fa23 563f
00000390: 4062 0177 fa23 563f 4062 0177 fa23 563f
000003a0: 4062 0177 fa23 563f 4062 0177 fa23 563f
000003b0: 4062 0177 fa23 563f 4062 0177 fa23 563f
000003c0: 4062 0177 fa23 563f 4062 0177 fa23 563f
000003d0: 4062 0177 fa23 563f 4062 0177 fa23 563f
000003e0: 4062 0177 fa23 563f 4062 0177 fa23 563f
000003f0: 4062 0177 fa23 563f 4062 0177 fa23 563f
00000400: 4062 0177 fa23 563f 4062 0177 fa23 563f
00000410: 4062 0177 fa23 563f 4062 0177 fa23 563f
00000420: 4062 0177 fa23 563f 4062 0177 fa23 563f
00000430: 4062 0177 fa23 563f 4062 0177 fa23 563f
00000440: 4062 0177 fa23 563f 4062 0177 fa23 563f
00000450: 4062 0177 fa23 563f 4062 0177 fa23 563f
00000460: 4062 0177 fa23 563f 4062 0177 fa23 563f
00000470: 4062 0177 fa23 563f 4062 0177 fa23 563f
00000480: 4062 0177 fa23 563f 4062 0177 fa23 563f
00000490: 4062 0177 fa23 563f 4062 0177 fa23 563f
000004a0: 4062 0177 fa23 563f 4062 0177 fa23 563f
000004b0: 4062 0177 fa23 563f 4062 0177 fa23 563f
000004c0: 4062 0177 fa23 563f 4062 0177 fa23 563f
000004d0: 4062 0177 fa23 563f 4062 0177 fa23 563f
000004e0: 4062 0177 fa23 563f 4062 0177 fa23 563f
000004f0: 4062 0177 fa23 563f 4062 0177 fa23 563f
00000500: 4062 0177 fa23 563f 4062 0177 fa23 563f
00000510: 4062 0177 fa23 563f 4062 0177 fa23 563f
00000520: 4062 0177 fa23 563f 4062 0177 fa23 563f
00000530: 4062 0177 fa23 563f 4062 0177 fa23 563f
00000540: 4062 0177 fa23 563f 4062 0177 fa23 563f
00000550: 4062 0177 fa23 563f 4062 0177 fa23 563f
00000560: 4062 0177 fa23 563f 4062 0177 fa23 563f
00000570: 4062 0177 fa23 563f 4062 0177 fa23 563f
00000580: 4062 0177 fa23 563f 4062 0177 fa23 563f
00000590: 4062 0177 fa23 563f 4062 0177 fa23 563f
000005a0: 4062 0177 fa23 563f 4062 0177 fa23 563f
000005b0: 4062 0177 fa23 563f 4062 0177 fa23 563f
000005c0: 4062 0177 fa23 563f 4062 0177 fa23 563f
000005d0: 4062 0177 fa23 563f 4062 0177 fa23 563f
000005e0: 4062 0177 fa23 563f 4062 0177 fa23 563f
000005f0: 4062 0177 fa23 563f 4062 0177 fa23 563f
00000600: 4062 0177 fa23 563f 4062 0177 fa23 563f
00000610: 4062 0177 fa23 563f 4062 0177 fa23 563f
00000620: 4062 0177 fa23 563f 4062 0177 fa23 563f
00000630: 4062 0177 fa23 563f 4062 0177 fa23 563f
00000640: 4062 0177 fa23 563f 4062 0177 fa23 563f
00000650: 4062 0177 fa23 563f 4062 0177 fa23 563f
00000660: 4062 0177 fa23 563f 4062 0177 fa23 563f
00000670: 4062 0177 fa23 563f 4062 0177 fa23 563f
00000680: 4062 0177 fa23 563f 4062 0177 fa23 563f
00000690: 4062 0177 fa23 563f 4062 0177 fa23 563f
000006a0: 4062 0177 fa23 563f 4062 0177 fa23 563f
000006b0: 4062 0177 fa23 563f 4062 0177 fa23 563f
000006c0: 4062 0177 fa23 563f 4062 0177 fa23 563f
000006d0: 4062 0177 fa23 563f 4062 0177 fa23 563f
000006e0: 4062 0177 fa23 563f 4062 0177 fa23 563f
000006f0: 4062 0177 fa23 563f 4062 0177 fa23 563f
00000700: 4062 0177 fa23 563f 4062 0177 fa23 563f
00000710: 4062 0177 fa23 563f 4062 0177 fa23 563f
00000720: 4062 0177 fa23 563f 4062 0177 fa23 563f
00000730: 4062 0177 fa23 563f 4062 0177 fa23 563f
00000740: 4062 0177 fa23 563f 4062 0177 fa23 563f
00000750: 4062 0177 fa23 563f 4062 0177 fa23 563f
00000760: 4062 0177 fa23 563f 4062 0177 fa23 563f
00000770: 4062 0177 fa23 563f 4062 0177 fa23 563f
00000780: 4062 0177 fa23 563f 4062 0177 fa23 563f
00000790: 4062 0177 fa23 563f 4062 0177 fa23 563f
000007a0: 4062 0177 fa23 563f 4062 0177 fa23 563f
000007b0: 4062 0177 fa23 563f 4062 0177 fa23 563f
000007c0: 4062 0177 fa23 563f 4062 0177 fa23 563f
000007d0: 4062 0177 fa23 563f 4062 0177 fa23 563f
000007e0: 4062 0177 fa23 563f 4062 0177 fa23 563f
000007f0: 4062 0177 fa23 563f 4062 0177 fa23 563f
