OASIS3_VNN_NeurIPS/test84.pth (torch, 10139 bytes, 5 tensors)

GFL.0.weight f8 [5, 1, 6, 1]
000000 32 ad 3e 5f 3f 72 fa 3f 42 43 f6 cc d1 48 bf bf
       1.6528924675465757 -0.122204887904684
000010 b1 09 0f 05 73 d6 c9 bf 33 4c 84 c8 fb 31 e3 bf
       -0.20185697314270848 -0.599851504930831
000020 90 c4 5e 00 6a 17 d1 bf eb 39 c5 a7 14 66 a0 3f
       -0.2670540813078981 0.03202881381968211
000030 21 a8 0c 0f e4 4c e0 bf 93 91 7a 1e 27 5d ba 3f
       -0.5093860906538376 0.10298389906035359
000040 aa 0f f2 f3 8d e6 a2 bf ea 6e f8 e0 04 ff e0 3f
       -0.03691524126864405 0.5311302560762361
000050 d2 5e af 35 88 b9 96 3f 4c ed 72 5a f8 d3 d5 3f
       0.022192123676943627 0.3410626300135007
000060 97 90 bf 8c 61 87 f7 bf 21 32 48 60 98 8a d6 bf
       -1.470552015111968 -0.35220918085613745
000070 d6 af fe a2 f4 06 c7 bf 78 23 86 3e 78 9d c9 3f
       -0.17989976843580163 0.2001180939953675
000080 d7 ca 88 3b db 8a d9 3f 05 f4 4e 43 68 2f 8e 3f
       0.3991001206770028 0.014738859705056848
000090 60 da d9 79 cb e4 fc bf 71 c7 3c 94 ee 21 d7 3f
       -1.8058581123165354 0.3614460418349302
0000a0 83 d8 8b a0 02 db b1 3f da 29 10 d4 2e 3b c7 bf
       0.069748081394069 -0.18149361948628845
0000b0 8e 32 e4 e5 6f 10 c3 3f 93 9e 63 fa 25 34 e3 3f
       0.14893912053266373 0.6001157656109676
0000c0 15 0a bb b2 69 46 ea 3f 18 10 ac f9 17 1f cf bf
       0.8210953226883385 -0.24313640299817574
0000d0 81 51 e4 c3 1c 97 93 bf 9b d0 e5 ca 02 26 c5 3f
       -0.01913113542203027 0.16522250086893994
0000e0 89 f1 df 6e 8b c1 ca bf b8 fd ca 18 48 9d b3 bf
       -0.209031514299465 -0.0766186771897911

GFL.0.bias f8 [5, 1]
000000 52 a6 04 e9 04 be fe 3f 4e 10 8a 08 4c 26 03 40
       1.921391401507567 2.3936997096189208
000010 c5 6f 41 0f 9f 62 02 40 8c 5e 1a 4f 6d 9f fb 3f
       2.298154944595782 1.726422604557146
000020 83 b4 f2 b4 d6 21 fb 3f
       1.695761401012789

GFL.3.weight f8 [5, 1, 10, 5]
000000 03 01 a2 9d 9d 9c f7 3f 42 c3 f1 49 72 15 eb 3f
       1.4757362515957204 0.8463679737306864
000010 bf 96 f5 82 5c 65 ed 3f ec 53 3e 08 03 61 d6 3f
       0.9186232145118182 0.3496711330893152
000020 8f 8a cd 35 1d 13 ef 3f 02 59 76 10 5a 68 ec 3f
       0.9710832644307902 0.8877382585076534
000030 a5 03 a9 bd b3 a7 f2 3f 85 7c 62 f0 37 b2 f2 3f
       1.165942898616984 1.1685103788402398
000040 76 a8 5d d2 4d 9b eb 3f 80 e5 fc 65 d7 a1 e0 3f
       0.862708006735615 0.5197560302687378
000050 5a 41 6b 34 2e db ec 3f f9 9b 07 c1 7f c7 f2 3f
       0.90175543058471 1.1737058201049406
000060 54 20 01 c5 f6 39 f2 3f 7e 0e 8a 07 7d 20 ec 3f
       1.1391513534054143 0.8789658686877855
000070 54 19 21 d7 fd 4f de 3f 7d 78 fe e3 04 ce ee 3f
       0.4736322975990295 0.9626488163955994
000080 df d3 df b5 36 22 f3 3f 87 cd 80 f1 5a 48 f0 3f
       1.1958529571977505 1.0176648553577665
000090 e0 8e 06 54 61 29 eb 3f 5e e9 a8 16 c0 cb de 3f
       0.8488012925267547 0.48118593418953093
0000a0 8e 00 a8 d4 94 fe e8 3f eb 67 c2 d8 e3 28 f0 3f
       0.7810768273775623 1.0099829165615073
0000b0 c8 21 bb d0 c3 01 f0 3f d7 42 b7 f8 cb 81 eb 3f
       1.0004308847002097 0.8595943315250122
0000c0 82 5a 6d c1 bc d2 de 3f ec b9 cc 5c ea ba ef 3f
       0.4816123856484539 0.9915668308729528
0000d0 61 3b 83 84 62 a2 ee 3f 2b 9e 4f 04 57 5d f3 3f
       0.9573223674905017 1.2102880638502806
0000e0 f3 f8 d3 a4 97 16 ef 3f 76 a3 d1 16 79 3c de 3f
       0.9715078563019958 0.4724409792748284
0000f0 38 8f 95 b7 5e 32 ef 3f 59 8b 96 ee ff 6f f0 3f
       0.9748986802701216 1.027343685135483
000100 93 b0 fd 55 dc 5e ef 3f da c9 41 f2 52 57 e8 3f
       0.9803296737204782 0.760659669073273
000110 67 a7 fc d0 43 24 de 3f a3 b8 c1 c8 4d b2 ef 3f
       0.4709634343040449 0.990515606024719
000120 af d5 79 ba d1 ee f0 3f e7 fc 22 f3 54 8e f1 3f
       1.0583054813590527 1.0972489831472616
000130 a6 28 55 ca e1 5a e7 3f 35 97 7a eb d0 11 e4 3f
       0.7298439933595275 0.6271748160549807
000140 dc 1b 6b ff db 52 eb 3f ad 61 dc 7a 95 27 f0 3f
       0.8538646687164788 1.0096640395405345
000150 d8 00 0e 8f 9d 2a f3 3f ab c6 c9 a1 79 3e ea 3f
       1.1979041660379632 0.8201263580251256
000160 08 47 dd 4c 65 e7 df 3f 81 6d 09 a6 d3 e6 ed 3f
       0.49849827295575766 0.9344270937830715
000170 71 d1 52 fd c1 e0 f2 3f 20 c7 59 d0 d8 13 f4 3f
       1.1798725028466743 1.2548454416941652
000180 4a bc f5 63 a2 e4 e8 3f b5 ca 2c 4c eb a9 e4 3f
       0.7779094650594598 0.6457420814316125
000190 40 54 1e 41 2b 3d e2 bf 7c b8 24 35 3d 02 dc bf
       -0.5699669143529107 -0.43763666333951057
0001a0 5e 8e 6c 20 e3 24 da bf db 8f 50 b7 5c 10 d3 bf
       -0.4085014168397033 -0.2978736677343911
0001b0 db 6e fb 6b 96 14 d7 bf 2b 51 68 6f 28 20 d5 bf
       -0.36063156647808875 -0.3300877654994731
0001c0 dd a6 ce 19 f5 77 de bf 87 29 5e 08 30 99 d4 bf
       -0.47607162018048915 -0.3218498307911876
0001d0 7b c5 1e 44 bc 7c db bf ff a2 a8 5c 7e de da bf
       -0.4294882455097519 -0.4198299317236404
0001e0 65 04 ce 54 3f 8f d8 bf 6a d8 6e 58 93 03 e1 bf
       -0.38374312669481575 -0.5316864707190352
0001f0 8a af 0d 26 b7 7e da bf 6d 85 7b ae 03 ec e0 bf
       -0.4139840957275217 -0.5288103492604656
000200 12 f2 c6 f7 a1 75 da bf 0f 2a ed 6c f8 c1 df bf
       -0.4134297294329211 -0.4962140144095039
000210 d4 b5 06 38 96 d4 e0 bf d1 f6 8d a2 34 4d dc bf
       -0.5259505361806824 -0.44221225618808285
000220 10 28 53 33 ee ca e0 bf c2 f9 c4 05 9d 62 de bf
       -0.5247717859685981 -0.47476888240262494
000230 d2 f0 95 2d 7d 66 e1 bf 06 8e 89 80 9a b2 df bf
       -0.5437608614297693 -0.49527609398339256
000240 2c e9 3c 55 63 f6 d7 bf e2 c9 28 af 1c fe e1 bf
       -0.3744133312608422 -0.562269537075107
000250 d9 66 13 29 96 f2 d8 bf 4b e2 9c 71 8d e0 d5 bf
       -0.38980630885417394 -0.34183059782984476
000260 9d a8 de 4c 2f be e3 bf 15 cd 14 c3 33 08 e3 bf
       -0.6169659139025218 -0.5947512445622204
000270 ad 35 17 96 9b 10 e3 bf a9 eb 28 81 fd ad e2 bf
       -0.5957773143251665 -0.5837390444424858
000280 ab de 4e 6c 91 08 de bf 4b 9a b5 45 ef 2e d9 bf
       -0.46927295281373443 -0.3934896641498297
000290 d9 21 7f e3 57 4d d9 bf b7 1a 13 7d 3a 9d e0 bf
       -0.3953456613203606 -0.5191929285873219
0002a0 35 8e cd 35 a5 db e1 bf 4e 51 b9 89 08 0d e2 bf
       -0.5580621767844095 -0.564090985290514
0002b0 61 bf ab 0b 7b 84 da bf d7 77 31 84 f2 e6 e2 bf
       -0.41433597697959185 -0.5906918126963728
0002c0 e5 3f 99 9d 9e f6 dc bf 38 c1 db fc bc 02 d7 bf
       -0.452552465348161 -0.35954212849812306
0002d0 2a 35 25 6c 1e b6 d7 bf 44 23 1e c6 79 ef dd bf
       -0.37049065171307183 -0.4677414355033316
0002e0 1f 2b 92 7e 19 f5 e0 bf ca cd ef 81 72 e2 df bf
       -0.5299193832482593 -0.4981962460435311
0002f0 dd b1 6d 71 ac af da bf db 6f 55 f4 ef 81 d7 bf
       -0.4169722659778737 -0.36730574475018124
000300 12 10 63 c7 3c 11 e1 bf 05 3f d6 45 24 58 e3 bf
       -0.5333541769291534 -0.6045094837190567
000310 fe 71 c7 b7 50 f0 e0 bf 19 9e dc 55 92 0a d8 bf
       -0.529335364287874 -0.3756452406400697
000320 a5 a9 64 0b ee ba f2 3f fc a7 1e 31 c5 02 ee 3f
       1.1706371731803327 0.9378381690378315
000330 33 28 5f 84 69 ad eb 3f 6d fc 20 8d 36 88 d3 3f
       0.8649184785256295 0.305188787289757
000340 e8 d3 0f b0 d4 43 e7 3f 18 b5 a5 0e 1c ff ee 3f
       0.7270301283557474 0.9686413084106418
000350 0d e5 15 13 94 ba ed 3f 6e 03 cd 9f ab 21 f0 3f
       0.929025685573977 1.0082203142376005
000360 ec df d7 b4 19 c1 e5 3f f4 d8 fd a2 3b ab e4 3f
       0.6798218280882771 0.6459024604253316
000370 37 26 34 88 00 47 ea 3f f0 7e 96 74 b7 bc ec 3f
       0.8211672458866762 0.8980366971117899
000380 87 69 46 d6 d1 93 ee 3f e5 fc fe ab b2 5c ee 3f
       0.9555443940219427 0.9488156661317616
000390 a6 2a d1 c2 e0 3f e2 3f 43 8f c7 67 fe ed ee 3f
       0.5702976040859837 0.9665519740051213
0003a0 85 b0 6a a8 ef 42 ef 3f 61 77 93 3c 54 49 f2 3f
       0.9769209184064641 1.1429025999309135
0003b0 ce 13 31 b3 d5 4b ec 3f 95 82 b1 dd 90 0c e2 3f
       0.8842571735227638 0.5640339212369151
0003c0 3b 11 7e db 45 2e f0 3f 85 a8 7b 7a df a4 f1 3f
       1.0112970899509282 1.1027521881574398
0003d0 b5 db e4 1e e0 ea ef 3f 0e fa 33 ab 0b 15 ee 3f
       0.9974213221929548 0.9400690406617416
0003e0 6b 11 ed b6 06 2e da 3f f6 c6 f5 20 00 6a ef 3f
       0.4090592180621317 0.9816895145179092
0003f0 d4 37 c3 94 f5 f6 ec 3f d0 e2 5f 66 92 0e f2 3f
       0.9051463990706403 1.1285575865751305
000400 0b 1e 63 61 58 c9 eb 3f ed b3 6c d2 04 d3 d8 3f
       0.868328275880175 0.3878795676162657
000410 86 ea 17 c9 ab 23 eb 3f df 53 0d 60 b4 37 ee 3f
       0.8481043746572403 0.9442998767868821
000420 50 1a 6b 3d 9d 32 f2 3f 52 5c 4e 41 c6 c5 ed 3f
       1.1373569869189346 0.9303923869619075
000430 c0 e6 09 28 25 61 de 3f 8b f1 64 63 60 54 ee 3f
       0.4746792689326007 0.9477998677535181
000440 7f 75 33 49 6d 3b f2 3f 0f 17 60 dc 82 1a f1 3f
       1.1395085200705066 1.068972454873293
000450 db cf 3c c1 f3 4a ed 3f ee 58 a3 86 b9 28 de 3f
       0.9153994344874222 0.4712356390786131
000460 98 7d 19 62 10 89 ee 3f 7a 40 26 90 7d 02 ee 3f
       0.9542314449317244 0.9378040137689958
000470 24 cf 5b 50 8e 57 ee 3f 46 bc 05 84 35 30 e8 3f
       0.9481879777435762 0.7558848932802753
000480 7b c7 1a 33 8e e7 e0 3f 0e 8c 5d 1e ca 39 e9 3f
       0.5282660482537119 0.7883043854784562
000490 4f ba 45 24 ff 68 f2 3f 78 0b e3 5c 3f 19 ee 3f
       1.150633947075807 0.9405819715687889
0004a0 6d f1 08 37 ee 52 e6 3f 22 b8 b0 cb 24 53 da 3f
       0.697623355379205 0.41132469073898126
0004b0 3c 5f d5 27 cd 06 f4 3f 19 7b 8d 6f 45 f4 e9 3f
       1.2516604953761563 0.8110682657969362
0004c0 c9 5b ec cb 59 12 ed 3f 9f c8 93 f1 13 bf da 3f
       0.9084900839687801 0.4179124697831273
0004d0 3b 84 fa 2c f3 2d e5 3f 1c 92 1f 7c 70 d9 f0 3f
       0.6618591192710775 1.0530857895438492
0004e0 e2 65 81 d0 29 00 ef 3f 0a d5 ab 1e 1a 3e f2 3f
       0.9687699386951716 1.140161628541423
0004f0 f2 d0 0c 41 e0 25 eb 3f 30 5d 6e f7 da 14 e0 3f
       0.8483735342511223 0.502545817626844
000500 a6 54 69 d8 04 4c f0 3f d9 12 0f 0b 12 4d ef 3f
       1.018559308392733 0.9781580177301193
000510 02 c1 c9 e5 7a 03 f3 3f 2f 7f b7 86 9a 10 e7 3f
       1.188349626168986 0.7207768088519283
000520 c6 07 47 de 4a a7 e5 3f 68 b8 b7 ef 95 8e ec 3f
       0.6766714421612441 0.8924054796205043
000530 69 e2 2f 7f d1 2b ed 3f c5 97 f9 e2 0d fb f2 3f
       0.9115989193079034 1.1862925401887747
000540 e2 04 9e e5 0a 1e e9 3f 68 65 9a 6a 45 96 e4 3f
       0.7849173054420613 0.6433436472026814
000550 2e ec 5c f3 ea 21 f0 3f 4d 21 63 d6 cc 87 ef 3f
       1.008280707012783 0.9853271662951016
000560 57 54 03 4a 4d 0d f2 3f 7b d7 02 3b a0 68 ec 3f
       1.1282475367672953 0.8877717163620525
000570 fd 8e 44 53 74 2e db 3f 38 9a d5 3c fc 90 ee 3f
       0.424710351291864 0.9551984012767383
000580 64 d4 12 8a 38 71 f0 3f c0 ca 33 77 80 86 f2 3f
       1.0276418107507874 1.1578373581257182
000590 a1 d8 fe 9c 05 51 eb 3f 81 33 2c 62 ee 92 e0 3f
       0.8536403719251845 0.5179359357294829
0005a0 ef 6f 5e 89 39 35 ed 3f 71 c4 57 0e 61 2f f2 3f
       0.9127471621500244 1.1365671692149386
0005b0 88 d6 ff 80 fd 65 f2 3f 55 ea fd 90 21 26 e8 3f
       1.149899963287142 0.7546546775695996
0005c0 3c 1f eb f3 88 07 e5 3f de 43 79 6e 7e b6 e8 3f
       0.6571697963745247 0.7722770841302198
0005d0 5a e7 3f ee 96 c1 ef 3f 74 01 19 94 12 2e f0 3f
       0.9923815396607367 1.01124818659454
0005e0 a7 90 a7 3e 25 31 ed 3f 07 cd 80 f4 eb 7e dc 3f
       0.912249204990549 0.445246685764872
0005f0 e9 e2 99 cf 56 8b ec 3f 04 f9 62 d5 48 8b ed 3f
       0.892009168120322 0.9232525031764287
000600 58 6d 3c cb b7 16 f2 3f c6 4f 43 56 a8 1b ee 3f
       1.1305463732631633 0.9408761677573174
000610 ba 51 94 d2 67 d6 de 3f a3 43 f3 79 02 5b eb 3f
       0.4818362766684704 0.8548595792618595
000620 ee 78 75 8d 0f 4d f0 3f 64 fd e8 8f d0 6b f0 3f
       1.0188136602151263 1.026321947239773
000630 bc d6 5a 76 41 36 ed 3f 22 09 65 5d df 67 db 3f
       0.9128730117433501 0.42821487541745473
000640 be 0b ad da 64 e3 f5 3f 73 ed 64 24 18 ba e9 3f
       1.3680161039380745 0.8039665900063667
000650 08 c2 03 7f 06 8c e9 3f fd 08 d9 a7 19 d0 d9 3f
       0.7983429413562257 0.40332642928491663
000660 c6 59 66 09 47 95 ed 3f 2f 32 de 55 40 6f ec 3f
       0.924472349509238 0.8885804822071516
000670 85 94 58 2d e9 df ec 3f 95 74 bd 83 85 43 ec 3f
       0.9023328672088985 0.883242375664525
000680 31 6a 8b d8 bf 04 e7 3f 9c 8e 93 03 b4 9d e6 3f
       0.7193297604929453 0.706750876412531
000690 68 8b 71 74 51 65 e9 3f a9 d5 c2 9e 0b 22 f0 3f
       0.7936179422652971 1.0083118630985644
0006a0 88 80 d9 7e 74 ba f2 3f 84 de 7c ae b7 07 ed 3f
       1.1705212550223525 0.9071920783962502
0006b0 02 f7 1b 57 fa 9a e1 3f c2 cc 2f 6b ee 12 e8 3f
       0.55016819966815 0.7523109525194729
0006c0 62 ec ac 2b d5 2f ed 3f 63 60 c7 27 0c 30 f1 3f
       0.9120889523541218 1.0742303422794286
0006d0 8c da 28 5e 78 ef e9 3f 11 69 44 69 78 1f e5 3f
       0.8104822005323782 0.6600915962219763
0006e0 ee 19 ea d1 82 81 ed 3f ea 8e 21 90 2c 5d f0 3f
       0.9220594501392136 1.0227475767250618
0006f0 6f ed 72 77 1e 42 f0 3f b6 44 0a 3f 97 4c ee 3f
       1.0161423364614526 0.9468494635822455
000700 b3 26 1d f8 5a b3 e3 3f fc 68 46 e4 ff 30 ec 3f
       0.615643963429838 0.8809813936707367
000710 e8 bb 86 3d fe b2 f0 3f 6d 50 dd e2 79 2b f1 3f
       1.0436994937297133 1.0731142866034376
000720 c1 79 e6 ca 6b a8 ed 3f ce c0 2f 7d 85 6b e2 3f
       0.9268092120071786 0.5756251759576345
000730 0e a3 c5 7d 88 ea e8 3f 32 04 89 75 01 c8 ec 3f
       0.7786295372471572 0.8994147582635661
000740 48 43 f8 a4 ec 05 f1 3f 26 9a c5 67 10 b9 e7 3f
       1.0639463848239803 0.7413408304972264
000750 cc f8 36 55 60 ff e0 3f e6 b3 77 49 c1 c1 e6 3f
       0.5311738647794981 0.7111517367280811
000760 b6 82 9d 73 1b 32 ec 3f 89 01 ec cc 6e f2 ee 3f
       0.881116605578504 0.9670938494091824
000770 1e 20 41 4c 0b 82 ec 3f 09 15 4e 38 6c da e0 3f
       0.8908745278686216 0.5266629314143368
000780 26 dd 97 34 8d c3 e9 3f ad 8e 37 c7 18 74 f1 3f
       0.8051210429393094 1.0908439428248287
000790 b8 86 95 b5 df 61 ef 3f f3 1b 35 82 7f ed e8 3f
       0.9806974932254979 0.7789914649118813
0007a0 f5 3d 40 76 d0 65 e4 3f 21 67 d0 d0 8f dd e7 3f
       0.6374285039509561 0.7457961157226444
0007b0 e2 09 53 0e b7 c6 ee 3f 4d 58 a7 53 e3 57 f2 3f
       0.9617572097561686 1.1464570300791082
0007c0 d8 20 68 5a c7 5e e9 3f 56 dc 43 b5 64 66 e4 3f
       0.7928196683651789 0.6374991932233438

GFL.3.bias f8 [5, 1]
000000 90 34 0a 01 43 22 fa 3f ff f4 f4 d5 c6 60 de bf
       1.6333646813029965 -0.47465678114151894
000010 62 e7 69 49 f9 d5 f8 3f 87 10 74 1a 39 bd fb 3f
       1.5522396915170806 1.7336970361075446
000020 8a 85 38 70 82 76 f8 3f
       1.5289329894661443

MLP.0.weight f8 [1, 740]
000000 40 62 01 77 fa 23 56 3f 40 62 01 77 fa 23 56 3f
       0.0013513513513513514 0.0013513513513513514
000010 40 62 01 77 fa 23 56 3f 40 62 01 77 fa 23 56 3f
       0.0013513513513513514 0.0013513513513513514
000020 40 62 01 77 fa 23 56 3f 40 62 01 77 fa 23 56 3f
       0.0013513513513513514 0.0013513513513513514
000030 40 62 01 77 fa 23 56 3f 40 62 01 77 fa 23 56 3f
       0.0013513513513513514 0.0013513513513513514
000040 40 62 01 77 fa 23 56 3f 40 62 01 77 fa 23 56 3f
       0.0013513513513513514 0.0013513513513513514
000050 40 62 01 77 fa 23 56 3f 40 62 01 77 fa 23 56 3f
       0.0013513513513513514 0.0013513513513513514
000060 40 62 01 77 fa 23 56 3f 40 62 01 77 fa 23 56 3f
       0.0013513513513513514 0.0013513513513513514
000070 40 62 01 77 fa 23 56 3f 40 62 01 77 fa 23 56 3f
       0.0013513513513513514 0.0013513513513513514
000080 40 62 01 77 fa 23 56 3f 40 62 01 77 fa 23 56 3f
       0.0013513513513513514 0.0013513513513513514
000090 40 62 01 77 fa 23 56 3f 40 62 01 77 fa 23 56 3f
       0.0013513513513513514 0.0013513513513513514
0000a0 40 62 01 77 fa 23 56 3f 40 62 01 77 fa 23 56 3f
       0.0013513513513513514 0.0013513513513513514
0000b0 40 62 01 77 fa 23 56 3f 40 62 01 77 fa 23 56 3f
       0.0013513513513513514 0.0013513513513513514
0000c0 40 62 01 77 fa 23 56 3f 40 62 01 77 fa 23 56 3f
       0.0013513513513513514 0.0013513513513513514
0000d0 40 62 01 77 fa 23 56 3f 40 62 01 77 fa 23 56 3f
       0.0013513513513513514 0.0013513513513513514
0000e0 40 62 01 77 fa 23 56 3f 40 62 01 77 fa 23 56 3f
       0.0013513513513513514 0.0013513513513513514
0000f0 40 62 01 77 fa 23 56 3f 40 62 01 77 fa 23 56 3f
       0.0013513513513513514 0.0013513513513513514
000100 40 62 01 77 fa 23 56 3f 40 62 01 77 fa 23 56 3f
       0.0013513513513513514 0.0013513513513513514
000110 40 62 01 77 fa 23 56 3f 40 62 01 77 fa 23 56 3f
       0.0013513513513513514 0.0013513513513513514
000120 40 62 01 77 fa 23 56 3f 40 62 01 77 fa 23 56 3f
       0.0013513513513513514 0.0013513513513513514
000130 40 62 01 77 fa 23 56 3f 40 62 01 77 fa 23 56 3f
       0.0013513513513513514 0.0013513513513513514
000140 40 62 01 77 fa 23 56 3f 40 62 01 77 fa 23 56 3f
       0.0013513513513513514 0.0013513513513513514
000150 40 62 01 77 fa 23 56 3f 40 62 01 77 fa 23 56 3f
       0.0013513513513513514 0.0013513513513513514
000160 40 62 01 77 fa 23 56 3f 40 62 01 77 fa 23 56 3f
       0.0013513513513513514 0.0013513513513513514
000170 40 62 01 77 fa 23 56 3f 40 62 01 77 fa 23 56 3f
       0.0013513513513513514 0.0013513513513513514
000180 40 62 01 77 fa 23 56 3f 40 62 01 77 fa 23 56 3f
       0.0013513513513513514 0.0013513513513513514
000190 40 62 01 77 fa 23 56 3f 40 62 01 77 fa 23 56 3f
       0.0013513513513513514 0.0013513513513513514
0001a0 40 62 01 77 fa 23 56 3f 40 62 01 77 fa 23 56 3f
       0.0013513513513513514 0.0013513513513513514
0001b0 40 62 01 77 fa 23 56 3f 40 62 01 77 fa 23 56 3f
       0.0013513513513513514 0.0013513513513513514
0001c0 40 62 01 77 fa 23 56 3f 40 62 01 77 fa 23 56 3f
       0.0013513513513513514 0.0013513513513513514
0001d0 40 62 01 77 fa 23 56 3f 40 62 01 77 fa 23 56 3f
       0.0013513513513513514 0.0013513513513513514
0001e0 40 62 01 77 fa 23 56 3f 40 62 01 77 fa 23 56 3f
       0.0013513513513513514 0.0013513513513513514
0001f0 40 62 01 77 fa 23 56 3f 40 62 01 77 fa 23 56 3f
       0.0013513513513513514 0.0013513513513513514
000200 40 62 01 77 fa 23 56 3f 40 62 01 77 fa 23 56 3f
       0.0013513513513513514 0.0013513513513513514
000210 40 62 01 77 fa 23 56 3f 40 62 01 77 fa 23 56 3f
       0.0013513513513513514 0.0013513513513513514
000220 40 62 01 77 fa 23 56 3f 40 62 01 77 fa 23 56 3f
       0.0013513513513513514 0.0013513513513513514
000230 40 62 01 77 fa 23 56 3f 40 62 01 77 fa 23 56 3f
       0.0013513513513513514 0.0013513513513513514
000240 40 62 01 77 fa 23 56 3f 40 62 01 77 fa 23 56 3f
       0.0013513513513513514 0.0013513513513513514
000250 40 62 01 77 fa 23 56 3f 40 62 01 77 fa 23 56 3f
       0.0013513513513513514 0.0013513513513513514
000260 40 62 01 77 fa 23 56 3f 40 62 01 77 fa 23 56 3f
       0.0013513513513513514 0.0013513513513513514
000270 40 62 01 77 fa 23 56 3f 40 62 01 77 fa 23 56 3f
       0.0013513513513513514 0.0013513513513513514
000280 40 62 01 77 fa 23 56 3f 40 62 01 77 fa 23 56 3f
       0.0013513513513513514 0.0013513513513513514
000290 40 62 01 77 fa 23 56 3f 40 62 01 77 fa 23 56 3f
       0.0013513513513513514 0.0013513513513513514
0002a0 40 62 01 77 fa 23 56 3f 40 62 01 77 fa 23 56 3f
       0.0013513513513513514 0.0013513513513513514
0002b0 40 62 01 77 fa 23 56 3f 40 62 01 77 fa 23 56 3f
       0.0013513513513513514 0.0013513513513513514
0002c0 40 62 01 77 fa 23 56 3f 40 62 01 77 fa 23 56 3f
       0.0013513513513513514 0.0013513513513513514
0002d0 40 62 01 77 fa 23 56 3f 40 62 01 77 fa 23 56 3f
       0.0013513513513513514 0.0013513513513513514
0002e0 40 62 01 77 fa 23 56 3f 40 62 01 77 fa 23 56 3f
       0.0013513513513513514 0.0013513513513513514
0002f0 40 62 01 77 fa 23 56 3f 40 62 01 77 fa 23 56 3f
       0.0013513513513513514 0.0013513513513513514
000300 40 62 01 77 fa 23 56 3f 40 62 01 77 fa 23 56 3f
       0.0013513513513513514 0.0013513513513513514
000310 40 62 01 77 fa 23 56 3f 40 62 01 77 fa 23 56 3f
       0.0013513513513513514 0.0013513513513513514
000320 40 62 01 77 fa 23 56 3f 40 62 01 77 fa 23 56 3f
       0.0013513513513513514 0.0013513513513513514
000330 40 62 01 77 fa 23 56 3f 40 62 01 77 fa 23 56 3f
       0.0013513513513513514 0.0013513513513513514
000340 40 62 01 77 fa 23 56 3f 40 62 01 77 fa 23 56 3f
       0.0013513513513513514 0.0013513513513513514
000350 40 62 01 77 fa 23 56 3f 40 62 01 77 fa 23 56 3f
       0.0013513513513513514 0.0013513513513513514
000360 40 62 01 77 fa 23 56 3f 40 62 01 77 fa 23 56 3f
       0.0013513513513513514 0.0013513513513513514
000370 40 62 01 77 fa 23 56 3f 40 62 01 77 fa 23 56 3f
       0.0013513513513513514 0.0013513513513513514
000380 40 62 01 77 fa 23 56 3f 40 62 01 77 fa 23 56 3f
       0.0013513513513513514 0.0013513513513513514
000390 40 62 01 77 fa 23 56 3f 40 62 01 77 fa 23 56 3f
       0.0013513513513513514 0.0013513513513513514
0003a0 40 62 01 77 fa 23 56 3f 40 62 01 77 fa 23 56 3f
       0.0013513513513513514 0.0013513513513513514
0003b0 40 62 01 77 fa 23 56 3f 40 62 01 77 fa 23 56 3f
       0.0013513513513513514 0.0013513513513513514
0003c0 40 62 01 77 fa 23 56 3f 40 62 01 77 fa 23 56 3f
       0.0013513513513513514 0.0013513513513513514
0003d0 40 62 01 77 fa 23 56 3f 40 62 01 77 fa 23 56 3f
       0.0013513513513513514 0.0013513513513513514
0003e0 40 62 01 77 fa 23 56 3f 40 62 01 77 fa 23 56 3f
       0.0013513513513513514 0.0013513513513513514
0003f0 40 62 01 77 fa 23 56 3f 40 62 01 77 fa 23 56 3f
       0.0013513513513513514 0.0013513513513513514
000400 40 62 01 77 fa 23 56 3f 40 62 01 77 fa 23 56 3f
       0.0013513513513513514 0.0013513513513513514
000410 40 62 01 77 fa 23 56 3f 40 62 01 77 fa 23 56 3f
       0.0013513513513513514 0.0013513513513513514
000420 40 62 01 77 fa 23 56 3f 40 62 01 77 fa 23 56 3f
       0.0013513513513513514 0.0013513513513513514
000430 40 62 01 77 fa 23 56 3f 40 62 01 77 fa 23 56 3f
       0.0013513513513513514 0.0013513513513513514
000440 40 62 01 77 fa 23 56 3f 40 62 01 77 fa 23 56 3f
       0.0013513513513513514 0.0013513513513513514
000450 40 62 01 77 fa 23 56 3f 40 62 01 77 fa 23 56 3f
       0.0013513513513513514 0.0013513513513513514
000460 40 62 01 77 fa 23 56 3f 40 62 01 77 fa 23 56 3f
       0.0013513513513513514 0.0013513513513513514
000470 40 62 01 77 fa 23 56 3f 40 62 01 77 fa 23 56 3f
       0.0013513513513513514 0.0013513513513513514
000480 40 62 01 77 fa 23 56 3f 40 62 01 77 fa 23 56 3f
       0.0013513513513513514 0.0013513513513513514
000490 40 62 01 77 fa 23 56 3f 40 62 01 77 fa 23 56 3f
       0.0013513513513513514 0.0013513513513513514
0004a0 40 62 01 77 fa 23 56 3f 40 62 01 77 fa 23 56 3f
       0.0013513513513513514 0.0013513513513513514
0004b0 40 62 01 77 fa 23 56 3f 40 62 01 77 fa 23 56 3f
       0.0013513513513513514 0.0013513513513513514
0004c0 40 62 01 77 fa 23 56 3f 40 62 01 77 fa 23 56 3f
       0.0013513513513513514 0.0013513513513513514
0004d0 40 62 01 77 fa 23 56 3f 40 62 01 77 fa 23 56 3f
       0.0013513513513513514 0.0013513513513513514
0004e0 40 62 01 77 fa 23 56 3f 40 62 01 77 fa 23 56 3f
       0.0013513513513513514 0.0013513513513513514
0004f0 40 62 01 77 fa 23 56 3f 40 62 01 77 fa 23 56 3f
       0.0013513513513513514 0.0013513513513513514
000500 40 62 01 77 fa 23 56 3f 40 62 01 77 fa 23 56 3f
       0.0013513513513513514 0.0013513513513513514
000510 40 62 01 77 fa 23 56 3f 40 62 01 77 fa 23 56 3f
       0.0013513513513513514 0.0013513513513513514
000520 40 62 01 77 fa 23 56 3f 40 62 01 77 fa 23 56 3f
       0.0013513513513513514 0.0013513513513513514
000530 40 62 01 77 fa 23 56 3f 40 62 01 77 fa 23 56 3f
       0.0013513513513513514 0.0013513513513513514
000540 40 62 01 77 fa 23 56 3f 40 62 01 77 fa 23 56 3f
       0.0013513513513513514 0.0013513513513513514
000550 40 62 01 77 fa 23 56 3f 40 62 01 77 fa 23 56 3f
       0.0013513513513513514 0.0013513513513513514
000560 40 62 01 77 fa 23 56 3f 40 62 01 77 fa 23 56 3f
       0.0013513513513513514 0.0013513513513513514
000570 40 62 01 77 fa 23 56 3f 40 62 01 77 fa 23 56 3f
       0.0013513513513513514 0.0013513513513513514
000580 40 62 01 77 fa 23 56 3f 40 62 01 77 fa 23 56 3f
       0.0013513513513513514 0.0013513513513513514
000590 40 62 01 77 fa 23 56 3f 40 62 01 77 fa 23 56 3f
       0.0013513513513513514 0.0013513513513513514
0005a0 40 62 01 77 fa 23 56 3f 40 62 01 77 fa 23 56 3f
       0.0013513513513513514 0.0013513513513513514
0005b0 40 62 01 77 fa 23 56 3f 40 62 01 77 fa 23 56 3f
       0.0013513513513513514 0.0013513513513513514
0005c0 40 62 01 77 fa 23 56 3f 40 62 01 77 fa 23 56 3f
       0.0013513513513513514 0.0013513513513513514
0005d0 40 62 01 77 fa 23 56 3f 40 62 01 77 fa 23 56 3f
       0.0013513513513513514 0.0013513513513513514
0005e0 40 62 01 77 fa 23 56 3f 40 62 01 77 fa 23 56 3f
       0.0013513513513513514 0.0013513513513513514
0005f0 40 62 01 77 fa 23 56 3f 40 62 01 77 fa 23 56 3f
       0.0013513513513513514 0.0013513513513513514
000600 40 62 01 77 fa 23 56 3f 40 62 01 77 fa 23 56 3f
       0.0013513513513513514 0.0013513513513513514
000610 40 62 01 77 fa 23 56 3f 40 62 01 77 fa 23 56 3f
       0.0013513513513513514 0.0013513513513513514
000620 40 62 01 77 fa 23 56 3f 40 62 01 77 fa 23 56 3f
       0.0013513513513513514 0.0013513513513513514
000630 40 62 01 77 fa 23 56 3f 40 62 01 77 fa 23 56 3f
       0.0013513513513513514 0.0013513513513513514
000640 40 62 01 77 fa 23 56 3f 40 62 01 77 fa 23 56 3f
       0.0013513513513513514 0.0013513513513513514
000650 40 62 01 77 fa 23 56 3f 40 62 01 77 fa 23 56 3f
       0.0013513513513513514 0.0013513513513513514
000660 40 62 01 77 fa 23 56 3f 40 62 01 77 fa 23 56 3f
       0.0013513513513513514 0.0013513513513513514
000670 40 62 01 77 fa 23 56 3f 40 62 01 77 fa 23 56 3f
       0.0013513513513513514 0.0013513513513513514
000680 40 62 01 77 fa 23 56 3f 40 62 01 77 fa 23 56 3f
       0.0013513513513513514 0.0013513513513513514
000690 40 62 01 77 fa 23 56 3f 40 62 01 77 fa 23 56 3f
       0.0013513513513513514 0.0013513513513513514
0006a0 40 62 01 77 fa 23 56 3f 40 62 01 77 fa 23 56 3f
       0.0013513513513513514 0.0013513513513513514
0006b0 40 62 01 77 fa 23 56 3f 40 62 01 77 fa 23 56 3f
       0.0013513513513513514 0.0013513513513513514
0006c0 40 62 01 77 fa 23 56 3f 40 62 01 77 fa 23 56 3f
       0.0013513513513513514 0.0013513513513513514
0006d0 40 62 01 77 fa 23 56 3f 40 62 01 77 fa 23 56 3f
       0.0013513513513513514 0.0013513513513513514
0006e0 40 62 01 77 fa 23 56 3f 40 62 01 77 fa 23 56 3f
       0.0013513513513513514 0.0013513513513513514
0006f0 40 62 01 77 fa 23 56 3f 40 62 01 77 fa 23 56 3f
       0.0013513513513513514 0.0013513513513513514
000700 40 62 01 77 fa 23 56 3f 40 62 01 77 fa 23 56 3f
       0.0013513513513513514 0.0013513513513513514
000710 40 62 01 77 fa 23 56 3f 40 62 01 77 fa 23 56 3f
       0.0013513513513513514 0.0013513513513513514
000720 40 62 01 77 fa 23 56 3f 40 62 01 77 fa 23 56 3f
       0.0013513513513513514 0.0013513513513513514
000730 40 62 01 77 fa 23 56 3f 40 62 01 77 fa 23 56 3f
       0.0013513513513513514 0.0013513513513513514
000740 40 62 01 77 fa 23 56 3f 40 62 01 77 fa 23 56 3f
       0.0013513513513513514 0.0013513513513513514
000750 40 62 01 77 fa 23 56 3f 40 62 01 77 fa 23 56 3f
       0.0013513513513513514 0.0013513513513513514
000760 40 62 01 77 fa 23 56 3f 40 62 01 77 fa 23 56 3f
       0.0013513513513513514 0.0013513513513513514
000770 40 62 01 77 fa 23 56 3f 40 62 01 77 fa 23 56 3f
       0.0013513513513513514 0.0013513513513513514
000780 40 62 01 77 fa 23 56 3f 40 62 01 77 fa 23 56 3f
       0.0013513513513513514 0.0013513513513513514
000790 40 62 01 77 fa 23 56 3f 40 62 01 77 fa 23 56 3f
       0.0013513513513513514 0.0013513513513513514
0007a0 40 62 01 77 fa 23 56 3f 40 62 01 77 fa 23 56 3f
       0.0013513513513513514 0.0013513513513513514
0007b0 40 62 01 77 fa 23 56 3f 40 62 01 77 fa 23 56 3f
       0.0013513513513513514 0.0013513513513513514
0007c0 40 62 01 77 fa 23 56 3f 40 62 01 77 fa 23 56 3f
       0.0013513513513513514 0.0013513513513513514
0007d0 40 62 01 77 fa 23 56 3f 40 62 01 77 fa 23 56 3f
       0.0013513513513513514 0.0013513513513513514
0007e0 40 62 01 77 fa 23 56 3f 40 62 01 77 fa 23 56 3f
       0.0013513513513513514 0.0013513513513513514
0007f0 40 62 01 77 fa 23 56 3f 40 62 01 77 fa 23 56 3f
       0.0013513513513513514 0.0013513513513513514
