OASIS3_VNN_NeurIPS/test73.pth (torch, 10139 bytes, 5 tensors)

GFL.0.weight f8 [5, 1, 6, 1]
00000000: 09e4 2362 e68d ff3f fb6e c877 a910 c1bf
00000010: 4e29 3c02 6196 e4bf 6c5f 4222 4410 e9bf
00000020: ed71 e0a1 d543 cfbf b0ae 8fd0 cbf8 e1bf
00000030: fc33 7f05 e896 e8bf 67e0 21ba 5ae1 acbf
00000040: bb53 a3ac 42df dabf 1486 a39e 3132 d5bf
00000050: 1832 112a 86af e0bf d34d 4020 8c94 d03f
00000060: c1b4 34db b57d e83f 8964 387a f0a2 94bf
00000070: 7184 b270 24fe ddbf da69 604f b26a 92bf
00000080: ec18 8bb3 5ea6 c8bf 6de4 2149 916c cd3f
00000090: 00c7 e24b c347 ee3f cbb1 c4a8 a302 d4bf
000000a0: 0503 b5c6 50f0 cebf 670c afaf 7b9c d03f
000000b0: bfc7 425b cccd b4bf 62f3 9600 3c15 c73f
000000c0: ff38 24e1 5b24 ec3f 1985 7dd5 6b4b d83f
000000d0: bddf 4cac 239b b93f d6c7 6505 9552 d4bf
000000e0: 0703 8125 95aa b7bf 110a 7bda 9b26 babf
1.972143538818502 -0.13332098339821372 -0.6433568042423674 -0.7832356137396181 -0.2442576446927797 -0.5616206239187331 -0.768421183334453 -0.056406817647201284
-0.41987673625163396 -0.3311885880667387 -0.5214262792229105 0.2590666117623332 0.7653455048909096 -0.020152814349874624 -0.46863661771391835 -0.017985139937175855
-0.1925772072483548 0.22987571783940855 0.9462601167817581 -0.3126610897186565 -0.2417088480233575 0.2595509734785026 -0.08126523235367154 0.1803355219725758
0.8794383427901095 0.37960334633506104 0.10002348858404182 -0.3175404122076747 -0.09244663396476592 -0.10215162357329911

GFL.0.bias f8 [5, 1]
00000000: 4b07 f197 23a1 f63f 6956 0f85 81a4 0340
00000010: ffeb 9c8a f14f f23f 2304 5862 2927 0040
00000020: 5e18 b59b bea8 0140
1.4143405852523354 2.4553251643472334 1.1445174612588287 2.019121902762451 2.2073948063507904

GFL.3.weight f8 [5, 1, 10, 5]
00000000: 437a 7d5e 9d45 f53f 1f3c e10e de0b ec3f
00000010: 700f 6efd 5334 e63f 9c11 18e5 73f7 f03f
00000020: f911 b46c 8299 f23f 83d5 b29e 1b03 e93f
00000030: e028 2837 cf41 ec3f 3c80 ffe5 f2a6 d53f
00000040: 6803 b190 6235 eb3f 09cb 2d9a 064c e93f
00000050: aaf5 da56 138f e93f a571 2fab bbaf e93f
00000060: e0c6 470e bd3d d73f 8257 dfa1 5133 e73f
00000070: a2a4 cc09 c2ea e83f d4b3 340f d8ed e33f
00000080: 2b9b 404f c022 ec3f 7e83 f5c3 6cf8 c73f
00000090: f06a 61c6 83f8 e33f 25ae 047a 4180 e63f
000000a0: 5b83 a255 ed5c e83f 8f57 8e0d 6d78 f03f
000000b0: f9ef b65a b35c cb3f e792 49f3 e025 e63f
000000c0: 7d5b 58ec 0771 e63f d359 43b1 7710 e83f
000000d0: 0ca7 f793 14ee f03f f822 25f0 37fa c23f
000000e0: 69be 7af9 14d1 e53f 76b5 81aa 768e eb3f
000000f0: 7f02 ebef fddb e33f b053 d58b 02cd ea3f
00000100: bd17 be40 d44e cd3f 26e8 d4b9 2975 ea3f
00000110: 220e 1d67 3408 ee3f 033e 35d6 ac5c e53f
00000120: 5021 3cfe 88b0 eb3f 579c 6c87 635b c03f
00000130: d813 1f75 7f5a e83f 11bc 67e1 54f2 e93f
00000140: ddb6 8452 88ba e83f aa0b 8b6a 8656 ec3f
00000150: 496a 4080 e5f1 d23f 8b44 4231 bb11 e93f
00000160: f63f 8d86 d250 e73f 3254 30f6 1e0e e23f
00000170: b1c8 118d e2f6 f03f 0298 4c16 c9b9 cb3f
00000180: 50a2 3f54 95c0 e33f 8ac4 cd36 501d ed3f
00000190: e244 6e96 7103 f63f 4955 4144 00e8 ed3f
000001a0: 543a bc43 d84e e93f f431 db6c c419 f13f
000001b0: 3a7d 1df4 8f17 f53f edca 475f 174a ed3f
000001c0: 7ef9 60c7 98ef ed3f fa73 4ee3 0370 d73f
000001d0: 5fbe cdbc 5224 e63f aea5 e4c4 5882 ee3f
000001e0: fb78 84a5 659f e83f 6242 5263 fc68 f03f
000001f0: 8ede 2676 484f c93f 767a 8317 1f7d e73f
00000200: bf24 1857 b477 ef3f 87b2 157a 3d33 e93f
00000210: 37db 98e6 cb1b ec3f 9e94 565a 5cff c33f
00000220: 4ab0 0e54 7216 e63f a0fc c165 7285 e73f
00000230: 290a 0d41 277b e93f 872b 3e11 979d f03f
00000240: d999 b75d d85e d73f d306 ca26 479e e63f
00000250: ea43 db50 e269 eb3f 7cf3 1b00 4c4c e63f
00000260: 0ba2 3ee4 35c0 ea3f 70c8 a893 d55f c03f
00000270: dd0c de9f a69e e43f c53d d222 0998 eb3f
00000280: 510a f085 789b ea3f b639 7dd2 c689 ef3f
00000290: 9799 d798 63f5 cc3f 3088 91b6 f393 e63f
000002a0: 958a f9a0 59f2 ea3f 866f 7dbd fd64 e53f
000002b0: bdab d324 3632 f03f 0a5f 8329 35a8 c03f
000002c0: adc3 7b36 a69c e63f 4892 39a0 b0e2 e93f
000002d0: 9d0a a6e5 3fb8 e73f a305 2625 6476 ec3f
000002e0: 7cee cacd a991 c63f caeb a8b9 6e05 e93f
000002f0: 479c f8fa 10b9 e63f 6a1c 04f6 6946 e23f
00000300: 11dd 0852 caa1 ea3f 0ef0 4e9e 5755 c23f
00000310: 74dd 8586 41ef e63f ba90 71e6 750c e83f
00000320: 94ac 86c8 ce81 f43f 3388 aff2 99bf ea3f
00000330: 88e0 db6c f2ba e83f 2e0d f231 267c f33f
00000340: 5554 1c24 91a6 f13f 873f 4681 4597 ec3f
00000350: 7232 638e 8b2b ec3f a5b0 10eb 13c5 d53f
00000360: e94d 2e3e 867a eb3f 5cb3 a9cf e94e ee3f
00000370: bf36 3e0d ad67 e83f 4e34 2960 cff5 e83f
00000380: 58da 0999 5891 d43f 8826 bdc5 c73b eb3f
00000390: 84d6 d8c4 4aaa eb3f 43bc 41d3 3456 e83f
000003a0: 2334 bc54 12fe eb3f 0a43 2639 3284 c13f
000003b0: 823a ed97 0526 e33f 42d3 fbb2 52b4 e93f
000003c0: 971f 5c67 9086 e33f dc75 dea7 1124 ed3f
000003d0: f101 2314 70ce be3f c43d 2e8d 5d1f e73f
000003e0: 3b42 f2f6 2e8a eb3f 89b5 2003 a390 e83f
000003f0: a0b9 2677 1c43 ee3f d1f3 99c8 5fd9 cd3f
00000400: 2455 5949 47df e53f 373b 4e31 02d9 e83f
00000410: 4a29 dd62 79d5 e63f 4f60 cece c8e3 e83f
00000420: e887 11f8 6f96 c73f c33c 8007 bbf1 ea3f
00000430: 7a0d 0468 7d26 e93f acaf a023 d3b5 e93f
00000440: 97c6 05e0 8419 f03f 2d1e 82db 98aa d23f
00000450: 838a 9276 82ee e33f 7eb2 8510 9aa7 e63f
00000460: 3cb4 89f2 6992 e23f b977 6ce6 84eb f03f
00000470: 6600 d0fa 8924 ce3f 3e21 33ca 7ab2 e83f
00000480: f598 aa6c e13c ea3f dd29 c504 9417 e23f
00000490: 2e06 c5f6 35e6 ea3f 8276 8134 3f17 d13f
000004a0: 13f1 e4ed 01cc e33f e0e2 c3fb c7fd e63f
000004b0: 9b10 04fb 25a0 f53f 2acf 0c9a 0bc6 ec3f
000004c0: 3cf0 4b36 9bf9 e33f 9b4f d5e5 8ef3 f03f
000004d0: 268e 1938 be75 f13f 5650 10d6 dc83 ec3f
000004e0: bee3 0fa5 b395 ed3f e588 8950 02aa d13f
000004f0: 13cd 7e38 da9f ec3f 3d73 4937 02cb eb3f
00000500: 950e 5f14 8d49 e43f f691 ec25 03f5 f03f
00000510: 615a 5529 a0cd d53f f365 9c49 6cfd e33f
00000520: 1e77 e3de e49a ec3f 9890 53cd b0ac e73f
00000530: 161d 82fe 76fb f03f 2c23 119a 23a3 c53f
00000540: 666e 7bac b060 e93f f71c f125 e387 ea3f
00000550: db7f 79b8 9b40 e33f f1c9 0e4e c3b8 f03f
00000560: cd4d aacc 84fc cd3f 1163 086d 9b1c e93f
00000570: c4a2 a74d ce17 e53f e745 29d6 a65a e83f
00000580: 4d56 9f33 8988 ec3f 62e4 b023 5bad c43f
00000590: f648 8ab5 c84a e53f 2292 9baa 4f1e eb3f
000005a0: 3dcc ddc2 920c e83f a52d 0265 3de3 eb3f
000005b0: 6dc6 e737 b9e5 d63f 9554 714e e98c e73f
000005c0: a0fc d394 3911 e63f 2731 14f0 1ec7 e73f
000005d0: cdae 0618 2849 ea3f f86a 2f7e ff4f d43f
000005e0: 0ec4 480f f79d e43f 2e1f b756 3420 ed3f
000005f0: c104 a10e 503d e93f 5cf3 00db 5b7c ec3f
00000600: 00ad 9f4a 6654 c73f 5511 587c a5a8 eb3f
00000610: 4c1a be72 aab6 ec3f 67cb f903 ce50 e23f
00000620: 2c93 bf7b 9636 ed3f 81ca dddd f82c c73f
00000630: b685 c1d9 4c39 e83f 5136 d9ab 2a96 e73f
00000640: 53fb 85f1 e837 f73f 204b d33d 3d79 e93f
00000650: d980 e2dc a18b e33f d0d0 5c16 d9f2 ef3f
00000660: b892 40e5 fe66 f23f 0995 964c 4080 eb3f
00000670: 3c77 e633 86a7 ef3f 9d59 f709 774d d73f
00000680: bd73 2aaa dcec e53f 56ed aa6c edf6 ea3f
00000690: 4f7f 8fda 03c0 e53f 0545 3422 fc39 ef3f
000006a0: 24dd 9a03 6f19 d43f 8e4b 5384 8be9 e83f
000006b0: 9ec6 0bf6 2f79 ed3f 5eec 6fd4 c79b e53f
000006c0: 1815 afa3 1620 ea3f 2102 5341 a563 d33f
000006d0: 25e4 58e6 c47d e83f aaf9 1f54 337f ee3f
000006e0: bbcb aa67 c19d e73f dc41 3162 8161 eb3f
000006f0: 86ac b7aa 799a c73f 9068 5be9 f086 e23f
00000700: 1114 b8f2 7e15 ed3f cfc7 2f89 329a e63f
00000710: 829e f257 ce15 ed3f 4374 ea19 1cb7 d53f
00000720: e973 177d a985 e43f fac2 216e f5d1 ee3f
00000730: 3e6e d562 0edc e73f d02a ed1e bbb4 ec3f
00000740: 616e fb09 05fb d53f 9b3f c358 63e3 e93f
00000750: 1b80 af84 fa43 ed3f 0e15 cc22 7359 e33f
00000760: c1ad 5b7f 2619 ea3f fee5 c893 53b8 d63f
00000770: 6e0e f12e f505 ea3f ce2b 0a4f 3e6e e83f
00000780: c4fe 4515 f1b6 e33f f59c 009b 7c27 e83f
00000790: 1521 f9ae fd55 c83f dfb1 2ee3 4ac8 e73f
000007a0: c200 2b44 20e9 ee3f 4451 3d46 10a7 e73f
000007b0: 5870 5fc0 abd1 eb3f 36b8 ec9f feec c13f
000007c0: e91d 648b 1a0e e73f 6490 3c97 1557 e73f
1.329495781995903 0.8764486590024524 0.6938877057841477 1.060413260363112 1.1624778982378514 0.7816293811398939 0.8830333783419313 0.3383147474360191
0.8502667261128467 0.7905304919534909 0.7987152763741296 0.8027017920936045 0.3631432189423389 0.7250145112582091 0.7786569777864722 0.6227836892118099
0.8792420909784132 0.18726882522880922 0.6240862726802714 0.7031562216920447 0.7613436386637703 1.0294008760006113 0.21376649789260663 0.6921238662440289
0.7012977233997472 0.7520101988000597 1.0581250934578206 0.14826106286843532 0.6817726967473848 0.8611405687530993 0.620604485120637 0.8375256281966497
0.2289681736112338 0.82680212302444 0.9385015500960814 0.6675628837346611 0.8652996984028878 0.12778896439087603 0.7610471045996929 0.8108314897962164
0.7727700816810416 0.8855621415062747 0.29601418995449486 0.7834144556128576 0.7286160114254006 0.5642237480520917 1.0602746496702304 0.2166072234041963
0.6172587056617633 0.9098282881151516 1.3758407474709249 0.9345704396352313 0.7908746073679347 1.0687908413120768 1.3182525192022028 0.9152943478532883
0.9354976553075145 0.3662118644513722 0.6919339835712427 0.9534114690369984 0.769457648540793 1.0256313209285044 0.1977320267594575 0.7340236148118737
0.9833623601017719 0.7875049004047278 0.8783931259011756 0.1562304917435186 0.6902400628801015 0.7350399005371351 0.7962833662534808 1.0384741471814054
0.3651638903815218 0.7068210370636855 0.8566752986172308 0.6968135835773945 0.8359631975081937 0.12792463025977296 0.6443665621194686 0.8623090438940656
0.8314783683748123 0.9855684386364405 0.22623867953298024 0.705560547427245 0.8420837539709561 0.668578024003623 1.012258666853753 0.13013329054842188
0.706622225201604 0.8089221124069548 0.7412414059948166 0.8894520497853374 0.17632029102775337 0.7819131494683174 0.7100911046771977 0.5710954480172294
0.83224979421985 0.14322943906688618 0.7167060496712296 0.7515210629321907 1.281691344552006 0.8358888378099948 0.7728206754827776 1.2178098631855607
1.103165761048577 0.8934657597437629 0.880315569019855 0.3401536746557759 0.8587065901251069 0.9471329742351418 0.7626557596829214 0.7800061109679832
0.3213712210194095 0.8510474073493279 0.86453760573086 0.760523235903641 0.874764600275402 0.13684680738926885 0.5983913390462734 0.8032620902800789
0.6101762789485176 0.9106529501620417 0.12033749095554193 0.7225787885126285 0.8606180976076482 0.7676558552827127 0.9456922843144646 0.23319623274792758
0.6835056717488084 0.7764903033256364 0.7135588580070273 0.7778057135756259 0.18427848446577788 0.8420081278326496 0.7859484702643578 0.8034454055646072
1.0062302351838406 0.29166242061953335 0.6228649440639206 0.7079592058849611 0.5803727852886662 1.0574997902799466 0.2354900812788429 0.7717870663846396
0.8199317095175319 0.5653781979720481 0.8406019038886308 0.26704387786399064 0.6186532636998286 0.7184791486061748 1.3515987210567235 0.8991754540242927
0.6242195187073842 1.059462449823491 1.091245860233252 0.8910965138370652 0.9245241378658802 0.27600152840581266 0.8945132354187159 0.8685313300917198
0.63397840479634 1.0598174554262392 0.34067539249864437 0.6246854245866288 0.8939079621593213 0.7398303995401134 1.061392778561474 0.16904110930252025
0.7930529946128899 0.8290878048946116 0.6016367533702537 1.0451081322795484 0.23426876061840432 0.784742081598866 0.6591559902854773 0.7610658819996247
0.8916669853449065 0.16154040568088407 0.6653789087015685 0.8474500972921002 0.751534824942048 0.8714892361471597 0.3577712102843183 0.7359510929187701
0.6896026522444068 0.743056744483998 0.8214302510509356 0.3173826916005704 0.6442828463096946 0.9101812070520958 0.7887344632837526 0.8901805188576009
0.182263170659418 0.8643367222398789 0.8972980729166209 0.5723638608600198 0.9129135529479746 0.18105994065588862 0.7569946530385809 0.7370808941283916
1.451149886561059 0.7960497100378667 0.610794955649932 0.9983945309418463 1.150145431057508 0.8594056602347858 0.9891997350384609 0.3641030881239205
0.6851638148833598 0.8426425096908285 0.6796893376121974 0.9758282344866137 0.31405234672588933 0.7785089096527018 0.9210433774553228 0.6752661847271033
0.8164170453025319 0.3029568803722516 0.7653526782006607 0.9530274050774115 0.7380072617291867 0.8556525152035266 0.1844017108518054 0.5789722974543725
0.9088740101439062 0.7063229255129445 0.9089118688325046 0.33930113344996843 0.6413161700435214 0.9631297255528743 0.7456123285623517 0.8970618824035572
0.34344602560824994 0.8090073331495548 0.914548167373144 0.6046691589005222 0.8155701148474962 0.35500039512734805 0.8132272641018525 0.76345744550178
0.616081754254957 0.7548201587095763 0.19012423556910876 0.7431997716099054 0.9659577685743204 0.7391435024133348 0.8693445927888304 0.14004500206778098
0.7204716417772349 0.7293804124679011

GFL.3.bias f8 [5, 1]
00000000: b3dd b0be 39bc f93f cce6 b9a7 f514 f93f
00000010: da55 d346 8533 fa3f a997 a7a2 8cc0 f73f
00000020: a47a 76a0 a12b f83f
1.608453507314931 1.567617087536223 1.6375782744047371 1.484509120340116 1.5106521862104865

MLP.0.weight f8 [1, 740]
00000000: 4062 0177 fa23 563f 4062 0177 fa23 563f
00000010: 4062 0177 fa23 563f 4062 0177 fa23 563f
00000020: 4062 0177 fa23 563f 4062 0177 fa23 563f
00000030: 4062 0177 fa23 563f 4062 0177 fa23 563f
00000040: 4062 0177 fa23 563f 4062 0177 fa23 563f
00000050: 4062 0177 fa23 563f 4062 0177 fa23 563f
00000060: 4062 0177 fa23 563f 4062 0177 fa23 563f
00000070: 4062 0177 fa23 563f 4062 0177 fa23 563f
00000080: 4062 0177 fa23 563f 4062 0177 fa23 563f
00000090: 4062 0177 fa23 563f 4062 0177 fa23 563f
000000a0: 4062 0177 fa23 563f 4062 0177 fa23 563f
000000b0: 4062 0177 fa23 563f 4062 0177 fa23 563f
000000c0: 4062 0177 fa23 563f 4062 0177 fa23 563f
000000d0: 4062 0177 fa23 563f 4062 0177 fa23 563f
000000e0: 4062 0177 fa23 563f 4062 0177 fa23 563f
000000f0: 4062 0177 fa23 563f 4062 0177 fa23 563f
00000100: 4062 0177 fa23 563f 4062 0177 fa23 563f
00000110: 4062 0177 fa23 563f 4062 0177 fa23 563f
00000120: 4062 0177 fa23 563f 4062 0177 fa23 563f
00000130: 4062 0177 fa23 563f 4062 0177 fa23 563f
00000140: 4062 0177 fa23 563f 4062 0177 fa23 563f
00000150: 4062 0177 fa23 563f 4062 0177 fa23 563f
00000160: 4062 0177 fa23 563f 4062 0177 fa23 563f
00000170: 4062 0177 fa23 563f 4062 0177 fa23 563f
00000180: 4062 0177 fa23 563f 4062 0177 fa23 563f
00000190: 4062 0177 fa23 563f 4062 0177 fa23 563f
000001a0: 4062 0177 fa23 563f 4062 0177 fa23 563f
000001b0: 4062 0177 fa23 563f 4062 0177 fa23 563f
000001c0: 4062 0177 fa23 563f 4062 0177 fa23 563f
000001d0: 4062 0177 fa23 563f 4062 0177 fa23 563f
000001e0: 4062 0177 fa23 563f 4062 0177 fa23 563f
000001f0: 4062 0177 fa23 563f 4062 0177 fa23 563f
00000200: 4062 0177 fa23 563f 4062 0177 fa23 563f
00000210: 4062 0177 fa23 563f 4062 0177 fa23 563f
00000220: 4062 0177 fa23 563f 4062 0177 fa23 563f
00000230: 4062 0177 fa23 563f 4062 0177 fa23 563f
00000240: 4062 0177 fa23 563f 4062 0177 fa23 563f
00000250: 4062 0177 fa23 563f 4062 0177 fa23 563f
00000260: 4062 0177 fa23 563f 4062 0177 fa23 563f
00000270: 4062 0177 fa23 563f 4062 0177 fa23 563f
00000280: 4062 0177 fa23 563f 4062 0177 fa23 563f
00000290: 4062 0177 fa23 563f 4062 0177 fa23 563f
000002a0: 4062 0177 fa23 563f 4062 0177 fa23 563f
000002b0: 4062 0177 fa23 563f 4062 0177 fa23 563f
000002c0: 4062 0177 fa23 563f 4062 0177 fa23 563f
000002d0: 4062 0177 fa23 563f 4062 0177 fa23 563f
000002e0: 4062 0177 fa23 563f 4062 0177 fa23 563f
000002f0: 4062 0177 fa23 563f 4062 0177 fa23 563f
00000300: 4062 0177 fa23 563f 4062 0177 fa23 563f
00000310: 4062 0177 fa23 563f 4062 0177 fa23 563f
00000320: 4062 0177 fa23 563f 4062 0177 fa23 563f
00000330: 4062 0177 fa23 563f 4062 0177 fa23 563f
00000340: 4062 0177 fa23 563f 4062 0177 fa23 563f
00000350: 4062 0177 fa23 563f 4062 0177 fa23 563f
00000360: 4062 0177 fa23 563f 4062 0177 fa23 563f
00000370: 4062 0177 fa23 563f 4062 0177 fa23 563f
00000380: 4062 0177 fa23 563f 4062 0177 fa23 563f
00000390: 4062 0177 fa23 563f 4062 0177 fa23 563f
000003a0: 4062 0177 fa23 563f 4062 0177 fa23 563f
000003b0: 4062 0177 fa23 563f 4062 0177 fa23 563f
000003c0: 4062 0177 fa23 563f 4062 0177 fa23 563f
000003d0: 4062 0177 fa23 563f 4062 0177 fa23 563f
000003e0: 4062 0177 fa23 563f 4062 0177 fa23 563f
000003f0: 4062 0177 fa23 563f 4062 0177 fa23 563f
00000400: 4062 0177 fa23 563f 4062 0177 fa23 563f
00000410: 4062 0177 fa23 563f 4062 0177 fa23 563f
00000420: 4062 0177 fa23 563f 4062 0177 fa23 563f
00000430: 4062 0177 fa23 563f 4062 0177 fa23 563f
00000440: 4062 0177 fa23 563f 4062 0177 fa23 563f
00000450: 4062 0177 fa23 563f 4062 0177 fa23 563f
00000460: 4062 0177 fa23 563f 4062 0177 fa23 563f
00000470: 4062 0177 fa23 563f 4062 0177 fa23 563f
00000480: 4062 0177 fa23 563f 4062 0177 fa23 563f
00000490: 4062 0177 fa23 563f 4062 0177 fa23 563f
000004a0: 4062 0177 fa23 563f 4062 0177 fa23 563f
000004b0: 4062 0177 fa23 563f 4062 0177 fa23 563f
000004c0: 4062 0177 fa23 563f 4062 0177 fa23 563f
000004d0: 4062 0177 fa23 563f 4062 0177 fa23 563f
000004e0: 4062 0177 fa23 563f 4062 0177 fa23 563f
000004f0: 4062 0177 fa23 563f 4062 0177 fa23 563f
00000500: 4062 0177 fa23 563f 4062 0177 fa23 563f
00000510: 4062 0177 fa23 563f 4062 0177 fa23 563f
00000520: 4062 0177 fa23 563f 4062 0177 fa23 563f
00000530: 4062 0177 fa23 563f 4062 0177 fa23 563f
00000540: 4062 0177 fa23 563f 4062 0177 fa23 563f
00000550: 4062 0177 fa23 563f 4062 0177 fa23 563f
00000560: 4062 0177 fa23 563f 4062 0177 fa23 563f
00000570: 4062 0177 fa23 563f 4062 0177 fa23 563f
00000580: 4062 0177 fa23 563f 4062 0177 fa23 563f
00000590: 4062 0177 fa23 563f 4062 0177 fa23 563f
000005a0: 4062 0177 fa23 563f 4062 0177 fa23 563f
000005b0: 4062 0177 fa23 563f 4062 0177 fa23 563f
000005c0: 4062 0177 fa23 563f 4062 0177 fa23 563f
000005d0: 4062 0177 fa23 563f 4062 0177 fa23 563f
000005e0: 4062 0177 fa23 563f 4062 0177 fa23 563f
000005f0: 4062 0177 fa23 563f 4062 0177 fa23 563f
00000600: 4062 0177 fa23 563f 4062 0177 fa23 563f
00000610: 4062 0177 fa23 563f 4062 0177 fa23 563f
00000620: 4062 0177 fa23 563f 4062 0177 fa23 563f
00000630: 4062 0177 fa23 563f 4062 0177 fa23 563f
00000640: 4062 0177 fa23 563f 4062 0177 fa23 563f
00000650: 4062 0177 fa23 563f 4062 0177 fa23 563f
00000660: 4062 0177 fa23 563f 4062 0177 fa23 563f
00000670: 4062 0177 fa23 563f 4062 0177 fa23 563f
00000680: 4062 0177 fa23 563f 4062 0177 fa23 563f
00000690: 4062 0177 fa23 563f 4062 0177 fa23 563f
000006a0: 4062 0177 fa23 563f 4062 0177 fa23 563f
000006b0: 4062 0177 fa23 563f 4062 0177 fa23 563f
000006c0: 4062 0177 fa23 563f 4062 0177 fa23 563f
000006d0: 4062 0177 fa23 563f 4062 0177 fa23 563f
000006e0: 4062 0177 fa23 563f 4062 0177 fa23 563f
000006f0: 4062 0177 fa23 563f 4062 0177 fa23 563f
00000700: 4062 0177 fa23 563f 4062 0177 fa23 563f
00000710: 4062 0177 fa23 563f 4062 0177 fa23 563f
00000720: 4062 0177 fa23 563f 4062 0177 fa23 563f
00000730: 4062 0177 fa23 563f 4062 0177 fa23 563f
00000740: 4062 0177 fa23 563f 4062 0177 fa23 563f
00000750: 4062 0177 fa23 563f 4062 0177 fa23 563f
00000760: 4062 0177 fa23 563f 4062 0177 fa23 563f
00000770: 4062 0177 fa23 563f 4062 0177 fa23 563f
00000780: 4062 0177 fa23 563f 4062 0177 fa23 563f
00000790: 4062 0177 fa23 563f 4062 0177 fa23 563f
000007a0: 4062 0177 fa23 563f 4062 0177 fa23 563f
000007b0: 4062 0177 fa23 563f 4062 0177 fa23 563f
000007c0: 4062 0177 fa23 563f 4062 0177 fa23 563f
000007d0: 4062 0177 fa23 563f 4062 0177 fa23 563f
000007e0: 4062 0177 fa23 563f 4062 0177 fa23 563f
000007f0: 4062 0177 fa23 563f 4062 0177 fa23 563f
0.0013513513513513514 0.0013513513513513514 0.0013513513513513514 0.0013513513513513514 0.0013513513513513514 0.0013513513513513514 0.0013513513513513514 0.0013513513513513514
0.0013513513513513514 0.0013513513513513514 0.0013513513513513514 0.0013513513513513514 0.0013513513513513514 0.0013513513513513514 0.0013513513513513514 0.0013513513513513514
0.0013513513513513514 0.0013513513513513514 0.0013513513513513514 0.0013513513513513514 0.0013513513513513514 0.0013513513513513514 0.0013513513513513514 0.0013513513513513514
0.0013513513513513514 0.0013513513513513514 0.0013513513513513514 0.0013513513513513514 0.0013513513513513514 0.0013513513513513514 0.0013513513513513514 0.0013513513513513514
0.0013513513513513514 0.0013513513513513514 0.0013513513513513514 0.0013513513513513514 0.0013513513513513514 0.0013513513513513514 0.0013513513513513514 0.0013513513513513514
0.0013513513513513514 0.0013513513513513514 0.0013513513513513514 0.0013513513513513514 0.0013513513513513514 0.0013513513513513514 0.0013513513513513514 0.0013513513513513514
0.0013513513513513514 0.0013513513513513514 0.0013513513513513514 0.0013513513513513514 0.0013513513513513514 0.0013513513513513514 0.0013513513513513514 0.0013513513513513514
0.0013513513513513514 0.0013513513513513514 0.0013513513513513514 0.0013513513513513514 0.0013513513513513514 0.0013513513513513514 0.0013513513513513514 0.0013513513513513514
0.0013513513513513514 0.0013513513513513514 0.0013513513513513514 0.0013513513513513514 0.0013513513513513514 0.0013513513513513514 0.0013513513513513514 0.0013513513513513514
0.0013513513513513514 0.0013513513513513514 0.0013513513513513514 0.0013513513513513514 0.0013513513513513514 0.0013513513513513514 0.0013513513513513514 0.0013513513513513514
0.0013513513513513514 0.0013513513513513514 0.0013513513513513514 0.0013513513513513514 0.0013513513513513514 0.0013513513513513514 0.0013513513513513514 0.0013513513513513514
0.0013513513513513514 0.0013513513513513514 0.0013513513513513514 0.0013513513513513514 0.0013513513513513514 0.0013513513513513514 0.0013513513513513514 0.0013513513513513514
0.0013513513513513514 0.0013513513513513514 0.0013513513513513514 0.0013513513513513514 0.0013513513513513514 0.0013513513513513514 0.0013513513513513514 0.0013513513513513514
0.0013513513513513514 0.0013513513513513514 0.0013513513513513514 0.0013513513513513514 0.0013513513513513514 0.0013513513513513514 0.0013513513513513514 0.0013513513513513514
0.0013513513513513514 0.0013513513513513514 0.0013513513513513514 0.0013513513513513514 0.0013513513513513514 0.0013513513513513514 0.0013513513513513514 0.0013513513513513514
0.0013513513513513514 0.0013513513513513514 0.0013513513513513514 0.0013513513513513514 0.0013513513513513514 0.0013513513513513514 0.0013513513513513514 0.0013513513513513514
0.0013513513513513514 0.0013513513513513514 0.0013513513513513514 0.0013513513513513514 0.0013513513513513514 0.0013513513513513514 0.0013513513513513514 0.0013513513513513514
0.0013513513513513514 0.0013513513513513514 0.0013513513513513514 0.0013513513513513514 0.0013513513513513514 0.0013513513513513514 0.0013513513513513514 0.0013513513513513514
0.0013513513513513514 0.0013513513513513514 0.0013513513513513514 0.0013513513513513514 0.0013513513513513514 0.0013513513513513514 0.0013513513513513514 0.0013513513513513514
0.0013513513513513514 0.0013513513513513514 0.0013513513513513514 0.0013513513513513514 0.0013513513513513514 0.0013513513513513514 0.0013513513513513514 0.0013513513513513514
0.0013513513513513514 0.0013513513513513514 0.0013513513513513514 0.0013513513513513514 0.0013513513513513514 0.0013513513513513514 0.0013513513513513514 0.0013513513513513514
0.0013513513513513514 0.0013513513513513514 0.0013513513513513514 0.0013513513513513514 0.0013513513513513514 0.0013513513513513514 0.0013513513513513514 0.0013513513513513514
0.0013513513513513514 0.0013513513513513514 0.0013513513513513514 0.0013513513513513514 0.0013513513513513514 0.0013513513513513514 0.0013513513513513514 0.0013513513513513514
0.0013513513513513514 0.0013513513513513514 0.0013513513513513514 0.0013513513513513514 0.0013513513513513514 0.0013513513513513514 0.0013513513513513514 0.0013513513513513514
0.0013513513513513514 0.0013513513513513514 0.0013513513513513514 0.0013513513513513514 0.0013513513513513514 0.0013513513513513514 0.0013513513513513514 0.0013513513513513514
0.0013513513513513514 0.0013513513513513514 0.0013513513513513514 0.0013513513513513514 0.0013513513513513514 0.0013513513513513514 0.0013513513513513514 0.0013513513513513514
0.0013513513513513514 0.0013513513513513514 0.0013513513513513514 0.0013513513513513514 0.0013513513513513514 0.0013513513513513514 0.0013513513513513514 0.0013513513513513514
0.0013513513513513514 0.0013513513513513514 0.0013513513513513514 0.0013513513513513514 0.0013513513513513514 0.0013513513513513514 0.0013513513513513514 0.0013513513513513514
0.0013513513513513514 0.0013513513513513514 0.0013513513513513514 0.0013513513513513514 0.0013513513513513514 0.0013513513513513514 0.0013513513513513514 0.0013513513513513514
0.0013513513513513514 0.0013513513513513514 0.0013513513513513514 0.0013513513513513514 0.0013513513513513514 0.0013513513513513514 0.0013513513513513514 0.0013513513513513514
0.0013513513513513514 0.0013513513513513514 0.0013513513513513514 0.0013513513513513514 0.0013513513513513514 0.0013513513513513514 0.0013513513513513514 0.0013513513513513514
0.0013513513513513514 0.0013513513513513514 0.0013513513513513514 0.0013513513513513514 0.0013513513513513514 0.0013513513513513514 0.0013513513513513514 0.0013513513513513514
