OASIS3_VNN_NeurIPS/test30.pth (torch, 10139 bytes, 5 tensors)

GFL.0.weight f8 [5, 1, 6, 1]
0	0xc00233b7289bb6e9	-2.2752516911049168
1	0x3fcfd1b887d522de	0.24858767158936862
2	0x3fd42f8d9dd79372	0.3154024163653083
3	0xbfa0b98ce6923b20	-0.03266563715543769
4	0x3fe28af091956f91	0.579460415213804
5	0x3fd56513cbe2d8ce	0.33429427061799977
6	0x3fa02b54cd749794	0.03158059127808524
7	0xbfcf1fbe3d281ef5	-0.2431562231652077
8	0xbfd4439cc38e22dd	-0.3166267308920803
9	0x3fb08eed2f59267f	0.06468088537180881
10	0x3fcbfb4be523e1fc	0.21860645950779645
11	0x3fad6d4003c5d10e	0.05747413679174161
12	0x3fec6abec43fbacc	0.8880304177272023
13	0xbfd6c2e8c131bf05	-0.355646313349084
14	0x3fcc2d22e87bb2fe	0.2201274523898959
15	0xbfdc28d221667eb0	-0.43999150525813047
16	0xbfb36cfb7c2ec560	-0.07588168889812641
17	0x3fc57ef8d242a878	0.16793737665767927
18	0xbfd8590f7a230d6a	-0.3804358189338105
19	0xbfc7e977e56ffd2e	-0.1868123884487231
20	0x3fc230ff9fffcbab	0.14212031662426958
21	0x3fbcfe79e56d8121	0.1132579980017039
22	0x3fdce873a4e82c64	0.45168772796814083
23	0xbfc3c3ebe52521d8	-0.1544165486213973
24	0x3ff257ad7f20ceb3	1.146405693621017
25	0xbfc966ba2a3c032b	-0.1984474855635424
26	0x3fabc251e5760f4e	0.054216918239971976
27	0xbfd90f7f0628293c	-0.3915708122373365
28	0xbfd60475cba712fd	-0.34402222526504983
29	0xbfd0a715b34d79ef	-0.26019804487250914

GFL.0.bias f8 [5, 1]
0	0x3ffae6798be47fbb	1.681268259482734
1	0x3ffeffa445d13a82	1.9374125220525973
2	0x3ffd528d5f449ab1	1.832654354229515
3	0x4002ba8fbb4e63c3	2.341094458894504
4	0x3ff898e3f926f07c	1.5373267872337513

GFL.3.weight f8 [5, 1, 10, 5]
0	0x3fd8a6d6c2c3c1e3	0.3851830389021684
1	0x3fe5019619ade02a	0.656443643717471
2	0x3ff1be374e8b06a4	1.1089394634331393
3	0x3fedaf747b4b4b45	0.927667847451041
4	0x3feaaa63b77336a1	0.8332995017060122
5	0x3ff21a3a6b54d1b8	1.1314033692006955
6	0x3fe66ae89a6ec7ac	0.7005503669990865
7	0x3fe727fdeb3fd897	0.7236318201746766
8	0x3fea40eb62c08226	0.8204247406720853
9	0x3fe556aadaadd4a6	0.6668295165133216
10	0x3ff336a68f606d5c	1.2008424378062363
11	0x3fe4c20bc2719bd2	0.6486872480135111
12	0x3fe7b30a64b72708	0.7406055419062065
13	0x3fea366dd90d0c80	0.8191441764141842
14	0x3fe21e21a42e7f98	0.5661781508133457
15	0x3ff3ec1dc1b7b48b	1.2451455657094666
16	0x3fe16bebf6bf450b	0.5444240397720547
17	0x3fe7918504f11cd0	0.7365136238594463
18	0x3fea6bddfa5c65cb	0.8256673707830314
19	0x3fdef95d247644e3	0.48396996079197957
20	0x3ff0fb2e4b908375	1.0613234473932753
21	0x3fe96504e788c594	0.793581440177308
22	0x3fe8516e815d3a43	0.7599403883594466
23	0x3fecc9df673db3c9	0.8996426598001729
24	0x3fe5e2b2f352d9f7	0.6839232208647549
25	0x3ff36942bc9459da	1.2131984106432498
26	0x3fe55428d3bce28e	0.6665233741287737
27	0x3fe3444239704d7f	0.6020823594903247
28	0x3ff05a62ec11afe1	1.0220669957588984
29	0x3fdc07b98e13ffce	0.4379714858514462
30	0x3ff2dc7e25e121dc	1.1788312415757138
31	0x3fe40d54f59ec43e	0.6266274258870295
32	0x3fe34087792ec2ff	0.6016270987366567
33	0x3ff001ca2c9f6888	1.0004369490693836
34	0x3fe5fbd6a286ce08	0.6869919943187037
35	0x3ff11df404ebae54	1.0698127929889738
36	0x3fe3c9206214e2fe	0.6183015742927578
37	0x3fe954d6feeef9db	0.7916064242525026
38	0x3feeb7a4885b2068	0.9599173224642188
39	0x3fe070aeb607ad95	0.5137551837228097
40	0x3ff25f7324d7d485	1.1483031691725796
41	0x3fe96297d7280cfc	0.7932852937960031
42	0x3fe244807de277b7	0.5708620508846626
43	0x3feee86455d8e73a	0.9658681561188367
44	0x3fda17ffda669492	0.4077148087329273
45	0x3ff129fab798c72f	1.0727488681554396
46	0x3fe68b87c660bc1e	0.7045325159614355
47	0x3fe7b807da61bd86	0.7412146821279044
48	0x3fed3274e353994f	0.9124092521640622
49	0x3fddf27a2cb543c8	0.46792463651678107
50	0x3fdd92b0a853109b	0.46207825124680263
51	0x3fe1d72e40f1d028	0.5575171726654888
52	0x3ff17594db54d7e2	1.0912064139970359
53	0x3fea71a8f7962c08	0.8263745151210751
54	0x3ff19a394ceff272	1.100152302299787
55	0x3ff1f46329fb493b	1.1221648826509198
56	0x3fe39efe1f39460a	0.6131582841719034
57	0x3fe608ec9a995891	0.6885893840324276
58	0x3fe78d77fce063c6	0.736019128703554
59	0x3fe4a5070992a2a7	0.6451449572533264
60	0x3ff30471bb797f46	1.1885850260950561
61	0x3fe1f83143b9d1c7	0.5615469286699913
62	0x3fe68f187f16e703	0.7049677355018676
63	0x3fead68970221ef8	0.8386885824301933
64	0x3fdd733cea7eda42	0.4601585664744655
65	0x3ff4bc50a7979c0f	1.2959753557750024
66	0x3fe44f48622708e1	0.63467806978613
67	0x3fe129186674de57	0.5362665177444325
68	0x3fe9b605fa90f10e	0.8034696477766674
69	0x3fe42b79722f2204	0.6303069334181264
70	0x3ff20e9f5af941e9	1.128569941869609
71	0x3fe5ca42660abc2f	0.6809398644453547
72	0x3fe4c1c7dddfc872	0.648654874179796
73	0x3fefb5144ed9c744	0.990854410176532
74	0x3fe6c37181e7d80d	0.711357835504488
75	0x3ff28cfb964a4e02	1.1594196196282387
76	0x3fe07a9bda2df4dc	0.5149668942755414
77	0x3fe3ee285c9ec360	0.622821980379836
78	0x3fe8ff8336c2ebbd	0.7811904973562985
79	0x3fe5fddfa837ce47	0.6872404370792048
80	0x3ff4d821edc36325	1.3027667319895013
81	0x3fe5d372e5795755	0.6820616228021473
82	0x3fe7ff89ca37895d	0.7499436330365757
83	0x3fec602dd8a19ed6	0.8867406111794149
84	0x3fe47ea0a14a9963	0.6404574537489619
85	0x3ff2978296fe088f	1.1619897745263505
86	0x3fe44b253d8c071b	0.6341730310525436
87	0x3fe30159ccdff5f1	0.5939148904287191
88	0x3feee2eb155f0f8a	0.9651999871643835
89	0x3fe2d8dd283fab7b	0.588972643481028
90	0x3ff3d271e884248b	1.2388781626380332
91	0x3fe30e1466d94e05	0.5954687126890695
92	0x3fe8fe8fd050c616	0.7810744351065206
93	0x3fe7f37aab080cce	0.7484715786416929
94	0x3fe3c00a016cc543	0.6171922710256371
95	0x3ff2b5aa696fcdd4	1.169351970541233
96	0x3fe0bfc20964486e	0.5234079535896521
97	0x3fe82e7ea6deec00	0.7556756266779985
98	0x3fe8ba233435baff	0.7727218646740254
99	0x3fe2c8bb580f50fe	0.5870033950727984
100	0x3fdec7893f12199d	0.4809287181782567
101	0x3fe5430a6b1a6c32	0.664433678804363
102	0x3fed2913a56b3338	0.9112642508349387
103	0x3fe4d6d8d3a482c8	0.6512264379162724
104	0x3ff08754f7964aba	1.0330400153513168
105	0x3fed9a8e4dd0bfe2	0.9251166839439942
106	0x3fe5e7936396bf90	0.6845185227484638
107	0x3fe46ff0f156dfe6	0.6386646951350456
108	0x3fe671484b4411d3	0.7013284177815485
109	0x3fe5fb2b09d40fd7	0.6869101707420623
110	0x3ff25fb19d431702	1.148362745575867
111	0x3fe1c66274f6c538	0.5554668697788321
112	0x3fe872e7e13daae4	0.7640265845523939
113	0x3fec3f699827975d	0.8827407809992384
114	0x3fe39a8a5908f31a	0.6126147974933673
115	0x3ff378c988e114c8	1.2169890734524405
116	0x3fe03d4c1de257a3	0.50748258435009
117	0x3fe1031bae0db5c2	0.5316294097407808
118	0x3fec58ec60a52723	0.8858549010849156
119	0x3fe0e01c05e6123a	0.5273571124276437
120	0x3ff450b98159e498	1.2697081616190982
121	0x3fe7d6a650d8d9d7	0.7449523524326719
122	0x3fe7ba2a5f17cb97	0.7414752824100671
123	0x3fe8f053814d9422	0.779336693329814
124	0x3fdfddd40810227f	0.497914321779298
125	0x3ff1537735651dfc	1.082877358030486
126	0x3fe6e0e5d637a6c9	0.7149533447202084
127	0x3fe337c308304696	0.6005568656857629
128	0x3fe721b8c3e20a33	0.7228664232100698
129	0x3fe29c23a678588e	0.5815599681252637
130	0x3ff0e7b9bf30fbff	1.0565736263667984
131	0x3fe5ceacb355457a	0.6814788344001237
132	0x3fe7985d21199bdb	0.7373490950093314
133	0x3fed33298f9f6622	0.9124954037790227
134	0x3fdbed576bd20b43	0.4363611748632829
135	0x3ff2c68ede130322	1.1734760927940404
136	0x3fe6ebfebdac769a	0.7163079933704524
137	0x3fe598de49e11c4c	0.6749106829601117
138	0x3fe89ec1d6d138aa	0.7693795390748808
139	0x3fdfaee601985158	0.4950499549461447
140	0x3ff1649978d42283	1.0870604247922138
141	0x3fe680efc1c9d41e	0.7032393250398206
142	0x3fe1bac7727c6c3a	0.5540501819663242
143	0x3fe78099a9ac8956	0.7344482721276033
144	0x3fdb27b2a9aa3b86	0.42429796761364746
145	0x3ff14aeb69b9b21f	1.0807909135720661
146	0x3fe1f8e7c80727e1	0.5616339594646399
147	0x3fe9719faa63abe2	0.7951200797955347
148	0x3fecfa797cbe5db7	0.9055755077742366
149	0x3fe53e6399101bea	0.6638658513555786
150	0x3fe0ae1e13f7bb47	0.5212545766824882
151	0x3fdff7c484f966df	0.49949753747715236
152	0x3fefd372d3ea56e0	0.9945615900967049
153	0x3fe50691a2e52623	0.6570518666787318
154	0x3fe92935a6f8e8ca	0.7862804661920333
155	0x3ff189604ba299a6	1.0960391001222916
156	0x3fe827646ad20984	0.7548086248719277
157	0x3fe68cf03bc9b0ff	0.7047043960315306
158	0x3fee1b54fd93df97	0.9408364250839324
159	0x3fdee66605a8e1bc	0.48281240990356955
160	0x3ff074d40bf6b842	1.0285225360235164
161	0x3fe6dff145288ee3	0.7148367262602416
162	0x3fe618503a61d283	0.6904679432178259
163	0x3fe97cc3f76d7672	0.7964801628656473
164	0x3fe3142cec98b042	0.5962128277801713
165	0x3ff48aee998d4049	1.2839189527621946
166	0x3fe7a089e0e24d34	0.7383469955697479
167	0x3fe35c0f0145abb5	0.6049876236769395
168	0x3febee650790bf25	0.8728509090196651
169	0x3fe379830290f4b9	0.6085829782602082
170	0x3ff307ee8b6d2a5e	1.1894364782662232
171	0x3fe8767c687c4fec	0.764463619302203
172	0x3fe74c432d401bb9	0.7280593761250805
173	0x3febcf661c360bdb	0.8690672446249396
174	0x3fda99c0881dc372	0.4156342820415865
175	0x3ff077141b940a86	1.0290719105984478
176	0x3fe748f782bed24f	0.7276570848103548
177	0x3fe5de9d835788be	0.6834247174522472
178	0x3fe80f9f0a845b2a	0.7519068913851232
179	0x3fe012394a7a37a5	0.502224584068007
180	0x3ff4b08a6712ce20	1.2931007410342161
181	0x3fe8a04c4796e1b9	0.7695676229696381
182	0x3fe4029948d3c23a	0.6253172323614031
183	0x3fe83a9bbb4ab8e1	0.7571543367428398
184	0x3fe3425d62da452a	0.601851170608062
185	0x3ff41ca7cce688bd	1.256995964424774
186	0x3fe3ce0a9aa783d6	0.6189015408127669
187	0x3fe622bac5b8a31e	0.6917394506209325
188	0x3fee786e6234903f	0.9522010725090765
189	0x3fdd42babadb7acd	0.45719784019267423
190	0x3ff1c25fb967eddb	1.1099545710011316
191	0x3fe27e4fac9f6b36	0.5779188510453881
192	0x3fe6910fa7af66f1	0.7052076602078313
193	0x3fe8994800aec101	0.7687110913593928
194	0x3fe1d42a23b20875	0.5571489998985856
195	0x3ff14eee92514d94	1.0817704883128032
196	0x3fe4dda154e4b517	0.6520544679712285
197	0x3fe816d767694f78	0.7527882594826982
198	0x3feb4fdd21e978bf	0.8534989988654827
199	0x3fdde94f6d892723	0.4673651284871189
200	0x3fde16a09fdd3c57	0.4701310692952964
201	0x3fe2ea5bc5e626a1	0.591108213922059
202	0x3fe838ea841644ad	0.7569477634262022
203	0x3fe60b12d7bb5281	0.6888517583380037
204	0x3fe6e9dc682bd878	0.7160474810214188
205	0x3fea2cfddcb92aca	0.8179921446802265
206	0x3fe0a5e41eaa7851	0.5202503775542572
207	0x3fe99c438768b797	0.8003251690586123
208	0x3fe507ff6f92cae3	0.6572262934845096
209	0x3fdef14e2c7d2c3e	0.4834781107389893
210	0x3fef27c42759a02c	0.9736042755657812
211	0x3fe0b14f12cdefea	0.5216441504740008
212	0x3fe7b889f65e093a	0.7412767230855828
213	0x3fe836f4cce07bfe	0.7567085267545506
214	0x3fdc21d584c04734	0.43956506694768227
215	0x3febda75028a5bfe	0.8704171228044968
216	0x3fe29c4116a53874	0.581574005345614
217	0x3fe5c97822668d0e	0.6808434173475761
218	0x3fe1fef7f2689d15	0.5623740896743664
219	0x3fdb61c5b9bc5067	0.4278425515960919
220	0x3ff1841422e352de	1.0947457659541935
221	0x3fe2913608e40772	0.5802259610793341
222	0x3fdf6f32af738c14	0.49116198667451383
223	0x3fe1906d5191330f	0.5488802521809663
224	0x3fe327c3e4b62a89	0.5986041514418768
225	0x3ff215d63d6053a5	1.1303312680731576
226	0x3fd6bc032ee38621	0.355225368299303
227	0x3fe5f9ebb8df7e93	0.6867579088975212
228	0x3fe73301158d6ba4	0.7249761029191757
229	0x3fd386e9db29886a	0.3051094665771702
230	0x3fecdb2eef219188	0.9017557783632109
231	0x3fde6319e381cfaf	0.4747986528157026
232	0x3fdc214695d55800	0.43953098899999077
233	0x3fe1c9eb04e81713	0.5558981986839363
234	0x3fd8ef51b1503257	0.3896068793845066
235	0x3ff101bf812392ed	1.062926773499551
236	0x3fdfbc5e9c46fd16	0.49587216626601227
237	0x3fe4d523fbafa0a1	0.6510181346648275
238	0x3fe7fc9b9a1dbfe7	0.7495859155733314
239	0x3fd3f74b112bd1ee	0.31196858097908275
240	0x3ff00d9f7f83ba79	1.0033259373700771
241	0x3fde050adc8e3b8f	0.4690577653754468
242	0x3fe4c7985d1dd268	0.6493646448785286
243	0x3fe1bbd0b7ecac24	0.5541766731524871
244	0x3fd3b34722425527	0.30781725259415044
245	0x3fece0604f731690	0.9023896743535307
246	0x3fd72df65682da3e	0.36218031357148905
247	0x3fe35b31f4475ac9	0.6048822184628416
248	0x3fe7138c11ea668a	0.7211361265101044
249	0x3fd0a1d894482e14	0.25987829666766626

GFL.3.bias f8 [5, 1]
0	0x3ff5fde38219c01f	1.3744845468572817
1	0x3ff968b442846b0e	1.588062534173051
2	0x3ff5835148530f4b	1.3445599389242087
3	0x3ff4f85213af8a20	1.3106251496288976
4	0x3ff62ccc26ccd2f9	1.3859368816021613

MLP.0.weight f8 [1, 740]
0	0x3f5623fa77016240	0.0013513513513513514
1	0x3f5623fa77016240	0.0013513513513513514
2	0x3f5623fa77016240	0.0013513513513513514
3	0x3f5623fa77016240	0.0013513513513513514
4	0x3f5623fa77016240	0.0013513513513513514
5	0x3f5623fa77016240	0.0013513513513513514
6	0x3f5623fa77016240	0.0013513513513513514
7	0x3f5623fa77016240	0.0013513513513513514
8	0x3f5623fa77016240	0.0013513513513513514
9	0x3f5623fa77016240	0.0013513513513513514
10	0x3f5623fa77016240	0.0013513513513513514
11	0x3f5623fa77016240	0.0013513513513513514
12	0x3f5623fa77016240	0.0013513513513513514
13	0x3f5623fa77016240	0.0013513513513513514
14	0x3f5623fa77016240	0.0013513513513513514
15	0x3f5623fa77016240	0.0013513513513513514
16	0x3f5623fa77016240	0.0013513513513513514
17	0x3f5623fa77016240	0.0013513513513513514
18	0x3f5623fa77016240	0.0013513513513513514
19	0x3f5623fa77016240	0.0013513513513513514
20	0x3f5623fa77016240	0.0013513513513513514
21	0x3f5623fa77016240	0.0013513513513513514
22	0x3f5623fa77016240	0.0013513513513513514
23	0x3f5623fa77016240	0.0013513513513513514
24	0x3f5623fa77016240	0.0013513513513513514
25	0x3f5623fa77016240	0.0013513513513513514
26	0x3f5623fa77016240	0.0013513513513513514
27	0x3f5623fa77016240	0.0013513513513513514
28	0x3f5623fa77016240	0.0013513513513513514
29	0x3f5623fa77016240	0.0013513513513513514
30	0x3f5623fa77016240	0.0013513513513513514
31	0x3f5623fa77016240	0.0013513513513513514
32	0x3f5623fa77016240	0.0013513513513513514
33	0x3f5623fa77016240	0.0013513513513513514
34	0x3f5623fa77016240	0.0013513513513513514
35	0x3f5623fa77016240	0.0013513513513513514
36	0x3f5623fa77016240	0.0013513513513513514
37	0x3f5623fa77016240	0.0013513513513513514
38	0x3f5623fa77016240	0.0013513513513513514
39	0x3f5623fa77016240	0.0013513513513513514
40	0x3f5623fa77016240	0.0013513513513513514
41	0x3f5623fa77016240	0.0013513513513513514
42	0x3f5623fa77016240	0.0013513513513513514
43	0x3f5623fa77016240	0.0013513513513513514
44	0x3f5623fa77016240	0.0013513513513513514
45	0x3f5623fa77016240	0.0013513513513513514
46	0x3f5623fa77016240	0.0013513513513513514
47	0x3f5623fa77016240	0.0013513513513513514
48	0x3f5623fa77016240	0.0013513513513513514
49	0x3f5623fa77016240	0.0013513513513513514
50	0x3f5623fa77016240	0.0013513513513513514
51	0x3f5623fa77016240	0.0013513513513513514
52	0x3f5623fa77016240	0.0013513513513513514
53	0x3f5623fa77016240	0.0013513513513513514
54	0x3f5623fa77016240	0.0013513513513513514
55	0x3f5623fa77016240	0.0013513513513513514
56	0x3f5623fa77016240	0.0013513513513513514
57	0x3f5623fa77016240	0.0013513513513513514
58	0x3f5623fa77016240	0.0013513513513513514
59	0x3f5623fa77016240	0.0013513513513513514
60	0x3f5623fa77016240	0.0013513513513513514
61	0x3f5623fa77016240	0.0013513513513513514
62	0x3f5623fa77016240	0.0013513513513513514
63	0x3f5623fa77016240	0.0013513513513513514
64	0x3f5623fa77016240	0.0013513513513513514
65	0x3f5623fa77016240	0.0013513513513513514
66	0x3f5623fa77016240	0.0013513513513513514
67	0x3f5623fa77016240	0.0013513513513513514
68	0x3f5623fa77016240	0.0013513513513513514
69	0x3f5623fa77016240	0.0013513513513513514
70	0x3f5623fa77016240	0.0013513513513513514
71	0x3f5623fa77016240	0.0013513513513513514
72	0x3f5623fa77016240	0.0013513513513513514
73	0x3f5623fa77016240	0.0013513513513513514
74	0x3f5623fa77016240	0.0013513513513513514
75	0x3f5623fa77016240	0.0013513513513513514
76	0x3f5623fa77016240	0.0013513513513513514
77	0x3f5623fa77016240	0.0013513513513513514
78	0x3f5623fa77016240	0.0013513513513513514
79	0x3f5623fa77016240	0.0013513513513513514
80	0x3f5623fa77016240	0.0013513513513513514
81	0x3f5623fa77016240	0.0013513513513513514
82	0x3f5623fa77016240	0.0013513513513513514
83	0x3f5623fa77016240	0.0013513513513513514
84	0x3f5623fa77016240	0.0013513513513513514
85	0x3f5623fa77016240	0.0013513513513513514
86	0x3f5623fa77016240	0.0013513513513513514
87	0x3f5623fa77016240	0.0013513513513513514
88	0x3f5623fa77016240	0.0013513513513513514
89	0x3f5623fa77016240	0.0013513513513513514
90	0x3f5623fa77016240	0.0013513513513513514
91	0x3f5623fa77016240	0.0013513513513513514
92	0x3f5623fa77016240	0.0013513513513513514
93	0x3f5623fa77016240	0.0013513513513513514
94	0x3f5623fa77016240	0.0013513513513513514
95	0x3f5623fa77016240	0.0013513513513513514
96	0x3f5623fa77016240	0.0013513513513513514
97	0x3f5623fa77016240	0.0013513513513513514
98	0x3f5623fa77016240	0.0013513513513513514
99	0x3f5623fa77016240	0.0013513513513513514
100	0x3f5623fa77016240	0.0013513513513513514
101	0x3f5623fa77016240	0.0013513513513513514
102	0x3f5623fa77016240	0.0013513513513513514
103	0x3f5623fa77016240	0.0013513513513513514
104	0x3f5623fa77016240	0.0013513513513513514
105	0x3f5623fa77016240	0.0013513513513513514
106	0x3f5623fa77016240	0.0013513513513513514
107	0x3f5623fa77016240	0.0013513513513513514
108	0x3f5623fa77016240	0.0013513513513513514
109	0x3f5623fa77016240	0.0013513513513513514
110	0x3f5623fa77016240	0.0013513513513513514
111	0x3f5623fa77016240	0.0013513513513513514
112	0x3f5623fa77016240	0.0013513513513513514
113	0x3f5623fa77016240	0.0013513513513513514
114	0x3f5623fa77016240	0.0013513513513513514
115	0x3f5623fa77016240	0.0013513513513513514
116	0x3f5623fa77016240	0.0013513513513513514
117	0x3f5623fa77016240	0.0013513513513513514
118	0x3f5623fa77016240	0.0013513513513513514
119	0x3f5623fa77016240	0.0013513513513513514
120	0x3f5623fa77016240	0.0013513513513513514
121	0x3f5623fa77016240	0.0013513513513513514
122	0x3f5623fa77016240	0.0013513513513513514
123	0x3f5623fa77016240	0.0013513513513513514
124	0x3f5623fa77016240	0.0013513513513513514
125	0x3f5623fa77016240	0.0013513513513513514
126	0x3f5623fa77016240	0.0013513513513513514
127	0x3f5623fa77016240	0.0013513513513513514
128	0x3f5623fa77016240	0.0013513513513513514
129	0x3f5623fa77016240	0.0013513513513513514
130	0x3f5623fa77016240	0.0013513513513513514
131	0x3f5623fa77016240	0.0013513513513513514
132	0x3f5623fa77016240	0.0013513513513513514
133	0x3f5623fa77016240	0.0013513513513513514
134	0x3f5623fa77016240	0.0013513513513513514
135	0x3f5623fa77016240	0.0013513513513513514
136	0x3f5623fa77016240	0.0013513513513513514
137	0x3f5623fa77016240	0.0013513513513513514
138	0x3f5623fa77016240	0.0013513513513513514
139	0x3f5623fa77016240	0.0013513513513513514
140	0x3f5623fa77016240	0.0013513513513513514
141	0x3f5623fa77016240	0.0013513513513513514
142	0x3f5623fa77016240	0.0013513513513513514
143	0x3f5623fa77016240	0.0013513513513513514
144	0x3f5623fa77016240	0.0013513513513513514
145	0x3f5623fa77016240	0.0013513513513513514
146	0x3f5623fa77016240	0.0013513513513513514
147	0x3f5623fa77016240	0.0013513513513513514
148	0x3f5623fa77016240	0.0013513513513513514
149	0x3f5623fa77016240	0.0013513513513513514
150	0x3f5623fa77016240	0.0013513513513513514
151	0x3f5623fa77016240	0.0013513513513513514
152	0x3f5623fa77016240	0.0013513513513513514
153	0x3f5623fa77016240	0.0013513513513513514
154	0x3f5623fa77016240	0.0013513513513513514
155	0x3f5623fa77016240	0.0013513513513513514
156	0x3f5623fa77016240	0.0013513513513513514
157	0x3f5623fa77016240	0.0013513513513513514
158	0x3f5623fa77016240	0.0013513513513513514
159	0x3f5623fa77016240	0.0013513513513513514
160	0x3f5623fa77016240	0.0013513513513513514
161	0x3f5623fa77016240	0.0013513513513513514
162	0x3f5623fa77016240	0.0013513513513513514
163	0x3f5623fa77016240	0.0013513513513513514
164	0x3f5623fa77016240	0.0013513513513513514
165	0x3f5623fa77016240	0.0013513513513513514
166	0x3f5623fa77016240	0.0013513513513513514
167	0x3f5623fa77016240	0.0013513513513513514
168	0x3f5623fa77016240	0.0013513513513513514
169	0x3f5623fa77016240	0.0013513513513513514
170	0x3f5623fa77016240	0.0013513513513513514
171	0x3f5623fa77016240	0.0013513513513513514
172	0x3f5623fa77016240	0.0013513513513513514
173	0x3f5623fa77016240	0.0013513513513513514
174	0x3f5623fa77016240	0.0013513513513513514
175	0x3f5623fa77016240	0.0013513513513513514
176	0x3f5623fa77016240	0.0013513513513513514
177	0x3f5623fa77016240	0.0013513513513513514
178	0x3f5623fa77016240	0.0013513513513513514
179	0x3f5623fa77016240	0.0013513513513513514
180	0x3f5623fa77016240	0.0013513513513513514
181	0x3f5623fa77016240	0.0013513513513513514
182	0x3f5623fa77016240	0.0013513513513513514
183	0x3f5623fa77016240	0.0013513513513513514
184	0x3f5623fa77016240	0.0013513513513513514
185	0x3f5623fa77016240	0.0013513513513513514
186	0x3f5623fa77016240	0.0013513513513513514
187	0x3f5623fa77016240	0.0013513513513513514
188	0x3f5623fa77016240	0.0013513513513513514
189	0x3f5623fa77016240	0.0013513513513513514
190	0x3f5623fa77016240	0.0013513513513513514
191	0x3f5623fa77016240	0.0013513513513513514
192	0x3f5623fa77016240	0.0013513513513513514
193	0x3f5623fa77016240	0.0013513513513513514
194	0x3f5623fa77016240	0.0013513513513513514
195	0x3f5623fa77016240	0.0013513513513513514
196	0x3f5623fa77016240	0.0013513513513513514
197	0x3f5623fa77016240	0.0013513513513513514
198	0x3f5623fa77016240	0.0013513513513513514
199	0x3f5623fa77016240	0.0013513513513513514
200	0x3f5623fa77016240	0.0013513513513513514
201	0x3f5623fa77016240	0.0013513513513513514
202	0x3f5623fa77016240	0.0013513513513513514
203	0x3f5623fa77016240	0.0013513513513513514
204	0x3f5623fa77016240	0.0013513513513513514
205	0x3f5623fa77016240	0.0013513513513513514
206	0x3f5623fa77016240	0.0013513513513513514
207	0x3f5623fa77016240	0.0013513513513513514
208	0x3f5623fa77016240	0.0013513513513513514
209	0x3f5623fa77016240	0.0013513513513513514
210	0x3f5623fa77016240	0.0013513513513513514
211	0x3f5623fa77016240	0.0013513513513513514
212	0x3f5623fa77016240	0.0013513513513513514
213	0x3f5623fa77016240	0.0013513513513513514
214	0x3f5623fa77016240	0.0013513513513513514
215	0x3f5623fa77016240	0.0013513513513513514
216	0x3f5623fa77016240	0.0013513513513513514
217	0x3f5623fa77016240	0.0013513513513513514
218	0x3f5623fa77016240	0.0013513513513513514
219	0x3f5623fa77016240	0.0013513513513513514
220	0x3f5623fa77016240	0.0013513513513513514
221	0x3f5623fa77016240	0.0013513513513513514
222	0x3f5623fa77016240	0.0013513513513513514
223	0x3f5623fa77016240	0.0013513513513513514
224	0x3f5623fa77016240	0.0013513513513513514
225	0x3f5623fa77016240	0.0013513513513513514
226	0x3f5623fa77016240	0.0013513513513513514
227	0x3f5623fa77016240	0.0013513513513513514
228	0x3f5623fa77016240	0.0013513513513513514
229	0x3f5623fa77016240	0.0013513513513513514
230	0x3f5623fa77016240	0.0013513513513513514
231	0x3f5623fa77016240	0.0013513513513513514
232	0x3f5623fa77016240	0.0013513513513513514
233	0x3f5623fa77016240	0.0013513513513513514
234	0x3f5623fa77016240	0.0013513513513513514
235	0x3f5623fa77016240	0.0013513513513513514
236	0x3f5623fa77016240	0.0013513513513513514
237	0x3f5623fa77016240	0.0013513513513513514
238	0x3f5623fa77016240	0.0013513513513513514
239	0x3f5623fa77016240	0.0013513513513513514
240	0x3f5623fa77016240	0.0013513513513513514
241	0x3f5623fa77016240	0.0013513513513513514
242	0x3f5623fa77016240	0.0013513513513513514
243	0x3f5623fa77016240	0.0013513513513513514
244	0x3f5623fa77016240	0.0013513513513513514
245	0x3f5623fa77016240	0.0013513513513513514
246	0x3f5623fa77016240	0.0013513513513513514
247	0x3f5623fa77016240	0.0013513513513513514
248	0x3f5623fa77016240	0.0013513513513513514
249	0x3f5623fa77016240	0.0013513513513513514
250	0x3f5623fa77016240	0.0013513513513513514
251	0x3f5623fa77016240	0.0013513513513513514
252	0x3f5623fa77016240	0.0013513513513513514
253	0x3f5623fa77016240	0.0013513513513513514
254	0x3f5623fa77016240	0.0013513513513513514
255	0x3f5623fa77016240	0.0013513513513513514
