OASIS3_VNN_NeurIPS/test88.pth (torch, 10139 bytes, 5 tensors)

GFL.0.weight f8 [5, 1, 6, 1]
1.6534859767705368 -0.4057683485030448 -0.27515205783071717 -0.2000218356298909 -0.4740574552362139 0.0119951776693274 -1.0260229575867856 -0.4857525582114617
-0.4602657271113966 -0.09590562226867398 0.19042422478433985 0.17342812239126143 1.1662105176808193 0.21219121518577092 -0.39759225138082227 0.04157351296247101
-0.18563414065690978 -0.3913411709495879 -0.8607698550897217 -0.16086338142940337 0.16105882256042675 -0.41730604738442467 -0.39862024884651165 -0.0011561774156085775
0.6083737845134451 0.03019847222559107 0.06257352398995397 -0.03931132293297887 0.10477385371316726 -0.26100905742623864
00000000: 32fc 29b6 ad74 fa3f f8a3 a4ce 1bf8 d9bf
00000010: 8cd7 7360 179c d1bf 1a15 42c5 509a c9bf
00000020: 8a87 aa14 f556 debf e350 657e ed90 883f
00000030: ae7c 7c0c 976a f0bf 30dc dde5 9116 dfbf
00000040: 6170 5a61 fe74 ddbf fb7f 2557 458d b8bf
00000050: 644e e82c d25f c83f 8e46 f088 e432 c63f
00000060: ab0b 1b5c cca8 f23f 5556 dcec 1429 cb3f
00000070: 8fb6 34c5 2672 d9bf 5e77 1b9d 1f49 a53f
00000080: 293d 9209 dcc2 c7bf 07a3 b3d6 bb0b d9bf
00000090: c5c6 1f39 6d8b ebbf 587f 2ed9 2b97 c4bf
000000a0: e68c d053 939d c43f b61a 7c6c 24b5 dabf
000000b0: f16c 1481 fe82 d9bf e4f3 0e0c 5cf1 52bf
000000c0: f453 874c cc77 e33f 8e6e 642a 59ec 9e3f
000000d0: f8df 2187 d104 b03f 9c22 b81c 9d20 a4bf
000000e0: 6f87 2c93 75d2 ba3f 33c0 6655 5fb4 d0bf

GFL.0.bias f8 [5, 1]
1.7448502792587048 1.3217374358059806 2.117542216113657 2.2732153760504454 2.3309011635103527
00000000: 5952 5d20 e8ea fb3f 29f8 4a27 d625 f53f
00000010: 34dc 30f9 b9f0 0040 4235 078b 8b2f 0240
00000020: ece1 5b82 afa5 0240

GFL.3.weight f8 [5, 1, 10, 5]
1.2446422114564635 0.0652488940068326 1.4390692839305381 0.9454213072106095 1.33895523993851 0.9678782445400177 0.3646699709210365 0.872876292689439
0.9874152159374961 1.1014703901944338 0.8961216788589733 0.43179744933060477 0.9613215352387562 1.0216755638204014 1.0562405545027547 0.8460075500251173
0.47676863719613194 0.920961052652132 1.1280947678661495 0.9222548811009252 0.8257056374492604 0.559198986216122 0.9442396438142966 0.9249306691735482
0.9934319623823724 0.7088006444766364 0.4211699886003648 0.8755144018806709 1.0249736366112012 1.0141192452156889 0.762659258860053 0.4644066444041669
0.9311085845340159 1.0445307417093144 0.9006532432234428 0.889549162542765 0.5779253050526976 0.9599697980625835 0.877323070032344 0.9896883308974584
0.8479176822955504 0.4345785202017613 0.7907305556753406 0.881500624160738 1.0294611002484 0.7961544654935743 0.4912998402990094 0.7750348256081093
1.131691347670744 1.1450335911436011 1.1316025608797977 0.19881069977226146 1.3807773967880992 0.9071093435180059 1.326131952835724 0.7898131063211862
0.45144275330336386 1.024829842668236 0.8267970686889508 1.1013576631991149 0.9276188994174416 0.5448184185393339 0.9239840517673205 1.1144730396327298
1.05978085382129 0.643573093338676 0.6361586437001 0.766967595657494 0.8792597697656515 1.1339866903214868 0.7935465660105909 0.6601618671723642
0.9530308106933006 0.9575951084122959 0.9975223658809121 0.6649273491151645 0.44476016922065975 0.9331658727171009 0.9261269917442753 0.9588719352707755
0.8052553403383169 0.635808866274836 0.7990422014294393 1.0457020242903465 1.125218156552857 0.8289706675649506 0.48872818551126623 0.9145803429191635
1.1370981296741212 0.9809241205149921 0.8410556057836376 0.42032315244642005 0.7851397122075802 1.1270714832014275 0.960474997446461 0.8086071165471154
0.6553909179300677 0.8551801535354697 1.098087430327712 0.875729862816523 -0.02353771524603764 -0.004791485463138408 -0.008038500220725416 -0.12606868904455454
-0.028023009780016126 0.05072315430834811 -0.03409318140904239 -0.1014346982548811 -0.09324885576552001 0.1345597184946387 -0.08869457463417242 -0.029658863352312992
0.057895126160692374 -0.09907530660837473 -0.06591433530175252 -0.004556739542849354 -0.1106349475137092 0.014524056193854953 0.08547101831155815 -0.019582285891883648
-0.10403331684647725 0.0657785681441953 0.01927878945292855 0.02348510666446045 -0.12539729108540842 -0.01710209261811368 -0.0926661151561241 0.0015202775319037292
-0.0371584735079902 -0.028299701246711724 -0.1375942400506069 0.0985359880923483 -0.019643057452830886 -0.047200002862160285 -0.10374293588097751 -0.0853994779017532
-0.06541381009298268 0.0726141994274829 0.11391940181964827 0.06590796254121642 -0.06767711511561067 -0.03622757614903375 0.12417156699478801 0.011490795576000197
-0.009049952719310327 -0.07066753666016425 -0.10100237750674014 -0.11977287603783829 -0.05728857700481241 -0.1390671371147965 1.221749144625567 0.2485231269522933
1.3853535145728029 0.7629959709945526 1.2357815276213358 0.9964115087742769 0.49317494646566445 0.8374506282480848 0.887882848164305 0.9314974436787468
0.8499382109051784 0.41593587081515404 1.0081162636837875 1.0281055840509894 1.1447236896863484 0.7850929793737589 0.6805212518317892 0.8510923037744592
0.9426410041968798 1.0500553548899056 0.641855206539121 0.47774418468008245 0.9713441597209557 1.1414354086448686 1.1325721298290763 0.6739811181154206
0.6834025562926797 0.8572763017760787 0.9232223423620795 1.0513976920494232 0.6570742530413504 0.683658212152439 0.8406638958549921 1.0968729754080955
1.108552124284943 0.9100607867136838 0.6875256420811902 0.8673090866411814 1.0649178674992033 0.9574311289224481 0.7046446968604742 0.47966389009489213
0.8313429453945251 1.0526107903214 1.1301599039899828 0.6653786424500095 0.4777877223400548 0.960152361749914 1.1416067843197402 1.1197645288106068
1.2703451305056017 0.06021996686234395 1.4257247054837874 0.679024399811172 1.3211918988863736 1.000069496828165 0.38054832367350805 0.8825047845073419
0.9829974672579942 1.0665485844343383 0.8010637696495602 0.5676409078386166 0.8339179695113997 1.0334965250642274 0.9769804358272332 0.8263940292237343
0.4467740452869454 0.770261630795169 1.0883472985557623 1.121969593118686 0.8729194975464935 0.6510728156442327 0.8911609865976394 0.9711312769836055
1.1066573584024837 0.6851640127994185 0.5770959109478816 0.7322370890026374 0.8848418687347832 1.073242014533802 0.7100479957857916 0.6528831288558801
0.7339711250368808 1.007206555154521 0.9647571237764294 0.8594290933039217 0.6114719572620758 0.84513288662354 0.8858688004519766 1.1382657591239675
0.8842638989912377 0.6106860916312572 0.927818295542479 0.8816796093619312 0.9212769876993759 0.6336710350517447 0.6520505312906191 0.7989006535167485
1.002538069544271 0.9544468654510492
00000000: 77d3 96f3 0dea f33f 4509 dcc9 26b4 b03f
00000010: 8a8e 7283 6d06 f73f 0828 6d2f e440 ee3f
00000020: ef7f 6554 5c6c f53f 83e5 d9cb dbf8 ee3f
00000030: 961a bcb7 c056 d73f 73c1 5143 9aee eb3f
00000040: 43c7 80cb e798 ef3f f75b 766a 9f9f f13f
00000050: eff2 fd5e 07ad ec3f 29c1 d7c4 91a2 db3f
00000060: 9f4f 5961 25c3 ee3f 1db2 db79 c858 f03f
00000070: 94c5 e47e 5ce6 f03f e1dc f06c 7e12 eb3f
00000080: 1c04 219a 6083 de3f 03fb 4050 8378 ed3f
00000090: 9561 6c19 ad0c f23f 78f4 1cab 1c83 ed3f
000000a0: fef4 9e3a 2e6c ea3f ac25 b845 f5e4 e13f
000000b0: 689c b80e 3637 ee3f 7e5e e533 0899 ed3f
000000c0: f277 a7d3 31ca ef3f e625 6db0 7eae e63f
000000d0: bc18 c6f7 72f4 da3f b824 68c7 3604 ec3f
000000e0: e41d 88c1 4a66 f03f 2121 071a d539 f03f
000000f0: f374 d963 b467 e83f 32b4 70a5 d6b8 dd3f
00000100: 8026 f33a a4cb ed3f 18ee f4dd 65b6 f03f
00000110: ebca 15c0 26d2 ec3f 8ac5 29ce 2f77 ec3f
00000120: da6d 9735 5d7e e23f db72 fa94 12b8 ee3f
00000130: 6816 bad4 0713 ec3f 44ff cddc 86ab ef3f
00000140: af1a 6543 2422 eb3f 87e1 f36c 22d0 db3f
00000150: 125a 922a aa4d e93f 0f91 05cc 4035 ec3f
00000160: 0b23 e133 ac78 f03f 137f fbed 187a e93f
00000170: 2c50 a7e2 7471 df3f bdee a7d5 15cd e83f
00000180: 9997 f662 681b f23f ff87 2cbe 0e52 f23f
00000190: fcc6 7049 0b1b f23f 42f1 ce06 a172 c93f
000001a0: a72c 240a aa17 f63f a5c9 892c 0a07 ed3f
000001b0: c3c2 7923 d637 f53f d840 b322 2646 e93f
000001c0: b110 5d25 70e4 dc3f 3099 23fa b365 f03f
000001d0: a253 4e20 1f75 ea3f 163a 8a36 299f f13f
000001e0: 17c8 84d4 0daf ed3f ee50 3c09 276f e13f
000001f0: 03b8 8b00 4791 ed3f caf0 97ae e1d4 f13f
00000200: 2c6e c1c4 dcf4 f03f 9534 8f99 2698 e43f
00000210: 054f 385f 695b e43f 1e1a 8ea0 ff8a e83f
00000220: 709f 7a62 e522 ec3f 267b 503a cf24 f23f
00000230: 84cb 9bc4 bb64 e93f 8d4a b2c7 0b20 e53f
00000240: 4d42 8078 3a7f ee3f a317 2e7f 9ea4 ee3f
00000250: 0796 4f06 b4eb ef3f a54c 55b8 1547 e53f
00000260: 286f 575b f376 dc3f 1f06 22ad 7edc ed3f
00000270: 3981 af12 d5a2 ed3f 6649 6132 14af ee3f
00000280: 64d6 f5d8 a6c4 e93f 4208 e5d5 8b58 e43f
00000290: d76c 68f3 c091 e93f 3202 bb0b 32bb f03f
000002a0: ab28 f4c0 e400 f23f ae1c 517e ed86 ea3f
000002b0: 35e0 5995 5247 df3f 6adf ccfe 3d44 ed3f
000002c0: 9cb0 f4ce 8d31 f23f c405 2ffb ba63 ef3f
000002d0: 82a9 1e72 ede9 ea3f 6693 6014 93e6 da3f
000002e0: f91d 5751 dd1f e93f 65ab 891b 7c08 f23f
000002f0: 4010 d50f 36bc ee3f 403f 1c08 1ce0 e93f
00000300: a85c d35f f6f8 e43f 72f0 f3c4 a25d eb3f
00000310: cd7f 1620 c491 f13f 59ae 1da2 fa05 ec3f
00000320: fd31 d154 451a 98bf 48a5 d095 3ca0 73bf
00000330: 518a 743c 7d76 80bf 767b 3fd0 0423 c0bf
00000340: 19a2 295a 10b2 9cbf 9702 cfa1 62f8 a93f
00000350: c13c 5656 a974 a1bf 1431 afd7 9ff7 b9bf
00000360: 11ff e631 28df b7bf 6e8f 25bb 4039 c13f
00000370: 39eb 6209 b0b4 b6bf 50f3 89a0 e45e 9ebf
00000380: c17a ea12 6ea4 ad3f 6161 b9d1 ff5c b9bf
00000390: 2967 750a c3df b0bf c1c0 0175 16aa 72bf
000003a0: f2b5 5d69 9252 bcbf a8ec dcd2 c9be 8d3f
000003b0: e269 67bc 6de1 b53f 6e3d f2f5 600d 94bf
000003c0: 7bce 8c6d eda1 babf acff f43e ddd6 b03f
000003d0: d1c2 d3a8 d1bd 933f 1c89 44d4 7a0c 983f
000003e0: 5802 1cb8 040d c0bf 1fac f301 3683 91bf
000003f0: fffc 0a6e f7b8 b7bf 7d95 f191 81e8 583f
00000400: 24e2 f878 6f06 a3bf d262 5dcd 98fa 9cbf
00000410: 7e52 9124 b09c c1bf 37ef 558e a739 b93f
00000420: 9bd6 6945 4f1d 94bf ed02 5449 992a a8bf
00000430: 39c1 cca4 e58e babf 2afa ae7c bddc b5bf
00000440: 935d 0e9f f5be b0bf ae29 c41b d896 b23f
00000450: 5cfd 3169 d229 bd3f ae17 a91f 58df b03f
00000460: e6f2 1b94 4953 b1bf 9501 8cbd 6b8c a2bf
00000470: 9eef 5533 b5c9 bf3f 84ac a179 7c88 873f
00000480: 4ca3 ad17 c888 82bf 2923 d886 4417 b2bf
00000490: 91ae 35b4 4adb b9bf d2c6 8769 6fa9 bebf
000004a0: 6410 57a9 ed54 adbf 7a9e edb2 f3cc c1bf
000004b0: 1653 c1d4 488c f33f 15a6 4717 9bcf cf3f
000004c0: 52d2 6772 682a f63f 02d8 cc86 766a e83f
000004d0: 2627 e2d9 c2c5 f33f a664 7163 9ae2 ef3f
000004e0: 7bb3 91a6 2d90 df3f bde2 8a42 65cc ea3f
000004f0: d570 714a 8969 ec3f db0c 1dba d3ce ed3f
00000500: f7ab 6e9e b132 eb3f 7a99 987c b19e da3f
00000510: ba66 f184 3e21 f03f fa57 45d7 1e73 f03f
00000520: 928c a2c9 c950 f23f 0a58 d74f 7b1f e93f
00000530: 6b37 1b81 d4c6 e53f cfd5 52ed 253c eb3f
00000540: 449d 9c77 1d2a ee3f 7dde 03d8 06cd f03f
00000550: 8c4a 1bee 138a e43f 6387 4358 5c93 de3f
00000560: f72f e558 4015 ef3f 8804 6ac6 5143 f23f
00000570: 95a1 1ff4 031f f23f fdab 8dd9 4091 e53f
00000580: 99f4 a809 6fde e53f 6273 f8b5 ce6e eb3f
00000590: 7336 ec94 098b ed3f 0e13 e762 86d2 f03f
000005a0: 3966 7b95 c006 e53f 10c5 da2f 87e0 e53f
000005b0: 2801 74f8 b7e6 ea3f 5ae7 53ad ca8c f13f
000005c0: 4971 fb26 a1bc f13f 6ed5 89cc 371f ed3f
000005d0: bacd 7cc6 3500 e63f 5cb8 54fc fec0 eb3f
000005e0: bb5c 5d51 e709 f13f e59d 5c9b 46a3 ee3f
000005f0: 2719 0a09 738c e63f 9be6 412c d0b2 de3f
00000600: 845a 4785 5c9a ea3f d48d 7d69 7ed7 f03f
00000610: 1a33 2e8d 2215 f23f 0bf3 9826 c84a e53f
00000620: 1360 78f4 1294 de3f cd93 1c72 91b9 ee3f
00000630: 5cb8 b879 0544 f23f 0466 e735 8eea f13f
00000640: 7878 626a 5553 f43f 7bdd 7ac8 26d5 ae3f
00000650: ff6e 72b5 c4cf f63f 1a00 cc60 91ba e53f
00000660: 5650 d71d 9a23 f53f 93aa 69df 4800 f03f
00000670: f76b 2e5b e75a d83f d2b8 80ac 7a3d ec3f
00000680: b890 bd1a b774 ef3f 68d9 9b3f 9510 f13f
00000690: 88f8 947c 50a2 e93f 483c e143 1d2a e23f
000006a0: 5924 d3bc 74af ea3f 55e3 faa6 3389 f03f
000006b0: a0b6 9679 6c43 ef3f f904 24e4 d171 ea3f
000006c0: 2261 4d2a f297 dc3f c31f 34b8 fba5 e83f
000006d0: 89ca 5fdb de69 f13f a5d1 5863 96f3 f13f
000006e0: 1918 c0de f4ee eb3f 3436 50a8 96d5 e43f
000006f0: f90d 9d0b 6484 ec3f bf8d 58e6 8113 ef3f
00000700: 7376 a358 deb4 f13f fed3 6b14 ddec e53f
00000710: b9a5 05d8 9177 e23f fde7 c579 7c6e e73f
00000720: 0e1e 0be5 9f50 ec3f 77da 91d1 ff2b f13f
00000730: b5b0 0f93 b6b8 e63f 227a d128 6be4 e43f
00000740: 40bc 4703 b17c e73f ae49 eb9e 841d f03f
00000750: 3e7d e654 4adf ee3f b214 1f71 7180 eb3f
00000760: 4193 5ba3 2d91 e33f 4d4f 9a1f 540b eb3f
00000770: 9c9d cf86 0959 ec3f 3f81 1928 5636 f23f
00000780: 106d e6cd e34b ec3f b5b4 f58e bd8a e33f
00000790: 7a88 7ffe afb0 ed3f 3c4e f827 b836 ec3f
000007a0: 253d 97e0 197b ed3f e407 7f7a 0847 e43f
000007b0: bc71 6713 99dd e43f 5570 731a 9890 e93f
000007c0: 7b00 db5b 650a f03f 1639 1c27 d48a ee3f

GFL.3.bias f8 [5, 1]
1.7110064671166898 1.5880978075324717 -0.06004830987635599 1.5464572668802834 1.52394020692851
00000000: c12b 3851 4860 fb3f 6538 233f d968 f93f
00000010: 1db3 32ee a6be aebf 0899 9ef9 49be f83f
00000020: 2a14 5d20 0f62 f83f

MLP.0.weight f8 [1, 740]
0.0013513513513513514 0.0013513513513513514 0.0013513513513513514 0.0013513513513513514 0.0013513513513513514 0.0013513513513513514 0.0013513513513513514 0.0013513513513513514
0.0013513513513513514 0.0013513513513513514 0.0013513513513513514 0.0013513513513513514 0.0013513513513513514 0.0013513513513513514 0.0013513513513513514 0.0013513513513513514
0.0013513513513513514 0.0013513513513513514 0.0013513513513513514 0.0013513513513513514 0.0013513513513513514 0.0013513513513513514 0.0013513513513513514 0.0013513513513513514
0.0013513513513513514 0.0013513513513513514 0.0013513513513513514 0.0013513513513513514 0.0013513513513513514 0.0013513513513513514 0.0013513513513513514 0.0013513513513513514
0.0013513513513513514 0.0013513513513513514 0.0013513513513513514 0.0013513513513513514 0.0013513513513513514 0.0013513513513513514 0.0013513513513513514 0.0013513513513513514
0.0013513513513513514 0.0013513513513513514 0.0013513513513513514 0.0013513513513513514 0.0013513513513513514 0.0013513513513513514 0.0013513513513513514 0.0013513513513513514
0.0013513513513513514 0.0013513513513513514 0.0013513513513513514 0.0013513513513513514 0.0013513513513513514 0.0013513513513513514 0.0013513513513513514 0.0013513513513513514
0.0013513513513513514 0.0013513513513513514 0.0013513513513513514 0.0013513513513513514 0.0013513513513513514 0.0013513513513513514 0.0013513513513513514 0.0013513513513513514
0.0013513513513513514 0.0013513513513513514 0.0013513513513513514 0.0013513513513513514 0.0013513513513513514 0.0013513513513513514 0.0013513513513513514 0.0013513513513513514
0.0013513513513513514 0.0013513513513513514 0.0013513513513513514 0.0013513513513513514 0.0013513513513513514 0.0013513513513513514 0.0013513513513513514 0.0013513513513513514
0.0013513513513513514 0.0013513513513513514 0.0013513513513513514 0.0013513513513513514 0.0013513513513513514 0.0013513513513513514 0.0013513513513513514 0.0013513513513513514
0.0013513513513513514 0.0013513513513513514 0.0013513513513513514 0.0013513513513513514 0.0013513513513513514 0.0013513513513513514 0.0013513513513513514 0.0013513513513513514
0.0013513513513513514 0.0013513513513513514 0.0013513513513513514 0.0013513513513513514 0.0013513513513513514 0.0013513513513513514 0.0013513513513513514 0.0013513513513513514
0.0013513513513513514 0.0013513513513513514 0.0013513513513513514 0.0013513513513513514 0.0013513513513513514 0.0013513513513513514 0.0013513513513513514 0.0013513513513513514
0.0013513513513513514 0.0013513513513513514 0.0013513513513513514 0.0013513513513513514 0.0013513513513513514 0.0013513513513513514 0.0013513513513513514 0.0013513513513513514
0.0013513513513513514 0.0013513513513513514 0.0013513513513513514 0.0013513513513513514 0.0013513513513513514 0.0013513513513513514 0.0013513513513513514 0.0013513513513513514
0.0013513513513513514 0.0013513513513513514 0.0013513513513513514 0.0013513513513513514 0.0013513513513513514 0.0013513513513513514 0.0013513513513513514 0.0013513513513513514
0.0013513513513513514 0.0013513513513513514 0.0013513513513513514 0.0013513513513513514 0.0013513513513513514 0.0013513513513513514 0.0013513513513513514 0.0013513513513513514
0.0013513513513513514 0.0013513513513513514 0.0013513513513513514 0.0013513513513513514 0.0013513513513513514 0.0013513513513513514 0.0013513513513513514 0.0013513513513513514
0.0013513513513513514 0.0013513513513513514 0.0013513513513513514 0.0013513513513513514 0.0013513513513513514 0.0013513513513513514 0.0013513513513513514 0.0013513513513513514
0.0013513513513513514 0.0013513513513513514 0.0013513513513513514 0.0013513513513513514 0.0013513513513513514 0.0013513513513513514 0.0013513513513513514 0.0013513513513513514
0.0013513513513513514 0.0013513513513513514 0.0013513513513513514 0.0013513513513513514 0.0013513513513513514 0.0013513513513513514 0.0013513513513513514 0.0013513513513513514
0.0013513513513513514 0.0013513513513513514 0.0013513513513513514 0.0013513513513513514 0.0013513513513513514 0.0013513513513513514 0.0013513513513513514 0.0013513513513513514
0.0013513513513513514 0.0013513513513513514 0.0013513513513513514 0.0013513513513513514 0.0013513513513513514 0.0013513513513513514 0.0013513513513513514 0.0013513513513513514
0.0013513513513513514 0.0013513513513513514 0.0013513513513513514 0.0013513513513513514 0.0013513513513513514 0.0013513513513513514 0.0013513513513513514 0.0013513513513513514
0.0013513513513513514 0.0013513513513513514 0.0013513513513513514 0.0013513513513513514 0.0013513513513513514 0.0013513513513513514 0.0013513513513513514 0.0013513513513513514
0.0013513513513513514 0.0013513513513513514 0.0013513513513513514 0.0013513513513513514 0.0013513513513513514 0.0013513513513513514 0.0013513513513513514 0.0013513513513513514
0.0013513513513513514 0.0013513513513513514 0.0013513513513513514 0.0013513513513513514 0.0013513513513513514 0.0013513513513513514 0.0013513513513513514 0.0013513513513513514
0.0013513513513513514 0.0013513513513513514 0.0013513513513513514 0.0013513513513513514 0.0013513513513513514 0.0013513513513513514 0.0013513513513513514 0.0013513513513513514
0.0013513513513513514 0.0013513513513513514 0.0013513513513513514 0.0013513513513513514 0.0013513513513513514 0.0013513513513513514 0.0013513513513513514 0.0013513513513513514
0.0013513513513513514 0.0013513513513513514 0.0013513513513513514 0.0013513513513513514 0.0013513513513513514 0.0013513513513513514 0.0013513513513513514 0.0013513513513513514
0.0013513513513513514 0.0013513513513513514 0.0013513513513513514 0.0013513513513513514 0.0013513513513513514 0.0013513513513513514 0.0013513513513513514 0.0013513513513513514
00000000: 4062 0177 fa23 563f 4062 0177 fa23 563f
00000010: 4062 0177 fa23 563f 4062 0177 fa23 563f
00000020: 4062 0177 fa23 563f 4062 0177 fa23 563f
00000030: 4062 0177 fa23 563f 4062 0177 fa23 563f
00000040: 4062 0177 fa23 563f 4062 0177 fa23 563f
00000050: 4062 0177 fa23 563f 4062 0177 fa23 563f
00000060: 4062 0177 fa23 563f 4062 0177 fa23 563f
00000070: 4062 0177 fa23 563f 4062 0177 fa23 563f
00000080: 4062 0177 fa23 563f 4062 0177 fa23 563f
00000090: 4062 0177 fa23 563f 4062 0177 fa23 563f
000000a0: 4062 0177 fa23 563f 4062 0177 fa23 563f
000000b0: 4062 0177 fa23 563f 4062 0177 fa23 563f
000000c0: 4062 0177 fa23 563f 4062 0177 fa23 563f
000000d0: 4062 0177 fa23 563f 4062 0177 fa23 563f
000000e0: 4062 0177 fa23 563f 4062 0177 fa23 563f
000000f0: 4062 0177 fa23 563f 4062 0177 fa23 563f
00000100: 4062 0177 fa23 563f 4062 0177 fa23 563f
00000110: 4062 0177 fa23 563f 4062 0177 fa23 563f
00000120: 4062 0177 fa23 563f 4062 0177 fa23 563f
00000130: 4062 0177 fa23 563f 4062 0177 fa23 563f
00000140: 4062 0177 fa23 563f 4062 0177 fa23 563f
00000150: 4062 0177 fa23 563f 4062 0177 fa23 563f
00000160: 4062 0177 fa23 563f 4062 0177 fa23 563f
00000170: 4062 0177 fa23 563f 4062 0177 fa23 563f
00000180: 4062 0177 fa23 563f 4062 0177 fa23 563f
00000190: 4062 0177 fa23 563f 4062 0177 fa23 563f
000001a0: 4062 0177 fa23 563f 4062 0177 fa23 563f
000001b0: 4062 0177 fa23 563f 4062 0177 fa23 563f
000001c0: 4062 0177 fa23 563f 4062 0177 fa23 563f
000001d0: 4062 0177 fa23 563f 4062 0177 fa23 563f
000001e0: 4062 0177 fa23 563f 4062 0177 fa23 563f
000001f0: 4062 0177 fa23 563f 4062 0177 fa23 563f
00000200: 4062 0177 fa23 563f 4062 0177 fa23 563f
00000210: 4062 0177 fa23 563f 4062 0177 fa23 563f
00000220: 4062 0177 fa23 563f 4062 0177 fa23 563f
00000230: 4062 0177 fa23 563f 4062 0177 fa23 563f
00000240: 4062 0177 fa23 563f 4062 0177 fa23 563f
00000250: 4062 0177 fa23 563f 4062 0177 fa23 563f
00000260: 4062 0177 fa23 563f 4062 0177 fa23 563f
00000270: 4062 0177 fa23 563f 4062 0177 fa23 563f
00000280: 4062 0177 fa23 563f 4062 0177 fa23 563f
00000290: 4062 0177 fa23 563f 4062 0177 fa23 563f
000002a0: 4062 0177 fa23 563f 4062 0177 fa23 563f
000002b0: 4062 0177 fa23 563f 4062 0177 fa23 563f
000002c0: 4062 0177 fa23 563f 4062 0177 fa23 563f
000002d0: 4062 0177 fa23 563f 4062 0177 fa23 563f
000002e0: 4062 0177 fa23 563f 4062 0177 fa23 563f
000002f0: 4062 0177 fa23 563f 4062 0177 fa23 563f
00000300: 4062 0177 fa23 563f 4062 0177 fa23 563f
00000310: 4062 0177 fa23 563f 4062 0177 fa23 563f
00000320: 4062 0177 fa23 563f 4062 0177 fa23 563f
00000330: 4062 0177 fa23 563f 4062 0177 fa23 563f
00000340: 4062 0177 fa23 563f 4062 0177 fa23 563f
00000350: 4062 0177 fa23 563f 4062 0177 fa23 563f
00000360: 4062 0177 fa23 563f 4062 0177 fa23 563f
00000370: 4062 0177 fa23 563f 4062 0177 fa23 563f
00000380: 4062 0177 fa23 563f 4062 0177 fa23 563f
00000390: 4062 0177 fa23 563f 4062 0177 fa23 563f
000003a0: 4062 0177 fa23 563f 4062 0177 fa23 563f
000003b0: 4062 0177 fa23 563f 4062 0177 fa23 563f
000003c0: 4062 0177 fa23 563f 4062 0177 fa23 563f
000003d0: 4062 0177 fa23 563f 4062 0177 fa23 563f
000003e0: 4062 0177 fa23 563f 4062 0177 fa23 563f
000003f0: 4062 0177 fa23 563f 4062 0177 fa23 563f
00000400: 4062 0177 fa23 563f 4062 0177 fa23 563f
00000410: 4062 0177 fa23 563f 4062 0177 fa23 563f
00000420: 4062 0177 fa23 563f 4062 0177 fa23 563f
00000430: 4062 0177 fa23 563f 4062 0177 fa23 563f
00000440: 4062 0177 fa23 563f 4062 0177 fa23 563f
00000450: 4062 0177 fa23 563f 4062 0177 fa23 563f
00000460: 4062 0177 fa23 563f 4062 0177 fa23 563f
00000470: 4062 0177 fa23 563f 4062 0177 fa23 563f
00000480: 4062 0177 fa23 563f 4062 0177 fa23 563f
00000490: 4062 0177 fa23 563f 4062 0177 fa23 563f
000004a0: 4062 0177 fa23 563f 4062 0177 fa23 563f
000004b0: 4062 0177 fa23 563f 4062 0177 fa23 563f
000004c0: 4062 0177 fa23 563f 4062 0177 fa23 563f
000004d0: 4062 0177 fa23 563f 4062 0177 fa23 563f
000004e0: 4062 0177 fa23 563f 4062 0177 fa23 563f
000004f0: 4062 0177 fa23 563f 4062 0177 fa23 563f
00000500: 4062 0177 fa23 563f 4062 0177 fa23 563f
00000510: 4062 0177 fa23 563f 4062 0177 fa23 563f
00000520: 4062 0177 fa23 563f 4062 0177 fa23 563f
00000530: 4062 0177 fa23 563f 4062 0177 fa23 563f
00000540: 4062 0177 fa23 563f 4062 0177 fa23 563f
00000550: 4062 0177 fa23 563f 4062 0177 fa23 563f
00000560: 4062 0177 fa23 563f 4062 0177 fa23 563f
00000570: 4062 0177 fa23 563f 4062 0177 fa23 563f
00000580: 4062 0177 fa23 563f 4062 0177 fa23 563f
00000590: 4062 0177 fa23 563f 4062 0177 fa23 563f
000005a0: 4062 0177 fa23 563f 4062 0177 fa23 563f
000005b0: 4062 0177 fa23 563f 4062 0177 fa23 563f
000005c0: 4062 0177 fa23 563f 4062 0177 fa23 563f
000005d0: 4062 0177 fa23 563f 4062 0177 fa23 563f
000005e0: 4062 0177 fa23 563f 4062 0177 fa23 563f
000005f0: 4062 0177 fa23 563f 4062 0177 fa23 563f
00000600: 4062 0177 fa23 563f 4062 0177 fa23 563f
00000610: 4062 0177 fa23 563f 4062 0177 fa23 563f
00000620: 4062 0177 fa23 563f 4062 0177 fa23 563f
00000630: 4062 0177 fa23 563f 4062 0177 fa23 563f
00000640: 4062 0177 fa23 563f 4062 0177 fa23 563f
00000650: 4062 0177 fa23 563f 4062 0177 fa23 563f
00000660: 4062 0177 fa23 563f 4062 0177 fa23 563f
00000670: 4062 0177 fa23 563f 4062 0177 fa23 563f
00000680: 4062 0177 fa23 563f 4062 0177 fa23 563f
00000690: 4062 0177 fa23 563f 4062 0177 fa23 563f
000006a0: 4062 0177 fa23 563f 4062 0177 fa23 563f
000006b0: 4062 0177 fa23 563f 4062 0177 fa23 563f
000006c0: 4062 0177 fa23 563f 4062 0177 fa23 563f
000006d0: 4062 0177 fa23 563f 4062 0177 fa23 563f
000006e0: 4062 0177 fa23 563f 4062 0177 fa23 563f
000006f0: 4062 0177 fa23 563f 4062 0177 fa23 563f
00000700: 4062 0177 fa23 563f 4062 0177 fa23 563f
00000710: 4062 0177 fa23 563f 4062 0177 fa23 563f
00000720: 4062 0177 fa23 563f 4062 0177 fa23 563f
00000730: 4062 0177 fa23 563f 4062 0177 fa23 563f
00000740: 4062 0177 fa23 563f 4062 0177 fa23 563f
00000750: 4062 0177 fa23 563f 4062 0177 fa23 563f
00000760: 4062 0177 fa23 563f 4062 0177 fa23 563f
00000770: 4062 0177 fa23 563f 4062 0177 fa23 563f
00000780: 4062 0177 fa23 563f 4062 0177 fa23 563f
00000790: 4062 0177 fa23 563f 4062 0177 fa23 563f
000007a0: 4062 0177 fa23 563f 4062 0177 fa23 563f
000007b0: 4062 0177 fa23 563f 4062 0177 fa23 563f
000007c0: 4062 0177 fa23 563f 4062 0177 fa23 563f
000007d0: 4062 0177 fa23 563f 4062 0177 fa23 563f
000007e0: 4062 0177 fa23 563f 4062 0177 fa23 563f
000007f0: 4062 0177 fa23 563f 4062 0177 fa23 563f
