OASIS3_VNN_NeurIPS/test38.pth (torch, 10139 bytes, 5 tensors)

GFL.0.weight f8 [5, 1, 6, 1]
00000000: 51c6 dfb1 40b6 fdbf c634 fe14 3c39 abbf
00000010: 2081 2c26 7298 c3bf 4168 ede5 ffbb b3bf
00000020: 2dba efae 8570 d93f 8193 af7b 08ab c6bf
00000030: 9ee2 d612 e580 d5bf a3fa 0536 20c6 d13f
00000040: a0b0 1b02 b377 c93f ebaf 469b 14a1 b8bf
00000050: 3850 280e e44d 503f fafb 995d 30c3 a43f
00000060: daea 3737 833d f33f f457 c1ee a697 d23f
00000070: dc89 a632 0d0c e1bf 3986 3e08 ba8d d2bf
00000080: 8d94 bd9d 69bc aa3f 4e65 09a8 0c9b b83f
00000090: 1242 49ba 7cb2 c33f ea66 d465 105e a4bf
000000a0: 6bd8 4a87 b72d bb3f 09d5 c56d 9529 c8bf
000000b0: ec18 6589 dfb5 c7bf 6e40 e72b 9964 b73f
000000c0: 1089 f533 9345 f63f 005b 5ff4 ae27 b03f
000000d0: 1ba7 410d b40e c6bf 6680 7759 c455 d4bf
000000e0: f28f 319b 2c7a e6bf 7b0b 7607 a782 debf
-1.856995291538983 -0.05317104107153052 -0.15308977951009073 -0.07708739627324325 0.39749281009327114 -0.17709451712940097 -0.3359921154001685 0.27771764064520194
0.19896543124139487 -0.09620789328499739 0.0009951331236424232 0.040551673341717234 1.2025177151651207 0.2905061084360334 -0.5327211369770413 -0.2899003105650056
0.05221872377914236 0.0961158666845183 0.15388449760440942 -0.03978015177763246 0.10616633465801477 -0.188769034004203 -0.1852378292916862 0.09137875863894049
1.3919860868123273 0.06310552087903076 -0.17232370993888754 -0.3177348016452072 -0.7024138480305722 -0.47672439316391263

GFL.0.bias f8 [5, 1]
00000000: 51c4 f432 4b6f 0040 51ea 40a0 6958 0140
00000010: d177 c2c6 35c9 0340 2f9e ff30 4b37 0040
00000020: dd8b 1d15 1869 ec3f
2.054342649550144 2.1681702155886247 2.473247101602262 2.0269988849647897 0.8878288662348229

GFL.3.weight f8 [5, 1, 10, 5]
00000000: 2b80 f874 9181 e4bf 1da8 d38c 4ad3 c3bf
00000010: 2d41 3eed 8e63 ee3f d528 86ca 4c8f d73f
00000020: 58dc d2a0 6edf fd3f 3936 b69d 3a6e d83f
00000030: b8ef 6dc9 8033 d53f 8683 4a54 4031 c43f
00000040: 0063 018b 8032 d13f 4401 4cb8 78e8 e43f
00000050: adc8 8032 2ad8 db3f b0db 3fe9 a620 d43f
00000060: 629b 6c61 6c6c adbf 59f8 5829 b408 cc3f
00000070: 5905 528b 6135 d93f 4d1d e2dc 40ff db3f
00000080: d5bd ae70 7f6c db3f 97e1 88cc 899a a4bf
00000090: 2616 5543 81de c43f 8a84 ea60 ed0f ce3f
000000a0: cd03 46cf c411 e43f cdf5 4fbc ffec db3f
000000b0: a80a b88f b7d3 c83f bc36 088d 6c88 ce3f
000000c0: 3992 7b7c f73c d03f 1d96 8276 cef3 e23f
000000d0: 8d4e 3d1d 4920 df3f 53ca 8f25 3687 c23f
000000e0: a13f 5cd9 e25e d83f 623a 7eb0 ab81 d93f
000000f0: f01f b9f3 cccd e33f 59a7 8044 667b d33f
00000100: 28b8 4683 8a64 c03f 92b8 6315 48cf ce3f
00000110: d741 3b46 f154 d83f e233 cfb8 0001 e63f
00000120: ba4f f1d4 abcf d93f 6d18 2638 6ac3 c43f
00000130: b91a 3b48 7493 ca3f f4ca 6066 e087 de3f
00000140: 9c97 8b7d 6d3f e03f 72fa 39e5 4ba4 dc3f
00000150: 0ca8 a565 0f1b b1bf f349 74e8 a1a9 d03f
00000160: 4ff9 e57a 6942 d13f 0293 67a9 911a e13f
00000170: 9953 ecc5 a1dc d83f eb44 da8d 0e49 a0bf
00000180: c4ec aedd 833f ce3f 34d6 e336 c3ee d43f
00000190: 3f43 592e cf0c e13f 439c d97c 4727 e53f
000001a0: 6166 5c1c 4dde f73f 583c f481 d0c6 e33f
000001b0: 512b a768 e374 ef3f 700e bdf2 6504 ee3f
000001c0: e38b bf84 6dcc ea3f f214 d1c7 6e71 f33f
000001d0: 1d3a 7315 ca56 e73f 5f3f cd64 2f61 d83f
000001e0: 64dd cf84 27c5 f03f b2c9 f62b 6171 ed3f
000001f0: 246f 68cf 8ff0 f03f 8887 810a 16be e83f
00000200: 3b71 d747 1aa7 d43f df64 6c8f 910f f13f
00000210: df08 a5d7 39c6 e63f 3163 1e90 c29a ef3f
00000220: a60f f1aa 9dc2 e73f e040 7016 a3c8 d23f
00000230: 7f8b 47cf 33ce f03f 7916 f51b 1fb2 ec3f
00000240: c868 2c6a 6f50 f23f 79ef 9e7b 8c87 e33f
00000250: ca2e 4ec9 1a8e cb3f 8446 7753 5f12 f03f
00000260: 9ae8 00f2 5617 e73f 77cc e903 1b0a f03f
00000270: a8e3 4d9a a97c e93f 2f13 1a73 c16a d93f
00000280: 2240 20ee 1e69 f23f 314f 968b 1c63 ee3f
00000290: 13c7 ce3a 5dce ed3f 1ac6 17b0 533c e93f
000002a0: 4b56 caa9 5f59 cb3f d556 de49 0900 f13f
000002b0: ab38 b254 96ea ed3f ea2b f90d 7f9c f13f
000002c0: c7cd 7c27 7ff5 e23f 5b47 e96e e775 dd3f
000002d0: 732b 08c0 ca50 ef3f 229c ccd1 be68 eb3f
000002e0: e177 b1ee 2aa4 f03f b7d5 efa2 2be4 e63f
000002f0: e684 836d bd32 d53f a8d3 3773 a7a0 f23f
00000300: 5891 f3db ca1f ec3f 2c5d 891f da05 f13f
00000310: e4b8 9666 07e2 e43f d915 d59b 8375 cd3f
00000320: ba71 44cf 3b31 e43f ca6e 9a7e 1d68 e43f
00000330: 3deb 5945 317a f43f 5a63 5126 7588 e83f
00000340: c486 1cb9 b5c3 ec3f c867 61e9 723c f03f
00000350: 8dea 72fc e9f4 e93f 9f87 0e3a 0465 f13f
00000360: d9c1 f5aa 4d47 e33f 0c2a 572e 597b d83f
00000370: 8593 3a0a 0d4e f13f 250d d83b 505e eb3f
00000380: 4f33 1bd1 6272 f23f 8829 b7fa be05 e43f
00000390: 9da3 54af 679b d13f 686f c64b 421f f23f
000003a0: b436 af34 1b01 eb3f 0567 e143 22b5 ef3f
000003b0: 10c4 bad3 6bdb e93f d82f 2808 9756 d43f
000003c0: 4231 7690 9f02 ed3f e226 0318 1c83 eb3f
000003d0: d5be b818 8bef f03f c81d 5c06 3fcf e23f
000003e0: 58a2 54f1 ce31 dd3f dd95 827e ee01 ec3f
000003f0: 979f 6139 2fe7 ea3f 6646 5693 f62f f23f
00000400: 3917 146c 8da4 e53f 180b 976b 9b28 e03f
00000410: 1cb4 02b4 89c6 f03f 99e1 cee1 76a4 e63f
00000420: f865 08e0 f7b8 ec3f 6024 da48 0e12 e43f
00000430: b285 4835 f874 e03f 342f 6311 5a74 f03f
00000440: 72d6 ad99 dde2 e83f 225a 3e5d c4d7 f13f
00000450: cc97 21e7 ef4f e73f ffae 010c ec67 d83f
00000460: 8d9c 8abc 56b1 f03f cd89 75ea fb28 ec3f
00000470: ebdd 0c94 40ff f03f 60ac 3922 3683 e93f
00000480: f91a ab91 9c10 df3f 8823 4a46 4f3c f03f
00000490: 517a 1c47 f7ec e73f 0f72 2313 697e ed3f
000004a0: 21c4 73e6 7e4d ea3f 49c4 698d 7b34 d03f
000004b0: 47d8 adcf 810b e13f d72d 37f2 4ff3 ea3f
000004c0: 0865 81bc 2d37 f73f ab2c add9 6c3e e43f
000004d0: db5d 8686 a797 ec3f a90e 7a9b 4d2c eb3f
000004e0: 63e0 4be3 4a11 e93f ef78 7080 863d f03f
000004f0: 897e f056 4e3c e73f 53b5 b315 ed70 da3f
00000500: 3775 df8e b4dd ef3f 4cf2 825d 5499 e53f
00000510: 08a2 4b2f 3471 f03f 66d2 cb11 7e7b e53f
00000520: 04f8 4f0d 8752 d23f 15d1 a24d a8a9 f03f
00000530: 3a5a 2cf8 ade0 ea3f 64da 1bc9 1755 f03f
00000540: c46c ebd0 a70b e13f 90ee a4a1 5b54 db3f
00000550: 8c10 884a 7974 ef3f 8e06 16b4 50c6 ed3f
00000560: 1c65 655b e05b f23f b1b2 2d00 0fbd e63f
00000570: 4031 a3df 5dc7 d03f a814 eddb ae0a ed3f
00000580: d428 b0d3 fc6b ed3f 7379 d2c1 39e2 ee3f
00000590: 7089 5f08 5c9c e63f c1fd eaee 5878 dc3f
000005a0: cdd1 85b3 e6d7 f03f 3b32 1f3a eb5f ed3f
000005b0: cd48 5828 6cbd f13f bcc2 97f6 02ce e33f
000005c0: 2edd 0111 584f d13f 1b05 cf71 3588 ed3f
000005d0: 22e9 c8ab 0e84 ec3f 6770 0232 ba2d f23f
000005e0: 843e f9e8 ed01 e23f fc15 d54a 3c1f d13f
000005f0: 90bb f611 70d7 ec3f 3fdf 2544 6673 e93f
00000600: b737 dc45 8b58 ed3f 74e0 7563 70fd e03f
00000610: c025 b197 1833 da3f d062 1349 a36f eb3f
00000620: bfa2 0930 3076 ec3f 9f7b 0429 77fb f13f
00000630: 4144 1036 edb1 e13f 4906 7e2b ad14 d33f
00000640: e83c 05cf 50cd e23f fb25 32fa fad8 e93f
00000650: c083 91f4 bbe5 f53f 783a 78f3 24cd e73f
00000660: 8699 05aa 4400 ef3f b0f7 eac2 87ff ee3f
00000670: d925 334c 46cd e73f f298 3388 6b92 f13f
00000680: 978b 225e c5b4 ea3f 3c4a 5cf6 412a e33f
00000690: 4555 2631 81de ec3f 69e3 1437 0e91 e73f
000006a0: 37bc 97ea d528 f03f 22e2 cccb 2f55 e23f
000006b0: df78 0146 0c72 e03f 8140 2c21 94f4 f13f
000006c0: 391e 03fe cfaf e93f a04d 75ca e495 ef3f
000006d0: 2ace 590b 71bd e93f 9be8 2d32 7398 db3f
000006e0: 0c8b ffae f726 f23f ee51 73fd 07d4 ed3f
000006f0: 8cec 6e23 ebd5 f13f cfcf 3d8f 72eb e73f
00000700: b8f9 7211 1ccc d53f 5129 5abd ff02 f13f
00000710: fa85 141d 0470 e93f 8c28 d401 0423 f13f
00000720: 6822 5080 b72a e33f 6a46 cf3f 6d2a e03f
00000730: e1c5 bdb5 a08c f13f 6740 0122 a926 ee3f
00000740: 2b6d 9d88 c2dd eb3f d749 24cb 67f4 e53f
00000750: 2cf9 349a eb21 dd3f 0c4d 9da6 58ae ed3f
00000760: 1045 4a76 7202 ea3f 4494 0d49 25c4 f13f
00000770: e52c dbef e925 ea3f 4423 30bf 19d9 d53f
00000780: 464a 80dd e334 f03f f620 b36c 3a81 ed3f
00000790: d0f5 242c 5882 ed3f 52ac 4f47 4fe0 e93f
000007a0: 6aa1 923b df1d d33f ac0a baad a425 f13f
000007b0: 6ff8 1768 e780 e93f 0f29 feed 1544 ef3f
000007c0: dc6e cac0 c53d e53f a7bd 187b 7f96 d33f
-0.640816429575357 -0.15488559604938326 0.949653113713827 0.3681213357709912 1.8670488626646797 0.3817278423456148 0.3312684981426588 0.15775302997374413
0.2687074048495077 0.6533778762387006 0.43506865436496406 0.31449291971460536 -0.05746782960186782 0.2190156175510676 0.393883119635651 0.4374544293463785
0.42849718097838024 -0.040241533486951635 0.16304031169617977 0.23486106140356738 0.6271690414724788 0.4363402689922083 0.19396109120869665 0.23853833090145382
0.2537211146975867 0.5922615351343584 0.48634555678766206 0.14475132783953146 0.3807913897189739 0.3985394691052645 0.6188721428125046 0.3044067067117929
0.1280682698247244 0.2407007317010011 0.3801844774107201 0.6876224145468053 0.40330024523904806 0.16221359006539462 0.20762494589708583 0.47704324720250146
0.5077426387840549 0.44752786050222604 -0.06681915504091779 0.2603535432873791 0.2696784687212998 0.5344932850535715 0.38846630409653354 -0.0318073795471124
0.23631332706813712 0.32707290993070903 0.5328136353728964 0.661044830177055 1.4917727573250874 0.6180193460621792 0.9830185932163237 0.938036893938671
0.8374545662630876 1.215193539175115 0.729344407934892 0.38093170970841145 1.0481333911864903 0.9200902804062052 1.0587308980820547 0.7732038693613825
0.322699136884484 1.0663009264447323 0.7116975032625098 0.9876416029756908 0.7425068224624638 0.29349591437586575 1.050342378316344 0.8967433496515717
1.1446375033761331 0.6102964796514093 0.2152741892754107 1.0044854412448396 0.7215990759498425 1.0024671700346326 0.7964675916438084 0.39714084854522275
1.15066426294289 0.9495985723792498 0.9314409397686368 0.7886141242326545 0.2136649684004389 1.0625088582505005 0.9348861364576541 1.1007071061928806
0.5924678584328199 0.46032129126716875 0.9786123037932682 0.8565363023416277 1.0400800060228834 0.7153528387413449 0.33122192091657465 1.1642221928316108
0.8788809104849333 1.0639287216088844 0.6525914195715612 0.23014874562265566 0.6310099647703773 0.637709376594523 1.2798321446450267 0.7666574238202017
0.8988903632600445 1.014758025782145 0.8111467295305644 1.087162234100539 0.6024540270864761 0.38252858663023015 1.0815554046214129 0.8552628678157005
1.1529262703144985 0.6257014176165265 0.2751101696217633 1.1326315841642671 0.8438850430481666 0.9908610654631224 0.8080348143904548 0.317785032239724
0.9065702268140188 0.8597546071043463 1.0584822622003476 0.5877986072745722 0.45616506164018267 0.875235793199575 0.8407207604150128 1.1367097621299762
0.6763369666011619 0.5049569226615374 1.0484711677229432 0.7075762186350857 0.8975791335716954 0.6272040770428582 0.5142785111130961 1.0284062079617344
0.7776935578865063 1.1151775019003556 0.728507949283761 0.3813428990604137 1.0432956089878502 0.8800029353408775 1.0623174460614517 0.7972670238936068
0.48538889146259084 1.0147240396201784 0.747676504983085 0.9216809629247694 0.8219599247951274 0.25320328531148967 0.5326546722633417 0.8422012072346047
1.4509713519567544 0.6326202632420935 0.8935124995650158 0.8491580998092633 0.7833609046347302 1.0150208489572454 0.7261115739856489 0.4131424629147961
0.9958136358724577 0.6749669863125489 1.0276376578787012 0.6713247630674004 0.286287081718797 1.0414202721268044 0.8399267050870727 1.0207746368229431
0.5326727943860523 0.42702379975865146 0.9829679923718841 0.9304584042840405 1.147430760398783 0.7105784419523699 0.262168377300231 0.9075540824348041
0.9194320807012226 0.9651154313649343 0.7065868533648381 0.4448454220946268 1.0527102482420674 0.9179588446800787 1.1087457252474906 0.6188978973642274
0.27046777401797584 0.922877046854555 0.8911202769443529 1.1361638978478596 0.562735514666159 0.2675314646515685 0.9012985564094027 0.7953368502630623
0.9170585979897997 0.5309373800837549 0.4093686562888159 0.8573776652584346 0.88942727453567 1.1238929369207893 0.5529695564201874 0.2981369900445299
0.587562946640813 0.8077368628157154 1.3685874513105176 0.7437920336977433 0.9687827416171764 0.9686926657666302 0.7438079345967551 1.0982470817921777
0.83456676851016 0.5989084064224879 0.9021612129169304 0.7364569736301806 1.0099696315553623 0.5728987675166233 0.5139218680667702 1.1222115798773589
0.8027114831138028 0.9870475725423837 0.8043751928038934 0.43117980861974 1.1345135532253066 0.9321327161983939 1.1147261985886727 0.7474911496815312
0.3405828638459769 1.063232173592571 0.7949238365146691 1.0710487433848668 0.5989644533265848 0.5051790472300131 1.0968329524297291 0.9422193206937778
0.8708202999363598 0.6860846488582933 0.4551953321387312 0.9275325063885318 0.8127987203935465 1.1103871205935016 0.8171281513872627 0.34137576742846343
1.0129126217258473 0.9220249293366851 0.9221611845202293 0.8086315529630019 0.2986982423558603 1.0716902528953751 0.7969853432730484 0.9770612381264828
0.6637905850834289 0.3060606672397292

GFL.3.bias f8 [5, 1]
00000000: f7c9 2fa7 0fe8 e33f 4925 aaa3 744b f83f
00000010: 9cd2 3e0d 111c f63f 133e c0f0 6046 fa3f
00000020: 894a 3aa0 2af9 f63f
0.6220777764668232 1.5184217827939668 1.3818521993063433 1.6421822933515429 1.4358316668409847

MLP.0.weight f8 [1, 740]
00000000: 4062 0177 fa23 563f 4062 0177 fa23 563f
00000010: 4062 0177 fa23 563f 4062 0177 fa23 563f
00000020: 4062 0177 fa23 563f 4062 0177 fa23 563f
00000030: 4062 0177 fa23 563f 4062 0177 fa23 563f
00000040: 4062 0177 fa23 563f 4062 0177 fa23 563f
00000050: 4062 0177 fa23 563f 4062 0177 fa23 563f
00000060: 4062 0177 fa23 563f 4062 0177 fa23 563f
00000070: 4062 0177 fa23 563f 4062 0177 fa23 563f
00000080: 4062 0177 fa23 563f 4062 0177 fa23 563f
00000090: 4062 0177 fa23 563f 4062 0177 fa23 563f
000000a0: 4062 0177 fa23 563f 4062 0177 fa23 563f
000000b0: 4062 0177 fa23 563f 4062 0177 fa23 563f
000000c0: 4062 0177 fa23 563f 4062 0177 fa23 563f
000000d0: 4062 0177 fa23 563f 4062 0177 fa23 563f
000000e0: 4062 0177 fa23 563f 4062 0177 fa23 563f
000000f0: 4062 0177 fa23 563f 4062 0177 fa23 563f
00000100: 4062 0177 fa23 563f 4062 0177 fa23 563f
00000110: 4062 0177 fa23 563f 4062 0177 fa23 563f
00000120: 4062 0177 fa23 563f 4062 0177 fa23 563f
00000130: 4062 0177 fa23 563f 4062 0177 fa23 563f
00000140: 4062 0177 fa23 563f 4062 0177 fa23 563f
00000150: 4062 0177 fa23 563f 4062 0177 fa23 563f
00000160: 4062 0177 fa23 563f 4062 0177 fa23 563f
00000170: 4062 0177 fa23 563f 4062 0177 fa23 563f
00000180: 4062 0177 fa23 563f 4062 0177 fa23 563f
00000190: 4062 0177 fa23 563f 4062 0177 fa23 563f
000001a0: 4062 0177 fa23 563f 4062 0177 fa23 563f
000001b0: 4062 0177 fa23 563f 4062 0177 fa23 563f
000001c0: 4062 0177 fa23 563f 4062 0177 fa23 563f
000001d0: 4062 0177 fa23 563f 4062 0177 fa23 563f
000001e0: 4062 0177 fa23 563f 4062 0177 fa23 563f
000001f0: 4062 0177 fa23 563f 4062 0177 fa23 563f
00000200: 4062 0177 fa23 563f 4062 0177 fa23 563f
00000210: 4062 0177 fa23 563f 4062 0177 fa23 563f
00000220: 4062 0177 fa23 563f 4062 0177 fa23 563f
00000230: 4062 0177 fa23 563f 4062 0177 fa23 563f
00000240: 4062 0177 fa23 563f 4062 0177 fa23 563f
00000250: 4062 0177 fa23 563f 4062 0177 fa23 563f
00000260: 4062 0177 fa23 563f 4062 0177 fa23 563f
00000270: 4062 0177 fa23 563f 4062 0177 fa23 563f
00000280: 4062 0177 fa23 563f 4062 0177 fa23 563f
00000290: 4062 0177 fa23 563f 4062 0177 fa23 563f
000002a0: 4062 0177 fa23 563f 4062 0177 fa23 563f
000002b0: 4062 0177 fa23 563f 4062 0177 fa23 563f
000002c0: 4062 0177 fa23 563f 4062 0177 fa23 563f
000002d0: 4062 0177 fa23 563f 4062 0177 fa23 563f
000002e0: 4062 0177 fa23 563f 4062 0177 fa23 563f
000002f0: 4062 0177 fa23 563f 4062 0177 fa23 563f
00000300: 4062 0177 fa23 563f 4062 0177 fa23 563f
00000310: 4062 0177 fa23 563f 4062 0177 fa23 563f
00000320: 4062 0177 fa23 563f 4062 0177 fa23 563f
00000330: 4062 0177 fa23 563f 4062 0177 fa23 563f
00000340: 4062 0177 fa23 563f 4062 0177 fa23 563f
00000350: 4062 0177 fa23 563f 4062 0177 fa23 563f
00000360: 4062 0177 fa23 563f 4062 0177 fa23 563f
00000370: 4062 0177 fa23 563f 4062 0177 fa23 563f
00000380: 4062 0177 fa23 563f 4062 0177 fa23 563f
00000390: 4062 0177 fa23 563f 4062 0177 fa23 563f
000003a0: 4062 0177 fa23 563f 4062 0177 fa23 563f
000003b0: 4062 0177 fa23 563f 4062 0177 fa23 563f
000003c0: 4062 0177 fa23 563f 4062 0177 fa23 563f
000003d0: 4062 0177 fa23 563f 4062 0177 fa23 563f
000003e0: 4062 0177 fa23 563f 4062 0177 fa23 563f
000003f0: 4062 0177 fa23 563f 4062 0177 fa23 563f
00000400: 4062 0177 fa23 563f 4062 0177 fa23 563f
00000410: 4062 0177 fa23 563f 4062 0177 fa23 563f
00000420: 4062 0177 fa23 563f 4062 0177 fa23 563f
00000430: 4062 0177 fa23 563f 4062 0177 fa23 563f
00000440: 4062 0177 fa23 563f 4062 0177 fa23 563f
00000450: 4062 0177 fa23 563f 4062 0177 fa23 563f
00000460: 4062 0177 fa23 563f 4062 0177 fa23 563f
00000470: 4062 0177 fa23 563f 4062 0177 fa23 563f
00000480: 4062 0177 fa23 563f 4062 0177 fa23 563f
00000490: 4062 0177 fa23 563f 4062 0177 fa23 563f
000004a0: 4062 0177 fa23 563f 4062 0177 fa23 563f
000004b0: 4062 0177 fa23 563f 4062 0177 fa23 563f
000004c0: 4062 0177 fa23 563f 4062 0177 fa23 563f
000004d0: 4062 0177 fa23 563f 4062 0177 fa23 563f
000004e0: 4062 0177 fa23 563f 4062 0177 fa23 563f
000004f0: 4062 0177 fa23 563f 4062 0177 fa23 563f
00000500: 4062 0177 fa23 563f 4062 0177 fa23 563f
00000510: 4062 0177 fa23 563f 4062 0177 fa23 563f
00000520: 4062 0177 fa23 563f 4062 0177 fa23 563f
00000530: 4062 0177 fa23 563f 4062 0177 fa23 563f
00000540: 4062 0177 fa23 563f 4062 0177 fa23 563f
00000550: 4062 0177 fa23 563f 4062 0177 fa23 563f
00000560: 4062 0177 fa23 563f 4062 0177 fa23 563f
00000570: 4062 0177 fa23 563f 4062 0177 fa23 563f
00000580: 4062 0177 fa23 563f 4062 0177 fa23 563f
00000590: 4062 0177 fa23 563f 4062 0177 fa23 563f
000005a0: 4062 0177 fa23 563f 4062 0177 fa23 563f
000005b0: 4062 0177 fa23 563f 4062 0177 fa23 563f
000005c0: 4062 0177 fa23 563f 4062 0177 fa23 563f
000005d0: 4062 0177 fa23 563f 4062 0177 fa23 563f
000005e0: 4062 0177 fa23 563f 4062 0177 fa23 563f
000005f0: 4062 0177 fa23 563f 4062 0177 fa23 563f
00000600: 4062 0177 fa23 563f 4062 0177 fa23 563f
00000610: 4062 0177 fa23 563f 4062 0177 fa23 563f
00000620: 4062 0177 fa23 563f 4062 0177 fa23 563f
00000630: 4062 0177 fa23 563f 4062 0177 fa23 563f
00000640: 4062 0177 fa23 563f 4062 0177 fa23 563f
00000650: 4062 0177 fa23 563f 4062 0177 fa23 563f
00000660: 4062 0177 fa23 563f 4062 0177 fa23 563f
00000670: 4062 0177 fa23 563f 4062 0177 fa23 563f
00000680: 4062 0177 fa23 563f 4062 0177 fa23 563f
00000690: 4062 0177 fa23 563f 4062 0177 fa23 563f
000006a0: 4062 0177 fa23 563f 4062 0177 fa23 563f
000006b0: 4062 0177 fa23 563f 4062 0177 fa23 563f
000006c0: 4062 0177 fa23 563f 4062 0177 fa23 563f
000006d0: 4062 0177 fa23 563f 4062 0177 fa23 563f
000006e0: 4062 0177 fa23 563f 4062 0177 fa23 563f
000006f0: 4062 0177 fa23 563f 4062 0177 fa23 563f
00000700: 4062 0177 fa23 563f 4062 0177 fa23 563f
00000710: 4062 0177 fa23 563f 4062 0177 fa23 563f
00000720: 4062 0177 fa23 563f 4062 0177 fa23 563f
00000730: 4062 0177 fa23 563f 4062 0177 fa23 563f
00000740: 4062 0177 fa23 563f 4062 0177 fa23 563f
00000750: 4062 0177 fa23 563f 4062 0177 fa23 563f
00000760: 4062 0177 fa23 563f 4062 0177 fa23 563f
00000770: 4062 0177 fa23 563f 4062 0177 fa23 563f
00000780: 4062 0177 fa23 563f 4062 0177 fa23 563f
00000790: 4062 0177 fa23 563f 4062 0177 fa23 563f
000007a0: 4062 0177 fa23 563f 4062 0177 fa23 563f
000007b0: 4062 0177 fa23 563f 4062 0177 fa23 563f
000007c0: 4062 0177 fa23 563f 4062 0177 fa23 563f
000007d0: 4062 0177 fa23 563f 4062 0177 fa23 563f
000007e0: 4062 0177 fa23 563f 4062 0177 fa23 563f
000007f0: 4062 0177 fa23 563f 4062 0177 fa23 563f
0.0013513513513513514 0.0013513513513513514 0.0013513513513513514 0.0013513513513513514 0.0013513513513513514 0.0013513513513513514 0.0013513513513513514 0.0013513513513513514
0.0013513513513513514 0.0013513513513513514 0.0013513513513513514 0.0013513513513513514 0.0013513513513513514 0.0013513513513513514 0.0013513513513513514 0.0013513513513513514
0.0013513513513513514 0.0013513513513513514 0.0013513513513513514 0.0013513513513513514 0.0013513513513513514 0.0013513513513513514 0.0013513513513513514 0.0013513513513513514
0.0013513513513513514 0.0013513513513513514 0.0013513513513513514 0.0013513513513513514 0.0013513513513513514 0.0013513513513513514 0.0013513513513513514 0.0013513513513513514
0.0013513513513513514 0.0013513513513513514 0.0013513513513513514 0.0013513513513513514 0.0013513513513513514 0.0013513513513513514 0.0013513513513513514 0.0013513513513513514
0.0013513513513513514 0.0013513513513513514 0.0013513513513513514 0.0013513513513513514 0.0013513513513513514 0.0013513513513513514 0.0013513513513513514 0.0013513513513513514
0.0013513513513513514 0.0013513513513513514 0.0013513513513513514 0.0013513513513513514 0.0013513513513513514 0.0013513513513513514 0.0013513513513513514 0.0013513513513513514
0.0013513513513513514 0.0013513513513513514 0.0013513513513513514 0.0013513513513513514 0.0013513513513513514 0.0013513513513513514 0.0013513513513513514 0.0013513513513513514
0.0013513513513513514 0.0013513513513513514 0.0013513513513513514 0.0013513513513513514 0.0013513513513513514 0.0013513513513513514 0.0013513513513513514 0.0013513513513513514
0.0013513513513513514 0.0013513513513513514 0.0013513513513513514 0.0013513513513513514 0.0013513513513513514 0.0013513513513513514 0.0013513513513513514 0.0013513513513513514
0.0013513513513513514 0.0013513513513513514 0.0013513513513513514 0.0013513513513513514 0.0013513513513513514 0.0013513513513513514 0.0013513513513513514 0.0013513513513513514
0.0013513513513513514 0.0013513513513513514 0.0013513513513513514 0.0013513513513513514 0.0013513513513513514 0.0013513513513513514 0.0013513513513513514 0.0013513513513513514
0.0013513513513513514 0.0013513513513513514 0.0013513513513513514 0.0013513513513513514 0.0013513513513513514 0.0013513513513513514 0.0013513513513513514 0.0013513513513513514
0.0013513513513513514 0.0013513513513513514 0.0013513513513513514 0.0013513513513513514 0.0013513513513513514 0.0013513513513513514 0.0013513513513513514 0.0013513513513513514
0.0013513513513513514 0.0013513513513513514 0.0013513513513513514 0.0013513513513513514 0.0013513513513513514 0.0013513513513513514 0.0013513513513513514 0.0013513513513513514
0.0013513513513513514 0.0013513513513513514 0.0013513513513513514 0.0013513513513513514 0.0013513513513513514 0.0013513513513513514 0.0013513513513513514 0.0013513513513513514
0.0013513513513513514 0.0013513513513513514 0.0013513513513513514 0.0013513513513513514 0.0013513513513513514 0.0013513513513513514 0.0013513513513513514 0.0013513513513513514
0.0013513513513513514 0.0013513513513513514 0.0013513513513513514 0.0013513513513513514 0.0013513513513513514 0.0013513513513513514 0.0013513513513513514 0.0013513513513513514
0.0013513513513513514 0.0013513513513513514 0.0013513513513513514 0.0013513513513513514 0.0013513513513513514 0.0013513513513513514 0.0013513513513513514 0.0013513513513513514
0.0013513513513513514 0.0013513513513513514 0.0013513513513513514 0.0013513513513513514 0.0013513513513513514 0.0013513513513513514 0.0013513513513513514 0.0013513513513513514
0.0013513513513513514 0.0013513513513513514 0.0013513513513513514 0.0013513513513513514 0.0013513513513513514 0.0013513513513513514 0.0013513513513513514 0.0013513513513513514
0.0013513513513513514 0.0013513513513513514 0.0013513513513513514 0.0013513513513513514 0.0013513513513513514 0.0013513513513513514 0.0013513513513513514 0.0013513513513513514
0.0013513513513513514 0.0013513513513513514 0.0013513513513513514 0.0013513513513513514 0.0013513513513513514 0.0013513513513513514 0.0013513513513513514 0.0013513513513513514
0.0013513513513513514 0.0013513513513513514 0.0013513513513513514 0.0013513513513513514 0.0013513513513513514 0.0013513513513513514 0.0013513513513513514 0.0013513513513513514
0.0013513513513513514 0.0013513513513513514 0.0013513513513513514 0.0013513513513513514 0.0013513513513513514 0.0013513513513513514 0.0013513513513513514 0.0013513513513513514
0.0013513513513513514 0.0013513513513513514 0.0013513513513513514 0.0013513513513513514 0.0013513513513513514 0.0013513513513513514 0.0013513513513513514 0.0013513513513513514
0.0013513513513513514 0.0013513513513513514 0.0013513513513513514 0.0013513513513513514 0.0013513513513513514 0.0013513513513513514 0.0013513513513513514 0.0013513513513513514
0.0013513513513513514 0.0013513513513513514 0.0013513513513513514 0.0013513513513513514 0.0013513513513513514 0.0013513513513513514 0.0013513513513513514 0.0013513513513513514
0.0013513513513513514 0.0013513513513513514 0.0013513513513513514 0.0013513513513513514 0.0013513513513513514 0.0013513513513513514 0.0013513513513513514 0.0013513513513513514
0.0013513513513513514 0.0013513513513513514 0.0013513513513513514 0.0013513513513513514 0.0013513513513513514 0.0013513513513513514 0.0013513513513513514 0.0013513513513513514
0.0013513513513513514 0.0013513513513513514 0.0013513513513513514 0.0013513513513513514 0.0013513513513513514 0.0013513513513513514 0.0013513513513513514 0.0013513513513513514
0.0013513513513513514 0.0013513513513513514 0.0013513513513513514 0.0013513513513513514 0.0013513513513513514 0.0013513513513513514 0.0013513513513513514 0.0013513513513513514
