OASIS3_VNN_NeurIPS/test93.pth (torch, 10139 bytes, 5 tensors)

GFL.0.weight f8 [5, 1, 6, 1]
0	0xbfcfc88524f33177	-0.2483068876666825
1	0xbfb628e7a07689fc	-0.0865616575961567
2	0xbfc16afd1d0d62ec	-0.13607753676003342
3	0x3fde1f569147ee1e	0.4706627291450064
4	0x3fb4e0e802128b4b	0.08155679751011495
5	0xbf9eb4f49da5bab4	-0.029987165567429044
6	0xbff2291075771e4d	-1.1350254620064277
7	0xbfa631bd9ad04301	-0.04334824099362856
8	0x3fa8b4a266bd3010	0.04825313095224726
9	0x3fd0ee67200f67b9	0.2645509541595135
10	0xbfd3c54a0c9c6270	-0.308916580500898
11	0x3f9846a45e415d61	0.023706978085411893
12	0x3fdbea1043920208	0.4361611041895519
13	0xbfa75fc8b29fb9f7	-0.04565264873950874
14	0xbfc1f5b0564a61a8	-0.14031032765775575
15	0x3fcdb8b02102248a	0.23219873058068102
16	0x3fce47b1fc112827	0.236562965468978
17	0x3fa55a69734b979a	0.04170541317380057
18	0xbfc2a30402ac09ad	-0.1455998433157907
19	0x3fd132156cf4b7f2	0.26868186607578004
20	0xbfce2bc0bbc54438	-0.2357102314804551
21	0x3fcc99d2bbe42e49	0.22344431089764985
22	0xbfc6a434dddd3ad6	-0.17688618500911585
23	0xbfd665feb50a4a18	-0.3499752777071605
24	0x40020577757c6011	2.252669256075031
25	0xbfce730d1609a530	-0.2378860814672321
26	0xbfcb886bd5c846b8	-0.2151007455691365
27	0xbfe27cb6134d722e	-0.5777235390665447
28	0xbfec149bbb4a1e71	-0.8775156648634505
29	0xbfe4e565f82f80f3	-0.6530027243971105

GFL.0.bias f8 [5, 1]
0	0x3ffd763bc1b84ba7	1.8413655821975483
1	0x3ff8fe29aac663b3	1.5620514555832699
2	0x3fffb7dbabf82fb7	1.9823872296865213
3	0x400301c681415df5	2.3758668993066245
4	0x3ff0ee776b77b3fd	1.0582193563416233

GFL.3.weight f8 [5, 1, 10, 5]
0	0x3fd20326cef2b712	0.2814423581101987
1	0x3fc08a052bf2f22c	0.12921204229304928
2	0x3febd2cdba6b1871	0.8694828644736515
3	0x3ff155cb703b969d	1.0834459671108683
4	0x4000d8cf15a41e96	2.10586373240569
5	0x3fe242b2b30c4083	0.5706418511417869
6	0x3fdb71cc347bb270	0.42882065892516774
7	0x3feabe0ef3e23cec	0.835700489364084
8	0x3ff0d25b79af7f8a	1.051356768926754
9	0x3ff34ff002f9db0a	1.207016002297396
10	0x3fda4cabfabfe89a	0.41092967498082944
11	0x3fe53ba5754f9414	0.6635310450770953
12	0x3feb8b502b5143b0	0.860756001095174
13	0x3fee6dcccf9f48e6	0.9509033255692685
14	0x3ff03b5c4775c332	1.0144923011213902
15	0x3fe5716097aca842	0.6700900041953519
16	0x3fdc088b6b30f5de	0.43802152126212757
17	0x3fea139b291e6416	0.814893322286596
18	0x3ff23cd05a14d4be	1.1398471373370707
19	0x3ff0341ed0e87dd1	1.0127247009730704
20	0x3fe2521d6fbf3e61	0.5725238020476803
21	0x3fe600b928ba80ca	0.6875882907370621
22	0x3feabaaf203a33c7	0.8352885846558075
23	0x3fee2eba330cc29c	0.943204021174171
24	0x3ff0a8df338b17e4	1.041228486386438
25	0x3fe2ca5273117eef	0.5871975181034638
26	0x3fe4d36065d88754	0.6508028020073007
27	0x3fe662abd3ac8dee	0.6995448240526778
28	0x3fefd93a00337e60	0.9952669147423414
29	0x3feb37fc4429e928	0.8505841571161783
30	0x3fe4a596aff8338f	0.6452134549050345
31	0x3fe22c5cca3f2c67	0.5679153394825222
32	0x3fe7caa12ded7638	0.7434850594542644
33	0x3ff15634b464171c	1.083546356823212
34	0x3fec8568fc8cc1e0	0.8912854130376751
35	0x3fdee25c4289c388	0.48256594179024903
36	0x3fdd1a11b3e0d75a	0.45471613470305317
37	0x3fec8912450ceb92	0.8917323444978698
38	0x3ff17be2d5b2dfc2	1.0927456233603015
39	0x3ff07ac149843479	1.0299694892630937
40	0x3fe51a09a145f0c1	0.6594284200541766
41	0x3fe4277e7cf73a6c	0.6298210564362541
42	0x3fe64fe20bc16ec4	0.6972513417817585
43	0x3ff2b294f0564748	1.1685990703740163
44	0x3fed124d0398465b	0.9084839887820623
45	0x3fdc872ab6bc7fcf	0.44574992986053713
46	0x3fdb54abd18edcd8	0.42704291786817583
47	0x3feb0b04df79dee7	0.8450950970427272
48	0x3ff0a65d41906dfa	1.0406162797070224
49	0x3feb5083852e6fef	0.8535783387374049
50	0x3fe10f1aa90e975a	0.5330937673468086
51	0x3fcea2e8a4d662f5	0.23934658096984376
52	0x3feaa74bba417ed4	0.8329218519029049
53	0x3ff02f66ddbd5422	1.0115727101995238
54	0x40015ca5d0757206	2.1702381406632894
55	0x3fe069a08fb02e99	0.5128939443979618
56	0x3fe1306e0149aeef	0.5371618294861643
57	0x3feca6e5bbcb81c0	0.8953732173795785
58	0x3fee2fef18b5de4e	0.9433513147950607
59	0x3ff2045c99540cf5	1.1260648717296224
60	0x3fdf1c097f29ae87	0.4860862485718162
61	0x3fe387c5b02f9a97	0.610323757279576
62	0x3fe769114d9daecc	0.7315756336151593
63	0x3fefefa682a859f0	0.9980042030245482
64	0x3fec6be092255ef2	0.8881686071790382
65	0x3fe2134a5efa2b83	0.5648547987960771
66	0x3fe416e9b2ebec77	0.6277969832002687
67	0x3fe6d586cebc90ad	0.7135652578185919
68	0x3ff2c5e86b721a69	1.1733173558328878
69	0x3fef5000fed14c2a	0.9785160996347078
70	0x3fe378ddcdfcc693	0.6085042021934036
71	0x3fe12d3144cc325d	0.5367666572288489
72	0x3fedc5d3862c1953	0.9303987141181927
73	0x3ff08d34970051eb	1.0344739817129447
74	0x3ff05264cf252d5f	1.0201156703577323
75	0x3fde52b5aaf110ce	0.47379819577714677
76	0x3fe576fdeb5df85f	0.6707753750813586
77	0x3fe7fc87369f3e7d	0.7495761935078488
78	0x3feebb1ab345063e	0.9603398801193135
79	0x3fed8082acc2aa37	0.9219373106219056
80	0x3fe0fa0a5a96f8ff	0.530522515233116
81	0x3fdd5b729f9054a9	0.458706527542129
82	0x3fe6bc98868f480b	0.7105219486350064
83	0x3ff23b71b839bbcf	1.1395127483663037
84	0x3fefb358a882f2cb	0.990642861484582
85	0x3fe1485a9679f1d4	0.5400822581282747
86	0x3fe08876138a3973	0.5166578656806408
87	0x3fe7efbb15bd645e	0.7480140137296407
88	0x3ff270efadfb9aa3	1.1525723262981635
89	0x3fec3477d123adc1	0.8814047894242593
90	0x3fe430a801005bb6	0.6309394855078299
91	0x3fe408107621775c	0.6259844119301579
92	0x3fe6fb80307a7773	0.7182007738917789
93	0x3ff237c95a5ff898	1.1386197595852874
94	0x3feff434516a6b2f	0.9985601034307815
95	0x3fdd345a8e84f6aa	0.45632041852864325
96	0x3fe2e569607d8d22	0.5905043491915516
97	0x3fec5ce95cab1a1f	0.8863417444161462
98	0x3ff23addee215354	1.1393718053779667
99	0x3fea9d13eff40cae	0.8316745459163906
100	0x3fd39f0d2c8a13b4	0.3065827307657927
101	0x3fcd9ac2df8b930d	0.2312854377297743
102	0x3fef30818a557e93	0.9746711446604926
103	0x3fec6f41341cb2d5	0.8885808961691405
104	0x400261e7c62c3b9e	2.297805355286484
105	0x3fde12ab95f980ff	0.46988954206427985
106	0x3fda27fe9ba9e5f7	0.4086910743859273
107	0x3fed72c07cb0e1c2	0.9202578006143585
108	0x3ff20c35e36fa33d	1.127981079504209
109	0x3ff1d54d46fc0100	1.1145756504848237
110	0x3fe3d5e540b74cb9	0.6198602928146989
111	0x3fe539bc29cb1e0e	0.6632977310445669
112	0x3fe9606777eaeddb	0.793018087591402
113	0x3fec21d8f1bafeb1	0.8791317673967197
114	0x3ff13b70a3dae294	1.0770117188059531
115	0x3fe4fddab0fa060d	0.6559880692076959
116	0x3fe093497a204cbe	0.5179793725277688
117	0x3fe8f519e53b1932	0.7799195744671918
118	0x3ff0d2c644cdd7e5	1.0514586150798035
119	0x3ff059ee7cbf01e2	1.0219559548278245
120	0x3fe0466e9c292904	0.5085976648345256
121	0x3fde1f72eea16a2a	0.4706694918037636
122	0x3fe84a464ed14bc8	0.7590667285352248
123	0x3fef0e6e5f40fe9f	0.9705116138865896
124	0x3feb35e675976c7e	0.8503296181401223
125	0x3fe35aeb14d02410	0.6048484236245049
126	0x3fdadd05a94c6253	0.4197401192955443
127	0x3fe647c54cca271c	0.6962610721395524
128	0x3fecc87cd1f97562	0.899473581415503
129	0x3feb06387273d499	0.8445093379401839
130	0x3fe27ea4adefd7a2	0.5779593846516387
131	0x3fe206da8f444c05	0.5633366392306703
132	0x3feaafa1219bdb32	0.833939138071264
133	0x3feee73c4ea8fad5	0.9657269989328038
134	0x3feba943115618dd	0.8644118631935062
135	0x3fe199c06b0cbf7f	0.5500185099426601
136	0x3fe3594bd8d04ea4	0.6046504244463518
137	0x3fe8bbd098d7dbe7	0.7729266152590498
138	0x3feffcdf46c178b9	0.9996181852291307
139	0x3fee4852ccd419d3	0.9463285446698201
140	0x3fdb6ef899135b73	0.4286481375578923
141	0x3fe00aa108772042	0.5012974896753877
142	0x3fe8a2ca0c4b346f	0.7698717346298859
143	0x3fef17b7fc9c7882	0.9716453489125032
144	0x3feed10b0b8acaa9	0.963017962020179
145	0x3fdf5f2c7ac74c1b	0.4901839446076239
146	0x3fe302fd942c1ad3	0.594115056418412
147	0x3feb9fdd90bdbb9b	0.8632648303008524
148	0x3fefbbcd81bc47a5	0.9916751417060722
149	0x3fe939ab4a1580e7	0.7882896849587525
150	0x3fd326f3cb6e3c0f	0.2992524611117355
151	0x3fc44b52e5521f9c	0.1585487003069347
152	0x3fef8086e006116c	0.9844393134558636
153	0x3ff097dc3087524e	1.0370752235077307
154	0x40028ccd2c6b8831	2.318750712424866
155	0x3fe373da09e530d4	0.6078920548693767
156	0x3fda6791256a7445	0.41257122663393303
157	0x3fea83631a83ee95	0.8285384672048673
158	0x3fedc66829f99f92	0.930469591124153
159	0x3ff0fb7657fe7a25	1.0613921582477215
160	0x3fe2941bcb4db8c1	0.5805796595357365
161	0x3fe2290c47dde5ed	0.5675107387207255
162	0x3fe80c11b79cb883	0.7514732919860453
163	0x3ff1ba5e0acf0e24	1.1079998419016954
164	0x3ff1d8a6ff0c46ae	1.1153936350641902
165	0x3fe5c9cd37744141	0.6808839877212806
166	0x3fe53eb9ec14b489	0.6639070139841731
167	0x3fece0988a951872	0.9024164873778899
168	0x3ff2f3c6ed3a9d2b	1.1845158831363942
169	0x3ff069d22037b9e2	1.0258351572516564
170	0x3fe1a808f83d4593	0.5517620895790735
171	0x3fe576112b97405e	0.6706624843009299
172	0x3fe69bdcc6e4872c	0.7065261730788044
173	0x3ff1abcc4c320790	1.1044428802856352
174	0x3fe986599edeaf1c	0.7976501563002532
175	0x3fdb42d8147dadd0	0.4259548378092548
176	0x3fdff9ec95ccc59d	0.4996291602029375
177	0x3fe8604f08c387f9	0.7617564364593356
178	0x3ff1f1d5825b73d2	1.1215415088729412
179	0x3fece87bea457fe2	0.9033793998350996
180	0x3fe2653cd5630006	0.5748581092557294
181	0x3fe1edff9708abda	0.5603025388603513
182	0x3fe61ee611c552b5	0.6912718150220686
183	0x3ff089000c1db5ce	1.0334473107608235
184	0x3fed16bffe7a5b6b	0.9090270967743498
185	0x3fe57e8f7d541ea8	0.6716992805313184
186	0x3fe1fe875a23a59e	0.5623204002887865
187	0x3fe5cd8f04549e2c	0.6813426098423796
188	0x3fee538f5310a7aa	0.947700178371851
189	0x3feeed0127d066c0	0.9664312150591385
190	0x3fe255a6163acd86	0.5729551729368019
191	0x3fe1bc00b38a3cf2	0.554199553169296
192	0x3fe8782fa8b4c2ad	0.764671163086026
193	0x3ff19ae10c4fecd6	1.1003122788377389
194	0x3ff0a8b607e00c24	1.0411892230629372
195	0x3fe56d5adfc870bb	0.6695989962350021
196	0x3fe4778c843aa512	0.6395933706855053
197	0x3feab3fd640c402e	0.8344714120921759
198	0x3ff3046425c445ce	1.188572070623525
199	0x3fedf2a1d6ba271a	0.9358681863679721
200	0x3fd436e1daf93363	0.3158497465527061
201	0x3f9e74d36a0d520d	0.029742530200865192
202	0x3fed16e8e4db34ce	0.9090465993737327
203	0x3fefca9c2c09f736	0.993482671750576
204	0x400198732d25fda5	2.199438431474578
205	0x3fde960631437801	0.4779067498292307
206	0x3fe1b0ff9233acc3	0.5528562407975176
207	0x3fee98dc6f6f1e45	0.9561597992369079
208	0x3ff1c8678dd8aa79	1.1114268818734259
209	0x3ff26d7b5b463167	1.1517289700887774
210	0x3fdfca212225d26f	0.49671200117817355
211	0x3fe07dda1cb3b732	0.5153627930246556
212	0x3feec00dbae22dfd	0.9609440469807279
213	0x3ff08e4014bf9105	1.0347290811997152
214	0x3feaf135bab8f7d3	0.8419445654797023
215	0x3fe32c226dd216d3	0.5991375107703
216	0x3fde73b218ebd3a6	0.4758115046855046
217	0x3fea91f571330fe4	0.8303172312666871
218	0x3ff20864103af6c3	1.1270485528943233
219	0x3feb472cf0e4eff1	0.8524384217230346
220	0x3fe11037399660dd	0.5332294583086213
221	0x3fdad3c12fe0739e	0.4191744773432279
222	0x3fee3b1e5ac21ad4	0.9447166226026078
223	0x3ff199919ec3992b	1.0999923898430761
224	0x3ff0edd648305f30	1.0580656833535151
225	0x3fe46e3e70d1525f	0.6384575084180816
226	0x3fe480a2b3b80f32	0.6407025823723187
227	0x3feb776880c4ddb5	0.8583261981029212
228	0x3ff1062e549ea4d2	1.0640090280015113
229	0x3fefd11b5fa33048	0.994275748054414
230	0x3fdf6a582637765c	0.4908657429894896
231	0x3fe5291539ac4254	0.6612650038169456
232	0x3fe707fba6f359d9	0.7197244892839151
233	0x3ff0a2f7682425c2	1.0397867267623586
234	0x3fe96f45c5c10997	0.7948330747970428
235	0x3fe2fe29fb2b95e1	0.5935258775395448
236	0x3fdb95a3162f5dfa	0.4310081211710607
237	0x3fedcf5b45c0d8b9	0.9315620767945553
238	0x3ff184e3efcef6a1	1.0949439399259193
239	0x3fecc702df2ab623	0.8992933615424515
240	0x3fe2e06a8ad53221	0.5898945533350038
241	0x3fe0d7f9fe062f8f	0.5263643227967679
242	0x3fe81bb9b8a3f191	0.7533844572313219
243	0x3ff13fd5bb85aed0	1.078084690579022
244	0x3fedb6057f6596b8	0.9284694183558804
245	0x3fdb0edf4313b076	0.4227827220008814
246	0x3fdfa28d7dbfa2c9	0.4942964294446424
247	0x3fe8c16967d6e8c9	0.7736098316302328
248	0x3ff3107481bcbc4a	1.1915173595296147
249	0x3fe9848496da9799	0.7974265047421226

GFL.3.bias f8 [5, 1]
0	0x3ff94ba83fdc0c11	1.5809710020555523
1	0x3ff8fd53052d201f	1.5618467523763753
2	0x3ff9a1929d472d12	1.60194646298152
3	0x3ff9a89ea70e429d	1.6036669278729854
4	0x3ff6bebc4a5c2478	1.4215662865338157

MLP.0.weight f8 [1, 740]
0	0x3f5623fa77016240	0.0013513513513513514
1	0x3f5623fa77016240	0.0013513513513513514
2	0x3f5623fa77016240	0.0013513513513513514
3	0x3f5623fa77016240	0.0013513513513513514
4	0x3f5623fa77016240	0.0013513513513513514
5	0x3f5623fa77016240	0.0013513513513513514
6	0x3f5623fa77016240	0.0013513513513513514
7	0x3f5623fa77016240	0.0013513513513513514
8	0x3f5623fa77016240	0.0013513513513513514
9	0x3f5623fa77016240	0.0013513513513513514
10	0x3f5623fa77016240	0.0013513513513513514
11	0x3f5623fa77016240	0.0013513513513513514
12	0x3f5623fa77016240	0.0013513513513513514
13	0x3f5623fa77016240	0.0013513513513513514
14	0x3f5623fa77016240	0.0013513513513513514
15	0x3f5623fa77016240	0.0013513513513513514
16	0x3f5623fa77016240	0.0013513513513513514
17	0x3f5623fa77016240	0.0013513513513513514
18	0x3f5623fa77016240	0.0013513513513513514
19	0x3f5623fa77016240	0.0013513513513513514
20	0x3f5623fa77016240	0.0013513513513513514
21	0x3f5623fa77016240	0.0013513513513513514
22	0x3f5623fa77016240	0.0013513513513513514
23	0x3f5623fa77016240	0.0013513513513513514
24	0x3f5623fa77016240	0.0013513513513513514
25	0x3f5623fa77016240	0.0013513513513513514
26	0x3f5623fa77016240	0.0013513513513513514
27	0x3f5623fa77016240	0.0013513513513513514
28	0x3f5623fa77016240	0.0013513513513513514
29	0x3f5623fa77016240	0.0013513513513513514
30	0x3f5623fa77016240	0.0013513513513513514
31	0x3f5623fa77016240	0.0013513513513513514
32	0x3f5623fa77016240	0.0013513513513513514
33	0x3f5623fa77016240	0.0013513513513513514
34	0x3f5623fa77016240	0.0013513513513513514
35	0x3f5623fa77016240	0.0013513513513513514
36	0x3f5623fa77016240	0.0013513513513513514
37	0x3f5623fa77016240	0.0013513513513513514
38	0x3f5623fa77016240	0.0013513513513513514
39	0x3f5623fa77016240	0.0013513513513513514
40	0x3f5623fa77016240	0.0013513513513513514
41	0x3f5623fa77016240	0.0013513513513513514
42	0x3f5623fa77016240	0.0013513513513513514
43	0x3f5623fa77016240	0.0013513513513513514
44	0x3f5623fa77016240	0.0013513513513513514
45	0x3f5623fa77016240	0.0013513513513513514
46	0x3f5623fa77016240	0.0013513513513513514
47	0x3f5623fa77016240	0.0013513513513513514
48	0x3f5623fa77016240	0.0013513513513513514
49	0x3f5623fa77016240	0.0013513513513513514
50	0x3f5623fa77016240	0.0013513513513513514
51	0x3f5623fa77016240	0.0013513513513513514
52	0x3f5623fa77016240	0.0013513513513513514
53	0x3f5623fa77016240	0.0013513513513513514
54	0x3f5623fa77016240	0.0013513513513513514
55	0x3f5623fa77016240	0.0013513513513513514
56	0x3f5623fa77016240	0.0013513513513513514
57	0x3f5623fa77016240	0.0013513513513513514
58	0x3f5623fa77016240	0.0013513513513513514
59	0x3f5623fa77016240	0.0013513513513513514
60	0x3f5623fa77016240	0.0013513513513513514
61	0x3f5623fa77016240	0.0013513513513513514
62	0x3f5623fa77016240	0.0013513513513513514
63	0x3f5623fa77016240	0.0013513513513513514
64	0x3f5623fa77016240	0.0013513513513513514
65	0x3f5623fa77016240	0.0013513513513513514
66	0x3f5623fa77016240	0.0013513513513513514
67	0x3f5623fa77016240	0.0013513513513513514
68	0x3f5623fa77016240	0.0013513513513513514
69	0x3f5623fa77016240	0.0013513513513513514
70	0x3f5623fa77016240	0.0013513513513513514
71	0x3f5623fa77016240	0.0013513513513513514
72	0x3f5623fa77016240	0.0013513513513513514
73	0x3f5623fa77016240	0.0013513513513513514
74	0x3f5623fa77016240	0.0013513513513513514
75	0x3f5623fa77016240	0.0013513513513513514
76	0x3f5623fa77016240	0.0013513513513513514
77	0x3f5623fa77016240	0.0013513513513513514
78	0x3f5623fa77016240	0.0013513513513513514
79	0x3f5623fa77016240	0.0013513513513513514
80	0x3f5623fa77016240	0.0013513513513513514
81	0x3f5623fa77016240	0.0013513513513513514
82	0x3f5623fa77016240	0.0013513513513513514
83	0x3f5623fa77016240	0.0013513513513513514
84	0x3f5623fa77016240	0.0013513513513513514
85	0x3f5623fa77016240	0.0013513513513513514
86	0x3f5623fa77016240	0.0013513513513513514
87	0x3f5623fa77016240	0.0013513513513513514
88	0x3f5623fa77016240	0.0013513513513513514
89	0x3f5623fa77016240	0.0013513513513513514
90	0x3f5623fa77016240	0.0013513513513513514
91	0x3f5623fa77016240	0.0013513513513513514
92	0x3f5623fa77016240	0.0013513513513513514
93	0x3f5623fa77016240	0.0013513513513513514
94	0x3f5623fa77016240	0.0013513513513513514
95	0x3f5623fa77016240	0.0013513513513513514
96	0x3f5623fa77016240	0.0013513513513513514
97	0x3f5623fa77016240	0.0013513513513513514
98	0x3f5623fa77016240	0.0013513513513513514
99	0x3f5623fa77016240	0.0013513513513513514
100	0x3f5623fa77016240	0.0013513513513513514
101	0x3f5623fa77016240	0.0013513513513513514
102	0x3f5623fa77016240	0.0013513513513513514
103	0x3f5623fa77016240	0.0013513513513513514
104	0x3f5623fa77016240	0.0013513513513513514
105	0x3f5623fa77016240	0.0013513513513513514
106	0x3f5623fa77016240	0.0013513513513513514
107	0x3f5623fa77016240	0.0013513513513513514
108	0x3f5623fa77016240	0.0013513513513513514
109	0x3f5623fa77016240	0.0013513513513513514
110	0x3f5623fa77016240	0.0013513513513513514
111	0x3f5623fa77016240	0.0013513513513513514
112	0x3f5623fa77016240	0.0013513513513513514
113	0x3f5623fa77016240	0.0013513513513513514
114	0x3f5623fa77016240	0.0013513513513513514
115	0x3f5623fa77016240	0.0013513513513513514
116	0x3f5623fa77016240	0.0013513513513513514
117	0x3f5623fa77016240	0.0013513513513513514
118	0x3f5623fa77016240	0.0013513513513513514
119	0x3f5623fa77016240	0.0013513513513513514
120	0x3f5623fa77016240	0.0013513513513513514
121	0x3f5623fa77016240	0.0013513513513513514
122	0x3f5623fa77016240	0.0013513513513513514
123	0x3f5623fa77016240	0.0013513513513513514
124	0x3f5623fa77016240	0.0013513513513513514
125	0x3f5623fa77016240	0.0013513513513513514
126	0x3f5623fa77016240	0.0013513513513513514
127	0x3f5623fa77016240	0.0013513513513513514
128	0x3f5623fa77016240	0.0013513513513513514
129	0x3f5623fa77016240	0.0013513513513513514
130	0x3f5623fa77016240	0.0013513513513513514
131	0x3f5623fa77016240	0.0013513513513513514
132	0x3f5623fa77016240	0.0013513513513513514
133	0x3f5623fa77016240	0.0013513513513513514
134	0x3f5623fa77016240	0.0013513513513513514
135	0x3f5623fa77016240	0.0013513513513513514
136	0x3f5623fa77016240	0.0013513513513513514
137	0x3f5623fa77016240	0.0013513513513513514
138	0x3f5623fa77016240	0.0013513513513513514
139	0x3f5623fa77016240	0.0013513513513513514
140	0x3f5623fa77016240	0.0013513513513513514
141	0x3f5623fa77016240	0.0013513513513513514
142	0x3f5623fa77016240	0.0013513513513513514
143	0x3f5623fa77016240	0.0013513513513513514
144	0x3f5623fa77016240	0.0013513513513513514
145	0x3f5623fa77016240	0.0013513513513513514
146	0x3f5623fa77016240	0.0013513513513513514
147	0x3f5623fa77016240	0.0013513513513513514
148	0x3f5623fa77016240	0.0013513513513513514
149	0x3f5623fa77016240	0.0013513513513513514
150	0x3f5623fa77016240	0.0013513513513513514
151	0x3f5623fa77016240	0.0013513513513513514
152	0x3f5623fa77016240	0.0013513513513513514
153	0x3f5623fa77016240	0.0013513513513513514
154	0x3f5623fa77016240	0.0013513513513513514
155	0x3f5623fa77016240	0.0013513513513513514
156	0x3f5623fa77016240	0.0013513513513513514
157	0x3f5623fa77016240	0.0013513513513513514
158	0x3f5623fa77016240	0.0013513513513513514
159	0x3f5623fa77016240	0.0013513513513513514
160	0x3f5623fa77016240	0.0013513513513513514
161	0x3f5623fa77016240	0.0013513513513513514
162	0x3f5623fa77016240	0.0013513513513513514
163	0x3f5623fa77016240	0.0013513513513513514
164	0x3f5623fa77016240	0.0013513513513513514
165	0x3f5623fa77016240	0.0013513513513513514
166	0x3f5623fa77016240	0.0013513513513513514
167	0x3f5623fa77016240	0.0013513513513513514
168	0x3f5623fa77016240	0.0013513513513513514
169	0x3f5623fa77016240	0.0013513513513513514
170	0x3f5623fa77016240	0.0013513513513513514
171	0x3f5623fa77016240	0.0013513513513513514
172	0x3f5623fa77016240	0.0013513513513513514
173	0x3f5623fa77016240	0.0013513513513513514
174	0x3f5623fa77016240	0.0013513513513513514
175	0x3f5623fa77016240	0.0013513513513513514
176	0x3f5623fa77016240	0.0013513513513513514
177	0x3f5623fa77016240	0.0013513513513513514
178	0x3f5623fa77016240	0.0013513513513513514
179	0x3f5623fa77016240	0.0013513513513513514
180	0x3f5623fa77016240	0.0013513513513513514
181	0x3f5623fa77016240	0.0013513513513513514
182	0x3f5623fa77016240	0.0013513513513513514
183	0x3f5623fa77016240	0.0013513513513513514
184	0x3f5623fa77016240	0.0013513513513513514
185	0x3f5623fa77016240	0.0013513513513513514
186	0x3f5623fa77016240	0.0013513513513513514
187	0x3f5623fa77016240	0.0013513513513513514
188	0x3f5623fa77016240	0.0013513513513513514
189	0x3f5623fa77016240	0.0013513513513513514
190	0x3f5623fa77016240	0.0013513513513513514
191	0x3f5623fa77016240	0.0013513513513513514
192	0x3f5623fa77016240	0.0013513513513513514
193	0x3f5623fa77016240	0.0013513513513513514
194	0x3f5623fa77016240	0.0013513513513513514
195	0x3f5623fa77016240	0.0013513513513513514
196	0x3f5623fa77016240	0.0013513513513513514
197	0x3f5623fa77016240	0.0013513513513513514
198	0x3f5623fa77016240	0.0013513513513513514
199	0x3f5623fa77016240	0.0013513513513513514
200	0x3f5623fa77016240	0.0013513513513513514
201	0x3f5623fa77016240	0.0013513513513513514
202	0x3f5623fa77016240	0.0013513513513513514
203	0x3f5623fa77016240	0.0013513513513513514
204	0x3f5623fa77016240	0.0013513513513513514
205	0x3f5623fa77016240	0.0013513513513513514
206	0x3f5623fa77016240	0.0013513513513513514
207	0x3f5623fa77016240	0.0013513513513513514
208	0x3f5623fa77016240	0.0013513513513513514
209	0x3f5623fa77016240	0.0013513513513513514
210	0x3f5623fa77016240	0.0013513513513513514
211	0x3f5623fa77016240	0.0013513513513513514
212	0x3f5623fa77016240	0.0013513513513513514
213	0x3f5623fa77016240	0.0013513513513513514
214	0x3f5623fa77016240	0.0013513513513513514
215	0x3f5623fa77016240	0.0013513513513513514
216	0x3f5623fa77016240	0.0013513513513513514
217	0x3f5623fa77016240	0.0013513513513513514
218	0x3f5623fa77016240	0.0013513513513513514
219	0x3f5623fa77016240	0.0013513513513513514
220	0x3f5623fa77016240	0.0013513513513513514
221	0x3f5623fa77016240	0.0013513513513513514
222	0x3f5623fa77016240	0.0013513513513513514
223	0x3f5623fa77016240	0.0013513513513513514
224	0x3f5623fa77016240	0.0013513513513513514
225	0x3f5623fa77016240	0.0013513513513513514
226	0x3f5623fa77016240	0.0013513513513513514
227	0x3f5623fa77016240	0.0013513513513513514
228	0x3f5623fa77016240	0.0013513513513513514
229	0x3f5623fa77016240	0.0013513513513513514
230	0x3f5623fa77016240	0.0013513513513513514
231	0x3f5623fa77016240	0.0013513513513513514
232	0x3f5623fa77016240	0.0013513513513513514
233	0x3f5623fa77016240	0.0013513513513513514
234	0x3f5623fa77016240	0.0013513513513513514
235	0x3f5623fa77016240	0.0013513513513513514
236	0x3f5623fa77016240	0.0013513513513513514
237	0x3f5623fa77016240	0.0013513513513513514
238	0x3f5623fa77016240	0.0013513513513513514
239	0x3f5623fa77016240	0.0013513513513513514
240	0x3f5623fa77016240	0.0013513513513513514
241	0x3f5623fa77016240	0.0013513513513513514
242	0x3f5623fa77016240	0.0013513513513513514
243	0x3f5623fa77016240	0.0013513513513513514
244	0x3f5623fa77016240	0.0013513513513513514
245	0x3f5623fa77016240	0.0013513513513513514
246	0x3f5623fa77016240	0.0013513513513513514
247	0x3f5623fa77016240	0.0013513513513513514
248	0x3f5623fa77016240	0.0013513513513513514
249	0x3f5623fa77016240	0.0013513513513513514
250	0x3f5623fa77016240	0.0013513513513513514
251	0x3f5623fa77016240	0.0013513513513513514
252	0x3f5623fa77016240	0.0013513513513513514
253	0x3f5623fa77016240	0.0013513513513513514
254	0x3f5623fa77016240	0.0013513513513513514
255	0x3f5623fa77016240	0.0013513513513513514
