OASIS3_VNN_NeurIPS/test29.pth (torch, 10139 bytes, 5 tensors)

GFL.0.weight f8 [5, 1, 6, 1]
-0.5048421979979029 -0.036796262975030136 -0.2930521081856497 0.19720178947610625 0.1530471444926438 -0.0648828815186509 -0.5021166358156766 -0.12002875282537544
-0.4411062629831776 0.16754165944774593 -0.38438048796028224 0.05009931856340356 1.142984632498413 -0.5554590651870375 -0.18218220537139948 -0.029517743305174544
0.05291303490579919 -0.6686608308612559 0.5354209068311191 0.25279372396708555 -0.18405557232985442 0.1871050615750648 0.03563351422406903 0.028440442561610223
2.56191811039479 -0.4389952055800413 -0.5372761832678609 -0.9036701756696535 -0.7649394526666458 -0.3070984130089813
00000000: 0356 41d3 aa27 e0bf 907f 2fb4 f5d6 a2bf
00000010: 1999 2ba1 5dc1 d2bf 599b 4182 e83d c93f
00000020: a9c9 2b80 0c97 c33f 845e 311e 2a9c b0bf
00000030: 5063 33e8 5611 e0bf a3f3 f64f 34ba bebf
00000040: 9bb4 64c3 153b dcbf 79d7 054e 0172 c53f
00000050: c2a2 409e b099 d8bf 813b 902d 9ea6 a93f
00000060: 8894 0641 aa49 f23f 84d7 e716 52c6 e1bf
00000070: 4fdd fd1a bf51 c7bf 82fc 9638 e639 9ebf
00000080: e9af e7d4 6a17 ab3f fd49 1566 ab65 e5bf
00000090: f2e5 8d06 2b22 e13f daa6 44ba c52d d03f
000000a0: 1ed2 e60b 228f c7bf 9cc3 3004 0ff3 c73f
000000b0: 52c5 7754 8e3e a23f f357 beca 7d1f 9d3f
000000c0: eb67 19ec ce7e 0440 f14a c458 7f18 dcbf
000000d0: e9c3 81d2 5d31 e1bf 44e5 5bb7 ddea ecbf
000000e0: c2f2 934d 627a e8bf 9bbb 211a 80a7 d3bf

GFL.0.bias f8 [5, 1]
2.351427031306697 1.6156437598106796 1.3669620557845967 2.291216926198865 1.0406944228689798
00000000: 1c24 b3f9 b8cf 0240 3cf9 6545 add9 f93f
00000010: fd7b c79a 13df f53f b386 308a 6954 0240
00000020: 3ba1 f531 afa6 f03f

GFL.3.weight f8 [5, 1, 10, 5]
0.8404363283316876 0.5223030416575376 0.900247132809302 0.8841463396186519 1.8456732255423978 0.8307199080800697 0.5049730657814814 0.6396367796501188
0.9027422077750075 1.2324468460998055 0.8054891513476191 0.6902427149216019 0.6017519934706397 0.8588500113587588 0.8452409778324645 0.885061764843364
0.5653573658001678 0.6145153217339774 0.9551058116933928 0.8877585979088729 0.9668062431023776 0.546102270548099 0.39091272222465095 0.8010138411809926
0.8842981846875211 0.9050673137036566 0.6271285280966632 0.5177490431020754 0.6857173303911113 0.970238304238121 0.9399459134985703 0.4270680637300693
0.5253716730882351 0.7610108718505435 0.8881538774008144 0.9488007433101152 0.45456147457656904 0.4150866941632483 0.6904963631368057 0.7975634425252522
0.9819456000304996 0.6102457788331614 0.5946483369458829 0.9309736621894629 1.0406323460391447 0.9848702742162467 0.6209115640462196 0.47237630473387504
0.7583570888598559 1.0216367278688934 0.7576324884443443 0.3105174787630843 0.8387885037119525 1.0826021792825204 2.079596360558683 0.7873803512937957
0.47680028892780524 0.6848552532775702 0.9848037268144932 1.1193895281116224 0.9403034215357639 0.49995510542459387 0.522290190705655 0.8212708622571984
0.9602844920754949 0.839657639184698 0.5032115408290824 0.3694716239287033 0.7182140009099836 0.8540575893252678 0.7936802087664343 0.38441442538745946
0.4815032543520277 0.9013275877075753 0.9237998490737275 1.0044439517193622 0.4903352186779749 0.5653606442570275 0.725823036818163 0.8962242430369968
0.8609724463398356 0.600024925212325 0.40441566809161456 0.9107445921257118 0.9489840543542403 0.7977241311298922 0.4167658688604049 0.38035802776239497
0.7828315341930897 0.8794834842328806 0.9187004355316238 0.4858208362277349 0.3758548168816524 0.6886408930822402 0.918804592421528 0.9418612411910177
0.5301225741955339 0.5634880119221577 0.8283284237401548 0.9454679612804442 0.9378529839564456 0.27064048715266986 0.8514630759484152 0.912693967434626
1.8643374418212275 0.8920726107779859 0.6184296868673866 0.5697975098482443 0.9938132688728782 1.156538892415436 0.9634840320044046 0.6493613895210179
0.46806076925549545 0.7678869020772923 0.9254292317857962 0.9227976281256726 0.5890932883662745 0.4058869786566152 0.8786132782503652 1.065110638554689
1.064239467561265 0.6274714712149839 0.4111150096093464 0.7858858817544591 0.8010175522808132 1.0245357229730188 0.5243804871375821 0.4083247716303824
0.9836977420048975 1.0232771147215247 0.9013667814235994 0.6764899388302906 0.5467536889729071 0.8503436680620841 0.8914236381292349 0.8760686344359689
0.6403890021267429 0.43349472348076495 0.9544725384633879 0.838781278703666 1.0188665189478432 0.4271561646722675 0.4100183831288102 0.7825334122588872
0.9055653758594788 1.0777825922802258 0.5394391013117238 0.544393232924163 0.7125994120741083 0.9608896484001299 0.8643531650259636 0.32901536399606446
0.8617241673848517 1.1452839690227976 1.8871656775594388 0.977731825383748 0.5525952932215279 0.6794337021891658 0.7721935795821628 1.0413230012718908
0.8294669504477662 0.47159561411811335 0.3902714535605684 1.0143406043593715 0.861528492667868 0.9657226269160185 0.5155168332001308 0.49043889282351766
0.7801403221524849 0.8653460825109202 0.9055503457935846 0.6185722540077073 0.39397840243979 0.9832939804220429 1.0195854933106026 0.9025773277801733
0.6956734429064936 0.40351651135385846 0.9618482683969556 0.9437609122229925 1.0684921936738414 0.6899034854154159 0.5668555967706116 0.8266906907528253
1.0307453244409097 0.8736857259945771 0.6908413681309176 0.557692490220473 0.7320205602479077 0.9843605784357322 1.0644129607485897 0.5008056065089629
0.6177646676547497 0.9821306852270736 1.0226098312319016 0.9790355044491635 0.5145134165554106 0.5164431614502704 1.0020707396668838 0.8951986426200438
0.7912728512436791 0.501838982548258 0.8549708907272672 1.115928911380939 1.8401167106815113 1.0169711422413412 0.5248507298860924 0.5422782619863606
0.8807944510316488 1.2298794134870117 0.8147973272502771 0.6302729606631798 0.4030988579171115 0.956826840108866 0.9063208458111104 0.9364372108868526
0.679861046309409 0.6265940451068768 0.7439180560812163 0.9435632820115842 0.9900799921460997 0.6512513582185645 0.5997775612781531 0.9828186450248627
0.8130044796165801 0.8919147263325105 0.637128954795205 0.5146285259633248 0.7969953410878408 0.893300239031829 1.0560354702623074 0.5080508389181482
0.5538498511501567 0.7825284596392176 1.0432734925919274 0.9502579491760661 0.4494600968433619 0.5594740263141673 0.8068546047543461 1.0570219746309197
1.0033137476341505 0.6212427106645951 0.49639814877408706 0.9435827052605764 0.8955576455512781 0.8534027126651769 0.601628908988381 0.6463053767385424
0.7741054272646178 0.8088032243503819
00000000: e0c1 11ba dae4 ea3f 86a7 50de b4b6 e03f
00000010: a47a 3713 d3ce ec3f 7949 b143 ed4a ec3f
00000020: 3ceb eca5 e087 fd3f 7de1 aaea 4195 ea3f
00000030: e18d 5c46 bd28 e03f 0650 3d8d e777 e43f
00000040: 8d99 63a0 43e3 ec3f 83e9 202f 1ab8 f33f
00000050: 2544 4a2f 91c6 e93f 3c7f dce3 7716 e63f
00000060: 644b 8865 8d41 e33f 2990 de04 b37b eb3f
00000070: a2f1 a0ce 360c eb3f 3f27 de0c 6d52 ec3f
00000080: 0243 9554 6817 e23f 92a0 3709 1caa e33f
00000090: 3e2a 2e10 3a90 ee3f 945d 18b8 8468 ec3f
000000a0: d22f 76a5 13f0 ee3f 51d0 0878 ab79 e13f
000000b0: b1e4 62cb b604 d93f a080 70c7 e7a1 e93f
000000c0: 6ca4 e4b4 2b4c ec3f 1725 21ba 4ff6 ec3f
000000d0: 880a d2d8 6f11 e43f 2314 f570 6691 e03f
000000e0: 6891 8a78 65f1 e53f 6fef 4033 310c ef3f
000000f0: cb86 cf73 0914 ee3f 8dbf b849 1555 db3f
00000100: ab14 4541 d8cf e03f f8f3 cf78 335a e83f
00000110: 2211 28ae c16b ec3f 79ff 5d60 935c ee3f
00000120: 4efc d402 8917 dd3f e0e5 1bc8 c790 da3f
00000130: a2be 35d4 8b18 e63f 4032 c4c4 a385 e93f
00000140: 80a0 d22d 196c ef3f 0889 d327 2287 e33f
00000150: 17b5 f9f2 5b07 e33f a650 1147 89ca ed3f
00000160: b95d 561a 6ea6 f03f 6ef6 51aa 0e84 ef3f
00000170: d52c a9ed 81de e33f 4e30 0fd3 693b de3f
00000180: 9af8 ea15 7644 e83f f96d e9c0 9f58 f03f
00000190: 852d 087d 863e e83f b1ec 07b4 84df d33f
000001a0: fa83 f6fc 5ad7 ea3f 4e8c a9a9 5652 f13f
000001b0: 62d7 ab6a 03a3 0040 293c 4a47 3832 e93f
000001c0: 02c5 ea5b e583 de3f 5045 6a90 55ea e53f
000001d0: 97b5 f41a 8383 ef3f b296 6bfe 04e9 f13f
000001e0: 2904 7a33 f716 ee3f 4814 d1b2 43ff df3f
000001f0: ca46 03eb 99b6 e03f 29ad d1d4 d947 ea3f
00000200: 423f 0a8b a6ba ee3f a950 84b2 79de ea3f
00000210: e994 da16 4f1a e03f 01b9 644f 6ca5 d73f
00000220: 9601 aeed 9bfb e63f 18af e194 7054 eb3f
00000230: 164c 8409 d465 e93f d795 49f6 3e9a d83f
00000240: 8402 9706 f3d0 de3f b0f8 05f4 acd7 ec3f
00000250: df48 7ab3 c48f ed3f 6ccb 34d2 3312 f03f
00000260: 5a21 13f8 a661 df3f 09f1 b034 6f17 e23f
00000270: 4128 ba3b f139 e73f 7f3d b776 dead ec3f
00000280: b82c 7916 168d eb3f 094c d278 6733 e33f
00000290: e661 1c41 f2e1 d93f 940a c6d7 d124 ed3f
000002a0: f60f bcce 135e ee3f 56da cdc1 f486 e93f
000002b0: b20b 36c0 4aac da3f cbac 8032 c957 d83f
000002c0: e160 b4b7 f40c e93f 15e0 448c ba24 ec3f
000002d0: abbc ad74 fe65 ed3f 4710 d446 b017 df3f
000002e0: bf3f a35c 010e d83f 1d3f 4fa0 5809 e63f
000002f0: acae 7be3 d866 ed3f e821 892f ba23 ee3f
00000300: 1d51 e19d c3f6 e03f 6699 dc02 1808 e23f
00000310: 4ff5 499c aa81 ea3f 8eb0 a306 4641 ee3f
00000320: f890 d142 e402 ee3f 96d4 527a 2c52 d13f
00000330: 7666 1e7e 2f3f eb3f 336c acfa c934 ed3f
00000340: a049 557f 53d4 fd3f 765c 1edc db8b ec3f
00000350: fe11 ff0d 2dca e33f 8b7e c4fc c73b e23f
00000360: ca79 047c 51cd ef3f 2c9f f7ec 2e81 f23f
00000370: 17ab f576 dcd4 ee3f 77e4 6889 91c7 e43f
00000380: 948c 1f28 b5f4 dd3f f45b 6e8d 8792 e83f
00000390: 6809 a9c3 1d9d ed3f 4909 34e4 8e87 ed3f
000003a0: 9c70 fa2a dad9 e23f 53f4 cc60 0dfa d93f
000003b0: 5555 fd97 991d ec3f d06c f373 b10a f13f
000003c0: 009c c4f6 1f07 f13f d552 010d 3f14 e43f
000003d0: f9ad 4a54 b54f da3f b7c0 1026 fa25 e93f
000003e0: 922d d28f efa1 e93f 990b fc91 7f64 f03f
000003f0: ac53 5d96 b9c7 e03f 7425 1339 fe21 da3f
00000400: 2dec e1af 737a ef3f 4796 e7d2 575f f03f
00000410: d348 fd25 ffd7 ec3f 252c 6b3a cea5 e53f
00000420: 4964 a397 017f e13f 9dfe 95ec 0336 eb3f
00000430: 54af 94dd 8a86 ec3f 1286 be16 c108 ec3f
00000440: 2647 9b13 117e e43f 25a9 15a7 60be db3f
00000450: da2b 34fe 098b ee3f 15f0 10d6 4bd7 ea3f
00000460: f5ec 9dfa 464d f03f e956 63cf 8656 db3f
00000470: ac02 93be bd3d da3f 0ebc b582 830a e93f
00000480: e89a 363d 64fa ec3f b0aa a0f5 983e f13f
00000490: d528 4aca 1543 e13f f055 725b ab6b e13f
000004a0: 593a 4048 9dcd e63f 2031 dea5 9bbf ee3f
000004b0: 1d61 fff7 c7a8 eb3f 10a8 0f75 960e d53f
000004c0: 92e7 a28f 3e93 eb3f 3a60 7948 1553 f23f
000004d0: 0606 34a3 d431 fe3f b502 c940 9449 ef3f
000004e0: 76eb 0953 dcae e13f 477c 56bf ebbd e53f
000004f0: ec91 4f4f cfb5 e83f be90 b04e 42a9 f03f
00000500: fb26 2946 fe8a ea3f dec1 e45e 9f2e de3f
00000510: b7b8 661e 35fa d83f 6da7 ab36 bd3a f03f
00000520: d794 9233 a491 eb3f 7b91 7323 33e7 ee3f
00000530: be39 6428 1d7f e03f e342 57cf 5963 df3f
00000540: 4bf2 3dd6 e8f6 e83f 5565 8344 eab0 eb3f
00000550: f713 02b8 44fa ec3f ada2 250a 58cb e33f
00000560: 56ca 7330 f136 d93f d885 08f0 2477 ef3f
00000570: c9eb d3e0 3850 f03f 4da9 1dd9 e9e1 ec3f
00000580: e554 bff3 f442 e63f 1e4b eaea 36d3 d93f
00000590: 3c55 0f05 76c7 ee3f 49b5 a715 4a33 ee3f
000005a0: 64c4 3d45 8b18 f13f 132e 6879 b013 e63f
000005b0: 1de6 3559 ae23 e23f f41c 1609 4074 ea3f
000005c0: 6aa8 2fcf ee7d f03f 851e 84c4 3bf5 eb3f
000005d0: f813 5b5b 5f1b e63f 6c18 d7eb 9dd8 e13f
000005e0: a675 c861 b66c e73f b34c 7bc1 e17f ef3f
000005f0: dba8 7de2 d507 f13f 8980 b37a 9906 e03f
00000600: 5a72 8668 bac4 e33f e558 ae54 9d6d ef3f
00000610: 7658 5b20 9c5c f03f b56c 2744 4254 ef3f
00000620: c8ad 2ed7 e476 e03f 0d7f 15cf b386 e03f
00000630: 5f5d f253 7b08 f03f f640 af9f 77a5 ec3f
00000640: 9ebc 4971 1b52 e93f c7e2 3ca0 100f e03f
00000650: 4b94 d6e9 eb5b eb3f 18ac 3046 d8da f13f
00000660: f533 5338 1e71 fd3f ec6f 4e88 8345 f03f
00000670: 558f 04c2 93cb e03f 3c05 12f1 575a e13f
00000680: 0cbc 35d8 772f ec3f be34 2f09 96ad f33f
00000690: 900f 2dd8 d112 ea3f 183f 3333 322b e43f
000006a0: bfc5 f326 5fcc d93f b47b 4652 539e ee3f
000006b0: 0b23 0e93 9400 ed3f 1087 702b 4bf7 ed3f
000006c0: e424 f7f3 6bc1 e53f bc46 73f4 0e0d e43f
000006d0: 1bba 383d 2dce e73f 1a47 be9f ab31 ee3f
000006e0: 3c20 563c bcae ef3f 31c7 a016 0dd7 e43f
000006f0: c60e 52b6 6031 e33f 77fc 4816 4073 ef3f
00000700: fc8c 6ef8 2104 ea3f d067 8dc0 908a ec3f
00000710: 1ec3 0543 5c63 e43f c23c 133e d677 e03f
00000720: 2a2c a15f fc80 e93f 70d2 0462 ea95 ec3f
00000730: da14 0373 85e5 f03f 607b 3bd5 f341 e03f
00000740: 55b3 b252 23b9 e13f c9de ca1f 790a e93f
00000750: d874 b78b 3fb1 f03f 1e35 cf5b 8368 ee3f
00000760: 9f26 3348 f4c3 dc3f a662 bf12 36e7 e13f
00000770: 6480 81bf c0d1 e93f 1c17 c3df 8fe9 f03f
00000780: 3874 5bb7 920d f03f b7d9 a564 38e1 e33f
00000790: bae5 b1bd fcc4 df3f d14a 855b d431 ee3f
000007a0: 7e6a ea81 68a8 ec3f 2ade a634 134f eb3f
000007b0: 3ddd 0d45 8b40 e33f 9f45 0a9d 88ae e43f
000007c0: 973e b8be 78c5 e83f e77e af4c b7e1 e93f

GFL.3.bias f8 [5, 1]
1.4668815479408246 1.341762336935933 1.510820238586879 1.5461257736578418 1.5673791323095088
00000000: ea2f 38c9 5878 f73f 524f c2c8 db77 f53f
00000010: 58d9 add7 512c f83f 60cf 1561 eebc f83f
00000020: 333c 1b24 fc13 f93f

MLP.0.weight f8 [1, 740]
0.0013513513513513514 0.0013513513513513514 0.0013513513513513514 0.0013513513513513514 0.0013513513513513514 0.0013513513513513514 0.0013513513513513514 0.0013513513513513514
0.0013513513513513514 0.0013513513513513514 0.0013513513513513514 0.0013513513513513514 0.0013513513513513514 0.0013513513513513514 0.0013513513513513514 0.0013513513513513514
0.0013513513513513514 0.0013513513513513514 0.0013513513513513514 0.0013513513513513514 0.0013513513513513514 0.0013513513513513514 0.0013513513513513514 0.0013513513513513514
0.0013513513513513514 0.0013513513513513514 0.0013513513513513514 0.0013513513513513514 0.0013513513513513514 0.0013513513513513514 0.0013513513513513514 0.0013513513513513514
0.0013513513513513514 0.0013513513513513514 0.0013513513513513514 0.0013513513513513514 0.0013513513513513514 0.0013513513513513514 0.0013513513513513514 0.0013513513513513514
0.0013513513513513514 0.0013513513513513514 0.0013513513513513514 0.0013513513513513514 0.0013513513513513514 0.0013513513513513514 0.0013513513513513514 0.0013513513513513514
0.0013513513513513514 0.0013513513513513514 0.0013513513513513514 0.0013513513513513514 0.0013513513513513514 0.0013513513513513514 0.0013513513513513514 0.0013513513513513514
0.0013513513513513514 0.0013513513513513514 0.0013513513513513514 0.0013513513513513514 0.0013513513513513514 0.0013513513513513514 0.0013513513513513514 0.0013513513513513514
0.0013513513513513514 0.0013513513513513514 0.0013513513513513514 0.0013513513513513514 0.0013513513513513514 0.0013513513513513514 0.0013513513513513514 0.0013513513513513514
0.0013513513513513514 0.0013513513513513514 0.0013513513513513514 0.0013513513513513514 0.0013513513513513514 0.0013513513513513514 0.0013513513513513514 0.0013513513513513514
0.0013513513513513514 0.0013513513513513514 0.0013513513513513514 0.0013513513513513514 0.0013513513513513514 0.0013513513513513514 0.0013513513513513514 0.0013513513513513514
0.0013513513513513514 0.0013513513513513514 0.0013513513513513514 0.0013513513513513514 0.0013513513513513514 0.0013513513513513514 0.0013513513513513514 0.0013513513513513514
0.0013513513513513514 0.0013513513513513514 0.0013513513513513514 0.0013513513513513514 0.0013513513513513514 0.0013513513513513514 0.0013513513513513514 0.0013513513513513514
0.0013513513513513514 0.0013513513513513514 0.0013513513513513514 0.0013513513513513514 0.0013513513513513514 0.0013513513513513514 0.0013513513513513514 0.0013513513513513514
0.0013513513513513514 0.0013513513513513514 0.0013513513513513514 0.0013513513513513514 0.0013513513513513514 0.0013513513513513514 0.0013513513513513514 0.0013513513513513514
0.0013513513513513514 0.0013513513513513514 0.0013513513513513514 0.0013513513513513514 0.0013513513513513514 0.0013513513513513514 0.0013513513513513514 0.0013513513513513514
0.0013513513513513514 0.0013513513513513514 0.0013513513513513514 0.0013513513513513514 0.0013513513513513514 0.0013513513513513514 0.0013513513513513514 0.0013513513513513514
0.0013513513513513514 0.0013513513513513514 0.0013513513513513514 0.0013513513513513514 0.0013513513513513514 0.0013513513513513514 0.0013513513513513514 0.0013513513513513514
0.0013513513513513514 0.0013513513513513514 0.0013513513513513514 0.0013513513513513514 0.0013513513513513514 0.0013513513513513514 0.0013513513513513514 0.0013513513513513514
0.0013513513513513514 0.0013513513513513514 0.0013513513513513514 0.0013513513513513514 0.0013513513513513514 0.0013513513513513514 0.0013513513513513514 0.0013513513513513514
0.0013513513513513514 0.0013513513513513514 0.0013513513513513514 0.0013513513513513514 0.0013513513513513514 0.0013513513513513514 0.0013513513513513514 0.0013513513513513514
0.0013513513513513514 0.0013513513513513514 0.0013513513513513514 0.0013513513513513514 0.0013513513513513514 0.0013513513513513514 0.0013513513513513514 0.0013513513513513514
0.0013513513513513514 0.0013513513513513514 0.0013513513513513514 0.0013513513513513514 0.0013513513513513514 0.0013513513513513514 0.0013513513513513514 0.0013513513513513514
0.0013513513513513514 0.0013513513513513514 0.0013513513513513514 0.0013513513513513514 0.0013513513513513514 0.0013513513513513514 0.0013513513513513514 0.0013513513513513514
0.0013513513513513514 0.0013513513513513514 0.0013513513513513514 0.0013513513513513514 0.0013513513513513514 0.0013513513513513514 0.0013513513513513514 0.0013513513513513514
0.0013513513513513514 0.0013513513513513514 0.0013513513513513514 0.0013513513513513514 0.0013513513513513514 0.0013513513513513514 0.0013513513513513514 0.0013513513513513514
0.0013513513513513514 0.0013513513513513514 0.0013513513513513514 0.0013513513513513514 0.0013513513513513514 0.0013513513513513514 0.0013513513513513514 0.0013513513513513514
0.0013513513513513514 0.0013513513513513514 0.0013513513513513514 0.0013513513513513514 0.0013513513513513514 0.0013513513513513514 0.0013513513513513514 0.0013513513513513514
0.0013513513513513514 0.0013513513513513514 0.0013513513513513514 0.0013513513513513514 0.0013513513513513514 0.0013513513513513514 0.0013513513513513514 0.0013513513513513514
0.0013513513513513514 0.0013513513513513514 0.0013513513513513514 0.0013513513513513514 0.0013513513513513514 0.0013513513513513514 0.0013513513513513514 0.0013513513513513514
0.0013513513513513514 0.0013513513513513514 0.0013513513513513514 0.0013513513513513514 0.0013513513513513514 0.0013513513513513514 0.0013513513513513514 0.0013513513513513514
0.0013513513513513514 0.0013513513513513514 0.0013513513513513514 0.0013513513513513514 0.0013513513513513514 0.0013513513513513514 0.0013513513513513514 0.0013513513513513514
00000000: 4062 0177 fa23 563f 4062 0177 fa23 563f
00000010: 4062 0177 fa23 563f 4062 0177 fa23 563f
00000020: 4062 0177 fa23 563f 4062 0177 fa23 563f
00000030: 4062 0177 fa23 563f 4062 0177 fa23 563f
00000040: 4062 0177 fa23 563f 4062 0177 fa23 563f
00000050: 4062 0177 fa23 563f 4062 0177 fa23 563f
00000060: 4062 0177 fa23 563f 4062 0177 fa23 563f
00000070: 4062 0177 fa23 563f 4062 0177 fa23 563f
00000080: 4062 0177 fa23 563f 4062 0177 fa23 563f
00000090: 4062 0177 fa23 563f 4062 0177 fa23 563f
000000a0: 4062 0177 fa23 563f 4062 0177 fa23 563f
000000b0: 4062 0177 fa23 563f 4062 0177 fa23 563f
000000c0: 4062 0177 fa23 563f 4062 0177 fa23 563f
000000d0: 4062 0177 fa23 563f 4062 0177 fa23 563f
000000e0: 4062 0177 fa23 563f 4062 0177 fa23 563f
000000f0: 4062 0177 fa23 563f 4062 0177 fa23 563f
00000100: 4062 0177 fa23 563f 4062 0177 fa23 563f
00000110: 4062 0177 fa23 563f 4062 0177 fa23 563f
00000120: 4062 0177 fa23 563f 4062 0177 fa23 563f
00000130: 4062 0177 fa23 563f 4062 0177 fa23 563f
00000140: 4062 0177 fa23 563f 4062 0177 fa23 563f
00000150: 4062 0177 fa23 563f 4062 0177 fa23 563f
00000160: 4062 0177 fa23 563f 4062 0177 fa23 563f
00000170: 4062 0177 fa23 563f 4062 0177 fa23 563f
00000180: 4062 0177 fa23 563f 4062 0177 fa23 563f
00000190: 4062 0177 fa23 563f 4062 0177 fa23 563f
000001a0: 4062 0177 fa23 563f 4062 0177 fa23 563f
000001b0: 4062 0177 fa23 563f 4062 0177 fa23 563f
000001c0: 4062 0177 fa23 563f 4062 0177 fa23 563f
000001d0: 4062 0177 fa23 563f 4062 0177 fa23 563f
000001e0: 4062 0177 fa23 563f 4062 0177 fa23 563f
000001f0: 4062 0177 fa23 563f 4062 0177 fa23 563f
00000200: 4062 0177 fa23 563f 4062 0177 fa23 563f
00000210: 4062 0177 fa23 563f 4062 0177 fa23 563f
00000220: 4062 0177 fa23 563f 4062 0177 fa23 563f
00000230: 4062 0177 fa23 563f 4062 0177 fa23 563f
00000240: 4062 0177 fa23 563f 4062 0177 fa23 563f
00000250: 4062 0177 fa23 563f 4062 0177 fa23 563f
00000260: 4062 0177 fa23 563f 4062 0177 fa23 563f
00000270: 4062 0177 fa23 563f 4062 0177 fa23 563f
00000280: 4062 0177 fa23 563f 4062 0177 fa23 563f
00000290: 4062 0177 fa23 563f 4062 0177 fa23 563f
000002a0: 4062 0177 fa23 563f 4062 0177 fa23 563f
000002b0: 4062 0177 fa23 563f 4062 0177 fa23 563f
000002c0: 4062 0177 fa23 563f 4062 0177 fa23 563f
000002d0: 4062 0177 fa23 563f 4062 0177 fa23 563f
000002e0: 4062 0177 fa23 563f 4062 0177 fa23 563f
000002f0: 4062 0177 fa23 563f 4062 0177 fa23 563f
00000300: 4062 0177 fa23 563f 4062 0177 fa23 563f
00000310: 4062 0177 fa23 563f 4062 0177 fa23 563f
00000320: 4062 0177 fa23 563f 4062 0177 fa23 563f
00000330: 4062 0177 fa23 563f 4062 0177 fa23 563f
00000340: 4062 0177 fa23 563f 4062 0177 fa23 563f
00000350: 4062 0177 fa23 563f 4062 0177 fa23 563f
00000360: 4062 0177 fa23 563f 4062 0177 fa23 563f
00000370: 4062 0177 fa23 563f 4062 0177 fa23 563f
00000380: 4062 0177 fa23 563f 4062 0177 fa23 563f
00000390: 4062 0177 fa23 563f 4062 0177 fa23 563f
000003a0: 4062 0177 fa23 563f 4062 0177 fa23 563f
000003b0: 4062 0177 fa23 563f 4062 0177 fa23 563f
000003c0: 4062 0177 fa23 563f 4062 0177 fa23 563f
000003d0: 4062 0177 fa23 563f 4062 0177 fa23 563f
000003e0: 4062 0177 fa23 563f 4062 0177 fa23 563f
000003f0: 4062 0177 fa23 563f 4062 0177 fa23 563f
00000400: 4062 0177 fa23 563f 4062 0177 fa23 563f
00000410: 4062 0177 fa23 563f 4062 0177 fa23 563f
00000420: 4062 0177 fa23 563f 4062 0177 fa23 563f
00000430: 4062 0177 fa23 563f 4062 0177 fa23 563f
00000440: 4062 0177 fa23 563f 4062 0177 fa23 563f
00000450: 4062 0177 fa23 563f 4062 0177 fa23 563f
00000460: 4062 0177 fa23 563f 4062 0177 fa23 563f
00000470: 4062 0177 fa23 563f 4062 0177 fa23 563f
00000480: 4062 0177 fa23 563f 4062 0177 fa23 563f
00000490: 4062 0177 fa23 563f 4062 0177 fa23 563f
000004a0: 4062 0177 fa23 563f 4062 0177 fa23 563f
000004b0: 4062 0177 fa23 563f 4062 0177 fa23 563f
000004c0: 4062 0177 fa23 563f 4062 0177 fa23 563f
000004d0: 4062 0177 fa23 563f 4062 0177 fa23 563f
000004e0: 4062 0177 fa23 563f 4062 0177 fa23 563f
000004f0: 4062 0177 fa23 563f 4062 0177 fa23 563f
00000500: 4062 0177 fa23 563f 4062 0177 fa23 563f
00000510: 4062 0177 fa23 563f 4062 0177 fa23 563f
00000520: 4062 0177 fa23 563f 4062 0177 fa23 563f
00000530: 4062 0177 fa23 563f 4062 0177 fa23 563f
00000540: 4062 0177 fa23 563f 4062 0177 fa23 563f
00000550: 4062 0177 fa23 563f 4062 0177 fa23 563f
00000560: 4062 0177 fa23 563f 4062 0177 fa23 563f
00000570: 4062 0177 fa23 563f 4062 0177 fa23 563f
00000580: 4062 0177 fa23 563f 4062 0177 fa23 563f
00000590: 4062 0177 fa23 563f 4062 0177 fa23 563f
000005a0: 4062 0177 fa23 563f 4062 0177 fa23 563f
000005b0: 4062 0177 fa23 563f 4062 0177 fa23 563f
000005c0: 4062 0177 fa23 563f 4062 0177 fa23 563f
000005d0: 4062 0177 fa23 563f 4062 0177 fa23 563f
000005e0: 4062 0177 fa23 563f 4062 0177 fa23 563f
000005f0: 4062 0177 fa23 563f 4062 0177 fa23 563f
00000600: 4062 0177 fa23 563f 4062 0177 fa23 563f
00000610: 4062 0177 fa23 563f 4062 0177 fa23 563f
00000620: 4062 0177 fa23 563f 4062 0177 fa23 563f
00000630: 4062 0177 fa23 563f 4062 0177 fa23 563f
00000640: 4062 0177 fa23 563f 4062 0177 fa23 563f
00000650: 4062 0177 fa23 563f 4062 0177 fa23 563f
00000660: 4062 0177 fa23 563f 4062 0177 fa23 563f
00000670: 4062 0177 fa23 563f 4062 0177 fa23 563f
00000680: 4062 0177 fa23 563f 4062 0177 fa23 563f
00000690: 4062 0177 fa23 563f 4062 0177 fa23 563f
000006a0: 4062 0177 fa23 563f 4062 0177 fa23 563f
000006b0: 4062 0177 fa23 563f 4062 0177 fa23 563f
000006c0: 4062 0177 fa23 563f 4062 0177 fa23 563f
000006d0: 4062 0177 fa23 563f 4062 0177 fa23 563f
000006e0: 4062 0177 fa23 563f 4062 0177 fa23 563f
000006f0: 4062 0177 fa23 563f 4062 0177 fa23 563f
00000700: 4062 0177 fa23 563f 4062 0177 fa23 563f
00000710: 4062 0177 fa23 563f 4062 0177 fa23 563f
00000720: 4062 0177 fa23 563f 4062 0177 fa23 563f
00000730: 4062 0177 fa23 563f 4062 0177 fa23 563f
00000740: 4062 0177 fa23 563f 4062 0177 fa23 563f
00000750: 4062 0177 fa23 563f 4062 0177 fa23 563f
00000760: 4062 0177 fa23 563f 4062 0177 fa23 563f
00000770: 4062 0177 fa23 563f 4062 0177 fa23 563f
00000780: 4062 0177 fa23 563f 4062 0177 fa23 563f
00000790: 4062 0177 fa23 563f 4062 0177 fa23 563f
000007a0: 4062 0177 fa23 563f 4062 0177 fa23 563f
000007b0: 4062 0177 fa23 563f 4062 0177 fa23 563f
000007c0: 4062 0177 fa23 563f 4062 0177 fa23 563f
000007d0: 4062 0177 fa23 563f 4062 0177 fa23 563f
000007e0: 4062 0177 fa23 563f 4062 0177 fa23 563f
000007f0: 4062 0177 fa23 563f 4062 0177 fa23 563f
