OASIS3_VNN_NeurIPS/test6.pth (torch, 10139 bytes, 5 tensors)

GFL.0.weight f8 [5, 1, 6, 1]
00000000: bfbc b416 5dc1 f43f 8f2d b3f6 7c81 c3bf
00000010: 08a7 008d 8d6c d2bf f09f 692a 9cfe cabf
00000020: 66a7 a2b2 1c67 cebf 6acc 09b0 7ec5 b6bf
00000030: c225 1ac5 185c f03f 2ad7 8877 a118 bfbf
00000040: 771c 0b29 e883 9ebf 3415 1e64 5091 dfbf
00000050: 4867 e7a2 704c cb3f 2002 db49 5f51 c2bf
00000060: 3b7e 4e61 255d f3bf e371 4709 2109 cdbf
00000070: e6ca 333c 2765 b23f dbf9 88da 0a4c b53f
00000080: 677a a26d e85d 9ebf 132f a5b4 0412 debf
00000090: c40f 1df7 5b12 f63f deab dc9d 3c5e cbbf
000000a0: a5cc abc5 ff28 e0bf 61b3 02c4 7917 d6bf
000000b0: ce94 c928 e4ce c73f 9866 3016 01e3 d0bf
000000c0: 0e70 d653 fa3f d83f 1f03 7a8f 9127 c3bf
000000d0: febe 05fe 5955 c2bf 395f d4a6 212e c23f
000000e0: 9676 f4c3 bcd3 bcbf bbca 8c4e dfeb d3bf
1.297207916922886 -0.1523891644086288 -0.28787554521351 -0.2108950812428243 -0.23752173159055728 -0.08895103261765916 1.0224845599462786 -0.12146958511661113
-0.029800059800234337 -0.49324426438427627 0.21327026323597864 -0.14310828310228008 -1.2102407265700907 -0.22684109643058922 0.07185597629340243 0.08319156489685701
-0.029655105296678388 -0.4698497547258153 1.3794822361823984 -0.213813378411344 -0.5050047741664413 -0.345182839790871 0.18600131980489326 -0.26385523955250667
0.37890489756841894 -0.14964503770536283 -0.14322972205581402 0.14203282018638122 -0.1126058557897188 -0.3112715022172485

GFL.0.bias f8 [5, 1]
00000000: 6aee 7e11 8470 f93f d6d1 1190 88b7 fe3f
00000010: 33f7 a288 417d fa3f ac35 230a 133c 0140
00000020: 39df d77d 17c8 ff3f
1.5899697001867943 1.9198079707831446 1.655580075966509 2.1543331901545653 1.9863505283119152

GFL.3.weight f8 [5, 1, 10, 5]
00000000: 428c 823b 0782 ee3f 7ee1 ac2b 396c f03f
00000010: 16fe d29b 8712 d73f 32f9 c2b6 54de f53f
00000020: 1da2 d258 9eb9 e93f 76b7 6e47 540b e33f
00000030: 5ab9 4d1a 0689 eb3f 246d f51f 4ace e43f
00000040: 675d ceec f6d4 eb3f cbc3 13ed decc e53f
00000050: 4d72 c9b4 03a6 e53f 2136 7491 cb0a e43f
00000060: 93f3 3240 445e e73f bc5e cbe9 daca eb3f
00000070: adaa 00c0 c78e eb3f a6ce fcf3 66f9 df3f
00000080: 0acc 97cc 6f54 e83f 54e4 c7ee 52c5 e53f
00000090: c199 1903 4332 ef3f 162a 5c63 b710 e93f
000000a0: 44bf 3ba4 9a8d e43f 1870 4ebb a871 e43f
000000b0: 2690 8f20 8e2d e73f 9028 19ce f715 e93f
000000c0: 0b39 876d 7fe7 e53f cc81 8b57 2bf6 e13f
000000d0: ed1e 7ba6 b5c0 e43f ffde 7f10 5004 e63f
000000e0: 06e0 2a40 9b06 ec3f a92e 7f56 70f8 e43f
000000f0: e52e 59a7 325a e13f 8e8e 1151 49f1 e93f
00000100: 4639 0902 400b e73f 8432 f95e d186 ed3f
00000110: 3cb8 9cf8 e944 e73f 6111 5712 45bd e23f
00000120: 8b73 1bd9 f8c3 e33f 2f26 fa7c 706f ec3f
00000130: 3d89 a8cd c660 ed3f 1755 6df7 90c3 e93f
00000140: 3221 88dc 0def e13f 8c6f a5cd 8597 e93f
00000150: e453 df18 fce2 e63f b667 38fc 0860 ee3f
00000160: 0b59 d342 b1b6 eb3f b583 0d91 aeef e43f
00000170: ecb0 a3dd 183f e23f 8773 b61b ccba e83f
00000180: ce74 51e5 1b6d ef3f 9406 d330 062e e63f
00000190: d880 2aee ba3e f03f 9a19 4040 e5df ef3f
000001a0: f18b c33e 27db de3f f923 7ed3 36b1 f43f
000001b0: 8772 e0b6 6eb9 e83f a769 f365 dfca e23f
000001c0: abb0 39a6 04ee e73f d43f 82a2 f939 e73f
000001d0: 0209 d48f e86d f03f c471 f0de 61e2 e53f
000001e0: f478 5d57 d92f e03f 0da9 d8ef 8bd7 e53f
000001f0: f3a2 af73 9030 e73f 360d 8d23 59f8 eb3f
00000200: 9f2a 89f2 2b9a ea3f e3e0 c97c 41cd e43f
00000210: 6b04 3602 a198 e73f 7dc5 304b 227f ea3f
00000220: 5161 1ddb 56b0 ec3f 2c62 2f95 eaba e53f
00000230: 90cb 56e0 8c6a de3f fd6f 724e 6e6c e43f
00000240: 03f3 3941 1f4e e83f 138f e390 83b9 e93f
00000250: 206b eb75 7c85 eb3f d8bc 8bad fbdb de3f
00000260: 6329 4732 1921 ea3f efb2 3b2e 4a83 ec3f
00000270: 25b2 a3a8 8c65 ee3f 729f f260 fa65 ea3f
00000280: 0bfa 3092 1e7b e03f 9b87 da52 2b55 e53f
00000290: 4a07 7a98 a85b e63f 6dd5 d778 6822 ed3f
000002a0: 4e83 3600 92c6 ec3f c0f8 41c4 dc4a df3f
000002b0: ba40 595d b662 e63f 0e98 08ad 2511 ec3f
000002c0: f4c1 5361 86a1 e93f 14ee f119 18f5 eb3f
000002d0: 7504 2557 f97a e33f 6466 1850 7948 e73f
000002e0: 07f9 c15e f0d5 ec3f 0e6b 867a dce7 ed3f
000002f0: 0bd8 58dd d17d e93f 8b94 6766 c072 df3f
00000300: 1a21 522f b15f e23f c5e8 8b28 3fbf eb3f
00000310: 996c 5e91 5e61 ee3f ad98 bfd4 b4f6 ea3f
00000320: 1758 c367 95d6 ec3f f956 bd40 7ee8 f13f
00000330: e107 356c 2bec e13f d6bb 90fe d62a f33f
00000340: 206a 670a c4f1 ee3f 8099 7dd7 159d df3f
00000350: 6f72 380b a7a8 e53f 15b4 0d61 cd70 e53f
00000360: a90e 76a7 6667 ef3f 628f 3c63 9f4c e73f
00000370: c437 810b 0b5a de3f fc9b 3a37 9bc5 e83f
00000380: c51b 71fe afef e33f 9791 41f8 2bfa e93f
00000390: abfd dc50 7b46 eb3f 6737 f9c7 4967 dd3f
000003a0: 07aa adfc 82fd e73f d8a3 488f e452 e63f
000003b0: 4eb3 4cdd 3a74 eb3f d87a fde3 c7ca e73f
000003c0: b02e e192 cd1a e13f 4731 81a4 f2a3 e63f
000003d0: 60a1 3960 9646 e63f 132d deb4 0832 ee3f
000003e0: b90f 1391 557e e43f cb05 51a4 4fc2 e33f
000003f0: 12ef 16e7 9364 e83f 5db6 c218 543f e73f
00000400: d7e5 aea8 0c41 ee3f 8882 e2c1 1223 e63f
00000410: 9176 6cfe 58fe da3f 8466 67cf ba28 e33f
00000420: f6e4 3d56 a488 ec3f aa7e b75e d1ae ef3f
00000430: 50c1 2032 d3e2 e73f 9a8c a4e4 2b77 e13f
00000440: 080d bd64 e3ec e93f ade5 ffec 710c ea3f
00000450: 9609 949b 7e81 e93f 5a92 9ae9 1c5e e83f
00000460: a8bb 7fee 9f40 e13f 33b9 0ac6 7b54 e13f
00000470: 1871 e554 d0f6 e43f 65ce e8b1 f836 ee3f
00000480: 92fa f4fe 9d9b ec3f 5a1f c121 bcec e33f
00000490: 8313 e70d 2442 e73f 978d 3a11 ff69 e93f
000004a0: f93d 64d5 eee4 ea3f 2449 fc80 7515 e93f
000004b0: b752 dbf5 d1c4 ef3f 8cfc a4a6 1767 f13f
000004c0: c11c f347 ac21 d63f 5e14 94a5 c8e9 f23f
000004d0: 1e55 21af 4ef7 ec3f a3e7 72f2 132e e43f
000004e0: 5df8 ae35 7c8f e43f d4c4 b811 4db2 e73f
000004f0: 28ca d02f 8a83 ea3f 0694 6684 a465 eb3f
00000500: 4485 e91a 9821 e53f ae6a f578 8752 e73f
00000510: a3fd af6e 7f22 e43f 1c46 2c76 255c f03f
00000520: 8a77 4710 5c28 e53f b445 2355 df4e e63f
00000530: b100 c6a0 7234 e53f 6329 8bb3 568a e73f
00000540: a9f8 5606 735f eb3f d858 c34d bc75 e63f
00000550: 5850 6b38 e29a e13f c518 49f1 81b2 e23f
00000560: 2bd1 7b05 68bf e53f a1aa 3af7 fd6c ea3f
00000570: a70b a11b b99f e73f a46e a614 4114 e33f
00000580: 3da2 49a7 0f63 ea3f ac55 cc32 1d14 e63f
00000590: c5f6 530c de96 ee3f 3173 831f f5b0 ea3f
000005a0: a4e5 d69a 9275 df3f 4b31 1d8f efc6 e83f
000005b0: 7cdb 60e7 b326 ed3f 632e 6e33 7a0e f03f
000005c0: e7bb baf6 8004 e63f 1aec cf79 b81d e53f
000005d0: 1c46 d286 95fe e73f 4b2b 3f68 c69e ea3f
000005e0: 4654 e1f6 1c1a e93f dd31 be16 1c07 e93f
000005f0: d86d 8c28 a13c e53f d04d 1ccd eebe e53f
00000600: 9edf 9114 9ab6 e73f a001 12db 45fe ef3f
00000610: 48a8 9f71 577e e93f 8fe9 4714 1614 e63f
00000620: e4fd 912a eea0 e43f 1dbd 1a46 7396 e93f
00000630: c167 3c6a 7f6e ef3f c2b2 92d1 ab9f e53f
00000640: 9cf4 cc6e 6a39 ed3f 88ee 820d 1871 eb3f
00000650: 5a89 0fc4 222c dc3f 871e 7af5 ab6b f23f
00000660: e969 5c58 2579 ed3f 018e 87ec 202a e53f
00000670: 68db 1329 e93f e73f 2f6c 4fbc 51c3 e53f
00000680: a11b 03d7 a541 eb3f 4efb f06c e2cf e93f
00000690: 462c 4acf b780 d83f c388 b06e 202e e93f
000006a0: fa83 db83 616a e33f e6e3 83cf f9fb e93f
000006b0: 4704 58ba 3dd0 e43f 3e98 24f2 8488 e13f
000006c0: 171e ce84 ab6c e83f 283f 5d8d 9265 e93f
000006d0: c622 f1a7 b32d e83f 8bf8 39e6 24a1 e73f
000006e0: ac22 1cb5 06ca dc3f 3ed5 5e46 9428 e33f
000006f0: 80dd bd81 75ac e73f 931b 8a62 5732 eb3f
00000700: 1d5a b70f 373e e83f 4d14 ac0e 46dd d93f
00000710: dea3 94d1 af66 e23f e846 d1b2 76f2 e33f
00000720: 54b2 e3df 318d ea3f a638 1de3 abba ea3f
00000730: 7840 a619 41d4 e13f 7df3 70af 4eb0 e13f
00000740: e236 a286 7cc9 e73f 6740 fd30 b75f eb3f
00000750: b5e7 b00c f4aa e93f 982d b120 0e97 e23f
00000760: 45fb 59dc 2308 e33f 5e87 4234 5883 e93f
00000770: 5ab1 367a 6177 ed3f 3fce 340d e822 e43f
00000780: 6460 1bd5 7d4d e03f 627b 4440 c1c0 e13f
00000790: aaad 40a2 c528 e83f dc29 2d80 409d ed3f
000007a0: 1a66 3e0c e4a9 e33f 2167 e144 c6b7 e43f
000007b0: 1890 795e 2938 e03f 7bb8 a0a4 8380 e83f
000007c0: b49a d20c e3fd e93f 61d1 7fe4 7ce2 e73f
0.9533725893310321 1.0264217096392652 0.3605059644432641 1.3667800082326491 0.8039085135288279 0.5951329608121643 0.8604765428297398 0.6501818298524182
0.8697466492766751 0.6812586431898294 0.6765154391283176 0.6263177719972114 0.730257153881768 0.86851258910152 0.861179232602202 0.4995972998324113
0.7603072162586397 0.6803373969734232 0.974885469488804 0.7832905712724052 0.6422856528933854 0.6388744028404316 0.7243109355881685 0.7839316392285287
0.6845090045187886 0.5612999639379779 0.6485241176205513 0.6880264589553632 0.8758064511557684 0.6553270043745744 0.5422604816935431 0.8107039054270488
0.7201232948080267 0.9227072577428577 0.727162347384144 0.585604224987531 0.6176723709464665 0.8886034432372919 0.9180635468258412 0.8051228363571309
0.5604314143429632 0.7997464195755 0.7152080999172736 0.9492230344942445 0.8660513215243396 0.6542580445349048 0.5702022866148844 0.7728024045242002
0.982068965804183 0.6931181863403304 1.015314989410447 0.996080995072407 0.48212605599672914 1.293265176909925 0.7726358005343891 0.5872647277094999
0.7478049513424784 0.7258270429610953 1.026833116368437 0.6838845590860321 0.5058409410810598 0.6825618443010925 0.7246782550328973 0.8740659422259458
0.8313197838809464 0.6500556409146409 0.7373814624007883 0.828019282204124 0.8965257911286618 0.679066935898907 0.4752533140955899 0.638236191956366
0.7595363878204754 0.8038957433568349 0.8600446990124944 0.4821767039092726 0.8165403348914818 0.891026583003251 0.9498961728800778 0.8249484914312986
0.5150292258547905 0.6666466348872179 0.6986887910900148 0.9104502067772678 0.8992395404967313 0.48894423642913054 0.6995498488631917 0.8770931605874936
0.8009673977776957 0.873668718980698 0.6087614728968577 0.7275969089852876 0.9011155939804504 0.9345533745830339 0.796608860319567 0.49137887955141285
0.5741811680063933 0.8670955459522466 0.9493859137759443 0.8426155238382954 0.901194288885338 1.119261029137702 0.5600792992993285 1.1979589408835998
0.9670124247743992 0.4939627270126934 0.6768374652052226 0.6700198073937168 0.9813721914983563 0.7281033457006567 0.4742457973815102 0.7741218641939436
0.6230087251250259 0.8117885445358749 0.8523537234649913 0.4594292118898608 0.7496962485432171 0.6976187513838523 0.8579382250078227 0.74350351838424
0.5345218533270408 0.7075131619435887 0.6961166266819809 0.9436076672149362 0.640421660755684 0.6174696168238197 0.7622775567501512 0.7264805301289915
0.9454406065553326 0.6917814051449378 0.42177414747298153 0.598721890531309 0.891679924431769 0.9900900697648087 0.7464385966359632 0.54579729706565
0.8101670234249534 0.8140191677950291 0.7970574415815459 0.7614883959364065 0.5391387613470799 0.5415629261022218 0.6551286371355074 0.944210383872314
0.8939962367656611 0.622648302008183 0.726823832658383 0.7941890083788391 0.8404459159664263 0.783869506764209 0.9927758981599116 1.0876690396833366
0.34580523516019573 1.1820761173160217 0.9051888866912667 0.6306247458771747 0.6425152824883856 0.7405152650955196 0.8285571035287989 0.8561575494719598
0.6603508496884065 0.728824363944417 0.6292111551155596 1.0224966636782318 0.6611767118408676 0.6971279776427566 0.6626523151499183 0.7356370455466216
0.855401527769364 0.7018720167932555 0.5501566984116932 0.5842904770477381 0.6796150309660666 0.8258046940512324 0.738247446024947 0.5962224391291397
0.824592425092369 0.6899553291465756 0.955916427686781 0.8341012588021838 0.4915510665992662 0.7742841525264706 0.9109744567020779 1.0035345086097542
0.6880497759756253 0.6598780039925061 0.749827159235966 0.8318817173070355 0.7844376394156221 0.7821178859899721 0.6636510650600327 0.6795572286668463
0.7410402681116357 0.9997891691892171 0.7966725558483256 0.6899519344436146 0.6446448165369785 0.7996155137279036 0.9822384905739839 0.6757411092017593
0.9132587589334835 0.8575554145713378 0.44019383570243564 1.1512870396562975 0.9210383153725249 0.661392652484608 0.7265516092582915 0.6800926855024779
0.8517636489349237 0.8066265228043024 0.3828563236535881 0.7868806993394845 0.606735951933046 0.8120087674170662 0.650420059159054 0.5479149560312704
0.7632653802729149 0.7936489830990228 0.7555788307300524 0.7384209152803732 0.44983070074571674 0.5987035154745752 0.7398021253601854 0.8498951840018542
0.7575946146924398 0.404130472496324 0.5750350087520208 0.623347615483195 0.829735696109831 0.8352870403121144 0.5571599484410532 0.5527718950830686
0.7433455113948322 0.855434032137066 0.8021183250304974 0.5809393538015 0.5947436622371717 0.7972832699490302 0.9208228480324963 0.6292610414443017
0.5094594156498826 0.5547796492790946 0.7549770516392773 0.9254457953878119 0.6144886244903234 0.6474334092447159 0.5068556637966166 0.7656877723109256
0.8122420549815019 0.7463974440457087

GFL.3.bias f8 [5, 1]
00000000: 3c8b aaf9 424d f53f 370b bdc3 2f21 f83f
00000010: 00d5 429f dbc0 f63f 65ed 2dae d0c9 f53f
00000020: c7e2 e8e2 4423 f53f
1.3313627007089073 1.5081021925004288 1.4220844479689845 1.361771278751655 1.3211106170330582

MLP.0.weight f8 [1, 740]
00000000: 4062 0177 fa23 563f 4062 0177 fa23 563f
00000010: 4062 0177 fa23 563f 4062 0177 fa23 563f
00000020: 4062 0177 fa23 563f 4062 0177 fa23 563f
00000030: 4062 0177 fa23 563f 4062 0177 fa23 563f
00000040: 4062 0177 fa23 563f 4062 0177 fa23 563f
00000050: 4062 0177 fa23 563f 4062 0177 fa23 563f
00000060: 4062 0177 fa23 563f 4062 0177 fa23 563f
00000070: 4062 0177 fa23 563f 4062 0177 fa23 563f
00000080: 4062 0177 fa23 563f 4062 0177 fa23 563f
00000090: 4062 0177 fa23 563f 4062 0177 fa23 563f
000000a0: 4062 0177 fa23 563f 4062 0177 fa23 563f
000000b0: 4062 0177 fa23 563f 4062 0177 fa23 563f
000000c0: 4062 0177 fa23 563f 4062 0177 fa23 563f
000000d0: 4062 0177 fa23 563f 4062 0177 fa23 563f
000000e0: 4062 0177 fa23 563f 4062 0177 fa23 563f
000000f0: 4062 0177 fa23 563f 4062 0177 fa23 563f
00000100: 4062 0177 fa23 563f 4062 0177 fa23 563f
00000110: 4062 0177 fa23 563f 4062 0177 fa23 563f
00000120: 4062 0177 fa23 563f 4062 0177 fa23 563f
00000130: 4062 0177 fa23 563f 4062 0177 fa23 563f
00000140: 4062 0177 fa23 563f 4062 0177 fa23 563f
00000150: 4062 0177 fa23 563f 4062 0177 fa23 563f
00000160: 4062 0177 fa23 563f 4062 0177 fa23 563f
00000170: 4062 0177 fa23 563f 4062 0177 fa23 563f
00000180: 4062 0177 fa23 563f 4062 0177 fa23 563f
00000190: 4062 0177 fa23 563f 4062 0177 fa23 563f
000001a0: 4062 0177 fa23 563f 4062 0177 fa23 563f
000001b0: 4062 0177 fa23 563f 4062 0177 fa23 563f
000001c0: 4062 0177 fa23 563f 4062 0177 fa23 563f
000001d0: 4062 0177 fa23 563f 4062 0177 fa23 563f
000001e0: 4062 0177 fa23 563f 4062 0177 fa23 563f
000001f0: 4062 0177 fa23 563f 4062 0177 fa23 563f
00000200: 4062 0177 fa23 563f 4062 0177 fa23 563f
00000210: 4062 0177 fa23 563f 4062 0177 fa23 563f
00000220: 4062 0177 fa23 563f 4062 0177 fa23 563f
00000230: 4062 0177 fa23 563f 4062 0177 fa23 563f
00000240: 4062 0177 fa23 563f 4062 0177 fa23 563f
00000250: 4062 0177 fa23 563f 4062 0177 fa23 563f
00000260: 4062 0177 fa23 563f 4062 0177 fa23 563f
00000270: 4062 0177 fa23 563f 4062 0177 fa23 563f
00000280: 4062 0177 fa23 563f 4062 0177 fa23 563f
00000290: 4062 0177 fa23 563f 4062 0177 fa23 563f
000002a0: 4062 0177 fa23 563f 4062 0177 fa23 563f
000002b0: 4062 0177 fa23 563f 4062 0177 fa23 563f
000002c0: 4062 0177 fa23 563f 4062 0177 fa23 563f
000002d0: 4062 0177 fa23 563f 4062 0177 fa23 563f
000002e0: 4062 0177 fa23 563f 4062 0177 fa23 563f
000002f0: 4062 0177 fa23 563f 4062 0177 fa23 563f
00000300: 4062 0177 fa23 563f 4062 0177 fa23 563f
00000310: 4062 0177 fa23 563f 4062 0177 fa23 563f
00000320: 4062 0177 fa23 563f 4062 0177 fa23 563f
00000330: 4062 0177 fa23 563f 4062 0177 fa23 563f
00000340: 4062 0177 fa23 563f 4062 0177 fa23 563f
00000350: 4062 0177 fa23 563f 4062 0177 fa23 563f
00000360: 4062 0177 fa23 563f 4062 0177 fa23 563f
00000370: 4062 0177 fa23 563f 4062 0177 fa23 563f
00000380: 4062 0177 fa23 563f 4062 0177 fa23 563f
00000390: 4062 0177 fa23 563f 4062 0177 fa23 563f
000003a0: 4062 0177 fa23 563f 4062 0177 fa23 563f
000003b0: 4062 0177 fa23 563f 4062 0177 fa23 563f
000003c0: 4062 0177 fa23 563f 4062 0177 fa23 563f
000003d0: 4062 0177 fa23 563f 4062 0177 fa23 563f
000003e0: 4062 0177 fa23 563f 4062 0177 fa23 563f
000003f0: 4062 0177 fa23 563f 4062 0177 fa23 563f
00000400: 4062 0177 fa23 563f 4062 0177 fa23 563f
00000410: 4062 0177 fa23 563f 4062 0177 fa23 563f
00000420: 4062 0177 fa23 563f 4062 0177 fa23 563f
00000430: 4062 0177 fa23 563f 4062 0177 fa23 563f
00000440: 4062 0177 fa23 563f 4062 0177 fa23 563f
00000450: 4062 0177 fa23 563f 4062 0177 fa23 563f
00000460: 4062 0177 fa23 563f 4062 0177 fa23 563f
00000470: 4062 0177 fa23 563f 4062 0177 fa23 563f
00000480: 4062 0177 fa23 563f 4062 0177 fa23 563f
00000490: 4062 0177 fa23 563f 4062 0177 fa23 563f
000004a0: 4062 0177 fa23 563f 4062 0177 fa23 563f
000004b0: 4062 0177 fa23 563f 4062 0177 fa23 563f
000004c0: 4062 0177 fa23 563f 4062 0177 fa23 563f
000004d0: 4062 0177 fa23 563f 4062 0177 fa23 563f
000004e0: 4062 0177 fa23 563f 4062 0177 fa23 563f
000004f0: 4062 0177 fa23 563f 4062 0177 fa23 563f
00000500: 4062 0177 fa23 563f 4062 0177 fa23 563f
00000510: 4062 0177 fa23 563f 4062 0177 fa23 563f
00000520: 4062 0177 fa23 563f 4062 0177 fa23 563f
00000530: 4062 0177 fa23 563f 4062 0177 fa23 563f
00000540: 4062 0177 fa23 563f 4062 0177 fa23 563f
00000550: 4062 0177 fa23 563f 4062 0177 fa23 563f
00000560: 4062 0177 fa23 563f 4062 0177 fa23 563f
00000570: 4062 0177 fa23 563f 4062 0177 fa23 563f
00000580: 4062 0177 fa23 563f 4062 0177 fa23 563f
00000590: 4062 0177 fa23 563f 4062 0177 fa23 563f
000005a0: 4062 0177 fa23 563f 4062 0177 fa23 563f
000005b0: 4062 0177 fa23 563f 4062 0177 fa23 563f
000005c0: 4062 0177 fa23 563f 4062 0177 fa23 563f
000005d0: 4062 0177 fa23 563f 4062 0177 fa23 563f
000005e0: 4062 0177 fa23 563f 4062 0177 fa23 563f
000005f0: 4062 0177 fa23 563f 4062 0177 fa23 563f
00000600: 4062 0177 fa23 563f 4062 0177 fa23 563f
00000610: 4062 0177 fa23 563f 4062 0177 fa23 563f
00000620: 4062 0177 fa23 563f 4062 0177 fa23 563f
00000630: 4062 0177 fa23 563f 4062 0177 fa23 563f
00000640: 4062 0177 fa23 563f 4062 0177 fa23 563f
00000650: 4062 0177 fa23 563f 4062 0177 fa23 563f
00000660: 4062 0177 fa23 563f 4062 0177 fa23 563f
00000670: 4062 0177 fa23 563f 4062 0177 fa23 563f
00000680: 4062 0177 fa23 563f 4062 0177 fa23 563f
00000690: 4062 0177 fa23 563f 4062 0177 fa23 563f
000006a0: 4062 0177 fa23 563f 4062 0177 fa23 563f
000006b0: 4062 0177 fa23 563f 4062 0177 fa23 563f
000006c0: 4062 0177 fa23 563f 4062 0177 fa23 563f
000006d0: 4062 0177 fa23 563f 4062 0177 fa23 563f
000006e0: 4062 0177 fa23 563f 4062 0177 fa23 563f
000006f0: 4062 0177 fa23 563f 4062 0177 fa23 563f
00000700: 4062 0177 fa23 563f 4062 0177 fa23 563f
00000710: 4062 0177 fa23 563f 4062 0177 fa23 563f
00000720: 4062 0177 fa23 563f 4062 0177 fa23 563f
00000730: 4062 0177 fa23 563f 4062 0177 fa23 563f
00000740: 4062 0177 fa23 563f 4062 0177 fa23 563f
00000750: 4062 0177 fa23 563f 4062 0177 fa23 563f
00000760: 4062 0177 fa23 563f 4062 0177 fa23 563f
00000770: 4062 0177 fa23 563f 4062 0177 fa23 563f
00000780: 4062 0177 fa23 563f 4062 0177 fa23 563f
00000790: 4062 0177 fa23 563f 4062 0177 fa23 563f
000007a0: 4062 0177 fa23 563f 4062 0177 fa23 563f
000007b0: 4062 0177 fa23 563f 4062 0177 fa23 563f
000007c0: 4062 0177 fa23 563f 4062 0177 fa23 563f
000007d0: 4062 0177 fa23 563f 4062 0177 fa23 563f
000007e0: 4062 0177 fa23 563f 4062 0177 fa23 563f
000007f0: 4062 0177 fa23 563f 4062 0177 fa23 563f
0.0013513513513513514 0.0013513513513513514 0.0013513513513513514 0.0013513513513513514 0.0013513513513513514 0.0013513513513513514 0.0013513513513513514 0.0013513513513513514
0.0013513513513513514 0.0013513513513513514 0.0013513513513513514 0.0013513513513513514 0.0013513513513513514 0.0013513513513513514 0.0013513513513513514 0.0013513513513513514
0.0013513513513513514 0.0013513513513513514 0.0013513513513513514 0.0013513513513513514 0.0013513513513513514 0.0013513513513513514 0.0013513513513513514 0.0013513513513513514
0.0013513513513513514 0.0013513513513513514 0.0013513513513513514 0.0013513513513513514 0.0013513513513513514 0.0013513513513513514 0.0013513513513513514 0.0013513513513513514
0.0013513513513513514 0.0013513513513513514 0.0013513513513513514 0.0013513513513513514 0.0013513513513513514 0.0013513513513513514 0.0013513513513513514 0.0013513513513513514
0.0013513513513513514 0.0013513513513513514 0.0013513513513513514 0.0013513513513513514 0.0013513513513513514 0.0013513513513513514 0.0013513513513513514 0.0013513513513513514
0.0013513513513513514 0.0013513513513513514 0.0013513513513513514 0.0013513513513513514 0.0013513513513513514 0.0013513513513513514 0.0013513513513513514 0.0013513513513513514
0.0013513513513513514 0.0013513513513513514 0.0013513513513513514 0.0013513513513513514 0.0013513513513513514 0.0013513513513513514 0.0013513513513513514 0.0013513513513513514
0.0013513513513513514 0.0013513513513513514 0.0013513513513513514 0.0013513513513513514 0.0013513513513513514 0.0013513513513513514 0.0013513513513513514 0.0013513513513513514
0.0013513513513513514 0.0013513513513513514 0.0013513513513513514 0.0013513513513513514 0.0013513513513513514 0.0013513513513513514 0.0013513513513513514 0.0013513513513513514
0.0013513513513513514 0.0013513513513513514 0.0013513513513513514 0.0013513513513513514 0.0013513513513513514 0.0013513513513513514 0.0013513513513513514 0.0013513513513513514
0.0013513513513513514 0.0013513513513513514 0.0013513513513513514 0.0013513513513513514 0.0013513513513513514 0.0013513513513513514 0.0013513513513513514 0.0013513513513513514
0.0013513513513513514 0.0013513513513513514 0.0013513513513513514 0.0013513513513513514 0.0013513513513513514 0.0013513513513513514 0.0013513513513513514 0.0013513513513513514
0.0013513513513513514 0.0013513513513513514 0.0013513513513513514 0.0013513513513513514 0.0013513513513513514 0.0013513513513513514 0.0013513513513513514 0.0013513513513513514
0.0013513513513513514 0.0013513513513513514 0.0013513513513513514 0.0013513513513513514 0.0013513513513513514 0.0013513513513513514 0.0013513513513513514 0.0013513513513513514
0.0013513513513513514 0.0013513513513513514 0.0013513513513513514 0.0013513513513513514 0.0013513513513513514 0.0013513513513513514 0.0013513513513513514 0.0013513513513513514
0.0013513513513513514 0.0013513513513513514 0.0013513513513513514 0.0013513513513513514 0.0013513513513513514 0.0013513513513513514 0.0013513513513513514 0.0013513513513513514
0.0013513513513513514 0.0013513513513513514 0.0013513513513513514 0.0013513513513513514 0.0013513513513513514 0.0013513513513513514 0.0013513513513513514 0.0013513513513513514
0.0013513513513513514 0.0013513513513513514 0.0013513513513513514 0.0013513513513513514 0.0013513513513513514 0.0013513513513513514 0.0013513513513513514 0.0013513513513513514
0.0013513513513513514 0.0013513513513513514 0.0013513513513513514 0.0013513513513513514 0.0013513513513513514 0.0013513513513513514 0.0013513513513513514 0.0013513513513513514
0.0013513513513513514 0.0013513513513513514 0.0013513513513513514 0.0013513513513513514 0.0013513513513513514 0.0013513513513513514 0.0013513513513513514 0.0013513513513513514
0.0013513513513513514 0.0013513513513513514 0.0013513513513513514 0.0013513513513513514 0.0013513513513513514 0.0013513513513513514 0.0013513513513513514 0.0013513513513513514
0.0013513513513513514 0.0013513513513513514 0.0013513513513513514 0.0013513513513513514 0.0013513513513513514 0.0013513513513513514 0.0013513513513513514 0.0013513513513513514
0.0013513513513513514 0.0013513513513513514 0.0013513513513513514 0.0013513513513513514 0.0013513513513513514 0.0013513513513513514 0.0013513513513513514 0.0013513513513513514
0.0013513513513513514 0.0013513513513513514 0.0013513513513513514 0.0013513513513513514 0.0013513513513513514 0.0013513513513513514 0.0013513513513513514 0.0013513513513513514
0.0013513513513513514 0.0013513513513513514 0.0013513513513513514 0.0013513513513513514 0.0013513513513513514 0.0013513513513513514 0.0013513513513513514 0.0013513513513513514
0.0013513513513513514 0.0013513513513513514 0.0013513513513513514 0.0013513513513513514 0.0013513513513513514 0.0013513513513513514 0.0013513513513513514 0.0013513513513513514
0.0013513513513513514 0.0013513513513513514 0.0013513513513513514 0.0013513513513513514 0.0013513513513513514 0.0013513513513513514 0.0013513513513513514 0.0013513513513513514
0.0013513513513513514 0.0013513513513513514 0.0013513513513513514 0.0013513513513513514 0.0013513513513513514 0.0013513513513513514 0.0013513513513513514 0.0013513513513513514
0.0013513513513513514 0.0013513513513513514 0.0013513513513513514 0.0013513513513513514 0.0013513513513513514 0.0013513513513513514 0.0013513513513513514 0.0013513513513513514
0.0013513513513513514 0.0013513513513513514 0.0013513513513513514 0.0013513513513513514 0.0013513513513513514 0.0013513513513513514 0.0013513513513513514 0.0013513513513513514
0.0013513513513513514 0.0013513513513513514 0.0013513513513513514 0.0013513513513513514 0.0013513513513513514 0.0013513513513513514 0.0013513513513513514 0.0013513513513513514
