OASIS3_VNN_NeurIPS/test90.pth (torch, 10139 bytes, 5 tensors)

GFL.0.weight f8 [5, 1, 6, 1]
000000 07 42 cf 09 d9 3c dd bf 83 c0 aa 6e 7f c2 d9 3f
       -0.45683885534256813 0.40249620253872126
000010 f5 85 1c 2c 45 6d d2 bf 40 93 56 ec af 5a d1 3f
       -0.28791932399516834 0.2711601074209291
000020 ce d2 71 ad ec 3d ca bf 30 28 4f 43 bb 2a d2 3f
       -0.20501478642440535 0.2838581235233759
000030 5f 50 b3 a1 c3 41 e5 bf fa a6 1a 02 94 37 d0 3f
       -0.6642778547488993 0.2533922215030625
000040 1a 72 4d 27 bb bf d2 bf 87 65 85 90 67 29 c0 bf
       -0.29295233572136825 -0.1262635665578211
000050 6a 58 71 b7 de 98 d6 3f 5e fc 9e a7 c9 43 d6 bf
       0.35308044351893975 -0.3478874337124064
000060 35 f4 0b e7 9f a7 ec 3f 7c 3d 96 bf ec e5 cd 3f
       0.8954619896536601 0.23357924799755014
000070 b0 1f 9e 70 44 77 be 3f 5e 4e 7f 7a ca 2f c0 3f
       0.11900737523512706 0.1264584634906098
000080 de 44 6f 38 80 b9 e4 bf 64 ef c2 51 b8 92 9e 3f
       -0.647644148086467 0.029856567373584567
000090 af 76 c1 33 f9 83 c1 bf 26 3d 60 86 c3 26 e1 3f
       -0.13684000994810705 0.5359819054155295
0000a0 1d cc 99 08 f8 1c ca 3f 5f 55 a7 51 4b 77 b2 3f
       0.20400906009635458 0.0721327852582667
0000b0 9d 9f 25 13 38 f7 c9 bf 4b ff 66 ef da 38 b1 bf
       -0.20285702643309103 -0.06727379174026031
0000c0 8c 31 a0 7d 5e 2b 04 c0 fa 52 6d 37 3b 33 cc 3f
       -2.5211763205063047 0.22031345564268873
0000d0 90 0c 25 1e 09 75 c2 3f 60 da a8 b3 65 50 c1 3f
       0.14419664356146145 0.13526603004875692
0000e0 58 c1 fd e2 05 60 db 3f c7 43 a9 a2 be bf dd 3f
       0.4277357784949536 0.464828165863818

GFL.0.bias f8 [5, 1]
000000 b6 9c 89 03 89 2a fe 3f d4 3c a6 c5 94 2b f7 3f
       1.885384572809739 1.4481399269750925
000010 c6 f8 26 05 1a fb ff 3f c0 e3 0b 11 23 e8 01 40
       1.998804111600792 2.238348134208053
000020 92 d4 98 6e 38 ca 00 40
       2.098740448035252

GFL.3.weight f8 [5, 1, 10, 5]
000000 dc 24 df 56 bb fd d9 3f b9 f0 61 74 0f a0 96 3f
       0.4061115597110765 0.022094956854275625
000010 22 2a ea b8 6b e0 ee 3f 06 5f 72 0c 03 60 e5 3f
       0.9648951160064068 0.6679702036953763
000020 0b 72 22 f7 79 07 e1 3f d7 8b b8 9a cf 28 df 3f
       0.5321626498076183 0.48686590299092586
000030 22 ea 12 1e 51 dd ce 3f 61 7d f4 3e ff 08 e8 3f
       0.24112905472232266 0.7510982732382382
000040 35 75 68 0a cd 64 e8 3f 21 6a 84 00 ce 55 ef 3f
       0.762304802253914 0.9792242059805326
000050 dd d7 ce 43 67 ab e0 3f 2d b7 4f 68 df 8e df 3f
       0.5209232639670024 0.4930952566781908
000060 74 98 b8 de 66 da e9 3f 9f 64 7d 53 bc 84 ea 3f
       0.807910380365469 0.8287030821476441
000070 38 c8 0a 5a 53 06 f1 3f 9d e7 7d e4 6b 97 e6 3f
       1.0640443341512889 0.7059840643625993
000080 be 9e 88 26 eb 4c d3 3f 72 6d 4b 63 4f 79 e5 3f
       0.3015697361283677 0.6710583628986753
000090 02 8d 90 4e 5f 28 e9 3f 56 61 79 c1 64 91 f2 3f
       0.7861782583680965 1.1604964788039829
0000a0 87 b9 33 d3 86 84 e3 3f 52 1b cd ec cb df d4 3f
       0.6099275708236725 0.3261594593536091
0000b0 42 e8 c0 8b fd ff e6 3f 4b 51 d3 1e ec a9 e6 3f
       0.7187488297997862 0.708242473798728
0000c0 7e ca 34 6d c9 8c f2 3f 34 3b aa f9 98 96 e5 3f
       1.1593717828624501 0.6746334911602845
0000d0 17 d1 a4 0e 34 0c e0 3f 4a 97 40 04 42 a5 e8 3f
       0.5014896665584584 0.7701730807354832
0000e0 86 7f 9b d3 8b 8c e4 3f aa 1b 1f 8e a7 45 f3 3f
       0.6421565182645146 1.2045054961797441
0000f0 c6 9d 0b eb a9 08 e3 3f 31 a6 b8 c5 b5 c9 df 3f
       0.5948075857858661 0.4966864043113644
000100 a8 a1 1f 25 c7 b8 e7 3f 01 7d 1c f6 b6 b7 e6 3f
       0.7413058972425022 0.7099261099682793
000110 24 72 7f fc 9b c6 f4 3f fb e5 09 e7 99 b4 e2 3f
       1.2984886038967796 0.5845460426782546
000120 02 a1 c4 46 f6 3a d8 3f 23 79 be 5a 23 97 e7 3f
       0.3785987559408711 0.7371994755119754
000130 b4 5c 44 d9 49 4f ed 3f 6e 36 f0 19 4a 03 f2 3f
       0.9159287684914461 1.1258030904022251
000140 67 d4 11 36 6a 5a e7 3f bd 6a c5 31 ac a6 e0 3f
       0.7297869735763357 0.5203457805722206
000150 05 42 73 f3 6f ed ea 3f c7 90 b2 15 57 27 ec 3f
       0.8414840464484433 0.8798022674350471
000160 de 6e f9 a8 25 a9 f1 3f 9d 9a 4e a3 ae 86 e4 3f
       1.1037956810532061 0.6414406957236057
000170 f5 1c 43 6a 3a 08 db 3f 55 04 6b b8 4d 8b ea 3f
       0.4223772084919369 0.8295048334040397
000180 2d 66 cc d0 46 fd ea 3f a6 50 d3 2a d4 5d f5 3f
       0.8434175565809646 1.335407416617309
000190 18 1d 99 77 9e 8a e1 3f 2d dd 6f 36 48 66 d2 3f
       0.5481712661648173 0.2874928027735731
0001a0 14 3f ab 05 66 75 f2 3f eb 8d 27 d7 21 63 e7 3f
       1.153661749023688 0.7308510973202237
0001b0 e6 1a 1b 99 3b 7d e1 3f 18 c8 13 08 a7 ef e1 3f
       0.5465372076367572 0.5605044515380113
0001c0 d7 a2 35 8c b2 67 d7 3f a2 bb 2d 1b 54 42 e4 3f
       0.3657041901811175 0.633096745570459
0001d0 b0 45 75 57 ec 11 ea 3f 99 01 0d 51 82 04 f1 3f
       0.8146878917852316 1.0636008420989127
0001e0 bd 59 5b 0f ae f1 df 3f 24 97 a5 d6 ce 17 d2 3f
       0.4991259717911836 0.28270312272649023
0001f0 49 e0 6f ea bd 03 e6 3f 4f 3e d1 01 c4 dd ea 3f
       0.6879567698333712 0.839571002530599
000200 00 70 d3 ed 20 4f f2 3f 9e b2 88 72 af 61 e4 3f
       1.1443185129237463 0.6369244801513394
000210 c5 1e 8a 4a 39 d2 d9 3f 58 13 4d c1 75 c3 e2 3f
       0.40345604209185765 0.5863598609363221
000220 da 3a bb 9f 22 2b ea 3f af 43 05 cc f8 38 f5 3f
       0.8177655334237344 1.3264091462662966
000230 9d 46 fc 46 97 08 e7 3f 5c 16 36 a4 60 bc d7 3f
       0.7197986971315974 0.3708726504922646
000240 c7 92 70 b8 ed fb ea 3f 12 3e 92 6d dd 9e e9 3f
       0.8432530023897805 0.8006426944793381
000250 27 21 63 93 39 71 f3 3f c2 cb 7d 0f d7 f6 e0 3f
       1.2151427991212331 0.5301318457189768
000260 48 90 2e ee 97 dc e0 3f 1c a1 3b 5e 76 2f e3 3f
       0.526927914809229 0.5995437469946725
000270 be 9b 18 21 9f 46 ed 3f 37 6c d3 46 f2 8b f3 3f
       0.9148708006294937 1.2216665999064966
000280 83 17 b3 d4 34 bd e6 3f f5 e8 f4 e0 28 b7 e0 3f
       0.7105964807785629 0.5223583596882962
000290 86 77 65 79 85 30 e4 3f 76 90 da de a6 e5 ed 3f
       0.6309230204603729 0.9342836716282494
0002a0 34 77 9b 10 49 fd f4 3f 6e 39 70 16 63 ed e5 3f
       1.3118372582170652 0.6852279127358949
0002b0 eb 0f da bd c3 00 e1 3f f6 fe ca eb a4 cb e2 3f
       0.531343336872394 0.5873589139300452
0002c0 7a 1b a7 c6 8b bb e8 3f 67 39 f4 20 1f 47 f4 3f
       0.7728937988220956 1.2673636710420284
0002d0 1e b6 47 1b 03 1e e8 3f de ee ed 70 3e c9 da 3f
       0.7536635906996627 0.41853295353187814
0002e0 82 09 84 87 75 1d e5 3f 9f 2c 04 6d 8f c8 ed 3f
       0.6598460814278015 0.9307324532723164
0002f0 d9 12 b3 c5 f5 cc f3 3f 78 4b 7f 7f cb 0f e4 3f
       1.2375390741955725 0.6269280901127408
000300 81 5d 22 41 8c c7 d6 3f 1b 59 f9 35 53 f5 e6 3f
       0.3559294353558116 0.7174469045810697
000310 1d c3 3f 34 f2 32 ec 3f 38 af fe 5f 5b ba f4 3f
       0.8812190075387637 1.2954972982215178
000320 fc 6e 1e 19 a6 6d d4 3f 1f 68 c5 f8 13 4d d0 3f
       0.31919243290916177 0.2547044686704129
000330 f8 f4 b7 dd db b1 f0 3f c7 c1 c2 03 fa 8b eb 3f
       1.0434225712663743 0.8608369897320295
000340 53 23 51 0d 57 3c e3 3f 6e 45 2f cd 27 28 e0 3f
       0.6011157283875072 0.5049017913353688
000350 e4 22 75 df 9c 8c c9 3f b5 b6 ff b4 1b 50 e5 3f
       0.19960366164220666 0.6660288367399604
000360 58 25 25 01 12 62 ed 3f e1 d6 60 18 89 10 ee 3f
       0.9182214758267646 0.9395184970987566
000370 27 43 a3 95 6e a7 e7 3f 50 cb 7d dd 60 7c d6 3f
       0.7391884729969193 0.35134145383851934
000380 ae eb 23 9e 86 6c e1 3f b2 b3 3f d6 e6 b8 e5 3f
       0.5444977844884897 0.6788210091159412
000390 44 96 95 9f 10 1a f2 3f 87 37 2f 07 24 8a e5 3f
       1.131363509536997 0.6731128826447595
0003a0 52 6a 70 e9 56 cc d2 3f ec 58 e0 35 b2 ce e6 3f
       0.29372189327992715 0.7127314617416949
0003b0 bc 7a 5c 9e 09 6d eb 3f 86 90 ab 5e 5c 9b f2 3f
       0.8570602505677338 1.1629298875859901
0003c0 27 3c 99 e9 c2 ce e0 3f 6f 56 a5 e0 5b 4a d3 3f
       0.5252394258949423 0.30141350687094975
0003d0 9b 44 93 1d 86 15 e5 3f b1 1f 82 7b f1 48 e7 3f
       0.6588774278299242 0.7276542103072555
0003e0 b6 08 92 5d 38 11 f4 3f f2 97 60 64 35 40 e1 3f
       1.2542041449637913 0.5390879593367102
0003f0 7b a1 e7 b8 f0 36 dd 3f 7d 49 13 ae 25 a6 e7 3f
       0.456478291102506 0.7390316390904413
000400 a8 5a c5 01 b0 60 e7 3f ca 9b 60 e5 93 a4 f2 3f
       0.7305526766384292 1.1651801071218295
000410 78 54 49 c5 18 62 e5 3f a6 1a 83 df 34 6c e1 3f
       0.6682247021914369 0.5444588056060027
000420 f6 7a 72 a7 f1 f8 e2 3f 7c 11 fc df 11 fb e5 3f
       0.5928886671498208 0.686898171873096
000430 16 08 90 bd 97 6d f4 3f d2 ac 1c 8c bb bc e5 3f
       1.2767560391225792 0.6792886482775435
000440 5e d6 e6 71 b6 57 d6 3f d4 e4 00 46 2a 5c e2 3f
       0.3491035568543789 0.5737506263023087
000450 8d b3 25 cb ec ca e4 3f 52 b1 b7 59 18 09 f4 3f
       0.6497711150856148 1.2522204880325103
000460 b7 8f 41 c3 26 86 df 3f d5 0e 3f e5 38 ec db 3f
       0.49256295268991884 0.4362928618177027
000470 d6 ea 38 56 67 84 e8 3f 13 e5 bc 5e d3 c9 e9 3f
       0.7661625560789058 0.8058869219159156
000480 77 6b 8d 23 5f 1b f1 3f a3 a5 d2 55 7a ba e0 3f
       1.0691825283781478 0.5227634121157972
000490 6e 79 a9 af bb 99 d6 3f 5d b9 09 32 d1 ca e1 3f
       0.3531331267785366 0.5560079552940739
0004a0 54 8d b7 fd 29 5a e6 3f 76 07 9d 32 04 f4 f0 3f
       0.6985063510332261 1.0595743157468553
0004b0 af 7f 7c 48 0a c0 e2 3f 51 3f 66 10 0e db c0 3f
       0.5859424033878805 0.13168502617599612
0004c0 10 38 7b 25 3b f9 ef 3f e6 30 e6 3a a1 5c e7 3f
       0.9991737110192407 0.7300573492407494
0004d0 26 9a bd f7 4b 1c e5 3f be 63 54 34 70 25 e2 3f
       0.6597041929897542 0.5670701047957818
0004e0 8c 65 43 ff 2a 6e d0 3f 05 9e 4b 75 e6 ba e6 3f
       0.25672411850026644 0.7103149691510572
0004f0 a4 1d 43 a4 58 cb e6 3f cb 1b 96 00 3f 42 f3 3f
       0.712322541069558 1.2036733649163007
000500 16 17 51 e0 35 f8 de 3f 2e 5d a4 d0 9b e1 dd 3f
       0.48389956384595345 0.46689505934905895
000510 ca b1 2f 24 43 57 e6 3f eb 58 92 ba 25 f3 ed 3f
       0.6981521326793481 0.9359310764291683
000520 ab 0f 49 67 9e 5e f2 3f 26 3c 4b d2 ed cb e0 3f
       1.1481002840600734 0.5248936755468818
000530 b5 16 99 49 de 3a e1 3f 8f ba e2 be 91 24 e9 3f
       0.5384360730610839 0.7857140281901865
000540 16 71 6e 66 55 c3 e6 3f 68 6e b6 3d 7f d9 f2 3f
       0.7113444328893219 1.1780998621606162
000550 2d e1 84 26 86 22 e8 3f a1 0a c7 c2 6d 83 dd 3f
       0.7542143585515412 0.4611467744945604
000560 0b b3 15 f8 5d 29 ea 3f 5a e0 77 8c 17 55 e6 3f
       0.8175496907620937 0.697887205459675
000570 97 98 ec af 7a 95 f4 3f b0 ba 55 43 b4 aa e7 3f
       1.2864939567603295 0.7395879092344639
000580 59 f2 b5 c8 94 67 e1 3f 53 63 a1 63 aa 1f e9 3f
       0.5438941879397802 0.7851154275805164
000590 8d df 75 1c 69 c0 eb 3f 29 49 ce 94 3d 04 f2 3f
       0.8672376209133162 1.1260352909781182
0005a0 d0 03 6e fc 24 71 e4 3f 77 c4 ed 3a ef 73 dc 3f
       0.6388115816372366 0.4445760798908575
0005b0 99 1d e7 fa ab 52 ea 3f ca 5a 84 39 4b 9b e9 3f
       0.8225917721219275 0.8002067683581455
0005c0 ed 16 d2 f5 47 7e f3 3f c4 62 14 70 2e 8b e5 3f
       1.2183303453797933 0.6732399167113603
0005d0 58 08 8a ed 94 91 df 3f a5 38 00 42 3f 55 e5 3f
       0.49326060483156686 0.6666561402396566
0005e0 5f ee 5c 78 b4 07 ec 3f df b7 8a d4 59 d1 f4 3f
       0.8759405470695575 1.3011110594193196
0005f0 c6 da 83 dc 5c c1 e6 3f dc 57 99 12 50 52 da 3f
       0.7111038500723559 0.4112739736204938
000600 26 36 63 15 41 06 ea 3f 8a 53 30 a3 7b 4d ec 3f
       0.8132634561276901 0.8844583689957386
000610 5a 0f 2b f3 7f 5c f2 3f 60 46 10 f6 fe 75 e3 3f
       1.147582960010331 0.6081538015298058
000620 8b 24 3a 51 e6 9e d9 3f 3a 38 61 fe 41 88 e3 3f
       0.400323466609344 0.610383030734517
000630 14 42 dc a2 ea ce ec 3f 7b 12 e9 b7 3b 59 f4 3f
       0.9002583676211224 1.2717854675294393
000640 4d 6f 84 a7 98 57 ce 3f 4b 48 96 61 03 58 a1 3f
       0.23704822711521914 0.0338746124863439
000650 eb 33 50 02 dc 30 ea 3f 59 47 89 cc cf 5c e4 3f
       0.8184642834836472 0.6363295550201925
000660 0c 7f 3e 01 81 09 cf 3f 87 4d 7d 5d 6f 90 de 3f
       0.2424775367808184 0.4775656140311288
000670 01 fa 7c 12 83 b5 d4 3f 53 3c e2 fd 21 1f e1 3f
       0.3235786133335808 0.5350503882090244
000680 c1 01 b1 16 2a 3b e6 3f c7 88 83 3b cb ca e8 3f
       0.6947222178642322 0.7747551119212169
000690 b5 1f f9 31 da 40 db 3f 44 10 5d c7 4e 4f bc 3f
       0.4258332717913576 0.11058513991616886
0006a0 76 b5 47 fb 2e 4a e2 3f 80 41 d7 73 8a 5d e6 3f
       0.5715556056799602 0.6989185583607167
0006b0 4b be 8b 9c 5a 26 eb 3f 08 b2 52 c7 48 2e d9 3f
       0.8484318788086481 0.3934499689592319
0006c0 5e eb 87 04 6c 01 d7 3f da b9 c7 26 ac 38 db 3f
       0.3594617885825552 0.4253340128624622
0006d0 7a 7a 40 ec a1 4f dd 3f b3 3f 1d b6 bf f9 f0 3f
       0.4579853827616841 1.0609738458478943
0006e0 f2 33 08 d0 11 f1 dd 3f 33 79 2b 36 70 3c d2 3f
       0.46783871951703226 0.28493886270543384
0006f0 ff dd b3 69 d7 1a d6 3f a4 9c a0 07 85 23 e5 3f
       0.34538827250023013 0.6605858944866623
000700 29 63 f4 6b fc 17 f1 3f c3 97 5a 93 7a 69 d9 3f
       1.0683559624651002 0.3970629157068936
000710 c5 1e ac 74 07 70 d6 3f 11 e0 a0 9b c5 41 e1 3f
       0.350587715089642 0.5392787971131857
000720 10 fd 0b 93 d0 3e dc 3f 3d 43 64 61 c4 63 ee 3f
       0.4413339076999856 0.9496786024265941
000730 f2 6f 1c 7d f7 e1 df 3f b1 4d 9b a3 ae b3 ce 3f
       0.49816691606406416 0.23985846508604206
000740 ef ca 98 28 7e da d4 3f 33 c1 aa 0a 9a 41 e0 3f
       0.3258357426122264 0.5080080231037186
000750 99 b5 6b 56 af dc f0 3f 3a 1b 0d 77 43 c8 d3 3f
       1.0538781524477143 0.3090981161698668
000760 b8 1c a5 c4 41 88 d4 3f f4 ae 99 7e b5 91 de 3f
       0.32081646159754085 0.4776433693248088
000770 a3 d3 ed 66 8f b5 e0 3f c8 52 2a 8b a1 fe eb 3f
       0.5221631059963453 0.8748328893730895
000780 58 6e 59 dd 4d 78 e0 3f 26 d3 40 91 ae 2a d0 3f
       0.514685566256456 0.25260509667286823
000790 09 9b b3 07 35 1f dd 3f 03 3c 17 81 5b 97 df 3f
       0.4550297332011018 0.4936131249095867
0007a0 41 0b 23 2b 6c c3 eb 3f c2 44 e1 09 7c 53 d7 3f
       0.8676052896993057 0.3644704910739841
0007b0 ad 9d b1 40 eb df cb 3f 6e ed ac 22 95 00 dd 3f
       0.2177709642303233 0.4531605566623601
0007c0 39 4d 0f e3 c8 5a e0 3f c1 55 dd db 43 12 f0 3f
       0.5110821184884237 1.0044592464886224

GFL.3.bias f8 [5, 1]
000000 ef c8 a6 5a 32 29 f5 3f a9 0b 65 43 5f 11 f8 3f
       1.3225577870439869 1.5042412407499148
000010 6b 1d 2d 8a 48 37 f6 3f d5 81 28 80 b9 34 f8 3f
       1.3884969136723508 1.51287221967515
000020 3b 80 3f ef 1d e6 f2 3f
       1.1811808915736168

MLP.0.weight f8 [1, 740]
000000 40 62 01 77 fa 23 56 3f 40 62 01 77 fa 23 56 3f
       0.0013513513513513514 0.0013513513513513514
000010 40 62 01 77 fa 23 56 3f 40 62 01 77 fa 23 56 3f
       0.0013513513513513514 0.0013513513513513514
000020 40 62 01 77 fa 23 56 3f 40 62 01 77 fa 23 56 3f
       0.0013513513513513514 0.0013513513513513514
000030 40 62 01 77 fa 23 56 3f 40 62 01 77 fa 23 56 3f
       0.0013513513513513514 0.0013513513513513514
000040 40 62 01 77 fa 23 56 3f 40 62 01 77 fa 23 56 3f
       0.0013513513513513514 0.0013513513513513514
000050 40 62 01 77 fa 23 56 3f 40 62 01 77 fa 23 56 3f
       0.0013513513513513514 0.0013513513513513514
000060 40 62 01 77 fa 23 56 3f 40 62 01 77 fa 23 56 3f
       0.0013513513513513514 0.0013513513513513514
000070 40 62 01 77 fa 23 56 3f 40 62 01 77 fa 23 56 3f
       0.0013513513513513514 0.0013513513513513514
000080 40 62 01 77 fa 23 56 3f 40 62 01 77 fa 23 56 3f
       0.0013513513513513514 0.0013513513513513514
000090 40 62 01 77 fa 23 56 3f 40 62 01 77 fa 23 56 3f
       0.0013513513513513514 0.0013513513513513514
0000a0 40 62 01 77 fa 23 56 3f 40 62 01 77 fa 23 56 3f
       0.0013513513513513514 0.0013513513513513514
0000b0 40 62 01 77 fa 23 56 3f 40 62 01 77 fa 23 56 3f
       0.0013513513513513514 0.0013513513513513514
0000c0 40 62 01 77 fa 23 56 3f 40 62 01 77 fa 23 56 3f
       0.0013513513513513514 0.0013513513513513514
0000d0 40 62 01 77 fa 23 56 3f 40 62 01 77 fa 23 56 3f
       0.0013513513513513514 0.0013513513513513514
0000e0 40 62 01 77 fa 23 56 3f 40 62 01 77 fa 23 56 3f
       0.0013513513513513514 0.0013513513513513514
0000f0 40 62 01 77 fa 23 56 3f 40 62 01 77 fa 23 56 3f
       0.0013513513513513514 0.0013513513513513514
000100 40 62 01 77 fa 23 56 3f 40 62 01 77 fa 23 56 3f
       0.0013513513513513514 0.0013513513513513514
000110 40 62 01 77 fa 23 56 3f 40 62 01 77 fa 23 56 3f
       0.0013513513513513514 0.0013513513513513514
000120 40 62 01 77 fa 23 56 3f 40 62 01 77 fa 23 56 3f
       0.0013513513513513514 0.0013513513513513514
000130 40 62 01 77 fa 23 56 3f 40 62 01 77 fa 23 56 3f
       0.0013513513513513514 0.0013513513513513514
000140 40 62 01 77 fa 23 56 3f 40 62 01 77 fa 23 56 3f
       0.0013513513513513514 0.0013513513513513514
000150 40 62 01 77 fa 23 56 3f 40 62 01 77 fa 23 56 3f
       0.0013513513513513514 0.0013513513513513514
000160 40 62 01 77 fa 23 56 3f 40 62 01 77 fa 23 56 3f
       0.0013513513513513514 0.0013513513513513514
000170 40 62 01 77 fa 23 56 3f 40 62 01 77 fa 23 56 3f
       0.0013513513513513514 0.0013513513513513514
000180 40 62 01 77 fa 23 56 3f 40 62 01 77 fa 23 56 3f
       0.0013513513513513514 0.0013513513513513514
000190 40 62 01 77 fa 23 56 3f 40 62 01 77 fa 23 56 3f
       0.0013513513513513514 0.0013513513513513514
0001a0 40 62 01 77 fa 23 56 3f 40 62 01 77 fa 23 56 3f
       0.0013513513513513514 0.0013513513513513514
0001b0 40 62 01 77 fa 23 56 3f 40 62 01 77 fa 23 56 3f
       0.0013513513513513514 0.0013513513513513514
0001c0 40 62 01 77 fa 23 56 3f 40 62 01 77 fa 23 56 3f
       0.0013513513513513514 0.0013513513513513514
0001d0 40 62 01 77 fa 23 56 3f 40 62 01 77 fa 23 56 3f
       0.0013513513513513514 0.0013513513513513514
0001e0 40 62 01 77 fa 23 56 3f 40 62 01 77 fa 23 56 3f
       0.0013513513513513514 0.0013513513513513514
0001f0 40 62 01 77 fa 23 56 3f 40 62 01 77 fa 23 56 3f
       0.0013513513513513514 0.0013513513513513514
000200 40 62 01 77 fa 23 56 3f 40 62 01 77 fa 23 56 3f
       0.0013513513513513514 0.0013513513513513514
000210 40 62 01 77 fa 23 56 3f 40 62 01 77 fa 23 56 3f
       0.0013513513513513514 0.0013513513513513514
000220 40 62 01 77 fa 23 56 3f 40 62 01 77 fa 23 56 3f
       0.0013513513513513514 0.0013513513513513514
000230 40 62 01 77 fa 23 56 3f 40 62 01 77 fa 23 56 3f
       0.0013513513513513514 0.0013513513513513514
000240 40 62 01 77 fa 23 56 3f 40 62 01 77 fa 23 56 3f
       0.0013513513513513514 0.0013513513513513514
000250 40 62 01 77 fa 23 56 3f 40 62 01 77 fa 23 56 3f
       0.0013513513513513514 0.0013513513513513514
000260 40 62 01 77 fa 23 56 3f 40 62 01 77 fa 23 56 3f
       0.0013513513513513514 0.0013513513513513514
000270 40 62 01 77 fa 23 56 3f 40 62 01 77 fa 23 56 3f
       0.0013513513513513514 0.0013513513513513514
000280 40 62 01 77 fa 23 56 3f 40 62 01 77 fa 23 56 3f
       0.0013513513513513514 0.0013513513513513514
000290 40 62 01 77 fa 23 56 3f 40 62 01 77 fa 23 56 3f
       0.0013513513513513514 0.0013513513513513514
0002a0 40 62 01 77 fa 23 56 3f 40 62 01 77 fa 23 56 3f
       0.0013513513513513514 0.0013513513513513514
0002b0 40 62 01 77 fa 23 56 3f 40 62 01 77 fa 23 56 3f
       0.0013513513513513514 0.0013513513513513514
0002c0 40 62 01 77 fa 23 56 3f 40 62 01 77 fa 23 56 3f
       0.0013513513513513514 0.0013513513513513514
0002d0 40 62 01 77 fa 23 56 3f 40 62 01 77 fa 23 56 3f
       0.0013513513513513514 0.0013513513513513514
0002e0 40 62 01 77 fa 23 56 3f 40 62 01 77 fa 23 56 3f
       0.0013513513513513514 0.0013513513513513514
0002f0 40 62 01 77 fa 23 56 3f 40 62 01 77 fa 23 56 3f
       0.0013513513513513514 0.0013513513513513514
000300 40 62 01 77 fa 23 56 3f 40 62 01 77 fa 23 56 3f
       0.0013513513513513514 0.0013513513513513514
000310 40 62 01 77 fa 23 56 3f 40 62 01 77 fa 23 56 3f
       0.0013513513513513514 0.0013513513513513514
000320 40 62 01 77 fa 23 56 3f 40 62 01 77 fa 23 56 3f
       0.0013513513513513514 0.0013513513513513514
000330 40 62 01 77 fa 23 56 3f 40 62 01 77 fa 23 56 3f
       0.0013513513513513514 0.0013513513513513514
000340 40 62 01 77 fa 23 56 3f 40 62 01 77 fa 23 56 3f
       0.0013513513513513514 0.0013513513513513514
000350 40 62 01 77 fa 23 56 3f 40 62 01 77 fa 23 56 3f
       0.0013513513513513514 0.0013513513513513514
000360 40 62 01 77 fa 23 56 3f 40 62 01 77 fa 23 56 3f
       0.0013513513513513514 0.0013513513513513514
000370 40 62 01 77 fa 23 56 3f 40 62 01 77 fa 23 56 3f
       0.0013513513513513514 0.0013513513513513514
000380 40 62 01 77 fa 23 56 3f 40 62 01 77 fa 23 56 3f
       0.0013513513513513514 0.0013513513513513514
000390 40 62 01 77 fa 23 56 3f 40 62 01 77 fa 23 56 3f
       0.0013513513513513514 0.0013513513513513514
0003a0 40 62 01 77 fa 23 56 3f 40 62 01 77 fa 23 56 3f
       0.0013513513513513514 0.0013513513513513514
0003b0 40 62 01 77 fa 23 56 3f 40 62 01 77 fa 23 56 3f
       0.0013513513513513514 0.0013513513513513514
0003c0 40 62 01 77 fa 23 56 3f 40 62 01 77 fa 23 56 3f
       0.0013513513513513514 0.0013513513513513514
0003d0 40 62 01 77 fa 23 56 3f 40 62 01 77 fa 23 56 3f
       0.0013513513513513514 0.0013513513513513514
0003e0 40 62 01 77 fa 23 56 3f 40 62 01 77 fa 23 56 3f
       0.0013513513513513514 0.0013513513513513514
0003f0 40 62 01 77 fa 23 56 3f 40 62 01 77 fa 23 56 3f
       0.0013513513513513514 0.0013513513513513514
000400 40 62 01 77 fa 23 56 3f 40 62 01 77 fa 23 56 3f
       0.0013513513513513514 0.0013513513513513514
000410 40 62 01 77 fa 23 56 3f 40 62 01 77 fa 23 56 3f
       0.0013513513513513514 0.0013513513513513514
000420 40 62 01 77 fa 23 56 3f 40 62 01 77 fa 23 56 3f
       0.0013513513513513514 0.0013513513513513514
000430 40 62 01 77 fa 23 56 3f 40 62 01 77 fa 23 56 3f
       0.0013513513513513514 0.0013513513513513514
000440 40 62 01 77 fa 23 56 3f 40 62 01 77 fa 23 56 3f
       0.0013513513513513514 0.0013513513513513514
000450 40 62 01 77 fa 23 56 3f 40 62 01 77 fa 23 56 3f
       0.0013513513513513514 0.0013513513513513514
000460 40 62 01 77 fa 23 56 3f 40 62 01 77 fa 23 56 3f
       0.0013513513513513514 0.0013513513513513514
000470 40 62 01 77 fa 23 56 3f 40 62 01 77 fa 23 56 3f
       0.0013513513513513514 0.0013513513513513514
000480 40 62 01 77 fa 23 56 3f 40 62 01 77 fa 23 56 3f
       0.0013513513513513514 0.0013513513513513514
000490 40 62 01 77 fa 23 56 3f 40 62 01 77 fa 23 56 3f
       0.0013513513513513514 0.0013513513513513514
0004a0 40 62 01 77 fa 23 56 3f 40 62 01 77 fa 23 56 3f
       0.0013513513513513514 0.0013513513513513514
0004b0 40 62 01 77 fa 23 56 3f 40 62 01 77 fa 23 56 3f
       0.0013513513513513514 0.0013513513513513514
0004c0 40 62 01 77 fa 23 56 3f 40 62 01 77 fa 23 56 3f
       0.0013513513513513514 0.0013513513513513514
0004d0 40 62 01 77 fa 23 56 3f 40 62 01 77 fa 23 56 3f
       0.0013513513513513514 0.0013513513513513514
0004e0 40 62 01 77 fa 23 56 3f 40 62 01 77 fa 23 56 3f
       0.0013513513513513514 0.0013513513513513514
0004f0 40 62 01 77 fa 23 56 3f 40 62 01 77 fa 23 56 3f
       0.0013513513513513514 0.0013513513513513514
000500 40 62 01 77 fa 23 56 3f 40 62 01 77 fa 23 56 3f
       0.0013513513513513514 0.0013513513513513514
000510 40 62 01 77 fa 23 56 3f 40 62 01 77 fa 23 56 3f
       0.0013513513513513514 0.0013513513513513514
000520 40 62 01 77 fa 23 56 3f 40 62 01 77 fa 23 56 3f
       0.0013513513513513514 0.0013513513513513514
000530 40 62 01 77 fa 23 56 3f 40 62 01 77 fa 23 56 3f
       0.0013513513513513514 0.0013513513513513514
000540 40 62 01 77 fa 23 56 3f 40 62 01 77 fa 23 56 3f
       0.0013513513513513514 0.0013513513513513514
000550 40 62 01 77 fa 23 56 3f 40 62 01 77 fa 23 56 3f
       0.0013513513513513514 0.0013513513513513514
000560 40 62 01 77 fa 23 56 3f 40 62 01 77 fa 23 56 3f
       0.0013513513513513514 0.0013513513513513514
000570 40 62 01 77 fa 23 56 3f 40 62 01 77 fa 23 56 3f
       0.0013513513513513514 0.0013513513513513514
000580 40 62 01 77 fa 23 56 3f 40 62 01 77 fa 23 56 3f
       0.0013513513513513514 0.0013513513513513514
000590 40 62 01 77 fa 23 56 3f 40 62 01 77 fa 23 56 3f
       0.0013513513513513514 0.0013513513513513514
0005a0 40 62 01 77 fa 23 56 3f 40 62 01 77 fa 23 56 3f
       0.0013513513513513514 0.0013513513513513514
0005b0 40 62 01 77 fa 23 56 3f 40 62 01 77 fa 23 56 3f
       0.0013513513513513514 0.0013513513513513514
0005c0 40 62 01 77 fa 23 56 3f 40 62 01 77 fa 23 56 3f
       0.0013513513513513514 0.0013513513513513514
0005d0 40 62 01 77 fa 23 56 3f 40 62 01 77 fa 23 56 3f
       0.0013513513513513514 0.0013513513513513514
0005e0 40 62 01 77 fa 23 56 3f 40 62 01 77 fa 23 56 3f
       0.0013513513513513514 0.0013513513513513514
0005f0 40 62 01 77 fa 23 56 3f 40 62 01 77 fa 23 56 3f
       0.0013513513513513514 0.0013513513513513514
000600 40 62 01 77 fa 23 56 3f 40 62 01 77 fa 23 56 3f
       0.0013513513513513514 0.0013513513513513514
000610 40 62 01 77 fa 23 56 3f 40 62 01 77 fa 23 56 3f
       0.0013513513513513514 0.0013513513513513514
000620 40 62 01 77 fa 23 56 3f 40 62 01 77 fa 23 56 3f
       0.0013513513513513514 0.0013513513513513514
000630 40 62 01 77 fa 23 56 3f 40 62 01 77 fa 23 56 3f
       0.0013513513513513514 0.0013513513513513514
000640 40 62 01 77 fa 23 56 3f 40 62 01 77 fa 23 56 3f
       0.0013513513513513514 0.0013513513513513514
000650 40 62 01 77 fa 23 56 3f 40 62 01 77 fa 23 56 3f
       0.0013513513513513514 0.0013513513513513514
000660 40 62 01 77 fa 23 56 3f 40 62 01 77 fa 23 56 3f
       0.0013513513513513514 0.0013513513513513514
000670 40 62 01 77 fa 23 56 3f 40 62 01 77 fa 23 56 3f
       0.0013513513513513514 0.0013513513513513514
000680 40 62 01 77 fa 23 56 3f 40 62 01 77 fa 23 56 3f
       0.0013513513513513514 0.0013513513513513514
000690 40 62 01 77 fa 23 56 3f 40 62 01 77 fa 23 56 3f
       0.0013513513513513514 0.0013513513513513514
0006a0 40 62 01 77 fa 23 56 3f 40 62 01 77 fa 23 56 3f
       0.0013513513513513514 0.0013513513513513514
0006b0 40 62 01 77 fa 23 56 3f 40 62 01 77 fa 23 56 3f
       0.0013513513513513514 0.0013513513513513514
0006c0 40 62 01 77 fa 23 56 3f 40 62 01 77 fa 23 56 3f
       0.0013513513513513514 0.0013513513513513514
0006d0 40 62 01 77 fa 23 56 3f 40 62 01 77 fa 23 56 3f
       0.0013513513513513514 0.0013513513513513514
0006e0 40 62 01 77 fa 23 56 3f 40 62 01 77 fa 23 56 3f
       0.0013513513513513514 0.0013513513513513514
0006f0 40 62 01 77 fa 23 56 3f 40 62 01 77 fa 23 56 3f
       0.0013513513513513514 0.0013513513513513514
000700 40 62 01 77 fa 23 56 3f 40 62 01 77 fa 23 56 3f
       0.0013513513513513514 0.0013513513513513514
000710 40 62 01 77 fa 23 56 3f 40 62 01 77 fa 23 56 3f
       0.0013513513513513514 0.0013513513513513514
000720 40 62 01 77 fa 23 56 3f 40 62 01 77 fa 23 56 3f
       0.0013513513513513514 0.0013513513513513514
000730 40 62 01 77 fa 23 56 3f 40 62 01 77 fa 23 56 3f
       0.0013513513513513514 0.0013513513513513514
000740 40 62 01 77 fa 23 56 3f 40 62 01 77 fa 23 56 3f
       0.0013513513513513514 0.0013513513513513514
000750 40 62 01 77 fa 23 56 3f 40 62 01 77 fa 23 56 3f
       0.0013513513513513514 0.0013513513513513514
000760 40 62 01 77 fa 23 56 3f 40 62 01 77 fa 23 56 3f
       0.0013513513513513514 0.0013513513513513514
000770 40 62 01 77 fa 23 56 3f 40 62 01 77 fa 23 56 3f
       0.0013513513513513514 0.0013513513513513514
000780 40 62 01 77 fa 23 56 3f 40 62 01 77 fa 23 56 3f
       0.0013513513513513514 0.0013513513513513514
000790 40 62 01 77 fa 23 56 3f 40 62 01 77 fa 23 56 3f
       0.0013513513513513514 0.0013513513513513514
0007a0 40 62 01 77 fa 23 56 3f 40 62 01 77 fa 23 56 3f
       0.0013513513513513514 0.0013513513513513514
0007b0 40 62 01 77 fa 23 56 3f 40 62 01 77 fa 23 56 3f
       0.0013513513513513514 0.0013513513513513514
0007c0 40 62 01 77 fa 23 56 3f 40 62 01 77 fa 23 56 3f
       0.0013513513513513514 0.0013513513513513514
0007d0 40 62 01 77 fa 23 56 3f 40 62 01 77 fa 23 56 3f
       0.0013513513513513514 0.0013513513513513514
0007e0 40 62 01 77 fa 23 56 3f 40 62 01 77 fa 23 56 3f
       0.0013513513513513514 0.0013513513513513514
0007f0 40 62 01 77 fa 23 56 3f 40 62 01 77 fa 23 56 3f
       0.0013513513513513514 0.0013513513513513514
