OASIS3_VNN_NeurIPS/test50.pth (torch, 10139 bytes, 5 tensors)

GFL.0.weight f8 [5, 1, 6, 1]
00000000: 3b62 aa48 ce40 e83f 69d9 a8e7 f974 c0bf
00000010: 0285 3a93 7fab b83f 0c55 02a1 2aaf c03f
00000020: 7606 8c53 1a8d bc3f 4e93 fd66 d19c aebf
00000030: 1327 c3f4 327c f0bf 82bc dce5 34fe bbbf
00000040: cb2f 4eda 0e20 c3bf d35d 4032 39e9 d7bf
00000050: 5f45 2711 31ea c93f ed53 5f28 60d6 b8bf
00000060: 8a2d d76b b4aa 00c0 7a1c 95fa 8509 c93f
00000070: 23e4 7de1 dd6d d23f 0132 18d1 2d1b d33f
00000080: f3e4 63ec f027 d03f 38cf 6649 35ba d83f
00000090: 3931 b649 a751 a43f 562e 27c9 a8ef c5bf
000000a0: c495 d801 3eb6 b23f 1051 3746 17ca d03f
000000b0: d104 7ffb 3c27 b0bf 6f9c fd56 c4cd d2bf
000000c0: 91fe a181 888a f43f 4259 1cb4 d4dc d1bf
000000d0: acf5 8735 aea7 b23f ce9e 4811 0e59 c8bf
000000e0: 1612 9959 18c7 e0bf a158 1f45 7904 9fbf
0.7579108638047453 -0.12856983005049052 0.09636685699890182 0.13034565793774566 0.1115280584308723 -0.0597901762219296 -1.0303220330264977 -0.10934763538237927
-0.1494158330864351 -0.3736098280655515 0.20245946252411337 -0.09702111230519934 -2.083351938728531 0.19560312972518884 0.2879557325428001 0.29853387278924975
0.25243781170827545 0.3863652436077589 0.03968546652603994 -0.1713763220017081 0.07309329552716465 0.26233465058364036 -0.06309872760813852 -0.293809018089127
1.2838215888768085 -0.2791034468549648 0.07287110144530712 -0.1902177414315162 -0.5243036031684507 -0.03029050335302286

GFL.0.bias f8 [5, 1]
00000000: 8d32 7a54 befe 0140 8f60 b047 ff12 f93f
00000010: 6245 54d6 da85 f53f 6e0e 8435 d9ab 0140
00000020: 6011 c29d 8064 fe3f
2.249386463145419 1.5671379852629206 1.3451794025644053 2.208910387127438 1.899536720507136

GFL.3.weight f8 [5, 1, 10, 5]
00000000: 2863 2bd1 46ea eb3f 8801 1fc9 12f3 de3f
00000010: edcf f343 4c7f cc3f b609 9150 eac6 e83f
00000020: 6159 b540 60db f33f 5f95 ed48 35db eb3f
00000030: 43e9 4e8a ade8 e03f 51a3 eb8d b050 e73f
00000040: 4d9d 12f8 abf8 e63f 59fa 2aa3 ab48 eb3f
00000050: 644f 4d5f 041c e93f bf23 5b7b 2b8e e23f
00000060: d8b2 6b0b 37b2 ea3f 33ce 2a7c 7c6c e73f
00000070: 0579 39fb 6e68 e73f 729f 6833 beb4 eb3f
00000080: 356e 8aa4 c56b e23f 80e2 340a c063 e83f
00000090: 8eeb 205c ce55 e83f 267c 595d 95d2 eb3f
000000a0: 2a4b 14e9 642e e93f a26f 1b9a 4109 e43f
000000b0: c960 5e25 cdae e83f a31a 1041 1f4b e83f
000000c0: 480b b799 b8a7 e93f 2e47 d114 97ba e83f
000000d0: b474 639d 7c5d e03f 928d 46b8 322a ea3f
000000e0: f9df 3298 fb73 ed3f c20f 59c9 d94e e73f
000000f0: a5d5 6b18 f401 e83f 4877 35ee bc48 e13f
00000100: 7fb8 bf00 9f13 ee3f 3445 a4a5 527d ed3f
00000110: 49ad 9723 3c2c eb3f f318 ca50 5d2f ee3f
00000120: cdef a5d4 5a1c e03f 0caf 12c4 3ad1 e93f
00000130: b200 5bce 65ad e83f 4faa a2a4 7338 e63f
00000140: 0df4 1f41 a3e7 e53f 5f12 376d 5c6d e43f
00000150: 2b66 c8b9 d9e0 ea3f 703e a045 793b ed3f
00000160: 7995 7ab6 720b ea3f 5c53 95e0 61a4 eb3f
00000170: d666 2cbd e2ab e33f 1744 7588 457c e83f
00000180: 2051 a0e4 b18d eb3f a058 6e3d 968c e83f
00000190: 6799 23d1 3615 f13f e3f0 7e20 caad d63f
000001a0: e0c5 feec 33d6 9bbf 2004 69b1 f605 ec3f
000001b0: 0d8b 0755 03e1 f13f 6ac3 7364 c792 ef3f
000001c0: 2e0d 58bd 3a35 dc3f 2898 1c15 3ad3 e43f
000001d0: 05c7 5f75 739b e73f 1b8b 6017 c3e7 e73f
000001e0: 3cb2 ba20 c201 e83f 0df4 853b b002 e73f
000001f0: beee 3818 a40f ee3f 2978 a23e 4c18 ed3f
00000200: 8fd7 75c4 8bb5 ea3f 3535 8bba 0242 ea3f
00000210: 0bc8 2340 501b e33f f61d b332 b704 e93f
00000220: c221 e6cd ceb4 e53f 5376 7076 fd93 e43f
00000230: aba9 51ea 53b2 e53f a91c 729b bb3d e13f
00000240: 7f92 1265 a7a8 ed3f b19d daf9 c3d1 e93f
00000250: d447 25b0 a51a e43f 3576 0444 8dc5 e93f
00000260: 385e d63e e29d e63f 9c83 009a 6d2a eb3f
00000270: 249f fdb6 d168 ea3f 45a9 55a7 0a16 e53f
00000280: 78a6 c5d3 883e ec3f 72d5 7ffc 3546 e23f
00000290: cbe5 136e 9164 ed3f 69d6 18bb 5492 e73f
000002a0: 326f f70e 0ef4 e43f 195c 88f1 ec70 e53f
000002b0: c099 275d 4d6a dd3f 02b0 2172 138a ea3f
000002c0: 6f90 006e 320a e63f 6b07 127e 7e1b e73f
000002d0: 00da d5d0 cd75 e83f 6917 55c1 00c0 e63f
000002e0: e526 f25a a587 eb3f ff18 1f00 ceba e83f
000002f0: 2414 6058 343c e83f e3d7 8b21 02c7 e63f
00000300: 87af e2c1 911b e43f 2aef 31e6 a8f2 ee3f
00000310: 3db0 dea5 cc58 e83f 10d7 d567 5577 e43f
00000320: d456 63a8 bf32 f13f 9e38 4fb0 68cf de3f
00000330: 8df2 9c15 ae91 b13f 1e8e 07de a529 ec3f
00000340: 9870 2a20 884b f13f 8184 f3d6 8094 eb3f
00000350: 9ebd 1420 817f e43f c676 8aa0 880f ea3f
00000360: 3b67 2fea 613b e93f d326 1dce 7770 ed3f
00000370: a90e 8e34 6559 e93f 22b1 54c2 00cf e33f
00000380: b8de db23 a4d3 ee3f 036a 226a c95f ec3f
00000390: ae0d 4bb2 8d2d e63f 3beb 6a11 72e9 ea3f
000003a0: 88a7 72c1 6388 e33f 90e0 ad6c 4e4b ea3f
000003b0: ae3f 92c5 7010 e63f 95aa af64 8946 e43f
000003c0: 58c5 7876 5966 eb3f 0a5f 81b1 343e e03f
000003d0: 7235 957b c4e7 e83f 9433 4dfb f0fa ed3f
000003e0: 66cf 6107 0edc e33f eebc d79e c813 e73f
000003f0: bde4 bb03 3d53 e73f f780 c894 cc08 ea3f
00000400: 8c08 4443 ecf7 e53f 50f2 4357 69f0 e53f
00000410: 63cb 87ff 7272 e83f f3f3 4713 aee5 e63f
00000420: a507 58be 1e78 eb3f db47 7958 1cb5 eb3f
00000430: acd3 243d 7850 e53f 1ea2 38ad 7dee e63f
00000440: a15b f5ec ba8d e63f df5b a7d8 3765 ee3f
00000450: f919 77ee 7bec e93f bf34 32ae 872a e93f
00000460: 2ff6 17ff a472 e53f 6241 db37 ac2e e43f
00000470: e40d ba5a f006 ef3f 4610 9119 f117 ea3f
00000480: a6eb e21e 85af e63f b918 4944 7022 eb3f
00000490: 43a9 1f63 8f7c e53f d53c c960 8d77 e93f
000004a0: facf 6f86 519e eb3f c2ce 1589 662d e63f
000004b0: dc3e c524 9781 f13f a2ff 5369 0c3a de3f
000004c0: 5d64 0d4e 3e61 913f e34c 030c c3cd e93f
000004d0: da23 942e 6df2 f43f 9590 903d a94f ec3f
000004e0: f7b4 613e 6cdf df3f 8dd0 011b 6633 e43f
000004f0: d4d5 2b1e 5aac e83f 9c6d 4f27 818f e73f
00000500: 82d4 8619 d4af eb3f 3e13 39cd 1f6c e13f
00000510: cbea 3f8f b90d ed3f ed5f dbb6 4d31 ed3f
00000520: d888 dba9 112a e53f 4f90 001b f95d e73f
00000530: d2e1 1632 c3dd e33f 4652 9758 d1c6 ec3f
00000540: 9000 1fd8 1322 ee3f a4f4 0100 fd44 eb3f
00000550: 06ac 41f3 d388 e63f 15b8 9a9f f807 e23f
00000560: ad34 7648 24b4 eb3f f6a1 5f8c 6540 ed3f
00000570: 38a1 e29d 25f8 ea3f 9a9d 4e51 fc90 e83f
00000580: 90f3 a4d7 6e38 e53f 41ac b1c2 762a ea3f
00000590: 0da2 2e88 77b6 ec3f 66f4 11a8 001e e53f
000005a0: 16b8 8b19 9be8 ea3f 4c9b 39b1 6394 de3f
000005b0: 1c25 eb2e 5b77 f03f 13ea bdb7 8d2a ea3f
000005c0: 480d 307a 650b ea3f 3619 db92 80b3 e63f
000005d0: acc6 c16e c4bb e53f 6d28 af6b b6ff ea3f
000005e0: a010 d8a6 4419 ef3f ad16 ab2b fdb5 e43f
000005f0: edd0 b13b 8c6f ec3f 8210 32ad d511 e43f
00000600: 187d 6889 eac3 e93f d6c9 15c0 05e2 ee3f
00000610: b58c 1f17 b013 e53f 293f fc82 be36 ea3f
00000620: 1175 43e3 13be e33f 2e39 b1c5 3589 ee3f
00000630: 3df3 583c 9964 e73f 39b7 1548 0c3e eb3f
00000640: 15e3 d079 bc7f e93f 1be0 aada 181c db3f
00000650: a02c e0bb 2987 b5bf ba55 1a6d 0af9 e43f
00000660: e5a6 6e0e 6ebd f13f 3f23 9dd8 459c dd3f
00000670: 2894 e523 0f87 e13f 2919 2e3f 9ba7 e43f
00000680: 29c7 d054 1191 ea3f 6ce3 7085 a8f3 e53f
00000690: 759b 34a3 894d dc3f b7eb 20a9 2ba1 d93f
000006a0: 8258 891c d8ac e63f 0909 2c56 bd7c eb3f
000006b0: a565 de02 6e1e e33f 75b3 1067 5ad6 e33f
000006c0: dc69 7d75 76db e43f 0307 0fc8 3a0c e43f
000006d0: 757e f6c1 56ae e33f 9401 16b2 acf4 e53f
000006e0: 019b 23b4 6718 e83f 3ee2 f450 3652 e03f
000006f0: 8acc ccc3 83f7 e83f 7ba8 3a37 ffae e63f
00000700: 4190 6a2c c8c9 de3f 5ea5 9cf0 d6a5 e33f
00000710: 1780 1a05 7f9e da3f 3250 d68f 722b ec3f
00000720: e2e0 d605 898a e93f 0bbe c6e5 7182 e13f
00000730: 259a 8409 f3e5 e13f cb8f 65d6 7d24 e03f
00000740: d392 e64c f941 e73f 68e2 c75f c997 e23f
00000750: 585e a1cb e657 e13f d640 5a77 02c4 e03f
00000760: a144 c90e 342a e13f 7f0c b831 abf3 e63f
00000770: 06fc ecce 7324 e63f 0ca3 1d44 cd12 e43f
00000780: 2cb9 61ec 9350 e13f e1af 08c1 8764 e03f
00000790: 6d8e d322 fa4f e83f d1ac deee 0f7b e73f
000007a0: 958d 1d05 ba29 e53f d448 81c1 2161 e13f
000007b0: 5a86 f3e5 a26b e03f af78 5268 7d10 eb3f
000007c0: 3937 0d08 5300 e83f 1b1a 40e3 c4bc e33f
0.8723482213345948 0.48358602181181043 0.22263482397067894 0.7742816518369213 1.2410585906669314 0.8705088066459828 0.5284030629475541 0.7285998126873016
0.7178554387254877 0.8526209055779176 0.7846700536124271 0.5798547181412842 0.8342547629414083 0.7319929528370664 0.731498232529504 0.8658133510661925
0.5756557668386849 0.7621765326831138 0.7604743766199691 0.8694559882386599 0.7869133522347955 0.6261299142747598 0.771338055596993 0.7591701765785114
0.8017237665411381 0.7727771193114898 0.5114119600290423 0.8176511382229583 0.9204080555564352 0.7283753330780132 0.7502384640671848 0.5401291515843036
0.9398951544406059 0.9215481982411462 0.8491497702756671 0.9432818010252774 0.5034612801823585 0.8067907170820674 0.7711667089825112 0.6943910804305434
0.6845260879487128 0.6383497365100758 0.839947569710778 0.9135099754220857 0.8138974727668674 0.863816202773346 0.614732140998252 0.7651698746868786
0.8610467400890549 0.7671614837479588 1.0676792306417953 0.35435727284835944 -0.027184306469001274 0.8757279839557022 1.1174348184073921 0.9866673433262865
0.4407488678991339 0.6507845318162753 0.7377259533370483 0.7470412689766336 0.75021463768423 0.7190781748355463 0.939409301099168 0.909216043790143
0.8346613728633531 0.8205579417641845 0.5970841648797899 0.7818256368854566 0.6783212682212751 0.6430651963489232 0.6780185295622706 0.5387857471513559
0.9268376325677109 0.8068561439476324 0.6282528343529017 0.8053652122941403 0.706772921303986 0.8489292152263377 0.8252953123128219 0.6589406269315893
0.8826336036847371 0.5710706645610755 0.9185263776736802 0.7366126684416489 0.6547918598475688 0.6700348584589647 0.45961317155015635 0.8293549756176619
0.6887447498779816 0.7221062147439005 0.7643803671660976 0.7109378601096356 0.8603083397185541 0.772803306805855 0.7573491788940641 0.7117930083466003
0.6283654009653085 0.9671215530392818 0.7608397712369946 0.639567091754289 1.074889810338779 0.4814092370769546 0.06862915065443982 0.8800839745057976
1.0809403664089015 0.8618778417841356 0.6405645014364614 0.8143962035716974 0.7884988378457146 0.9199790025388331 0.7921625162566289 0.6190189166568738
0.9633351040237903 0.8866927216470802 0.6930607301987288 0.8409967746914399 0.6103991297033966 0.8216926691666391 0.6895068987669128 0.6336104361083296
0.8562438310529314 0.5075934855367177 0.7782919324614979 0.9368824871286159 0.6206121582203934 0.7211649992367748 0.728910929959191 0.8135741144106124
0.686514026049069 0.6855971054461154 0.7639708510235831 0.7155371071418116 0.858413097157826 0.865858242798136 0.666072959348289 0.7166126616694475
0.7048010471433949 0.9498557311552495 0.8101176888965816 0.7864416506069104 0.6702446920678024 0.6306973544069872 0.9695970317847551 0.8154225825642321
0.7089257815599594 0.8479539235784365 0.6714550910958582 0.7958437815049374 0.8630759835928068 0.6930420567936937 1.0941382824275285 0.47229299817990456
0.016972516550002193 0.8063674196841045 1.3091861552695634 0.8847242548404376 0.4980116471477482 0.6312742736322591 0.7710390652925363 0.736267639901985
0.865213441712186 0.5444487579594364 0.9079253957600825 0.9122685023712599 0.6613853757410437 0.7302213218104131 0.6208206156070963 0.8992697458548455
0.9416598530879288 0.8521714210652545 0.7042026282409786 0.5634730450890425 0.8657399573582062 0.9141109220191186 0.8427913745590905 0.7676984394101283
0.6631387912562889 0.8176835825555672 0.8972737941558663 0.6599124224300226 0.8408942698422404 0.47780697161799845 1.0291396935229562 0.8176945294101777
0.8138911615828102 0.709411894634093 0.6791708148213806 0.8437149146277655 0.9718344935104319 0.6472154477021 0.8886166730794948 0.6271770842290751
0.80516554677516 0.9650906325971913 0.658653302347736 0.8191826399142644 0.6169528425922711 0.9542492734124488 0.7310300997411115 0.8513242156893518
0.7968428019731585 0.42358991007086083 -0.08409367405708901 0.6554004794040147 1.1087475360640664 0.4626631369942977 0.5477367116078584 0.645459769629075
0.8302084595254416 0.6859934431332539 0.44223252237355065 0.4004620696684315 0.7085991437295578 0.8589770014807822 0.5974645668058441 0.6199161541932044
0.6517898840641538 0.6264928729435443 0.615031603654599 0.6861175039521634 0.7529791372624858 0.5100356656249188 0.7802141975611374 0.708861930722619
0.4810657914879393 0.6139940928889407 0.4159238386000665 0.8803036507911257 0.7981610406923461 0.5471734512156571 0.5593199907205572 0.5044545352397959
0.7268034460035672 0.5810286398619384 0.5419801690249626 0.5239269572357681 0.5364017761986767 0.7172447177002964 0.691949752952383 0.6272951441179386
0.5410861603575419 0.5122717638200777 0.7597628288462609 0.7337722459245929 0.6613435840521783 0.5431069163699029 0.5131391993747443 0.8457629239599295
0.750039592481449 0.6167931021198599

GFL.3.bias f8 [5, 1]
00000000: 32c6 a10a d68a f53f fffa 9799 1dd7 f73f
00000010: 3656 8d49 9ef4 f73f 30c9 d39e 64ec f83f
00000020: 0680 38ff 1d56 f43f
1.3463955321607384 1.4900184631111981 1.4972212670449045 1.557713146609398 1.2710247010763864

MLP.0.weight f8 [1, 740]
00000000: 4062 0177 fa23 563f 4062 0177 fa23 563f
00000010: 4062 0177 fa23 563f 4062 0177 fa23 563f
00000020: 4062 0177 fa23 563f 4062 0177 fa23 563f
00000030: 4062 0177 fa23 563f 4062 0177 fa23 563f
00000040: 4062 0177 fa23 563f 4062 0177 fa23 563f
00000050: 4062 0177 fa23 563f 4062 0177 fa23 563f
00000060: 4062 0177 fa23 563f 4062 0177 fa23 563f
00000070: 4062 0177 fa23 563f 4062 0177 fa23 563f
00000080: 4062 0177 fa23 563f 4062 0177 fa23 563f
00000090: 4062 0177 fa23 563f 4062 0177 fa23 563f
000000a0: 4062 0177 fa23 563f 4062 0177 fa23 563f
000000b0: 4062 0177 fa23 563f 4062 0177 fa23 563f
000000c0: 4062 0177 fa23 563f 4062 0177 fa23 563f
000000d0: 4062 0177 fa23 563f 4062 0177 fa23 563f
000000e0: 4062 0177 fa23 563f 4062 0177 fa23 563f
000000f0: 4062 0177 fa23 563f 4062 0177 fa23 563f
00000100: 4062 0177 fa23 563f 4062 0177 fa23 563f
00000110: 4062 0177 fa23 563f 4062 0177 fa23 563f
00000120: 4062 0177 fa23 563f 4062 0177 fa23 563f
00000130: 4062 0177 fa23 563f 4062 0177 fa23 563f
00000140: 4062 0177 fa23 563f 4062 0177 fa23 563f
00000150: 4062 0177 fa23 563f 4062 0177 fa23 563f
00000160: 4062 0177 fa23 563f 4062 0177 fa23 563f
00000170: 4062 0177 fa23 563f 4062 0177 fa23 563f
00000180: 4062 0177 fa23 563f 4062 0177 fa23 563f
00000190: 4062 0177 fa23 563f 4062 0177 fa23 563f
000001a0: 4062 0177 fa23 563f 4062 0177 fa23 563f
000001b0: 4062 0177 fa23 563f 4062 0177 fa23 563f
000001c0: 4062 0177 fa23 563f 4062 0177 fa23 563f
000001d0: 4062 0177 fa23 563f 4062 0177 fa23 563f
000001e0: 4062 0177 fa23 563f 4062 0177 fa23 563f
000001f0: 4062 0177 fa23 563f 4062 0177 fa23 563f
00000200: 4062 0177 fa23 563f 4062 0177 fa23 563f
00000210: 4062 0177 fa23 563f 4062 0177 fa23 563f
00000220: 4062 0177 fa23 563f 4062 0177 fa23 563f
00000230: 4062 0177 fa23 563f 4062 0177 fa23 563f
00000240: 4062 0177 fa23 563f 4062 0177 fa23 563f
00000250: 4062 0177 fa23 563f 4062 0177 fa23 563f
00000260: 4062 0177 fa23 563f 4062 0177 fa23 563f
00000270: 4062 0177 fa23 563f 4062 0177 fa23 563f
00000280: 4062 0177 fa23 563f 4062 0177 fa23 563f
00000290: 4062 0177 fa23 563f 4062 0177 fa23 563f
000002a0: 4062 0177 fa23 563f 4062 0177 fa23 563f
000002b0: 4062 0177 fa23 563f 4062 0177 fa23 563f
000002c0: 4062 0177 fa23 563f 4062 0177 fa23 563f
000002d0: 4062 0177 fa23 563f 4062 0177 fa23 563f
000002e0: 4062 0177 fa23 563f 4062 0177 fa23 563f
000002f0: 4062 0177 fa23 563f 4062 0177 fa23 563f
00000300: 4062 0177 fa23 563f 4062 0177 fa23 563f
00000310: 4062 0177 fa23 563f 4062 0177 fa23 563f
00000320: 4062 0177 fa23 563f 4062 0177 fa23 563f
00000330: 4062 0177 fa23 563f 4062 0177 fa23 563f
00000340: 4062 0177 fa23 563f 4062 0177 fa23 563f
00000350: 4062 0177 fa23 563f 4062 0177 fa23 563f
00000360: 4062 0177 fa23 563f 4062 0177 fa23 563f
00000370: 4062 0177 fa23 563f 4062 0177 fa23 563f
00000380: 4062 0177 fa23 563f 4062 0177 fa23 563f
00000390: 4062 0177 fa23 563f 4062 0177 fa23 563f
000003a0: 4062 0177 fa23 563f 4062 0177 fa23 563f
000003b0: 4062 0177 fa23 563f 4062 0177 fa23 563f
000003c0: 4062 0177 fa23 563f 4062 0177 fa23 563f
000003d0: 4062 0177 fa23 563f 4062 0177 fa23 563f
000003e0: 4062 0177 fa23 563f 4062 0177 fa23 563f
000003f0: 4062 0177 fa23 563f 4062 0177 fa23 563f
00000400: 4062 0177 fa23 563f 4062 0177 fa23 563f
00000410: 4062 0177 fa23 563f 4062 0177 fa23 563f
00000420: 4062 0177 fa23 563f 4062 0177 fa23 563f
00000430: 4062 0177 fa23 563f 4062 0177 fa23 563f
00000440: 4062 0177 fa23 563f 4062 0177 fa23 563f
00000450: 4062 0177 fa23 563f 4062 0177 fa23 563f
00000460: 4062 0177 fa23 563f 4062 0177 fa23 563f
00000470: 4062 0177 fa23 563f 4062 0177 fa23 563f
00000480: 4062 0177 fa23 563f 4062 0177 fa23 563f
00000490: 4062 0177 fa23 563f 4062 0177 fa23 563f
000004a0: 4062 0177 fa23 563f 4062 0177 fa23 563f
000004b0: 4062 0177 fa23 563f 4062 0177 fa23 563f
000004c0: 4062 0177 fa23 563f 4062 0177 fa23 563f
000004d0: 4062 0177 fa23 563f 4062 0177 fa23 563f
000004e0: 4062 0177 fa23 563f 4062 0177 fa23 563f
000004f0: 4062 0177 fa23 563f 4062 0177 fa23 563f
00000500: 4062 0177 fa23 563f 4062 0177 fa23 563f
00000510: 4062 0177 fa23 563f 4062 0177 fa23 563f
00000520: 4062 0177 fa23 563f 4062 0177 fa23 563f
00000530: 4062 0177 fa23 563f 4062 0177 fa23 563f
00000540: 4062 0177 fa23 563f 4062 0177 fa23 563f
00000550: 4062 0177 fa23 563f 4062 0177 fa23 563f
00000560: 4062 0177 fa23 563f 4062 0177 fa23 563f
00000570: 4062 0177 fa23 563f 4062 0177 fa23 563f
00000580: 4062 0177 fa23 563f 4062 0177 fa23 563f
00000590: 4062 0177 fa23 563f 4062 0177 fa23 563f
000005a0: 4062 0177 fa23 563f 4062 0177 fa23 563f
000005b0: 4062 0177 fa23 563f 4062 0177 fa23 563f
000005c0: 4062 0177 fa23 563f 4062 0177 fa23 563f
000005d0: 4062 0177 fa23 563f 4062 0177 fa23 563f
000005e0: 4062 0177 fa23 563f 4062 0177 fa23 563f
000005f0: 4062 0177 fa23 563f 4062 0177 fa23 563f
00000600: 4062 0177 fa23 563f 4062 0177 fa23 563f
00000610: 4062 0177 fa23 563f 4062 0177 fa23 563f
00000620: 4062 0177 fa23 563f 4062 0177 fa23 563f
00000630: 4062 0177 fa23 563f 4062 0177 fa23 563f
00000640: 4062 0177 fa23 563f 4062 0177 fa23 563f
00000650: 4062 0177 fa23 563f 4062 0177 fa23 563f
00000660: 4062 0177 fa23 563f 4062 0177 fa23 563f
00000670: 4062 0177 fa23 563f 4062 0177 fa23 563f
00000680: 4062 0177 fa23 563f 4062 0177 fa23 563f
00000690: 4062 0177 fa23 563f 4062 0177 fa23 563f
000006a0: 4062 0177 fa23 563f 4062 0177 fa23 563f
000006b0: 4062 0177 fa23 563f 4062 0177 fa23 563f
000006c0: 4062 0177 fa23 563f 4062 0177 fa23 563f
000006d0: 4062 0177 fa23 563f 4062 0177 fa23 563f
000006e0: 4062 0177 fa23 563f 4062 0177 fa23 563f
000006f0: 4062 0177 fa23 563f 4062 0177 fa23 563f
00000700: 4062 0177 fa23 563f 4062 0177 fa23 563f
00000710: 4062 0177 fa23 563f 4062 0177 fa23 563f
00000720: 4062 0177 fa23 563f 4062 0177 fa23 563f
00000730: 4062 0177 fa23 563f 4062 0177 fa23 563f
00000740: 4062 0177 fa23 563f 4062 0177 fa23 563f
00000750: 4062 0177 fa23 563f 4062 0177 fa23 563f
00000760: 4062 0177 fa23 563f 4062 0177 fa23 563f
00000770: 4062 0177 fa23 563f 4062 0177 fa23 563f
00000780: 4062 0177 fa23 563f 4062 0177 fa23 563f
00000790: 4062 0177 fa23 563f 4062 0177 fa23 563f
000007a0: 4062 0177 fa23 563f 4062 0177 fa23 563f
000007b0: 4062 0177 fa23 563f 4062 0177 fa23 563f
000007c0: 4062 0177 fa23 563f 4062 0177 fa23 563f
000007d0: 4062 0177 fa23 563f 4062 0177 fa23 563f
000007e0: 4062 0177 fa23 563f 4062 0177 fa23 563f
000007f0: 4062 0177 fa23 563f 4062 0177 fa23 563f
0.0013513513513513514 0.0013513513513513514 0.0013513513513513514 0.0013513513513513514 0.0013513513513513514 0.0013513513513513514 0.0013513513513513514 0.0013513513513513514
0.0013513513513513514 0.0013513513513513514 0.0013513513513513514 0.0013513513513513514 0.0013513513513513514 0.0013513513513513514 0.0013513513513513514 0.0013513513513513514
0.0013513513513513514 0.0013513513513513514 0.0013513513513513514 0.0013513513513513514 0.0013513513513513514 0.0013513513513513514 0.0013513513513513514 0.0013513513513513514
0.0013513513513513514 0.0013513513513513514 0.0013513513513513514 0.0013513513513513514 0.0013513513513513514 0.0013513513513513514 0.0013513513513513514 0.0013513513513513514
0.0013513513513513514 0.0013513513513513514 0.0013513513513513514 0.0013513513513513514 0.0013513513513513514 0.0013513513513513514 0.0013513513513513514 0.0013513513513513514
0.0013513513513513514 0.0013513513513513514 0.0013513513513513514 0.0013513513513513514 0.0013513513513513514 0.0013513513513513514 0.0013513513513513514 0.0013513513513513514
0.0013513513513513514 0.0013513513513513514 0.0013513513513513514 0.0013513513513513514 0.0013513513513513514 0.0013513513513513514 0.0013513513513513514 0.0013513513513513514
0.0013513513513513514 0.0013513513513513514 0.0013513513513513514 0.0013513513513513514 0.0013513513513513514 0.0013513513513513514 0.0013513513513513514 0.0013513513513513514
0.0013513513513513514 0.0013513513513513514 0.0013513513513513514 0.0013513513513513514 0.0013513513513513514 0.0013513513513513514 0.0013513513513513514 0.0013513513513513514
0.0013513513513513514 0.0013513513513513514 0.0013513513513513514 0.0013513513513513514 0.0013513513513513514 0.0013513513513513514 0.0013513513513513514 0.0013513513513513514
0.0013513513513513514 0.0013513513513513514 0.0013513513513513514 0.0013513513513513514 0.0013513513513513514 0.0013513513513513514 0.0013513513513513514 0.0013513513513513514
0.0013513513513513514 0.0013513513513513514 0.0013513513513513514 0.0013513513513513514 0.0013513513513513514 0.0013513513513513514 0.0013513513513513514 0.0013513513513513514
0.0013513513513513514 0.0013513513513513514 0.0013513513513513514 0.0013513513513513514 0.0013513513513513514 0.0013513513513513514 0.0013513513513513514 0.0013513513513513514
0.0013513513513513514 0.0013513513513513514 0.0013513513513513514 0.0013513513513513514 0.0013513513513513514 0.0013513513513513514 0.0013513513513513514 0.0013513513513513514
0.0013513513513513514 0.0013513513513513514 0.0013513513513513514 0.0013513513513513514 0.0013513513513513514 0.0013513513513513514 0.0013513513513513514 0.0013513513513513514
0.0013513513513513514 0.0013513513513513514 0.0013513513513513514 0.0013513513513513514 0.0013513513513513514 0.0013513513513513514 0.0013513513513513514 0.0013513513513513514
0.0013513513513513514 0.0013513513513513514 0.0013513513513513514 0.0013513513513513514 0.0013513513513513514 0.0013513513513513514 0.0013513513513513514 0.0013513513513513514
0.0013513513513513514 0.0013513513513513514 0.0013513513513513514 0.0013513513513513514 0.0013513513513513514 0.0013513513513513514 0.0013513513513513514 0.0013513513513513514
0.0013513513513513514 0.0013513513513513514 0.0013513513513513514 0.0013513513513513514 0.0013513513513513514 0.0013513513513513514 0.0013513513513513514 0.0013513513513513514
0.0013513513513513514 0.0013513513513513514 0.0013513513513513514 0.0013513513513513514 0.0013513513513513514 0.0013513513513513514 0.0013513513513513514 0.0013513513513513514
0.0013513513513513514 0.0013513513513513514 0.0013513513513513514 0.0013513513513513514 0.0013513513513513514 0.0013513513513513514 0.0013513513513513514 0.0013513513513513514
0.0013513513513513514 0.0013513513513513514 0.0013513513513513514 0.0013513513513513514 0.0013513513513513514 0.0013513513513513514 0.0013513513513513514 0.0013513513513513514
0.0013513513513513514 0.0013513513513513514 0.0013513513513513514 0.0013513513513513514 0.0013513513513513514 0.0013513513513513514 0.0013513513513513514 0.0013513513513513514
0.0013513513513513514 0.0013513513513513514 0.0013513513513513514 0.0013513513513513514 0.0013513513513513514 0.0013513513513513514 0.0013513513513513514 0.0013513513513513514
0.0013513513513513514 0.0013513513513513514 0.0013513513513513514 0.0013513513513513514 0.0013513513513513514 0.0013513513513513514 0.0013513513513513514 0.0013513513513513514
0.0013513513513513514 0.0013513513513513514 0.0013513513513513514 0.0013513513513513514 0.0013513513513513514 0.0013513513513513514 0.0013513513513513514 0.0013513513513513514
0.0013513513513513514 0.0013513513513513514 0.0013513513513513514 0.0013513513513513514 0.0013513513513513514 0.0013513513513513514 0.0013513513513513514 0.0013513513513513514
0.0013513513513513514 0.0013513513513513514 0.0013513513513513514 0.0013513513513513514 0.0013513513513513514 0.0013513513513513514 0.0013513513513513514 0.0013513513513513514
0.0013513513513513514 0.0013513513513513514 0.0013513513513513514 0.0013513513513513514 0.0013513513513513514 0.0013513513513513514 0.0013513513513513514 0.0013513513513513514
0.0013513513513513514 0.0013513513513513514 0.0013513513513513514 0.0013513513513513514 0.0013513513513513514 0.0013513513513513514 0.0013513513513513514 0.0013513513513513514
0.0013513513513513514 0.0013513513513513514 0.0013513513513513514 0.0013513513513513514 0.0013513513513513514 0.0013513513513513514 0.0013513513513513514 0.0013513513513513514
0.0013513513513513514 0.0013513513513513514 0.0013513513513513514 0.0013513513513513514 0.0013513513513513514 0.0013513513513513514 0.0013513513513513514 0.0013513513513513514
