OASIS3_VNN_NeurIPS/test83.pth (torch, 10139 bytes, 5 tensors)

GFL.0.weight f8 [5, 1, 6, 1]
2.0046414627621583 -0.6038033995692597 -0.18610503647053753 -0.5693498021512053 -0.7578733981439115 -0.7722129458085023 1.014266073130761 -0.09459746512731575
0.1382880982658799 0.06996483860928 -0.40391459370325883 0.12003712358274678 -0.5703813866327996 -0.5050258894510219 0.10079852349051631 -0.5380406802488937
-0.08616940214870485 0.053388099739283816 1.0416148793495907 -0.11291731021904026 -0.22425877231513736 0.055711090814176585 0.0036499649690396926 -0.14502983695788407
0.7582490751529878 -0.3376761540057734 -0.07318896904261421 0.1392675042285682 0.21896399771482278 0.16429505721688922
00000000: 0f27 9676 8109 0040 89a2 cb81 5b52 e3bf
00000010: 2b84 a132 4ad2 c7bf e426 8713 1d38 e2bf
00000020: e72a 71b6 7f40 e8bf 6873 79ec f7b5 e8bf
00000030: 979f d80f 6f3a f03f 4b9e 011b 8a37 b8bf
00000040: ba2e bda5 6cb3 c13f e55f b235 37e9 b13f
00000050: b749 9598 bcd9 d9bf c903 18c0 c0ba be3f
00000060: 5eb8 3a77 9040 e2bf 176a da0d 2c29 e0bf
00000070: 9779 e099 eecd b93f 5cc5 b216 a137 e1bf
00000080: d901 25ac 320f b6bf 2f6a c05c af55 ab3f
00000090: ed55 1d5d 74aa f03f 4706 8b1a 26e8 bcbf
000000a0: cca1 77ee 82b4 ccbf 318b 2402 2a86 ac3f
000000b0: 0ce5 8d05 88e6 6d3f 54d3 5673 5690 c2bf
000000c0: 7623 8090 9343 e83f bd01 8671 7c9c d5bf
000000d0: c24a 7724 83bc b2bf b653 0780 84d3 c13f
000000e0: f0e1 9724 0307 cc3f e50b d2d4 9e07 c53f

GFL.0.bias f8 [5, 1]
1.7660664443273462 2.177335312959373 2.416623690925363 1.7551408395859769 1.9540129650831561
00000000: ed2e 4fe3 ce41 fc3f 03b1 ccc6 2e6b 0140
00000010: 211b 3acd 3e55 0340 0155 9e8f 0e15 fc3f
00000020: d4df 4f19 a343 ff3f

GFL.3.weight f8 [5, 1, 10, 5]
0.7245049339237764 0.5531294999487486 -0.058463253276342955 0.29931499994348043 0.3142901812243356 0.2847658980340664 0.19569140423747905 0.0648186614852065
-0.16362659477841635 0.02962811764910535 0.22853632240408348 0.05565958828855832 0.027002908523762352 -0.32481039486099755 -0.041497118770572994 0.20783930364651967
0.032979895977301936 0.21518943939841023 -0.18895049656117843 0.031177855520960696 0.23152859016843594 0.08332722164164631 0.06812552630475237 -0.12249926735895351
-0.037366347645532136 0.2800517080006428 0.24182801541424617 0.21108945841448587 -0.3194848746816659 -0.08240431443803459 0.17872699527374142 0.10222400459981071
0.028965671071334388 -0.13793817515496984 -0.05787135769431661 0.059256573040504794 0.07259879825325183 0.044529556853916366 -0.29812363689285837 -0.09775016749553304
0.2415736043045483 0.0898086468163084 0.14007130224174227 -0.21935755074634397 0.03429176694704736 0.08168776400721066 0.10088465412270872 0.27798700728656905
-0.22822663997023318 0.07477709722009106 1.316119979781759 1.0068348728888235 0.7911684428276106 0.6845803112177777 0.9591441227606012 0.7411569702121528
0.861695862750402 0.748937109300664 0.3398270797729424 0.6364705143803296 0.6590812508924937 0.5738251332411684 0.6460838938159461 0.2966361233790641
0.42100968981177633 0.8804991529686451 0.7163307043249646 0.6632193140323346 0.3247019347346814 0.5876730832725473 0.7259210240301802 0.57823720921243
0.8299276009130812 0.2528162622624088 0.5380059737584549 0.7249969347085442 0.6689901894029799 0.8696095835998308 0.5149143613716887 0.4388715554888856
0.8942354569130325 0.6066754166365609 0.7306250224228016 0.3990235156298081 0.5175619996520163 0.71409979463162 0.5831305985284839 0.7836141992006349
0.5166972791809498 0.4646540680802392 0.8576899020164988 0.7358681940826288 0.6652863571616724 0.4449230846753403 0.6081997346764583 0.7791501942444375
0.7479487233758917 0.7024485520410597 0.4965872640362229 0.6702777863058412 1.4269873716076347 1.4045146279580263 0.9785480177887006 1.100366028209694
1.108461677866201 1.0866511100965404 1.0101948088375712 1.054436047855833 0.7634536222003355 0.691166144145341 1.0212785989885234 1.0364254516639766
0.9892457645191164 0.6280433768712373 0.7512648637125269 0.9581630474501325 0.8534516690716698 1.0862757553735194 0.6224881749455184 0.7661035075899326
1.005727224696381 0.7785657342992752 1.1226872359940143 0.6921159273778524 0.6189164399245126 0.9863619532363077 0.8737717891623049 1.016734837737619
0.7001134858938374 0.7999714503131474 0.8818735317651485 0.8867567133796089 0.9196445583753208 0.7215038310098645 0.6858549643905242 0.9574088853871109
0.8753222778995309 1.1162281721664409 0.7638346394822514 0.5814055091801208 1.0492711672560873 0.8987567544855783 0.9121683795098225 0.6751334111064675
0.6955005156010241 0.931603198004565 0.8924182382255544 0.9181457887517299 0.7370319587715819 0.8330570400702976 1.3383769115594755 1.1189355982998488
0.9876238683469454 1.0476573368403093 1.0769428807567367 1.1282239973816335 0.9581432076663111 1.0451359094127894 0.513965169164588 0.8803297055198562
0.965594873283508 0.7888484380051342 1.059397260074625 0.4651864471772109 0.5996807065422021 1.0425218645274783 1.0113295832041655 0.8878552309270467
0.5748881867642626 0.6555197868156035 0.8237385144735937 0.8123210426697227 1.1150153015165682 0.5367332263718892 0.5940005505541351 0.9849052711728157
0.8399014744480644 0.9354886050540991 0.6164744682292584 0.623027065147092 1.0183093368523244 0.9954773900120746 0.9918831621183134 0.6855133524022987
0.6887516589764143 1.0672787373476278 0.7364600999532823 0.9753825845650868 0.499320523866511 0.6914608692508926 0.9142373569272568 0.7645690173394063
1.1052101659422684 0.48676425908789633 0.7359164523058875 0.8797613887742967 0.7522439513633404 1.0825542670063548 0.6568311796351874 0.7707244586654026
1.5730366182683304 1.2893079081066519 1.0057481605838947 1.0322849085962502 1.1062271427176338 1.1779206450058963 0.9340758003350471 1.0990934534397396
0.6265140799606692 0.7289170798854302 0.8928674327644449 0.9401117437178795 1.1118050640333086 0.7608307797026927 0.8122308476877113 0.9653112803753197
0.8350737434587695 1.020478284200948 0.5863338310004986 0.8139323368205015 0.9103587044444572 0.9418271112011205 1.0754060322721606 0.6536690333987208
0.7738239670963578 1.0746799737595187 0.9630405475252143 1.0016745749874458 0.5346426950149039 0.579992849372178 1.0477523163970104 0.9039824055827875
1.0425330503393904 0.6347156463372766 0.6053312781234425 1.0487572003894137 0.8939475959496405 0.9137781510550449 0.6805958755763405 0.7325644210006789
1.0780228012158453 0.9565444952681211 0.9127480190027276 0.704074140823147 0.7515564298246371 1.1092696731842273 0.9685167402133534 1.1436573200589144
0.618762558569879 0.7580446658364902
00000000: cac8 9ff8 242f e73f 5a72 17a3 3cb3 e13f
00000010: a2e7 ad41 e5ee adbf 4a68 fd19 fa27 d33f
00000020: eefe 7390 541d d43f f8a1 c4be 9a39 d23f
00000030: fe75 a77a 6a0c c93f 65dc 3faf f497 b03f
00000040: 5821 aa5c b7f1 c4bf 043a 6151 d556 9e3f
00000050: 2f3a 569f ad40 cd3f 4ffd d0de 697f ac3f
00000060: ee97 0684 a6a6 9b3f 910b d589 b1c9 d4bf
00000070: b8e4 fe3f 1c3f a5bf 8b1b fe71 7a9a ca3f
00000080: d7c5 4bad bde2 a03f 5293 54da 538b cb3f
00000090: 4b88 a5a5 872f c8bf 70aa 4977 16ed 9f3f
000000a0: c363 6e95 baa2 cd3f 1142 d1cb ee54 b53f
000000b0: 5b6f 80ab ac70 b13f dd35 17ab 1c5c bfbf
000000c0: de90 3792 ae21 a3bf 174f c3ff 5dec d13f
000000d0: 8dfa ba6c 38f4 ce3f 33d5 35b8 fa04 cb3f
000000e0: 31c3 14b0 7072 d4bf 5c87 8ffb 7218 b5bf
000000f0: f278 ceb3 86e0 c63f b651 9f34 5a2b ba3f
00000100: 7a11 d547 2da9 9d3f c38b 9447 f5a7 c1bf
00000110: 9f2b 5889 50a1 adbf bf62 90a6 e056 ae3f
00000120: ac03 3ab8 d595 b23f e22f c9fc 93cc a63f
00000130: 58a4 a729 7514 d3bf e363 92ac 2706 b9bf
00000140: fb4d 0845 e2eb ce3f f05b f910 b3fd b63f
00000150: d542 1e3f dbed c13f db08 4b81 e813 ccbf
00000160: cc86 1ec3 b08e a13f 2ff3 e442 7de9 b43f
00000170: 0614 20a2 93d3 b93f ff8e 4004 8aca d13f
00000180: 54c2 5fd1 8736 cdbf 97d3 0c83 9724 b33f
00000190: bb65 ecd2 d30e f53f 1e7a 38e2 fe1b f03f
000001a0: 754c 727b 4051 e93f b44e 05f8 14e8 e53f
000001b0: 5a09 ed03 4fb1 ee3f c26f 88d2 8eb7 e73f
000001c0: 4191 b333 0393 eb3f cea0 e6f4 4af7 e73f
000001d0: cde0 7a14 babf d53f d137 8469 f75d e43f
000001e0: 56ae 3f90 3117 e53f de98 9c86 c65c e23f
000001f0: ac2d 4d21 b8ac e43f 566b 2e14 16fc d23f
00000200: 909a 42a0 d2f1 da3f 37fe 448f 0c2d ec3f
00000210: a748 865e 2eec e63f 9405 fbb5 1739 e53f
00000220: 5989 a89f eac7 d43f 75a4 2cc8 37ce e23f
00000230: d107 36ba be3a e73f efb9 dc51 eb80 e23f
00000240: 8405 ff53 c48e ea3f a718 9442 242e d03f
00000250: dd0b cb4d 5837 e13f 0fc0 88c5 2c33 e73f
00000260: a494 1a1d 5e68 e53f b42e 3b7a d7d3 eb3f
00000270: cca0 caae 2d7a e03f dd0a 7eb8 7816 dc3f
00000280: d5ae 4bad 939d ec3f f0b7 3790 e269 e33f
00000290: 133f 1eba 4761 e73f 14c2 7ded 9989 d93f
000002a0: 7b0c c52e de8f e03f 6fbd 00d0 e7d9 e63f
000002b0: 7d41 3f80 01a9 e23f 42ef c715 5e13 e93f
000002c0: a575 80bb c888 e03f 39e9 966a e4bc dd3f
000002d0: 5aa6 e817 3272 eb3f 0e0c 7874 3b8c e73f
000002e0: dd7f 4f9d 064a e53f 29a0 7aac 9e79 dc3f
000002f0: 68e1 3b4a 5f76 e33f 0576 5e63 ccee e83f
00000300: 4080 3f29 32ef e73f ea71 c462 757a e63f
00000310: 0e53 a9f2 15c8 df3f 5767 6d66 ea72 e53f
00000320: b3c1 cdb5 f0d4 f63f 5255 9d54 e478 f63f
00000330: a3fa beee 4350 ef3f 0ba4 8c68 199b f13f
00000340: badf f44f 42bc f13f 836d 4046 ec62 f13f
00000350: cfbd 2808 c229 f03f 8c3a 5455 f8de f03f
00000360: 2d9f 6b4a 366e e83f f99c 2676 081e e63f
00000370: a02a 6c3a 2857 f03f 8f38 bada 3295 f03f
00000380: ac1d cabb e6a7 ef3f 2934 846c ee18 e43f
00000390: 35ef 889c 5c0a e83f a716 218d 45a9 ee3f
000003a0: 5824 ecdf 794f eb3f 7a45 bcaf 6261 f13f
000003b0: 1235 3152 6ceb e33f 8563 ce80 eb83 e83f
000003c0: e948 2c6e 7517 f03f 6940 d3af 02ea e83f
000003d0: dfb1 23e4 86f6 f13f 631d 244d d025 e63f
000003e0: 4ad7 8dd9 29ce e33f 5c65 65f1 4690 ef3f
000003f0: 00d3 5341 f0f5 eb3f 4f97 ccbf 8b44 f03f
00000400: 02e2 ac65 5467 e63f 5c84 1aba 5d99 e93f
00000410: 6475 44d7 4e38 ec3f e929 6f9d 4f60 ec3f
00000420: de52 c56c ba6d ed3f d608 c433 8f16 e73f
00000430: d368 3b1c 86f2 e53f 0566 74f5 17a3 ee3f
00000440: 1a3d a1dd a302 ec3f 7142 6512 12dc f13f
00000450: 611a 8457 5571 e83f 3392 f4b9 df9a e23f
00000460: a002 4090 d0c9 f03f 9e63 7286 9dc2 ec3f
00000470: 8414 cebd 7b30 ed3f 5674 2462 b19a e53f
00000480: f070 1b4c 8a41 e63f 73ea 8882 b1cf ed3f
00000490: d30b 71b1 b08e ec3f 02c3 f446 7361 ed3f
000004a0: 06fc e00b c495 e73f 61be d93c 67a8 ea3f
000004b0: 31e9 8de8 fd69 f53f de72 9003 29e7 f13f
000004c0: 8e92 e95e 9d9a ef3f 1f4c f256 34c3 f03f
000004d0: d429 4875 283b f13f 6810 359b 340d f23f
000004e0: 85f6 b9f1 1ba9 ee3f b3d9 6c6e e0b8 f03f
000004f0: 590a 1b15 6772 e03f 86f6 dc33 a92b ec3f
00000500: 8803 3e38 27e6 ee3f 9072 5714 3f3e e93f
00000510: 5ee1 978a 4af3 f03f 90c9 4a60 9dc5 dd3f
00000520: 8282 d497 9530 e33f da2a 1868 2bae f03f
00000530: 5f6d d5ed 672e f03f 1241 8d5f 4f69 ec3f
00000540: c24b 20e9 7b65 e23f 0620 c8a1 04fa e43f
00000550: a5d4 83df 105c ea3f 80cf 03b3 88fe e93f
00000560: 12da e848 1ad7 f13f d933 be28 eb2c e13f
00000570: c1f3 4d71 0d02 e33f 540c 2b0f 5884 ef3f
00000580: 52bb 930e 79e0 ea3f d49d 8fcc 85ef ed3f
00000590: 12a3 fba9 28ba e33f 438c aa74 d6ef e33f
000005a0: f9df 2fbb fe4a f03f 2a4c 4066 f3da ef3f
000005b0: 030a d8c1 81bd ef3f 1841 b1b2 b9ef e53f
000005c0: 7dd2 4beb 400a e63f defc 89de 9213 f13f
000005d0: b176 83c5 1491 e73f a870 b989 5536 ef3f
000005e0: af9b 0e12 def4 df3f 9eae 7c8b 7220 e63f
000005f0: ea16 99b3 6e41 ed3f 513e a071 5977 e83f
00000600: 44dc deda f0ae f13f 563a 6947 2527 df3f
00000610: 89bf e7a8 a08c e73f 7136 225b 0127 ec3f
00000620: 0305 37e8 6112 e83f 3000 4f6c 2452 f13f
00000630: e3d6 70d2 c204 e53f 253f 0657 c6a9 e83f
00000640: 76f7 ed71 282b f93f 07ad 3c54 01a1 f43f
00000650: 0e85 1b62 8b17 f03f 3334 292e 3d84 f03f
00000660: 58b7 7e3b 1bb3 f13f 3956 7951 c3d8 f23f
00000670: d891 cdee f2e3 ed3f 9357 5c04 e395 f13f
00000680: 6e44 7d41 670c e43f db51 73e9 4953 e73f
00000690: 6b60 ecb8 5e92 ec3f 8b52 3b39 6515 ee3f
000006a0: cfcd 581b f4c9 f13f b69f 93ca b958 e83f
000006b0: dddf f38b cbfd e93f 1480 757b d4e3 ee3f
000006c0: 2feb 3c92 ecb8 ea3f 81bd 8e09 e153 f03f
000006d0: e2ef 952a 3fc3 e23f 0fa1 f9d3 bb0b ea3f
000006e0: d2f8 e693 a821 ed3f fa09 239c 7223 ee3f
000006f0: 167b a8f4 dc34 f13f bf5f 1b52 dbea e43f
00000700: 5846 f17a 2ac3 e83f 8f69 cfa0 e331 f13f
00000710: a3f7 0a69 3ad1 ee3f 79e4 4ceb db06 f03f
00000720: 4e4c 44ff ca1b e13f 9af4 fe29 4d8f e23f
00000730: 06bc d3ee 97c3 f03f 3d66 8482 6ced ec3f
00000740: 114f c322 37ae f03f 3de6 e82f 974f e43f
00000750: 7327 59b3 df5e e33f 70df 51a1 b5c7 f03f
00000760: ff20 1efd 379b ec3f a295 52ad ab3d ed3f
00000770: 5f92 6c00 71c7 e53f a927 cdf0 2a71 e73f
00000780: a307 39d6 943f f13f 930d 8b33 039c ee3f
00000790: 4560 6355 3b35 ed3f 4e6e 197e c687 e63f
000007a0: 3040 e611 c00c e83f 7655 8c8e 91bf f13f
000007b0: 4409 9bd1 16fe ee3f a3be 379e 6b4c f23f
000007c0: 5480 2123 e7cc e33f 6399 15e3 e641 e83f

GFL.3.bias f8 [5, 1]
1.1970364714051074 1.2847782926055895 1.7015673624773127 1.4260344328391446 1.650616301118032
00000000: e7dd 0cb7 0f27 f33f aba0 d5ae 738e f43f
00000010: 1f7f dcb2 9e39 fb3f 7c39 407b 09d1 f63f
00000020: 33be 78a3 ec68 fa3f

MLP.0.weight f8 [1, 740]
0.0013513513513513514 0.0013513513513513514 0.0013513513513513514 0.0013513513513513514 0.0013513513513513514 0.0013513513513513514 0.0013513513513513514 0.0013513513513513514
0.0013513513513513514 0.0013513513513513514 0.0013513513513513514 0.0013513513513513514 0.0013513513513513514 0.0013513513513513514 0.0013513513513513514 0.0013513513513513514
0.0013513513513513514 0.0013513513513513514 0.0013513513513513514 0.0013513513513513514 0.0013513513513513514 0.0013513513513513514 0.0013513513513513514 0.0013513513513513514
0.0013513513513513514 0.0013513513513513514 0.0013513513513513514 0.0013513513513513514 0.0013513513513513514 0.0013513513513513514 0.0013513513513513514 0.0013513513513513514
0.0013513513513513514 0.0013513513513513514 0.0013513513513513514 0.0013513513513513514 0.0013513513513513514 0.0013513513513513514 0.0013513513513513514 0.0013513513513513514
0.0013513513513513514 0.0013513513513513514 0.0013513513513513514 0.0013513513513513514 0.0013513513513513514 0.0013513513513513514 0.0013513513513513514 0.0013513513513513514
0.0013513513513513514 0.0013513513513513514 0.0013513513513513514 0.0013513513513513514 0.0013513513513513514 0.0013513513513513514 0.0013513513513513514 0.0013513513513513514
0.0013513513513513514 0.0013513513513513514 0.0013513513513513514 0.0013513513513513514 0.0013513513513513514 0.0013513513513513514 0.0013513513513513514 0.0013513513513513514
0.0013513513513513514 0.0013513513513513514 0.0013513513513513514 0.0013513513513513514 0.0013513513513513514 0.0013513513513513514 0.0013513513513513514 0.0013513513513513514
0.0013513513513513514 0.0013513513513513514 0.0013513513513513514 0.0013513513513513514 0.0013513513513513514 0.0013513513513513514 0.0013513513513513514 0.0013513513513513514
0.0013513513513513514 0.0013513513513513514 0.0013513513513513514 0.0013513513513513514 0.0013513513513513514 0.0013513513513513514 0.0013513513513513514 0.0013513513513513514
0.0013513513513513514 0.0013513513513513514 0.0013513513513513514 0.0013513513513513514 0.0013513513513513514 0.0013513513513513514 0.0013513513513513514 0.0013513513513513514
0.0013513513513513514 0.0013513513513513514 0.0013513513513513514 0.0013513513513513514 0.0013513513513513514 0.0013513513513513514 0.0013513513513513514 0.0013513513513513514
0.0013513513513513514 0.0013513513513513514 0.0013513513513513514 0.0013513513513513514 0.0013513513513513514 0.0013513513513513514 0.0013513513513513514 0.0013513513513513514
0.0013513513513513514 0.0013513513513513514 0.0013513513513513514 0.0013513513513513514 0.0013513513513513514 0.0013513513513513514 0.0013513513513513514 0.0013513513513513514
0.0013513513513513514 0.0013513513513513514 0.0013513513513513514 0.0013513513513513514 0.0013513513513513514 0.0013513513513513514 0.0013513513513513514 0.0013513513513513514
0.0013513513513513514 0.0013513513513513514 0.0013513513513513514 0.0013513513513513514 0.0013513513513513514 0.0013513513513513514 0.0013513513513513514 0.0013513513513513514
0.0013513513513513514 0.0013513513513513514 0.0013513513513513514 0.0013513513513513514 0.0013513513513513514 0.0013513513513513514 0.0013513513513513514 0.0013513513513513514
0.0013513513513513514 0.0013513513513513514 0.0013513513513513514 0.0013513513513513514 0.0013513513513513514 0.0013513513513513514 0.0013513513513513514 0.0013513513513513514
0.0013513513513513514 0.0013513513513513514 0.0013513513513513514 0.0013513513513513514 0.0013513513513513514 0.0013513513513513514 0.0013513513513513514 0.0013513513513513514
0.0013513513513513514 0.0013513513513513514 0.0013513513513513514 0.0013513513513513514 0.0013513513513513514 0.0013513513513513514 0.0013513513513513514 0.0013513513513513514
0.0013513513513513514 0.0013513513513513514 0.0013513513513513514 0.0013513513513513514 0.0013513513513513514 0.0013513513513513514 0.0013513513513513514 0.0013513513513513514
0.0013513513513513514 0.0013513513513513514 0.0013513513513513514 0.0013513513513513514 0.0013513513513513514 0.0013513513513513514 0.0013513513513513514 0.0013513513513513514
0.0013513513513513514 0.0013513513513513514 0.0013513513513513514 0.0013513513513513514 0.0013513513513513514 0.0013513513513513514 0.0013513513513513514 0.0013513513513513514
0.0013513513513513514 0.0013513513513513514 0.0013513513513513514 0.0013513513513513514 0.0013513513513513514 0.0013513513513513514 0.0013513513513513514 0.0013513513513513514
0.0013513513513513514 0.0013513513513513514 0.0013513513513513514 0.0013513513513513514 0.0013513513513513514 0.0013513513513513514 0.0013513513513513514 0.0013513513513513514
0.0013513513513513514 0.0013513513513513514 0.0013513513513513514 0.0013513513513513514 0.0013513513513513514 0.0013513513513513514 0.0013513513513513514 0.0013513513513513514
0.0013513513513513514 0.0013513513513513514 0.0013513513513513514 0.0013513513513513514 0.0013513513513513514 0.0013513513513513514 0.0013513513513513514 0.0013513513513513514
0.0013513513513513514 0.0013513513513513514 0.0013513513513513514 0.0013513513513513514 0.0013513513513513514 0.0013513513513513514 0.0013513513513513514 0.0013513513513513514
0.0013513513513513514 0.0013513513513513514 0.0013513513513513514 0.0013513513513513514 0.0013513513513513514 0.0013513513513513514 0.0013513513513513514 0.0013513513513513514
0.0013513513513513514 0.0013513513513513514 0.0013513513513513514 0.0013513513513513514 0.0013513513513513514 0.0013513513513513514 0.0013513513513513514 0.0013513513513513514
0.0013513513513513514 0.0013513513513513514 0.0013513513513513514 0.0013513513513513514 0.0013513513513513514 0.0013513513513513514 0.0013513513513513514 0.0013513513513513514
00000000: 4062 0177 fa23 563f 4062 0177 fa23 563f
00000010: 4062 0177 fa23 563f 4062 0177 fa23 563f
00000020: 4062 0177 fa23 563f 4062 0177 fa23 563f
00000030: 4062 0177 fa23 563f 4062 0177 fa23 563f
00000040: 4062 0177 fa23 563f 4062 0177 fa23 563f
00000050: 4062 0177 fa23 563f 4062 0177 fa23 563f
00000060: 4062 0177 fa23 563f 4062 0177 fa23 563f
00000070: 4062 0177 fa23 563f 4062 0177 fa23 563f
00000080: 4062 0177 fa23 563f 4062 0177 fa23 563f
00000090: 4062 0177 fa23 563f 4062 0177 fa23 563f
000000a0: 4062 0177 fa23 563f 4062 0177 fa23 563f
000000b0: 4062 0177 fa23 563f 4062 0177 fa23 563f
000000c0: 4062 0177 fa23 563f 4062 0177 fa23 563f
000000d0: 4062 0177 fa23 563f 4062 0177 fa23 563f
000000e0: 4062 0177 fa23 563f 4062 0177 fa23 563f
000000f0: 4062 0177 fa23 563f 4062 0177 fa23 563f
00000100: 4062 0177 fa23 563f 4062 0177 fa23 563f
00000110: 4062 0177 fa23 563f 4062 0177 fa23 563f
00000120: 4062 0177 fa23 563f 4062 0177 fa23 563f
00000130: 4062 0177 fa23 563f 4062 0177 fa23 563f
00000140: 4062 0177 fa23 563f 4062 0177 fa23 563f
00000150: 4062 0177 fa23 563f 4062 0177 fa23 563f
00000160: 4062 0177 fa23 563f 4062 0177 fa23 563f
00000170: 4062 0177 fa23 563f 4062 0177 fa23 563f
00000180: 4062 0177 fa23 563f 4062 0177 fa23 563f
00000190: 4062 0177 fa23 563f 4062 0177 fa23 563f
000001a0: 4062 0177 fa23 563f 4062 0177 fa23 563f
000001b0: 4062 0177 fa23 563f 4062 0177 fa23 563f
000001c0: 4062 0177 fa23 563f 4062 0177 fa23 563f
000001d0: 4062 0177 fa23 563f 4062 0177 fa23 563f
000001e0: 4062 0177 fa23 563f 4062 0177 fa23 563f
000001f0: 4062 0177 fa23 563f 4062 0177 fa23 563f
00000200: 4062 0177 fa23 563f 4062 0177 fa23 563f
00000210: 4062 0177 fa23 563f 4062 0177 fa23 563f
00000220: 4062 0177 fa23 563f 4062 0177 fa23 563f
00000230: 4062 0177 fa23 563f 4062 0177 fa23 563f
00000240: 4062 0177 fa23 563f 4062 0177 fa23 563f
00000250: 4062 0177 fa23 563f 4062 0177 fa23 563f
00000260: 4062 0177 fa23 563f 4062 0177 fa23 563f
00000270: 4062 0177 fa23 563f 4062 0177 fa23 563f
00000280: 4062 0177 fa23 563f 4062 0177 fa23 563f
00000290: 4062 0177 fa23 563f 4062 0177 fa23 563f
000002a0: 4062 0177 fa23 563f 4062 0177 fa23 563f
000002b0: 4062 0177 fa23 563f 4062 0177 fa23 563f
000002c0: 4062 0177 fa23 563f 4062 0177 fa23 563f
000002d0: 4062 0177 fa23 563f 4062 0177 fa23 563f
000002e0: 4062 0177 fa23 563f 4062 0177 fa23 563f
000002f0: 4062 0177 fa23 563f 4062 0177 fa23 563f
00000300: 4062 0177 fa23 563f 4062 0177 fa23 563f
00000310: 4062 0177 fa23 563f 4062 0177 fa23 563f
00000320: 4062 0177 fa23 563f 4062 0177 fa23 563f
00000330: 4062 0177 fa23 563f 4062 0177 fa23 563f
00000340: 4062 0177 fa23 563f 4062 0177 fa23 563f
00000350: 4062 0177 fa23 563f 4062 0177 fa23 563f
00000360: 4062 0177 fa23 563f 4062 0177 fa23 563f
00000370: 4062 0177 fa23 563f 4062 0177 fa23 563f
00000380: 4062 0177 fa23 563f 4062 0177 fa23 563f
00000390: 4062 0177 fa23 563f 4062 0177 fa23 563f
000003a0: 4062 0177 fa23 563f 4062 0177 fa23 563f
000003b0: 4062 0177 fa23 563f 4062 0177 fa23 563f
000003c0: 4062 0177 fa23 563f 4062 0177 fa23 563f
000003d0: 4062 0177 fa23 563f 4062 0177 fa23 563f
000003e0: 4062 0177 fa23 563f 4062 0177 fa23 563f
000003f0: 4062 0177 fa23 563f 4062 0177 fa23 563f
00000400: 4062 0177 fa23 563f 4062 0177 fa23 563f
00000410: 4062 0177 fa23 563f 4062 0177 fa23 563f
00000420: 4062 0177 fa23 563f 4062 0177 fa23 563f
00000430: 4062 0177 fa23 563f 4062 0177 fa23 563f
00000440: 4062 0177 fa23 563f 4062 0177 fa23 563f
00000450: 4062 0177 fa23 563f 4062 0177 fa23 563f
00000460: 4062 0177 fa23 563f 4062 0177 fa23 563f
00000470: 4062 0177 fa23 563f 4062 0177 fa23 563f
00000480: 4062 0177 fa23 563f 4062 0177 fa23 563f
00000490: 4062 0177 fa23 563f 4062 0177 fa23 563f
000004a0: 4062 0177 fa23 563f 4062 0177 fa23 563f
000004b0: 4062 0177 fa23 563f 4062 0177 fa23 563f
000004c0: 4062 0177 fa23 563f 4062 0177 fa23 563f
000004d0: 4062 0177 fa23 563f 4062 0177 fa23 563f
000004e0: 4062 0177 fa23 563f 4062 0177 fa23 563f
000004f0: 4062 0177 fa23 563f 4062 0177 fa23 563f
00000500: 4062 0177 fa23 563f 4062 0177 fa23 563f
00000510: 4062 0177 fa23 563f 4062 0177 fa23 563f
00000520: 4062 0177 fa23 563f 4062 0177 fa23 563f
00000530: 4062 0177 fa23 563f 4062 0177 fa23 563f
00000540: 4062 0177 fa23 563f 4062 0177 fa23 563f
00000550: 4062 0177 fa23 563f 4062 0177 fa23 563f
00000560: 4062 0177 fa23 563f 4062 0177 fa23 563f
00000570: 4062 0177 fa23 563f 4062 0177 fa23 563f
00000580: 4062 0177 fa23 563f 4062 0177 fa23 563f
00000590: 4062 0177 fa23 563f 4062 0177 fa23 563f
000005a0: 4062 0177 fa23 563f 4062 0177 fa23 563f
000005b0: 4062 0177 fa23 563f 4062 0177 fa23 563f
000005c0: 4062 0177 fa23 563f 4062 0177 fa23 563f
000005d0: 4062 0177 fa23 563f 4062 0177 fa23 563f
000005e0: 4062 0177 fa23 563f 4062 0177 fa23 563f
000005f0: 4062 0177 fa23 563f 4062 0177 fa23 563f
00000600: 4062 0177 fa23 563f 4062 0177 fa23 563f
00000610: 4062 0177 fa23 563f 4062 0177 fa23 563f
00000620: 4062 0177 fa23 563f 4062 0177 fa23 563f
00000630: 4062 0177 fa23 563f 4062 0177 fa23 563f
00000640: 4062 0177 fa23 563f 4062 0177 fa23 563f
00000650: 4062 0177 fa23 563f 4062 0177 fa23 563f
00000660: 4062 0177 fa23 563f 4062 0177 fa23 563f
00000670: 4062 0177 fa23 563f 4062 0177 fa23 563f
00000680: 4062 0177 fa23 563f 4062 0177 fa23 563f
00000690: 4062 0177 fa23 563f 4062 0177 fa23 563f
000006a0: 4062 0177 fa23 563f 4062 0177 fa23 563f
000006b0: 4062 0177 fa23 563f 4062 0177 fa23 563f
000006c0: 4062 0177 fa23 563f 4062 0177 fa23 563f
000006d0: 4062 0177 fa23 563f 4062 0177 fa23 563f
000006e0: 4062 0177 fa23 563f 4062 0177 fa23 563f
000006f0: 4062 0177 fa23 563f 4062 0177 fa23 563f
00000700: 4062 0177 fa23 563f 4062 0177 fa23 563f
00000710: 4062 0177 fa23 563f 4062 0177 fa23 563f
00000720: 4062 0177 fa23 563f 4062 0177 fa23 563f
00000730: 4062 0177 fa23 563f 4062 0177 fa23 563f
00000740: 4062 0177 fa23 563f 4062 0177 fa23 563f
00000750: 4062 0177 fa23 563f 4062 0177 fa23 563f
00000760: 4062 0177 fa23 563f 4062 0177 fa23 563f
00000770: 4062 0177 fa23 563f 4062 0177 fa23 563f
00000780: 4062 0177 fa23 563f 4062 0177 fa23 563f
00000790: 4062 0177 fa23 563f 4062 0177 fa23 563f
000007a0: 4062 0177 fa23 563f 4062 0177 fa23 563f
000007b0: 4062 0177 fa23 563f 4062 0177 fa23 563f
000007c0: 4062 0177 fa23 563f 4062 0177 fa23 563f
000007d0: 4062 0177 fa23 563f 4062 0177 fa23 563f
000007e0: 4062 0177 fa23 563f 4062 0177 fa23 563f
000007f0: 4062 0177 fa23 563f 4062 0177 fa23 563f
