OASIS3_VNN_NeurIPS/test31.pth (torch, 10139 bytes, 5 tensors)

GFL.0.weight f8 [5, 1, 6, 1]
-0.35821838410533496 -0.24894874578572365 0.32228202692196367 0.025853678259797615 -0.4583025841616075 0.1032092205970921 1.3244657092726864 0.05843192056785637
0.0901588449226936 -0.4032935027212862 -0.27739215153162755 -0.2820952759622608 -1.3110771623874669 0.29057839910615046 0.25541016071121375 -0.31190780276377983
-0.22436542393276382 -0.38063520328623923 0.8930513463749111 -0.32061855713600274 0.12113725660401403 -0.11471633126415684 -0.2012216256860608 -0.3381359796567044
1.4605844872660239 0.004211114659914717 -0.2973510415957971 -0.13159083779289676 0.01357106088484238 -0.3617905850785012
00000000: 7fbc 23cd 0ced d6bf cbd3 c370 8ddd cfbf
00000010: affa 6dcb 44a0 d43f 4fb5 6dfa 6279 9a3f
00000020: 7c5e a95c d454 ddbf 7533 1c63 eb6b ba3f
00000030: 7efe 9ff4 0231 f53f 8c48 c3e7 c9ea ad3f
00000040: d45a 636a a614 b73f 3b24 388d 8fcf d9bf
00000050: e8b4 bf02 cbc0 d1bf dc4b 2758 d90d d2bf
00000060: 53c9 ef0b 2cfa f4bf da6f 4524 d698 d23f
00000070: 7387 d4db a358 d03f b435 0f25 4cf6 d3bf
00000080: 947b 1297 01b8 ccbf 8086 74c1 535c d8bf
00000090: 4387 ca6a e093 ec3f 20f3 58b2 0385 d4bf
000000a0: 9cff 70eb d902 bf3f 72be 18ab 0c5e bdbf
000000b0: 27e8 c856 a1c1 c9bf 6e7e 8e17 05a4 d5bf
000000c0: d8a3 ddd6 8d5e f73f 5a96 e77b ac3f 713f
000000d0: 9378 c5a9 cc07 d3bf aa09 63f4 f7d7 c0bf
000000e0: 3a1f 61f5 24cb 8b3f 6f6c bab2 9327 d7bf

GFL.0.bias f8 [5, 1]
1.8341914083346567 2.1164966303362838 1.94737220490153 1.41030175462258 2.4998275138365003
00000000: ad6c 1617 d958 fd3f bb1b 0bc9 95ee 0040
00000010: 5010 d3c1 6f28 ff3f c086 9992 9890 f63f
00000020: d08c 4c91 a5ff 0340

GFL.3.weight f8 [5, 1, 10, 5]
0.44666460705861805 1.0076483698987513 0.5679968251227406 0.7125674775225587 1.2037557984273968 0.4754311159225621 0.7236342409386245 0.7470799347488589
0.27008292083310215 0.9069702774864451 0.5042528396480136 0.8409622986607889 0.6296433187522155 0.3894250537908903 0.975595147203782 0.5268629626572943
0.7904117843021778 0.7159819849716773 0.26636280064359136 0.9206922403952169 0.390613192979043 0.6285066288535457 0.6024031520954864 0.28166060377458313
0.795088250237156 0.547911044435509 0.7981157488970143 0.6025870011627114 0.2619890135215141 1.0551763939848888 0.46129663229495466 0.6474664216616839
0.5969895645845814 0.46939437841081655 0.8743734928453413 0.4935662592628342 0.7085029785256217 0.6860045628956821 0.3769190646686411 0.8551862717824769
0.609906373053885 0.8060109540085573 0.5903767827490433 0.2961224139153542 0.8555553603668803 0.4646687371619235 0.8244095950489883 0.6731912667412564
0.30307695556787567 0.8586306946816514 0.39130571808202 1.3591579475498228 0.7902726846775111 0.6071165825157925 1.4739692564966558 0.5903777420000365
0.8991719407096389 0.852885118960574 0.4702792602810019 1.0995466482095837 0.5233236595479013 0.8827786169697859 0.8210557938571388 0.5192408160278474
0.9437648090343059 0.737966874553752 0.7036820292306486 0.8363848032756117 0.3716096088136191 1.1044209545491956 0.6403545405186082 0.737100291241941
0.8387080879024708 0.3384445972568692 1.0306892877940959 0.541920440080915 0.6894702343812826 0.7857748256039433 0.5889966500538806 0.965209403666699
0.6839076238675184 0.9003446184953562 0.9750557990141334 0.46258433677147975 1.0540447129571093 0.6634084699139319 0.8616784289038479 0.8122010987618457
0.5676998836639894 1.0229225555666202 0.6504478923548224 0.8683303955825951 0.8663550829579628 0.503415447308487 1.1344160790839615 0.6945995441151711
0.8573407023187326 0.8805042955289228 0.4742588538155618 1.102921628894647 0.3605750588982951 1.2798039908497703 0.520274566222664 0.7640325712697488
1.2446830728622784 0.6131751604286138 0.859184467535042 0.7596943568693008 0.5348780860530661 1.0082757014672712 0.6217810984951517 0.6799059076560221
0.8312441306877835 0.2780785038972325 0.933516051328252 0.646048749868939 0.7572844527461078 0.7699061516870138 0.36897220986411844 1.0092299171008383
0.6869907694125696 0.8229453618854832 0.8564606161189412 0.25648736724267024 0.9027852889302688 0.4347163165688177 0.733286306537653 0.6740770259860667
0.2589941995811198 0.8142696871754814 0.6315154034792685 0.5672030534072664 0.8719418792233465 0.41680269087522537 0.8280113707872587 0.6888496298123645
0.6219508963361037 0.7219294273965342 0.2776823901694142 0.9690927022554864 0.4347980587319737 0.6912501247515157 0.6175085319340908 0.3229420934848833
0.7942513299541831 0.6726013015317618 0.699225327597717 0.698255607291547 0.46512002819798987 0.9010466744626078 0.3852821866824593 1.2925526538838203
0.6447199730142548 0.6150676284247393 1.5346151153003416 0.65559594047609 0.8693300597420645 0.8955852502855195 0.5615889888964842 1.269065747387111
0.6981229299104548 0.8688405196617789 0.9310275416507832 0.4517835522802514 0.9448218247370623 0.7534644282328872 0.9577255356611886 0.8415553438416621
0.4474751565202183 0.9781512519451002 0.5172023244519337 0.8439938953673496 0.6841205387308655 0.5702209890260842 1.0794913114416869 0.7461085884348632
0.8239587347819592 0.7263068731568669 0.4215911422767175 1.0551208076172207 0.5092235835496896 0.7159467781542374 0.8353678614357409 0.4406431922808433
1.1768998922313034 0.5408156434496322 0.9513691239880219 0.8382054605176273 0.32769190861487224 1.1513891601003199 0.5666739526850485 0.8793001448898035
0.7587910818809311 0.4821429266028747 1.0592911547100385 0.6301482133974333 0.9326684117499631 0.8203918771446682 0.48662848284724597 1.033235427464938
0.4207963566907176 1.2878771017003654 0.5986544312578814 0.574623145778622 1.2887347066180634 0.4719492368709662 0.9303620064004686 0.6380864302881976
0.2749417317596644 0.9929451999465663 0.4347237038109563 0.8053024297887635 0.8066329599693991 0.2646667462653818 1.1194905455223223 0.5174933804071739
0.6358933794580369 0.650481323060778 0.31791083692379 0.9083630208695407 0.43084779417765895 0.5854825544638615 0.7242955186180526 0.30346405163597096
0.7877508998117526 0.36196122755434135 0.6812492133910811 0.5399103566215117 0.37488710314020596 0.7887876203276045 0.6075925137987169 0.6120598072904367
0.520703961674653 0.2786064380980781 0.7219193862131202 0.4011542728156607 0.524382315504799 0.6306981699005155 0.16043425436273093 0.7494869891540739
0.5288005824200711 0.6155720093018272 0.7064283475349412 0.27944382492789005 0.9815810970939823 0.5646561845376897 0.5332701520153831 0.5446898074717124
0.40778211111841595 0.8261285077086155
00000000: b53c e625 2796 dc3f 5853 a9e5 531f f03f
00000010: bf49 84ad 072d e23f 23e2 844f 5acd e63f
00000020: 4adb a970 9542 f33f 17d8 98a1 766d de3f
00000030: 121c e3fe 0228 e73f 2fd0 e72d 14e8 e73f
00000040: d8ec 0be0 0949 d13f 4bf2 0788 e605 ed3f
00000050: d981 e6d9 d622 e03f a958 3dc4 29e9 ea3f
00000060: 00f1 c5be 0926 e43f 3498 910f 57ec d83f
00000070: b20c 6c50 1338 ef3f a4c6 42b7 0fdc e03f
00000080: 726d 7ea7 0d4b e93f 0450 3f0d 53e9 e63f
00000090: ffa6 688f 160c d13f acb5 c592 4f76 ed3f
000000a0: c7ca 4e7a ceff d83f 96d8 07ef b91c e43f
000000b0: da3c a8f9 e246 e33f 0624 7232 ba06 d23f
000000c0: 777a 06ea 5c71 e93f 83f7 1ebe 7c88 e13f
000000d0: 5ced fd09 2a8a e93f 47a2 df88 6448 e33f
000000e0: fb1d 3f91 6dc4 d03f 29d2 7aa4 00e2 f03f
000000f0: 9a8d 5d4f e285 dd3f 4871 4980 0bb8 e43f
00000100: b735 fedb 891a e33f 5cd8 0cb8 8e0a de3f
00000110: 2c52 881e defa eb3f f758 7cef 9696 df3f
00000120: 395b 3c70 0eac e63f 3c66 51d7 bff3 e53f
00000130: 0068 ff23 711f d83f ad67 a999 af5d eb3f
00000140: de6d bc5e 5a84 e33f 89e7 f57b d7ca e93f
00000150: df31 c7d9 5de4 e23f e441 d86c abf3 d23f
00000160: 112f 96a2 b560 eb3f 9661 65f1 21bd dd3f
00000170: eace 273b 9061 ea3f 8568 5369 c88a e53f
00000180: 1575 15e3 9c65 d33f 87fb 1f14 e779 eb3f
00000190: c79a 7923 270b d93f 1633 6d67 1cbf f53f
000001a0: c195 f3f0 e949 e93f b877 58c1 7f6d e33f
000001b0: b266 7fc9 6095 f73f bea5 c5dc 5fe4 e23f
000001c0: 1f85 da3b 04c6 ec3f 94c8 a5bb d54a eb3f
000001d0: e336 b92e 0e19 de3f 07c9 e739 be97 f13f
000001e0: 9966 5f42 11bf e03f 73c9 2ff1 b83f ec3f
000001f0: ead8 d9cc 1646 ea3f 8cd0 72ea 9e9d e03f
00000200: 7f60 bd41 5233 ee3f 9eab f7b4 6c9d e73f
00000210: 7f83 ca2c 9084 e63f ad15 1e10 aac3 ea3f
00000220: 5bf7 2eab 73c8 d73f f5e4 8c4e b5ab f13f
00000230: c2eb 2bce c87d e43f e332 9859 5396 e73f
00000240: 59d1 0d58 b2d6 ea3f 2779 2e87 13a9 d53f
00000250: 5c9c f60c b47d f03f 80ce e588 6957 e13f
00000260: 4275 87e1 2310 e63f 37a6 3f3f 1125 e93f
00000270: 4eeb ad80 0fd9 e23f c948 d1d4 fee2 ee3f
00000280: badf bf3d 92e2 e53f 1b26 7284 9fcf ec3f
00000290: a94e 1138 a833 ef3f a1d2 8455 fb9a dd3f
000002a0: 87c2 2afd 5ddd f03f 7d6e 4566 a43a e53f
000002b0: 28f1 f9a3 de92 eb3f f7a2 9e28 8dfd e93f
000002c0: 71f4 48f2 982a e23f 72fd a70a e45d f03f
000002d0: 9d50 2d19 78d0 e43f b5cc 64d3 5cc9 eb3f
000002e0: e1e3 804b 2eb9 eb3f 9bb7 4fb6 fa1b e03f
000002f0: fc8d 7b79 9126 f23f 4251 b9d2 283a e63f
00000300: d7a2 bfc4 556f eb3f 8418 2958 172d ec3f
00000310: 6b7b bece 415a de3f f974 6226 91a5 f13f
00000320: 422c 6e69 a913 d73f 3bd7 dfbf 137a f43f
00000330: e0bd dbd8 16a6 e03f e5d5 556f f472 e83f
00000340: 9940 3dcc 38ea f33f 9a55 9883 219f e33f
00000350: ea69 a96c 707e eb3f 67b3 368a 6a4f e83f
00000360: 613d dea5 b81d e13f 4874 b2b3 e521 f03f
00000370: 1ed8 6979 a1e5 e33f 88ac b708 cac1 e53f
00000380: ab78 894a 8d99 ea3f e563 fdc7 09cc d13f
00000390: 69de d70d 5ddf ed3f 81e1 896d 6eac e43f
000003a0: 920a ca9a ac3b e83f a084 cf39 12a3 e83f
000003b0: 81f3 9f9d 3d9d d73f 7c7c 0145 ce25 f03f
000003c0: d6fc e810 d4fb e53f 582d f682 9155 ea3f
000003d0: 225f 1118 2068 eb3f 053e 89fd 496a d03f
000003e0: 487e 68f9 9de3 ec3f 88d7 ac62 64d2 db3f
000003f0: 1be2 25d8 1477 e73f 0c0b b3fb 0992 e53f
00000400: ac7e 4368 5c93 d03f f95e 914d 7f0e ea3f
00000410: 74a3 9bca 5f35 e43f e96a 9204 8726 e23f
00000420: a3dd e8a7 f2e6 eb3f b468 8c31 e5ac da3f
00000430: c0ea c7b3 117f ea3f 6afc fc60 0e0b e63f
00000440: 0d68 ef90 05e7 e33f 1605 16be 0b1a e73f
00000450: caf9 1c5c 8cc5 d13f b758 dfb2 ce02 ef3f
00000460: 2f8f a73c bbd3 db3f de3c e594 b81e e63f
00000470: 730d b540 a1c2 e33f 013d 8150 15ab d43f
00000480: a8a5 dec3 816a e93f 326e 2a2a f385 e53f
00000490: 8725 52cb 0d60 e63f 251b b224 1c58 e63f
000004a0: 37cc 74cb 86c4 dd3f 1291 dfd5 5fd5 ec3f
000004b0: f614 e29d 76a8 d83f cf9f 0cb1 4bae f43f
000004c0: 4493 e5c7 8ba1 e43f 7d33 9d4e a2ae e33f
000004d0: 8598 4294 c88d f83f 8286 7756 a4fa e43f
000004e0: 59b3 0046 8dd1 eb3f 7433 1866 a2a8 ec3f
000004f0: d854 a378 89f8 e13f e505 98e2 174e f43f
00000500: 06b3 11e6 0557 e63f 2f62 2ca2 8acd eb3f
00000510: b017 6245 faca ed3f 4d85 7a8f 05ea dc3f
00000520: 045e b9fa fa3b ee3f f5b4 be6e 611c e83f
00000530: 33af c605 b0a5 ee3f fe5d f278 05ee ea3f
00000540: 66b7 c1d6 6ea3 dc3f 43a9 b4da 034d ef3f
00000550: a6f5 9de3 eb8c e03f 920b 547c ff01 eb3f
00000560: fade 8bc1 50e4 e53f 8983 6b16 403f e23f
00000570: c554 6fae 9845 f13f 71f5 521e 1fe0 e73f
00000580: b28b 64b5 de5d ea3f 5033 62e9 e73d e73f
00000590: 7b27 176a 59fb da3f 9cb8 205b c6e1 f03f
000005a0: b554 b641 8f4b e03f 252b bb37 09e9 e63f
000005b0: f6de 9f61 55bb ea3f df47 0381 7f33 dc3f
000005c0: 3bca 3cfb 94d4 f23f f500 b99b 5c4e e13f
000005d0: b57c 3ea9 9d71 ee3f fb0e 0842 94d2 ea3f
000005e0: 658a aa7b e7f8 d43f b598 390a 176c f23f
000005f0: eddf c869 3122 e23f bc6e b50e 3a23 ec3f
00000600: 129a 253c 0448 e83f ec73 7001 6edb de3f
00000610: 40bf 2648 dbf2 f03f 0198 0596 2c2a e43f
00000620: ac4e cf6c 6bd8 ed3f 5bb1 4777 a640 ea3f
00000630: 9b62 c8ca eb24 df3f e27c 20df 2188 f03f
00000640: 28ce 90d7 53ee da3f 1820 1105 259b f43f
00000650: 6675 7b56 2d28 e33f 309a 5414 5063 e23f
00000660: d850 a248 a89e f43f c5e8 6e92 6a34 de3f
00000670: 63ca dd8a 86c5 ed3f 817e c33b 346b e43f
00000680: bea7 8d34 a598 d13f adb3 0f03 35c6 ef3f
00000690: c37f aa5e 83d2 db3f 5da0 ea99 09c5 e93f
000006a0: 4437 deec efcf e93f 5c1b e3ca 4cf0 d03f
000006b0: 7431 13eb 6ee9 f13f 7dd9 1747 4e8f e03f
000006c0: 697c 9012 3d59 e43f 268e 2635 bed0 e43f
000006d0: 3d6d e8b1 a658 d43f 63f9 7053 4f11 ed3f
000006e0: 84fe 62a0 0293 db3f 5aa0 f9e8 45bc e23f
000006f0: 1c53 a3cb 6d2d e73f 0f71 527c f46b d33f
00000700: ecc0 0260 4135 e93f ac04 b16c 5f2a d73f
00000710: e917 7e26 cbcc e53f 3fc1 8e15 f246 e13f
00000720: b17a eb79 26fe d73f c87e 1989 bf3d e93f
00000730: d9ea 01db 6571 e33f 8945 f072 fe95 e33f
00000740: e949 c95a 9ba9 e03f d785 0519 b0d4 d13f
00000750: a347 44af f619 e73f 0f36 99f8 82ac d93f
00000760: 2534 f66b bdc7 e03f 1fd5 abed ad2e e43f
00000770: 93b2 d211 1c89 c43f 5437 6623 ccfb e73f
00000780: db32 f332 efeb e03f 7119 0912 c4b2 e33f
00000790: 1928 349f 0f9b e63f 9f9a 485a 68e2 d13f
000007a0: 9b7e ccc2 1c69 ef3f 435a c2d8 a911 e23f
000007b0: 3ed9 da90 8c10 e13f fec6 b151 196e e13f
000007c0: 916f c923 1a19 da3f 71db 5c0d a56f ea3f

GFL.3.bias f8 [5, 1]
1.3189856007077483 1.5445732297847918 1.3300788836497455 1.4144088784042579 1.5136037274157665
00000000: 81f4 2ea5 901a f53f 903e 436b 92b6 f83f
00000010: 7703 a6cb 0048 f53f 79b1 3e34 6ba1 f63f
00000020: b0ab c58a b837 f83f

MLP.0.weight f8 [1, 740]
0.0013513513513513514 0.0013513513513513514 0.0013513513513513514 0.0013513513513513514 0.0013513513513513514 0.0013513513513513514 0.0013513513513513514 0.0013513513513513514
0.0013513513513513514 0.0013513513513513514 0.0013513513513513514 0.0013513513513513514 0.0013513513513513514 0.0013513513513513514 0.0013513513513513514 0.0013513513513513514
0.0013513513513513514 0.0013513513513513514 0.0013513513513513514 0.0013513513513513514 0.0013513513513513514 0.0013513513513513514 0.0013513513513513514 0.0013513513513513514
0.0013513513513513514 0.0013513513513513514 0.0013513513513513514 0.0013513513513513514 0.0013513513513513514 0.0013513513513513514 0.0013513513513513514 0.0013513513513513514
0.0013513513513513514 0.0013513513513513514 0.0013513513513513514 0.0013513513513513514 0.0013513513513513514 0.0013513513513513514 0.0013513513513513514 0.0013513513513513514
0.0013513513513513514 0.0013513513513513514 0.0013513513513513514 0.0013513513513513514 0.0013513513513513514 0.0013513513513513514 0.0013513513513513514 0.0013513513513513514
0.0013513513513513514 0.0013513513513513514 0.0013513513513513514 0.0013513513513513514 0.0013513513513513514 0.0013513513513513514 0.0013513513513513514 0.0013513513513513514
0.0013513513513513514 0.0013513513513513514 0.0013513513513513514 0.0013513513513513514 0.0013513513513513514 0.0013513513513513514 0.0013513513513513514 0.0013513513513513514
0.0013513513513513514 0.0013513513513513514 0.0013513513513513514 0.0013513513513513514 0.0013513513513513514 0.0013513513513513514 0.0013513513513513514 0.0013513513513513514
0.0013513513513513514 0.0013513513513513514 0.0013513513513513514 0.0013513513513513514 0.0013513513513513514 0.0013513513513513514 0.0013513513513513514 0.0013513513513513514
0.0013513513513513514 0.0013513513513513514 0.0013513513513513514 0.0013513513513513514 0.0013513513513513514 0.0013513513513513514 0.0013513513513513514 0.0013513513513513514
0.0013513513513513514 0.0013513513513513514 0.0013513513513513514 0.0013513513513513514 0.0013513513513513514 0.0013513513513513514 0.0013513513513513514 0.0013513513513513514
0.0013513513513513514 0.0013513513513513514 0.0013513513513513514 0.0013513513513513514 0.0013513513513513514 0.0013513513513513514 0.0013513513513513514 0.0013513513513513514
0.0013513513513513514 0.0013513513513513514 0.0013513513513513514 0.0013513513513513514 0.0013513513513513514 0.0013513513513513514 0.0013513513513513514 0.0013513513513513514
0.0013513513513513514 0.0013513513513513514 0.0013513513513513514 0.0013513513513513514 0.0013513513513513514 0.0013513513513513514 0.0013513513513513514 0.0013513513513513514
0.0013513513513513514 0.0013513513513513514 0.0013513513513513514 0.0013513513513513514 0.0013513513513513514 0.0013513513513513514 0.0013513513513513514 0.0013513513513513514
0.0013513513513513514 0.0013513513513513514 0.0013513513513513514 0.0013513513513513514 0.0013513513513513514 0.0013513513513513514 0.0013513513513513514 0.0013513513513513514
0.0013513513513513514 0.0013513513513513514 0.0013513513513513514 0.0013513513513513514 0.0013513513513513514 0.0013513513513513514 0.0013513513513513514 0.0013513513513513514
0.0013513513513513514 0.0013513513513513514 0.0013513513513513514 0.0013513513513513514 0.0013513513513513514 0.0013513513513513514 0.0013513513513513514 0.0013513513513513514
0.0013513513513513514 0.0013513513513513514 0.0013513513513513514 0.0013513513513513514 0.0013513513513513514 0.0013513513513513514 0.0013513513513513514 0.0013513513513513514
0.0013513513513513514 0.0013513513513513514 0.0013513513513513514 0.0013513513513513514 0.0013513513513513514 0.0013513513513513514 0.0013513513513513514 0.0013513513513513514
0.0013513513513513514 0.0013513513513513514 0.0013513513513513514 0.0013513513513513514 0.0013513513513513514 0.0013513513513513514 0.0013513513513513514 0.0013513513513513514
0.0013513513513513514 0.0013513513513513514 0.0013513513513513514 0.0013513513513513514 0.0013513513513513514 0.0013513513513513514 0.0013513513513513514 0.0013513513513513514
0.0013513513513513514 0.0013513513513513514 0.0013513513513513514 0.0013513513513513514 0.0013513513513513514 0.0013513513513513514 0.0013513513513513514 0.0013513513513513514
0.0013513513513513514 0.0013513513513513514 0.0013513513513513514 0.0013513513513513514 0.0013513513513513514 0.0013513513513513514 0.0013513513513513514 0.0013513513513513514
0.0013513513513513514 0.0013513513513513514 0.0013513513513513514 0.0013513513513513514 0.0013513513513513514 0.0013513513513513514 0.0013513513513513514 0.0013513513513513514
0.0013513513513513514 0.0013513513513513514 0.0013513513513513514 0.0013513513513513514 0.0013513513513513514 0.0013513513513513514 0.0013513513513513514 0.0013513513513513514
0.0013513513513513514 0.0013513513513513514 0.0013513513513513514 0.0013513513513513514 0.0013513513513513514 0.0013513513513513514 0.0013513513513513514 0.0013513513513513514
0.0013513513513513514 0.0013513513513513514 0.0013513513513513514 0.0013513513513513514 0.0013513513513513514 0.0013513513513513514 0.0013513513513513514 0.0013513513513513514
0.0013513513513513514 0.0013513513513513514 0.0013513513513513514 0.0013513513513513514 0.0013513513513513514 0.0013513513513513514 0.0013513513513513514 0.0013513513513513514
0.0013513513513513514 0.0013513513513513514 0.0013513513513513514 0.0013513513513513514 0.0013513513513513514 0.0013513513513513514 0.0013513513513513514 0.0013513513513513514
0.0013513513513513514 0.0013513513513513514 0.0013513513513513514 0.0013513513513513514 0.0013513513513513514 0.0013513513513513514 0.0013513513513513514 0.0013513513513513514
00000000: 4062 0177 fa23 563f 4062 0177 fa23 563f
00000010: 4062 0177 fa23 563f 4062 0177 fa23 563f
00000020: 4062 0177 fa23 563f 4062 0177 fa23 563f
00000030: 4062 0177 fa23 563f 4062 0177 fa23 563f
00000040: 4062 0177 fa23 563f 4062 0177 fa23 563f
00000050: 4062 0177 fa23 563f 4062 0177 fa23 563f
00000060: 4062 0177 fa23 563f 4062 0177 fa23 563f
00000070: 4062 0177 fa23 563f 4062 0177 fa23 563f
00000080: 4062 0177 fa23 563f 4062 0177 fa23 563f
00000090: 4062 0177 fa23 563f 4062 0177 fa23 563f
000000a0: 4062 0177 fa23 563f 4062 0177 fa23 563f
000000b0: 4062 0177 fa23 563f 4062 0177 fa23 563f
000000c0: 4062 0177 fa23 563f 4062 0177 fa23 563f
000000d0: 4062 0177 fa23 563f 4062 0177 fa23 563f
000000e0: 4062 0177 fa23 563f 4062 0177 fa23 563f
000000f0: 4062 0177 fa23 563f 4062 0177 fa23 563f
00000100: 4062 0177 fa23 563f 4062 0177 fa23 563f
00000110: 4062 0177 fa23 563f 4062 0177 fa23 563f
00000120: 4062 0177 fa23 563f 4062 0177 fa23 563f
00000130: 4062 0177 fa23 563f 4062 0177 fa23 563f
00000140: 4062 0177 fa23 563f 4062 0177 fa23 563f
00000150: 4062 0177 fa23 563f 4062 0177 fa23 563f
00000160: 4062 0177 fa23 563f 4062 0177 fa23 563f
00000170: 4062 0177 fa23 563f 4062 0177 fa23 563f
00000180: 4062 0177 fa23 563f 4062 0177 fa23 563f
00000190: 4062 0177 fa23 563f 4062 0177 fa23 563f
000001a0: 4062 0177 fa23 563f 4062 0177 fa23 563f
000001b0: 4062 0177 fa23 563f 4062 0177 fa23 563f
000001c0: 4062 0177 fa23 563f 4062 0177 fa23 563f
000001d0: 4062 0177 fa23 563f 4062 0177 fa23 563f
000001e0: 4062 0177 fa23 563f 4062 0177 fa23 563f
000001f0: 4062 0177 fa23 563f 4062 0177 fa23 563f
00000200: 4062 0177 fa23 563f 4062 0177 fa23 563f
00000210: 4062 0177 fa23 563f 4062 0177 fa23 563f
00000220: 4062 0177 fa23 563f 4062 0177 fa23 563f
00000230: 4062 0177 fa23 563f 4062 0177 fa23 563f
00000240: 4062 0177 fa23 563f 4062 0177 fa23 563f
00000250: 4062 0177 fa23 563f 4062 0177 fa23 563f
00000260: 4062 0177 fa23 563f 4062 0177 fa23 563f
00000270: 4062 0177 fa23 563f 4062 0177 fa23 563f
00000280: 4062 0177 fa23 563f 4062 0177 fa23 563f
00000290: 4062 0177 fa23 563f 4062 0177 fa23 563f
000002a0: 4062 0177 fa23 563f 4062 0177 fa23 563f
000002b0: 4062 0177 fa23 563f 4062 0177 fa23 563f
000002c0: 4062 0177 fa23 563f 4062 0177 fa23 563f
000002d0: 4062 0177 fa23 563f 4062 0177 fa23 563f
000002e0: 4062 0177 fa23 563f 4062 0177 fa23 563f
000002f0: 4062 0177 fa23 563f 4062 0177 fa23 563f
00000300: 4062 0177 fa23 563f 4062 0177 fa23 563f
00000310: 4062 0177 fa23 563f 4062 0177 fa23 563f
00000320: 4062 0177 fa23 563f 4062 0177 fa23 563f
00000330: 4062 0177 fa23 563f 4062 0177 fa23 563f
00000340: 4062 0177 fa23 563f 4062 0177 fa23 563f
00000350: 4062 0177 fa23 563f 4062 0177 fa23 563f
00000360: 4062 0177 fa23 563f 4062 0177 fa23 563f
00000370: 4062 0177 fa23 563f 4062 0177 fa23 563f
00000380: 4062 0177 fa23 563f 4062 0177 fa23 563f
00000390: 4062 0177 fa23 563f 4062 0177 fa23 563f
000003a0: 4062 0177 fa23 563f 4062 0177 fa23 563f
000003b0: 4062 0177 fa23 563f 4062 0177 fa23 563f
000003c0: 4062 0177 fa23 563f 4062 0177 fa23 563f
000003d0: 4062 0177 fa23 563f 4062 0177 fa23 563f
000003e0: 4062 0177 fa23 563f 4062 0177 fa23 563f
000003f0: 4062 0177 fa23 563f 4062 0177 fa23 563f
00000400: 4062 0177 fa23 563f 4062 0177 fa23 563f
00000410: 4062 0177 fa23 563f 4062 0177 fa23 563f
00000420: 4062 0177 fa23 563f 4062 0177 fa23 563f
00000430: 4062 0177 fa23 563f 4062 0177 fa23 563f
00000440: 4062 0177 fa23 563f 4062 0177 fa23 563f
00000450: 4062 0177 fa23 563f 4062 0177 fa23 563f
00000460: 4062 0177 fa23 563f 4062 0177 fa23 563f
00000470: 4062 0177 fa23 563f 4062 0177 fa23 563f
00000480: 4062 0177 fa23 563f 4062 0177 fa23 563f
00000490: 4062 0177 fa23 563f 4062 0177 fa23 563f
000004a0: 4062 0177 fa23 563f 4062 0177 fa23 563f
000004b0: 4062 0177 fa23 563f 4062 0177 fa23 563f
000004c0: 4062 0177 fa23 563f 4062 0177 fa23 563f
000004d0: 4062 0177 fa23 563f 4062 0177 fa23 563f
000004e0: 4062 0177 fa23 563f 4062 0177 fa23 563f
000004f0: 4062 0177 fa23 563f 4062 0177 fa23 563f
00000500: 4062 0177 fa23 563f 4062 0177 fa23 563f
00000510: 4062 0177 fa23 563f 4062 0177 fa23 563f
00000520: 4062 0177 fa23 563f 4062 0177 fa23 563f
00000530: 4062 0177 fa23 563f 4062 0177 fa23 563f
00000540: 4062 0177 fa23 563f 4062 0177 fa23 563f
00000550: 4062 0177 fa23 563f 4062 0177 fa23 563f
00000560: 4062 0177 fa23 563f 4062 0177 fa23 563f
00000570: 4062 0177 fa23 563f 4062 0177 fa23 563f
00000580: 4062 0177 fa23 563f 4062 0177 fa23 563f
00000590: 4062 0177 fa23 563f 4062 0177 fa23 563f
000005a0: 4062 0177 fa23 563f 4062 0177 fa23 563f
000005b0: 4062 0177 fa23 563f 4062 0177 fa23 563f
000005c0: 4062 0177 fa23 563f 4062 0177 fa23 563f
000005d0: 4062 0177 fa23 563f 4062 0177 fa23 563f
000005e0: 4062 0177 fa23 563f 4062 0177 fa23 563f
000005f0: 4062 0177 fa23 563f 4062 0177 fa23 563f
00000600: 4062 0177 fa23 563f 4062 0177 fa23 563f
00000610: 4062 0177 fa23 563f 4062 0177 fa23 563f
00000620: 4062 0177 fa23 563f 4062 0177 fa23 563f
00000630: 4062 0177 fa23 563f 4062 0177 fa23 563f
00000640: 4062 0177 fa23 563f 4062 0177 fa23 563f
00000650: 4062 0177 fa23 563f 4062 0177 fa23 563f
00000660: 4062 0177 fa23 563f 4062 0177 fa23 563f
00000670: 4062 0177 fa23 563f 4062 0177 fa23 563f
00000680: 4062 0177 fa23 563f 4062 0177 fa23 563f
00000690: 4062 0177 fa23 563f 4062 0177 fa23 563f
000006a0: 4062 0177 fa23 563f 4062 0177 fa23 563f
000006b0: 4062 0177 fa23 563f 4062 0177 fa23 563f
000006c0: 4062 0177 fa23 563f 4062 0177 fa23 563f
000006d0: 4062 0177 fa23 563f 4062 0177 fa23 563f
000006e0: 4062 0177 fa23 563f 4062 0177 fa23 563f
000006f0: 4062 0177 fa23 563f 4062 0177 fa23 563f
00000700: 4062 0177 fa23 563f 4062 0177 fa23 563f
00000710: 4062 0177 fa23 563f 4062 0177 fa23 563f
00000720: 4062 0177 fa23 563f 4062 0177 fa23 563f
00000730: 4062 0177 fa23 563f 4062 0177 fa23 563f
00000740: 4062 0177 fa23 563f 4062 0177 fa23 563f
00000750: 4062 0177 fa23 563f 4062 0177 fa23 563f
00000760: 4062 0177 fa23 563f 4062 0177 fa23 563f
00000770: 4062 0177 fa23 563f 4062 0177 fa23 563f
00000780: 4062 0177 fa23 563f 4062 0177 fa23 563f
00000790: 4062 0177 fa23 563f 4062 0177 fa23 563f
000007a0: 4062 0177 fa23 563f 4062 0177 fa23 563f
000007b0: 4062 0177 fa23 563f 4062 0177 fa23 563f
000007c0: 4062 0177 fa23 563f 4062 0177 fa23 563f
000007d0: 4062 0177 fa23 563f 4062 0177 fa23 563f
000007e0: 4062 0177 fa23 563f 4062 0177 fa23 563f
000007f0: 4062 0177 fa23 563f 4062 0177 fa23 563f
