OASIS3_VNN_NeurIPS/test63.pth (torch, 10139 bytes, 5 tensors)

GFL.0.weight f8 [5, 1, 6, 1]
00000000: 6a08 67ab 0637 d5bf 9649 3963 b303 cd3f
00000010: b677 2a5b a940 a6bf 3073 6599 6652 d0bf
00000020: a0cc 0920 4181 71bf 3175 3510 199e b23f
00000030: 40ae 1279 57e3 0040 d0fb c2f0 b563 9f3f
00000040: 85c4 fdc7 8188 ddbf 8ac5 626b 740a dcbf
00000050: 8df8 4273 fd23 d9bf 5c40 02b8 2e22 debf
00000060: 01f2 b123 a3cc e1bf ed56 dac4 2b47 c2bf
00000070: 642b 2df7 7ec6 723f 4187 fd32 1ec4 b93f
00000080: 2e39 1355 f796 b4bf 7714 0de9 b1e8 d5bf
00000090: dcfc beef 3de0 f6bf 3f95 8b44 5733 b2bf
000000a0: 6c4e e729 b997 c13f 0b2c 3a52 911a c73f
000000b0: 43bc 1ea7 fe69 e23f c6a2 ea69 e8f1 d93f
000000c0: 2e0b de07 139c f1bf 3513 5cbb 6ce5 b0bf
000000d0: 324e c0e7 22f1 d0bf a750 7afb c805 a43f
000000e0: b057 beaf 4b45 a53f 9f16 fbf4 289a 99bf
-0.33148352373621626 0.2266754374018773 -0.043462078455589845 -0.25502934436899505 -0.00427365722190412 0.07272488256190425 2.111006685144986 0.030653803653645728
-0.4614567235030978 -0.4381381081285204 -0.3928216577149975 -0.47083633393868296 -0.55623013469409 -0.14279696571309533 0.004583831748116694 0.10064877266770812
-0.08042856051472277 -0.3423275733842454 -1.4297465672569194 -0.07109589980571672 0.13744272752829845 0.18049828066827475 0.575438810736053 0.4053898844090721
-1.1006040866202045 -0.06600074362002036 -0.26471779472305734 0.03910663671300201 0.04154430885607441 -0.02500213618511415

GFL.0.bias f8 [5, 1]
00000000: 19ff b390 368e 0040 9b02 ae7b 6bff fd3f
00000010: 1b48 c57d 1d0e 0340 96ab 05b7 4990 0340
00000020: 698b f83a 1380 f23f
2.0694400124483647 1.8748583632697435 2.381892187674578 2.4454531000714708 1.1562683394956486

GFL.3.weight f8 [5, 1, 10, 5]
00000000: 181f 1d2f 2cd1 903f 4ba3 b4fb abcb 8dbf
00000010: 7f39 472f 0e4a bcbf ee78 8d1b 97d1 aa3f
00000020: f7a0 51ae 66b1 91bf bbbb fbba 5dbd 9dbf
00000030: 0b96 ae1a 8e44 b2bf 492f 701e a4e9 773f
00000040: f55e 26d1 1e7f 813f a2de a8d1 86b2 b23f
00000050: f2c7 0b82 3619 c23f 1f87 f8fe 5330 6b3f
00000060: 6259 d57c 5572 b13f 742b 2f27 93dc bcbf
00000070: 3a08 11cd a622 bdbf 0d8f ec86 023d bcbf
00000080: 14fc 1ce2 2bc2 acbf d45f b746 9300 9fbf
00000090: 3ce3 7815 94de 913f 1d22 c97f 9968 b93f
000000a0: 3d3c 26b3 60ea 5fbf 00c6 87e6 1812 9ebf
000000b0: 05b3 438a bb07 c0bf e548 d20d c745 95bf
000000c0: 2d1a 6c5c b7d4 943f 7807 d26a 9354 6cbf
000000d0: 2a31 54a9 cd53 b4bf 37f1 6f6a 3b08 b03f
000000e0: ae80 2523 4fc8 b43f 6aa1 a626 bef0 7c3f
000000f0: 4f6c 4f0e 6d01 773f 232b 99d5 3e62 c1bf
00000100: 5210 0421 016f bbbf e33c f9c7 b6da c1bf
00000110: 9476 2af8 4c2a b8bf 3715 2a78 ba22 bd3f
00000120: 6f6e 0745 975f ad3f 06d0 0481 9dd0 b5bf
00000130: 5127 46c7 c70f b43f 2fc6 abe4 7ec9 a43f
00000140: 0fc6 2d1d c915 a6bf 0566 e45a 9416 b1bf
00000150: c8dc 2b69 8650 b53f c9bc 2614 df81 b53f
00000160: bedc 432c 8c4c b33f 36ba 4e90 6b7e 92bf
00000170: 2c73 b9cd 8d3f b03f 49e8 0a24 d601 a93f
00000180: 891b f1a5 babf c0bf 58c6 b77c cf25 95bf
00000190: 928d a98b 07a4 df3f 0e7e 6f7f 372b fd3f
000001a0: 4252 13bf 91a0 e43f 364d ccae 608a ec3f
000001b0: 4698 1de5 4e27 b23f 746b f819 b0a4 e73f
000001c0: c5c0 b7c0 ef32 f33f 460c 652d c2e1 eb3f
000001d0: bbd6 2205 8d0f f23f 3e48 a0dc 6cd1 d23f
000001e0: c5b4 2581 fd18 e03f 1b37 f1a6 459d f13f
000001f0: dc39 ea5f 435e ea3f e5b5 ee45 d00b f33f
00000200: eb68 81c7 3b44 d13f 8673 c850 2a83 e53f
00000210: dc1d 24cf 32d3 f43f 39f1 58a7 8318 e83f
00000220: 9bb6 3994 0f76 f23f 9a42 668a 8810 cf3f
00000230: c319 b7ba a7b7 e03f cc9d fb3c 9a1d f33f
00000240: 0f6e 592e 2976 ef3f 05a0 9492 0a07 f23f
00000250: 78eb 12db aeae d13f d768 62ee 0006 e83f
00000260: 0b34 17d8 f668 f23f 2fd0 c8a4 53af ed3f
00000270: 35fd 054b 1cff f13f cb04 209f 2149 d83f
00000280: b771 fe32 febc e03f d226 4858 06a4 f13f
00000290: 084b 36da f914 ea3f d128 9503 8b80 ef3f
000002a0: 4eef d28d ef32 d33f ce7a 5819 4e33 e73f
000002b0: ac5d bb17 f62a f13f 8573 7889 c13e ec3f
000002c0: 15bf 6dd1 7ea9 f33f cde5 f59c 3ef2 cd3f
000002d0: ee4e f34b 3273 e23f a9d5 226e 70fe f23f
000002e0: b359 170e e70c ed3f 4e0e 20cc 9079 f33f
000002f0: 2999 5f0c d469 d73f 0cc0 3e0e a017 e73f
00000300: 25e7 074b 7869 f33f ee85 f1d8 2007 ec3f
00000310: 8573 8cb9 08bb f33f 8c3f 15ce bf77 d83f
00000320: 6fb0 c696 58c1 e33f 8eaa db16 e585 ff3f
00000330: 9817 5193 0b7d e33f c628 06b9 7e06 ee3f
00000340: 5a0d e92c 5503 973f b837 bc6c 685a e73f
00000350: c5af 9b0d be10 f43f ed3a 91d0 580c ea3f
00000360: afdb 5d9e 70b8 f13f dbf9 34bb c285 cd3f
00000370: bf0c 8ebf 35c7 e53f 2e8c 0365 8fa6 f23f
00000380: 8225 de18 9c49 eb3f b035 89b7 d97c f13f
00000390: 9998 15dc 3956 d63f 5ff2 0953 055d e33f
000003a0: 809f a298 ddfd f33f 2193 5a2e 250f ed3f
000003b0: fed2 9dcc eb8d f33f d423 78ec baf7 de3f
000003c0: 006a cf69 344d e43f a532 45db e195 f33f
000003d0: 7111 e404 af1f e73f 9397 aa34 5a84 f33f
000003e0: 9660 5903 7dd6 dd3f c372 3951 44cc e73f
000003f0: 433a 6a6f 8787 f43f d65d edd9 cdc5 eb3f
00000400: 4afc 097d 0fc5 f03f 27a8 12b4 7e18 da3f
00000410: ff3f 0703 c860 e53f 54c2 ca94 f923 f13f
00000420: a903 09b7 e27a ee3f 9547 44ec 0d37 f03f
00000430: fa71 0015 6ca4 d93f c9ff d177 f5a7 e73f
00000440: e546 ce11 4907 f53f 92f2 1058 b210 e93f
00000450: a8e1 eecc 874a f33f 69e4 a540 efa7 da3f
00000460: 03be 4118 77d9 e73f ed41 6799 bb2a f53f
00000470: 4566 c6af 59bc e63f 6af0 918c 3e3b f13f
00000480: e281 2103 bd4a da3f aa27 cd25 d0fb e33f
00000490: e544 7e7f a180 f43f c675 ac71 0781 e93f
000004a0: 3405 479d 63fc f33f 21a1 37f3 26ad dc3f
000004b0: 1d31 a1f5 064e dc3f 3a46 dae2 461c fe3f
000004c0: deeb 732a c79c ea3f 5b54 f6af 9347 ed3f
000004d0: 3cf8 7e37 4520 9fbf bae8 b93e 14ec e73f
000004e0: 392b 57b9 7dda f53f 2f8b 8cd3 b587 ed3f
000004f0: f354 3831 29ab f13f 65c2 3ae4 a73f d13f
00000500: 6177 a0e7 4e13 e43f addd a034 b380 f13f
00000510: 86b0 7b25 0a47 ec3f e711 af0b 8c1a ef3f
00000520: dd40 d71a 2e96 cd3f a674 65ba dfbb e63f
00000530: 67af 5962 615e f33f b68d 20ad dcb2 e73f
00000540: 2e51 62b4 2e96 f23f a09d 6771 2617 d13f
00000550: a79f a3c2 a545 e43f 59b6 8166 9d9f f13f
00000560: c5dc 7050 a7d6 ec3f 1997 26f8 b086 f33f
00000570: a76e dec4 c5f6 d03f 3382 a2a2 69f9 e43f
00000580: 6f61 ca6c cf57 f43f 8f15 dda2 4bd8 eb3f
00000590: 1a59 4ef6 5855 f23f dfcf ea24 1de8 d13f
000005a0: 07b7 b439 c7df e83f 9303 f49a 63e4 f23f
000005b0: 127b a9ae 6be8 ea3f 3795 c276 e140 f03f
000005c0: a2fb ebf3 f296 d73f 3e08 4e4a a371 e83f
000005d0: 70b0 37a2 527d f23f c023 3690 2fdc ed3f
000005e0: ec3d e852 c32d ef3f f116 3bc7 bb52 e03f
000005f0: 0ed9 9d66 586a e33f 19bf 509d eb73 f33f
00000600: 6cdd b0ae edbe e83f 44bc 0d39 9452 f23f
00000610: 7b08 49f3 643a d43f 141f b2b5 1501 e13f
00000620: a11a 5532 2943 f43f 23fc 8cf2 e725 eb3f
00000630: 7c72 68aa 214c f13f 17ae 8967 f714 d03f
00000640: 835a b270 2827 de3f 7f3e da24 bd20 0040
00000650: 275d 72d1 ccd0 e93f da5c cfd3 5c29 ee3f
00000660: d67e c855 1fb1 c8bf f604 fb29 6d02 e63f
00000670: 3a04 a318 827c f63f 4bd8 6729 2157 e93f
00000680: d33a 2a9f c5d5 f03f 0be8 7cd0 2920 d43f
00000690: a522 6fe5 7795 e53f 8285 06d4 3b89 f33f
000006a0: 3988 5c3b 27d4 ee3f da63 4d7b 77d9 f33f
000006b0: 3ce0 f8f6 aa92 de3f baaf 7139 b6c2 e23f
000006c0: d31f 2091 09b7 f43f 3cd5 cc0e 525f ef3f
000006d0: ed95 6fae 4810 f23f f235 77a0 f275 db3f
000006e0: 6f2b 3ab2 4e11 e23f c230 3e70 0f7b f33f
000006f0: 5cfd 6dc5 510b e93f bbf6 141c 7193 f23f
00000700: 097d 0a08 5643 df3f 641e fb10 2622 e33f
00000710: bcdb 73a9 949c f43f 9c9d e619 146a e73f
00000720: 8e43 81fc 3dda f13f b563 0987 08fa d13f
00000730: ea4e 481a 250f e73f d97a cb2c 6715 f13f
00000740: c845 c5c4 6e36 eb3f 35cc 76d9 3244 f23f
00000750: 045b b2e0 2fd7 d83f e6f0 d6dc 0f38 e53f
00000760: 3b61 c605 1951 f13f d387 1fde 9e2e eb3f
00000770: 55cb c72b 796c f33f f015 716c c4f5 d13f
00000780: dab5 9237 39f8 e73f 9e7f 97eb b75f f43f
00000790: f87d 3adf 01bf ea3f af9e 782d 75bd ef3f
000007a0: c501 ba79 cba6 d43f 19bd c466 ff98 e43f
000007b0: 940b 7d0c fd15 f43f c2f4 bfd8 bf76 ee3f
000007c0: 95ef 12f1 4144 f13f 5468 3703 b039 d03f
0.01642293012198967 -0.014548629397340604 -0.1105049958634705 0.05238029681525967 -0.01727829398115063 -0.029042686975056613 -0.07135856772818998 0.005838051881266023
0.00854324413084793 0.07303660029071549 0.14139443731215767 0.0033189430757979556 0.06815084741297064 -0.11274070459982771 -0.1138099909449303 -0.11030593675655727
-0.05616891036196861 -0.030275632086926255 0.017450631914672984 0.09925231332557201 -0.0019479698499684916 -0.029365910597283218 -0.12523597956842294 -0.020773992746918508
0.020342698112495384 -0.0034582976573468947 -0.07940373786931745 0.06262561176840085 0.08118147476261825 0.007065527703538835 0.005616594314200431 -0.13581071309666823
-0.10716254287768948 -0.1394871212419054 -0.09439545687424761 0.11381116327000461 0.0573699256671859 -0.0852144660937598 0.0783657895573502 0.04059979001420932
-0.04313496094881596 -0.06675078600928692 0.08325996463451013 0.08401293031669178 0.07538677292528725 -0.0180603796795202 0.06346975586479847 0.0488421362874339
-0.13085110762241595 -0.020652048098730752 0.49438656462572184 1.8230509736966982 0.6446007472937441 0.8918918050789333 0.07091229528086371 0.738853502963464
1.1999356773413166 0.8713084112754437 1.128796596587036 0.2940323023368626 0.5030505678565979 1.1008965035611655 0.8240067361201073 1.1903841716515384
0.2697896431251496 0.6722613885682314 1.3015621272514784 0.7529924648766048 1.1538234510475494 0.2426920581606467 0.5224188467771501 1.194727171148645
0.9831739335308515 1.1267190671733271 0.27628680604873734 0.7507328659005691 1.1506260338821928 0.9276521891065438 1.1247828417397845 0.37946358241613315
0.5230704303717663 1.1025451134213893 0.8150605451540693 0.9844412870382034 0.29998387193676457 0.7250128264457432 1.0729885985400456 0.8826606450053168
1.22888070877156 0.2339552179726482 0.5765620692640974 1.1871189405622806 0.9078250193804734 1.2171791051522578 0.36583424766867495 0.7216339376664123
1.2132494860547436 0.875870155065227 1.2331626174920711 0.3823089134721094 0.6173518128248484 1.970189179696408 0.6090143086701003 0.9382928479911008
0.022473650804625357 0.7297861217245929 1.2540874988144293 0.8140071939068015 1.1075292764851203 0.23064455166782136 0.6805676213556565 1.1656640954831903
0.8527355657289919 1.092981068551449 0.3490128182660413 0.6051050779202106 1.249478908759528 0.9080987840030482 1.2221487038452206 0.4838702496786571
0.6344244066816032 1.2240923466917277 0.7226176353001802 1.2198125893860137 0.4662163288790081 0.7436849199690062 1.2830881454607528 0.867896009100998
1.0481104740463416 0.40774505219690343 0.6680641230723267 1.0712829410732825 0.9525006842524039 1.013441012303223 0.40066053439093674 0.7392527904739775
1.3142786689317572 0.7832881660502429 1.2056959157181186 0.41649991334231246 0.7452960466161475 1.3229328148191783 0.7104919846635275 1.0769639483469526
0.41081166558981697 0.6244889009769754 1.2814040165142668 0.7970006199063213 1.2491184371613828 0.4480683684510201 0.4422624014594179 1.8819035397940653
0.8316379384190176 0.9149874150049401 -0.030396539222913285 0.74756824732983 1.3658425559867295 0.9228161937538512 1.1042873308809333 0.26951024330177226
0.6273569606744155 1.0939209037586395 0.8836718303769124 0.9719906070900465 0.2311456328448064 0.7104338303139641 1.2105420915422316 0.7405837422742738
1.1616656347515106 0.2670379741161586 0.6335018922372812 1.1014684681098486 0.9012028285132138 1.2203836148632432 0.2650618002460114 0.6554458786450311
1.2714380502348737 0.8701532536439788 1.1458367940263714 0.2797921047706477 0.7773166777676302 1.1807590535029007 0.8408716594093184 1.015840019137
0.36858819790352915 0.7638718081727871 1.1555963837263583 0.9331281487112548 0.9743363017350339 0.5100993052699022 0.6067316059332215 1.2158008713849482
0.7733066951686118 1.1451608875902517 0.31606410749748876 0.531382422327598 1.266396710024914 0.8483772027319713 1.081086793571699 0.25127968894114033
0.4711400127938889 2.015985763464243 0.8067382899052163 0.9425491463579434 -0.1929053467620096 0.6877961940701016 1.4053975069403024 0.7918859299377429
1.0521904199010137 0.3144630943312456 0.6744956475386813 1.2210043222661118 0.9633976134684935 1.2405924622055324 0.4777018939817059 0.5862685319857441
1.2946868580784112 0.9803858079018606 1.128975564375078 0.4290739600226906 0.5646127205849164 1.2175440201272498 0.7826317649886891 1.1609965416859456
0.48848486695529 0.5979185420664632 1.2882277125588493 0.7316990381122426 1.115781771037493 0.2808858221738391 0.7205987466172392 1.0677253484533848
0.8503946154761985 1.141650056332549 0.3881339735320781 0.6630935014032076 1.0822992539961678 0.8494409883826343 1.2139827451871572 0.2806254443169953
0.7490507207309591 1.2733687594227159 0.8358163223201123 0.9918771637066665 0.32268034827577835 0.6436764723966092 1.255368279250182 0.9519957765002334
1.0791644494010815 0.253520968571711

GFL.3.bias f8 [5, 1]
00000000: 837d f2bf 2a40 b6bf 73d0 c0ef 7c3b ff3f
00000010: 65af 5d6f 34d6 fe3f b8ef ed9a 73a2 fe3f
00000020: d00c f17b 4b3c fd3f
-0.08691661058627713 1.9520234456404324 1.9272960996849744 1.914661030953523 1.827220424792177

MLP.0.weight f8 [1, 740]
00000000: 4062 0177 fa23 563f 4062 0177 fa23 563f
00000010: 4062 0177 fa23 563f 4062 0177 fa23 563f
00000020: 4062 0177 fa23 563f 4062 0177 fa23 563f
00000030: 4062 0177 fa23 563f 4062 0177 fa23 563f
00000040: 4062 0177 fa23 563f 4062 0177 fa23 563f
00000050: 4062 0177 fa23 563f 4062 0177 fa23 563f
00000060: 4062 0177 fa23 563f 4062 0177 fa23 563f
00000070: 4062 0177 fa23 563f 4062 0177 fa23 563f
00000080: 4062 0177 fa23 563f 4062 0177 fa23 563f
00000090: 4062 0177 fa23 563f 4062 0177 fa23 563f
000000a0: 4062 0177 fa23 563f 4062 0177 fa23 563f
000000b0: 4062 0177 fa23 563f 4062 0177 fa23 563f
000000c0: 4062 0177 fa23 563f 4062 0177 fa23 563f
000000d0: 4062 0177 fa23 563f 4062 0177 fa23 563f
000000e0: 4062 0177 fa23 563f 4062 0177 fa23 563f
000000f0: 4062 0177 fa23 563f 4062 0177 fa23 563f
00000100: 4062 0177 fa23 563f 4062 0177 fa23 563f
00000110: 4062 0177 fa23 563f 4062 0177 fa23 563f
00000120: 4062 0177 fa23 563f 4062 0177 fa23 563f
00000130: 4062 0177 fa23 563f 4062 0177 fa23 563f
00000140: 4062 0177 fa23 563f 4062 0177 fa23 563f
00000150: 4062 0177 fa23 563f 4062 0177 fa23 563f
00000160: 4062 0177 fa23 563f 4062 0177 fa23 563f
00000170: 4062 0177 fa23 563f 4062 0177 fa23 563f
00000180: 4062 0177 fa23 563f 4062 0177 fa23 563f
00000190: 4062 0177 fa23 563f 4062 0177 fa23 563f
000001a0: 4062 0177 fa23 563f 4062 0177 fa23 563f
000001b0: 4062 0177 fa23 563f 4062 0177 fa23 563f
000001c0: 4062 0177 fa23 563f 4062 0177 fa23 563f
000001d0: 4062 0177 fa23 563f 4062 0177 fa23 563f
000001e0: 4062 0177 fa23 563f 4062 0177 fa23 563f
000001f0: 4062 0177 fa23 563f 4062 0177 fa23 563f
00000200: 4062 0177 fa23 563f 4062 0177 fa23 563f
00000210: 4062 0177 fa23 563f 4062 0177 fa23 563f
00000220: 4062 0177 fa23 563f 4062 0177 fa23 563f
00000230: 4062 0177 fa23 563f 4062 0177 fa23 563f
00000240: 4062 0177 fa23 563f 4062 0177 fa23 563f
00000250: 4062 0177 fa23 563f 4062 0177 fa23 563f
00000260: 4062 0177 fa23 563f 4062 0177 fa23 563f
00000270: 4062 0177 fa23 563f 4062 0177 fa23 563f
00000280: 4062 0177 fa23 563f 4062 0177 fa23 563f
00000290: 4062 0177 fa23 563f 4062 0177 fa23 563f
000002a0: 4062 0177 fa23 563f 4062 0177 fa23 563f
000002b0: 4062 0177 fa23 563f 4062 0177 fa23 563f
000002c0: 4062 0177 fa23 563f 4062 0177 fa23 563f
000002d0: 4062 0177 fa23 563f 4062 0177 fa23 563f
000002e0: 4062 0177 fa23 563f 4062 0177 fa23 563f
000002f0: 4062 0177 fa23 563f 4062 0177 fa23 563f
00000300: 4062 0177 fa23 563f 4062 0177 fa23 563f
00000310: 4062 0177 fa23 563f 4062 0177 fa23 563f
00000320: 4062 0177 fa23 563f 4062 0177 fa23 563f
00000330: 4062 0177 fa23 563f 4062 0177 fa23 563f
00000340: 4062 0177 fa23 563f 4062 0177 fa23 563f
00000350: 4062 0177 fa23 563f 4062 0177 fa23 563f
00000360: 4062 0177 fa23 563f 4062 0177 fa23 563f
00000370: 4062 0177 fa23 563f 4062 0177 fa23 563f
00000380: 4062 0177 fa23 563f 4062 0177 fa23 563f
00000390: 4062 0177 fa23 563f 4062 0177 fa23 563f
000003a0: 4062 0177 fa23 563f 4062 0177 fa23 563f
000003b0: 4062 0177 fa23 563f 4062 0177 fa23 563f
000003c0: 4062 0177 fa23 563f 4062 0177 fa23 563f
000003d0: 4062 0177 fa23 563f 4062 0177 fa23 563f
000003e0: 4062 0177 fa23 563f 4062 0177 fa23 563f
000003f0: 4062 0177 fa23 563f 4062 0177 fa23 563f
00000400: 4062 0177 fa23 563f 4062 0177 fa23 563f
00000410: 4062 0177 fa23 563f 4062 0177 fa23 563f
00000420: 4062 0177 fa23 563f 4062 0177 fa23 563f
00000430: 4062 0177 fa23 563f 4062 0177 fa23 563f
00000440: 4062 0177 fa23 563f 4062 0177 fa23 563f
00000450: 4062 0177 fa23 563f 4062 0177 fa23 563f
00000460: 4062 0177 fa23 563f 4062 0177 fa23 563f
00000470: 4062 0177 fa23 563f 4062 0177 fa23 563f
00000480: 4062 0177 fa23 563f 4062 0177 fa23 563f
00000490: 4062 0177 fa23 563f 4062 0177 fa23 563f
000004a0: 4062 0177 fa23 563f 4062 0177 fa23 563f
000004b0: 4062 0177 fa23 563f 4062 0177 fa23 563f
000004c0: 4062 0177 fa23 563f 4062 0177 fa23 563f
000004d0: 4062 0177 fa23 563f 4062 0177 fa23 563f
000004e0: 4062 0177 fa23 563f 4062 0177 fa23 563f
000004f0: 4062 0177 fa23 563f 4062 0177 fa23 563f
00000500: 4062 0177 fa23 563f 4062 0177 fa23 563f
00000510: 4062 0177 fa23 563f 4062 0177 fa23 563f
00000520: 4062 0177 fa23 563f 4062 0177 fa23 563f
00000530: 4062 0177 fa23 563f 4062 0177 fa23 563f
00000540: 4062 0177 fa23 563f 4062 0177 fa23 563f
00000550: 4062 0177 fa23 563f 4062 0177 fa23 563f
00000560: 4062 0177 fa23 563f 4062 0177 fa23 563f
00000570: 4062 0177 fa23 563f 4062 0177 fa23 563f
00000580: 4062 0177 fa23 563f 4062 0177 fa23 563f
00000590: 4062 0177 fa23 563f 4062 0177 fa23 563f
000005a0: 4062 0177 fa23 563f 4062 0177 fa23 563f
000005b0: 4062 0177 fa23 563f 4062 0177 fa23 563f
000005c0: 4062 0177 fa23 563f 4062 0177 fa23 563f
000005d0: 4062 0177 fa23 563f 4062 0177 fa23 563f
000005e0: 4062 0177 fa23 563f 4062 0177 fa23 563f
000005f0: 4062 0177 fa23 563f 4062 0177 fa23 563f
00000600: 4062 0177 fa23 563f 4062 0177 fa23 563f
00000610: 4062 0177 fa23 563f 4062 0177 fa23 563f
00000620: 4062 0177 fa23 563f 4062 0177 fa23 563f
00000630: 4062 0177 fa23 563f 4062 0177 fa23 563f
00000640: 4062 0177 fa23 563f 4062 0177 fa23 563f
00000650: 4062 0177 fa23 563f 4062 0177 fa23 563f
00000660: 4062 0177 fa23 563f 4062 0177 fa23 563f
00000670: 4062 0177 fa23 563f 4062 0177 fa23 563f
00000680: 4062 0177 fa23 563f 4062 0177 fa23 563f
00000690: 4062 0177 fa23 563f 4062 0177 fa23 563f
000006a0: 4062 0177 fa23 563f 4062 0177 fa23 563f
000006b0: 4062 0177 fa23 563f 4062 0177 fa23 563f
000006c0: 4062 0177 fa23 563f 4062 0177 fa23 563f
000006d0: 4062 0177 fa23 563f 4062 0177 fa23 563f
000006e0: 4062 0177 fa23 563f 4062 0177 fa23 563f
000006f0: 4062 0177 fa23 563f 4062 0177 fa23 563f
00000700: 4062 0177 fa23 563f 4062 0177 fa23 563f
00000710: 4062 0177 fa23 563f 4062 0177 fa23 563f
00000720: 4062 0177 fa23 563f 4062 0177 fa23 563f
00000730: 4062 0177 fa23 563f 4062 0177 fa23 563f
00000740: 4062 0177 fa23 563f 4062 0177 fa23 563f
00000750: 4062 0177 fa23 563f 4062 0177 fa23 563f
00000760: 4062 0177 fa23 563f 4062 0177 fa23 563f
00000770: 4062 0177 fa23 563f 4062 0177 fa23 563f
00000780: 4062 0177 fa23 563f 4062 0177 fa23 563f
00000790: 4062 0177 fa23 563f 4062 0177 fa23 563f
000007a0: 4062 0177 fa23 563f 4062 0177 fa23 563f
000007b0: 4062 0177 fa23 563f 4062 0177 fa23 563f
000007c0: 4062 0177 fa23 563f 4062 0177 fa23 563f
000007d0: 4062 0177 fa23 563f 4062 0177 fa23 563f
000007e0: 4062 0177 fa23 563f 4062 0177 fa23 563f
000007f0: 4062 0177 fa23 563f 4062 0177 fa23 563f
0.0013513513513513514 0.0013513513513513514 0.0013513513513513514 0.0013513513513513514 0.0013513513513513514 0.0013513513513513514 0.0013513513513513514 0.0013513513513513514
0.0013513513513513514 0.0013513513513513514 0.0013513513513513514 0.0013513513513513514 0.0013513513513513514 0.0013513513513513514 0.0013513513513513514 0.0013513513513513514
0.0013513513513513514 0.0013513513513513514 0.0013513513513513514 0.0013513513513513514 0.0013513513513513514 0.0013513513513513514 0.0013513513513513514 0.0013513513513513514
0.0013513513513513514 0.0013513513513513514 0.0013513513513513514 0.0013513513513513514 0.0013513513513513514 0.0013513513513513514 0.0013513513513513514 0.0013513513513513514
0.0013513513513513514 0.0013513513513513514 0.0013513513513513514 0.0013513513513513514 0.0013513513513513514 0.0013513513513513514 0.0013513513513513514 0.0013513513513513514
0.0013513513513513514 0.0013513513513513514 0.0013513513513513514 0.0013513513513513514 0.0013513513513513514 0.0013513513513513514 0.0013513513513513514 0.0013513513513513514
0.0013513513513513514 0.0013513513513513514 0.0013513513513513514 0.0013513513513513514 0.0013513513513513514 0.0013513513513513514 0.0013513513513513514 0.0013513513513513514
0.0013513513513513514 0.0013513513513513514 0.0013513513513513514 0.0013513513513513514 0.0013513513513513514 0.0013513513513513514 0.0013513513513513514 0.0013513513513513514
0.0013513513513513514 0.0013513513513513514 0.0013513513513513514 0.0013513513513513514 0.0013513513513513514 0.0013513513513513514 0.0013513513513513514 0.0013513513513513514
0.0013513513513513514 0.0013513513513513514 0.0013513513513513514 0.0013513513513513514 0.0013513513513513514 0.0013513513513513514 0.0013513513513513514 0.0013513513513513514
0.0013513513513513514 0.0013513513513513514 0.0013513513513513514 0.0013513513513513514 0.0013513513513513514 0.0013513513513513514 0.0013513513513513514 0.0013513513513513514
0.0013513513513513514 0.0013513513513513514 0.0013513513513513514 0.0013513513513513514 0.0013513513513513514 0.0013513513513513514 0.0013513513513513514 0.0013513513513513514
0.0013513513513513514 0.0013513513513513514 0.0013513513513513514 0.0013513513513513514 0.0013513513513513514 0.0013513513513513514 0.0013513513513513514 0.0013513513513513514
0.0013513513513513514 0.0013513513513513514 0.0013513513513513514 0.0013513513513513514 0.0013513513513513514 0.0013513513513513514 0.0013513513513513514 0.0013513513513513514
0.0013513513513513514 0.0013513513513513514 0.0013513513513513514 0.0013513513513513514 0.0013513513513513514 0.0013513513513513514 0.0013513513513513514 0.0013513513513513514
0.0013513513513513514 0.0013513513513513514 0.0013513513513513514 0.0013513513513513514 0.0013513513513513514 0.0013513513513513514 0.0013513513513513514 0.0013513513513513514
0.0013513513513513514 0.0013513513513513514 0.0013513513513513514 0.0013513513513513514 0.0013513513513513514 0.0013513513513513514 0.0013513513513513514 0.0013513513513513514
0.0013513513513513514 0.0013513513513513514 0.0013513513513513514 0.0013513513513513514 0.0013513513513513514 0.0013513513513513514 0.0013513513513513514 0.0013513513513513514
0.0013513513513513514 0.0013513513513513514 0.0013513513513513514 0.0013513513513513514 0.0013513513513513514 0.0013513513513513514 0.0013513513513513514 0.0013513513513513514
0.0013513513513513514 0.0013513513513513514 0.0013513513513513514 0.0013513513513513514 0.0013513513513513514 0.0013513513513513514 0.0013513513513513514 0.0013513513513513514
0.0013513513513513514 0.0013513513513513514 0.0013513513513513514 0.0013513513513513514 0.0013513513513513514 0.0013513513513513514 0.0013513513513513514 0.0013513513513513514
0.0013513513513513514 0.0013513513513513514 0.0013513513513513514 0.0013513513513513514 0.0013513513513513514 0.0013513513513513514 0.0013513513513513514 0.0013513513513513514
0.0013513513513513514 0.0013513513513513514 0.0013513513513513514 0.0013513513513513514 0.0013513513513513514 0.0013513513513513514 0.0013513513513513514 0.0013513513513513514
0.0013513513513513514 0.0013513513513513514 0.0013513513513513514 0.0013513513513513514 0.0013513513513513514 0.0013513513513513514 0.0013513513513513514 0.0013513513513513514
0.0013513513513513514 0.0013513513513513514 0.0013513513513513514 0.0013513513513513514 0.0013513513513513514 0.0013513513513513514 0.0013513513513513514 0.0013513513513513514
0.0013513513513513514 0.0013513513513513514 0.0013513513513513514 0.0013513513513513514 0.0013513513513513514 0.0013513513513513514 0.0013513513513513514 0.0013513513513513514
0.0013513513513513514 0.0013513513513513514 0.0013513513513513514 0.0013513513513513514 0.0013513513513513514 0.0013513513513513514 0.0013513513513513514 0.0013513513513513514
0.0013513513513513514 0.0013513513513513514 0.0013513513513513514 0.0013513513513513514 0.0013513513513513514 0.0013513513513513514 0.0013513513513513514 0.0013513513513513514
0.0013513513513513514 0.0013513513513513514 0.0013513513513513514 0.0013513513513513514 0.0013513513513513514 0.0013513513513513514 0.0013513513513513514 0.0013513513513513514
0.0013513513513513514 0.0013513513513513514 0.0013513513513513514 0.0013513513513513514 0.0013513513513513514 0.0013513513513513514 0.0013513513513513514 0.0013513513513513514
0.0013513513513513514 0.0013513513513513514 0.0013513513513513514 0.0013513513513513514 0.0013513513513513514 0.0013513513513513514 0.0013513513513513514 0.0013513513513513514
0.0013513513513513514 0.0013513513513513514 0.0013513513513513514 0.0013513513513513514 0.0013513513513513514 0.0013513513513513514 0.0013513513513513514 0.0013513513513513514
