OASIS3_VNN_NeurIPS/test23.pth (torch, 10139 bytes, 5 tensors)

GFL.0.weight f8 [5, 1, 6, 1]
0.11813315825563826 0.10440139362673306 0.12645521199643672 0.04012746434602971 -0.11385329013442866 -0.1593408055883037 0.9258338057057947 0.09855097068320871
-0.16453299824172177 -0.09481652639869952 -0.1804404110847373 0.07515992989394879 0.022289746286429855 0.25937335993468746 -0.11873461236078922 0.21560147867401105
-0.13057772602769838 0.18492101591009819 -1.3997526075783064 -0.3696571614875638 0.11193408396230947 -0.04347662105008929 0.029347186973562405 0.10013530231094295
-0.21906456097726762 0.09726823949233199 -0.010401793747246034 0.0720868540938707 0.04091153224139721 0.07432840662012394
00000000: 05fa 4783 f93d be3f b89c 48bb 0cba ba3f
00000010: 0c7b f733 af2f c03f c940 1346 968b a43f
00000020: de5b ab3d 7d25 bdbf 7ac4 758e 4765 c4bf
00000030: 1234 a137 6ea0 ed3f b7cc 12ec a23a b93f
00000040: 85cf 47d3 6a0f c5bf 3fb3 0058 e545 b8bf
00000050: d02c 3ee0 ab18 c7bf c639 dd60 ae3d b33f
00000060: 196d 588d 1fd3 963f 30e1 97b8 9299 d03f
00000070: ea29 fe3c 6465 bebf 21e3 ef49 d498 cb3f
00000080: 6900 705b c5b6 c0bf dea6 d6e9 7dab c73f
00000090: fda1 80fd 6265 f6bf ce8f d482 76a8 d7bf
000000a0: ac03 ed4d b6a7 bc3f ccf7 1953 9142 a6bf
000000b0: fbca 1f61 300d 9e3f 2abf 9998 77a2 b93f
000000c0: 3e13 8eba 4e0a ccbf a81e 8f43 92e6 b83f
000000d0: ff98 b61f 894d 85bf b600 ceb8 4874 b23f
000000e0: 1019 033a 5bf2 a43f 8ee3 98bb 2f07 b33f

GFL.0.bias f8 [5, 1]
2.2877344452555657 1.9121696226514215 1.4856054421988012 1.6786203140872349 2.3906474649735037
00000000: 5f71 82b7 474d 0240 8c14 9b2c 3f98 fe3f
00000010: 360e 5036 0ac5 f73f a87e 76f9 a0db fa3f
00000020: ae9c 32c7 0b20 0340

GFL.3.weight f8 [5, 1, 10, 5]
0.7178403286977093 0.8619950177061403 0.29902412915078386 0.35148126928259404 0.6823444919257037 0.8122526909629145 0.8638387910622407 0.34327293791066327
0.6935912922363804 0.8273402108279444 0.8002296862662527 0.6561582061615827 0.32247949385525554 0.8127226401557017 0.9427770172675942 0.7004200720970323
0.8105457150396257 0.4229562396450953 1.0220484256516096 0.7905603619097208 0.7127808638404736 0.6435033049160862 0.4756054007265855 0.8009756100788089
0.676225470456506 0.7923842192692886 0.7765970395325803 0.46153172150919985 0.8463201403711859 0.8422561149919306 0.65266005011535 0.6034217104458929
0.28277366774085194 1.0621281876598028 0.7918747403443832 0.8200164583441575 0.6763259452121662 0.34447300988282503 0.7971081819878605 0.7934330900534131
0.615434373015665 0.7285752580876408 0.2566425738311043 0.8141438105936091 0.9365857515798571 0.7661033534778781 0.770481488432884 0.36250750325628167
0.8180630553746127 0.7876705398216554 0.8693834695349534 1.073678076713256 0.41230208468749 0.21928534229399682 0.7262076390436778 0.7869639015103568
0.6918719344171864 0.36957014937308713 0.7934718743712317 0.8183496712830477 0.6780005314678184 0.7347110962041826 0.41537191741174617 0.8948668471403192
0.8874691131266514 0.6540809805179458 0.6763381433048171 0.3545252781897483 0.955335512827587 0.9671278630861669 0.8551960196199384 0.5525798222300246
0.4387826751680071 1.0236722395260625 0.8464036335111874 0.627643559244959 0.8212951554272168 0.32492293624250684 0.8145222067258914 0.9432199920743454
0.7445846429499303 0.5830638443043998 0.4117892741795997 0.9823149671228582 0.9687132380433356 0.7614739761302983 0.7199505182716568 0.4682115443722901
0.7925247243587832 0.9178313979463264 0.8615486632098841 0.5979201366088814 0.4578392106952707 0.7979570321484933 0.783242707943983 0.8260421354454467
0.5710188898045991 0.27641965342355035 0.8896486577345742 0.8091624488651302 0.7958972301013841 0.9865832758703523 0.26271358262269134 0.30517217532055435
0.6019664514703621 0.5869505484492951 0.6421941305581377 0.37890705090044313 0.683187786698259 0.7232937831343598 0.6171474455950205 0.8181169613677403
0.2468092555738098 0.8636973111914169 0.7071159454399005 0.5776243297018351 0.7111390698490242 0.4227213734217703 0.7790303210218814 0.8739284129969453
0.7082988495578285 0.7439556091237816 0.3180097513744246 0.8905352957280456 0.8006188193022133 0.6899913908337664 0.6073012842663733 0.299767051564488
0.7949173646652632 0.7273804588750393 0.7163355557938731 0.5871055501109592 0.47244770878880205 0.9834399524693335 0.905088710887627 0.6736235843393784
0.7962841303470162 0.2993672304575897 1.0581186891605532 0.6822339042760178 0.5652257536921982 0.8312733273982152 0.48487768268974063 1.0558902728024362
0.851786337387239 0.5874093801015392 0.655695870110217 0.37705524325818723 0.9239125180898269 0.7897820742626196 0.8232483842356967 0.8834703058395252
0.378821792122303 0.2933674781425228 0.7418688417366694 0.8785924150955209 0.7419719253747887 0.2638206621657807 0.9088430820726692 0.7435784611388879
0.7724642756673351 0.5468074360040673 0.2912288848673682 1.0311505117730793 0.8970855258331726 0.5934841867974264 0.78772990047308 0.49708506782517087
0.8950305159173764 0.7024586404140345 0.7440357540337091 0.6399122185213094 0.25846347489989097 0.9452990155155959 0.8905677820602387 0.8742253132530081
0.5183012043210937 0.3542386718832356 0.9203935470792923 0.8161008651006975 0.685813604196147 0.7806878285108483 0.2912464386699646 0.9148651574171728
0.9130124697888276 0.6884825680016985 0.6589613635545137 0.3399193647882633 0.9243559403325188 0.8791962526634152 0.8662425809477237 0.5753541365895223
0.4125463539002392 0.841123324797084 0.9566440603441873 0.771677570013177 0.7799106579444691 0.25053566798461635 0.967264067547738 0.9566126203887555
0.8595231190438894 0.9856647314403407 0.3147952591091925 0.2509782332854171 0.7592499828706706 0.8268758808619204 0.8105885323874342 0.5189907724005363
0.8025239062680561 0.6782571044193237 0.7264955801376611 0.6625124497160763 0.47686666154389995 0.9832417473487388 0.9151228451715129 0.7894762871524091
0.6149523589781956 0.38152438490120466 0.9642801361149093 0.9001835933932525 0.6560930569549345 0.6930752580074585 0.3242242994174067 0.8316270885727485
0.7793811272932292 0.6263606066470212 0.7372894776321723 0.3798720276317416 0.9022096998253158 0.7996304259603216 0.8579075158737153 0.7111246860438488
0.4798517122467907 0.8597414356035933 0.8223834588796187 0.7891138053438297 0.6059736752202455 0.3168578812902743 0.8417175709713325 0.7569493860881039
0.7034204889636065 0.8316598386227905 0.42225146984186246 0.8409381521204038 0.8063287932835747 0.7698524132708678 0.7839602107583659 0.4146576856137097
1.0684358569066223 0.8010016223929259
00000000: ac35 f047 8cf8 e63f 2b9c 4b93 7695 eb3f
00000010: 45b8 da19 3623 d33f 7e6b 2e4b ab7e d63f
00000020: fba6 ad1d c4d5 e53f 41c2 f85a f9fd e93f
00000030: ae1c 943f 91a4 eb3f 9a66 7b0e 2ff8 d53f
00000040: 9f42 9e5d e631 e63f 1c7f 852d 9279 ea3f
00000050: 21a9 7949 7b9b e93f aae9 8e7e 3fff e43f
00000060: 0c4b ef07 81a3 d43f 2000 06e9 d201 ea3f
00000070: 3ab6 12b5 3a2b ee3f 85cc e35a d769 e63f
00000080: 9542 4091 fdef e93f 768c 3a0c b711 db3f
00000090: 97a1 3173 4f5a f03f 4e51 7d3e 454c e93f
000000a0: 521a 6dd0 19cf e63f b170 2f3e 9497 e43f
000000b0: 78fc 7aa2 5170 de3f 07d4 459a 97a1 e93f
000000c0: 2ea7 0a99 a3a3 e53f 4b19 7426 365b e93f
000000d0: aecf de08 e2d9 e83f c0b5 7c58 bc89 dd3f
000000e0: 55e4 9af9 0d15 eb3f 29e2 9718 c3f3 ea3f
000000f0: 37d6 5454 97e2 e43f bdf7 010c 3b4f e33f
00000100: c57b c7b9 f618 d23f a489 6220 7afe f03f
00000110: 01d8 09b2 0957 e93f 0ba3 d827 933d ea3f
00000120: dceb 034f 76a4 e53f 704a f385 d80b d63f
00000130: 4c61 a004 e981 e93f 09ff aaca cd63 e93f
00000140: 2ff8 1d6d a3b1 e33f 5c28 450f 7d50 e73f
00000150: 396a 57f9 d46c d03f 1bb1 1752 770d ea3f
00000160: 11ec 9dae 82f8 ed3f a663 112e eb83 e83f
00000170: b3c3 5fcb c8a7 e83f fc94 c2ab 5233 d73f
00000180: 26cb 9c92 922d ea3f 49d0 11d9 9834 e93f
00000190: 8abd 2a48 fdd1 eb3f 5ba6 1e10 c92d f13f
000001a0: 8b8b 7348 2863 da3f 7e8b d2c6 8a11 cc3f
000001b0: f688 79cd 173d e73f 55d3 83eb ce2e e93f
000001c0: 42f2 6a9c d023 e63f d7a7 488e 09a7 d73f
000001d0: 600c d720 1f64 e93f 1b4c 5ba6 eb2f ea3f
000001e0: 9265 aa2b 2eb2 e53f 9b91 46d8 c082 e73f
000001f0: f274 3d18 7495 da3f f0c0 57cc bfa2 ec3f
00000200: d8d9 22a0 2566 ec3f 7b53 883c 3bee e43f
00000210: 7702 d1e3 8fa4 e53f 9089 dbca 8ab0 d63f
00000220: f5a8 09c8 1b92 ee3f ab2c e021 b6f2 ee3f
00000230: fcfb fd0a c45d eb3f d309 1de1 bbae e13f
00000240: 8978 f9ed 0315 dc3f 7866 6924 f660 f03f
00000250: 03ad a412 bd15 eb3f 8211 10f2 a715 e43f
00000260: 4e8a 1dc7 0c48 ea3f 6570 3892 89cb d43f
00000270: 4d1c f8df 9010 ea3f f090 5cb1 db2e ee3f
00000280: 785c 522c a3d3 e73f d08e d881 75a8 e23f
00000290: 317a 5c66 c15a da3f 6a3f 45cc 1f6f ef3f
000002a0: 0226 93e7 b2ff ee3f cb82 07ac fe5d e83f
000002b0: 6ae1 56ab d509 e73f a912 ac8d 2df7 dd3f
000002c0: 728e 8ccf 5c5c e93f 627c adf3 df5e ed3f
000002d0: 5ec4 8c80 ce91 eb3f 255c 0b69 2922 e33f
000002e0: 1dcf 30d5 3c4d dd3f ab1c 962f dd88 e93f
000002f0: 7865 ee02 5310 e93f f565 9bea ef6e ea3f
00000300: c67c 2368 c945 e23f 5c40 db0e dcb0 d13f
00000310: 35cf 3c76 0078 ec3f 3ddd e0a5 a8e4 e93f
00000320: d765 c877 fd77 e93f 4499 1417 1792 ef3f
00000330: c315 65a1 4cd0 d03f 51a9 29e0 f087 d33f
00000340: 0d57 cb25 4f43 e33f 03b0 3e84 4cc8 e23f
00000350: 79c5 8db4 da8c e43f 65d6 f55b 0340 d83f
00000360: 22a9 1ca2 acdc e53f 46ca fe00 3925 e73f
00000370: 687f f4ff abbf e33f 2b13 2c9f 032e ea3f
00000380: 3b12 8518 7297 cf3f 89ba 268b 68a3 eb3f
00000390: b09f 849e b1a0 e63f 8a2f ae04 e67b e23f
000003a0: f519 fdb8 a6c1 e63f 54ab 8af2 dd0d db3f
000003b0: 1e34 ecfe d0ed e83f f8be 1bb8 38f7 eb3f
000003c0: 47a6 5459 62aa e63f ca98 5bfe 7bce e73f
000003d0: 6b95 7d92 455a d43f 99bd 62e0 437f ec3f
000003e0: 6de2 ae5b ab9e e93f f1e1 44d3 6814 e63f
000003f0: 9dc5 571a 036f e33f 12d2 b824 622f d33f
00000400: 6050 888a f66f e93f bfc4 5362 b346 e73f
00000410: e817 238b 38ec e63f 64da 2094 91c9 e23f
00000420: b65a 9450 953c de3f 49f0 2d10 5778 ef3f
00000430: 8fb7 a799 7cf6 ec3f 65a9 110c 538e e53f
00000440: 6b41 45db 287b e93f e9cd 132c d528 d33f
00000450: 09b2 d3dc 0dee f03f 01d0 6232 dcd4 e53f
00000460: cfe0 de51 5416 e23f 45cc 6685 ca99 ea3f
00000470: e69c 6d67 3c08 df3f 9f9d dd32 ede4 f03f
00000480: 0240 c86b d541 eb3f b4ca 9cc1 0ecc e23f
00000490: 55dc c7e7 75fb e43f 3f12 a550 ac21 d83f
000004a0: 32f2 31fc b090 ed3f 8e99 7d0e e545 e93f
000004b0: 7dde d8fe 0c58 ea3f 102c d284 6345 ec3f
000004c0: 8d5a 0bc2 9d3e d83f 9f41 1563 88c6 d23f
000004d0: ccc5 a5b9 63bd e73f 582a 2bd7 6d1d ec3f
000004e0: a81d 41e8 3bbe e73f beb5 000f 70e2 d03f
000004f0: ac55 5616 3e15 ed3f bd3f 930e 65cb e73f
00000500: 9d39 2a00 07b8 e83f 4c1b db4e 727f e13f
00000510: 32fa 097a 7ea3 d23f c81a d5ad 977f f03f
00000520: db63 65b4 ecb4 ec3f 879e 9f8c d2fd e23f
00000530: 729f 1356 1535 e93f 35e6 68e3 3dd0 df3f
00000540: 3e30 5909 17a4 ec3f 6ede eb8a 8a7a e63f
00000550: b524 d411 24cf e73f b983 5b30 297a e43f
00000560: 82f4 f962 aa8a d03f 4d93 92b8 e33f ee3f
00000570: 483d 5a01 887f ec3f 8d39 385d a7f9 eb3f
00000580: 1a2b 4168 ec95 e03f dde2 adad d8ab d63f
00000590: bcf5 042b dd73 ed3f a108 bb8f 7f1d ea3f
000005a0: 3194 255f 2ff2 e53f f4db 7a0a 65fb e83f
000005b0: 727e 4a1a c8a3 d23f ab69 6b4b 9346 ed3f
000005c0: 98a9 52ed 6537 ed3f 57de 2d98 0c08 e63f
000005d0: 1c6a 3924 3616 e53f 59bb c226 3dc1 d53f
000005e0: 88ed b2e8 5294 ed3f 5a90 fe2d 6022 ec3f
000005f0: e256 725c 42b8 eb3f 6ca6 0814 4d69 e23f
00000600: f879 85d2 2867 da3f 1800 7d76 7bea ea3f
00000610: f0e8 2201 d49c ee3f 546d c828 95b1 e83f
00000620: fb8b 3532 07f5 e83f a26d 1ec1 c608 d03f
00000630: bed4 16c6 d3f3 ee3f 9256 f011 929c ee3f
00000640: a661 cea0 3681 eb3f 9d6b 4bc3 908a ef3f
00000650: 38d4 b303 9b25 d43f 97ff fd01 0710 d03f
00000660: ff60 bd9e c64b e83f 87e6 4468 c475 ea3f
00000670: bcbb a35c 57f0 e93f ca5a 4c89 929b e03f
00000680: 39be 759d 46ae e93f 4457 383e 48b4 e53f
00000690: 5627 aca8 733f e73f 0726 174f 4d33 e53f
000006a0: 618f f8be fb84 de3f 5f97 9d65 b776 ef3f
000006b0: 1bb1 7ab4 af48 ed3f f12f 49c6 6343 e93f
000006c0: d219 cd91 b0ad e33f 7cbd f140 e56a d83f
000006d0: 8978 1904 62db ee3f 0ca2 c0d2 4dce ec3f
000006e0: a921 d8dd b6fe e43f a9e1 d929 ac2d e63f
000006f0: d43d a446 17c0 d43f a167 7c69 b09c ea3f
00000700: 5002 9bb0 b0f0 e83f 55a7 2166 250b e43f
00000710: eeae 431a e097 e73f 89fc d5c3 d24f d83f
00000720: 5747 5ce0 e6de ec3f 2f5b 0c8c 9296 e93f
00000730: 5872 7576 fa73 eb3f 9df8 bd8e 88c1 e63f
00000740: 74e4 c1f4 e3b5 de3f 6cdf 9d78 0083 eb3f
00000750: 2d19 951d f750 ea3f 73c3 5898 6b40 e93f
00000760: 27da a9e7 2264 e33f f1c7 6747 6647 d43f
00000770: 384b f9af 59ef ea3f cd38 3feb ed38 e83f
00000780: adeb 6daf 6b82 e63f 3c02 0918 f59c ea3f
00000790: a028 6a07 2b06 db3f 181b aa20 f7e8 ea3f
000007a0: 313c 9f0a 72cd e93f 7bd7 3787 a1a2 e83f
000007b0: 8051 52b9 3316 e93f 5dbd af63 c089 da3f
000007c0: 559a 7432 5018 f13f d00e 8727 cea1 e93f

GFL.3.bias f8 [5, 1]
1.6674806183990487 1.6612383683818963 1.664490779085707 1.4026190070544042 1.458468499440797
00000000: e8cd 2b28 00ae fa3f 67f8 f0ae 6e94 fa3f
00000010: b1aa 4a15 c1a1 fa3f 1ebf c0a0 2071 f63f
00000020: bc82 b510 e355 f73f

MLP.0.weight f8 [1, 740]
0.0013513513513513514 0.0013513513513513514 0.0013513513513513514 0.0013513513513513514 0.0013513513513513514 0.0013513513513513514 0.0013513513513513514 0.0013513513513513514
0.0013513513513513514 0.0013513513513513514 0.0013513513513513514 0.0013513513513513514 0.0013513513513513514 0.0013513513513513514 0.0013513513513513514 0.0013513513513513514
0.0013513513513513514 0.0013513513513513514 0.0013513513513513514 0.0013513513513513514 0.0013513513513513514 0.0013513513513513514 0.0013513513513513514 0.0013513513513513514
0.0013513513513513514 0.0013513513513513514 0.0013513513513513514 0.0013513513513513514 0.0013513513513513514 0.0013513513513513514 0.0013513513513513514 0.0013513513513513514
0.0013513513513513514 0.0013513513513513514 0.0013513513513513514 0.0013513513513513514 0.0013513513513513514 0.0013513513513513514 0.0013513513513513514 0.0013513513513513514
0.0013513513513513514 0.0013513513513513514 0.0013513513513513514 0.0013513513513513514 0.0013513513513513514 0.0013513513513513514 0.0013513513513513514 0.0013513513513513514
0.0013513513513513514 0.0013513513513513514 0.0013513513513513514 0.0013513513513513514 0.0013513513513513514 0.0013513513513513514 0.0013513513513513514 0.0013513513513513514
0.0013513513513513514 0.0013513513513513514 0.0013513513513513514 0.0013513513513513514 0.0013513513513513514 0.0013513513513513514 0.0013513513513513514 0.0013513513513513514
0.0013513513513513514 0.0013513513513513514 0.0013513513513513514 0.0013513513513513514 0.0013513513513513514 0.0013513513513513514 0.0013513513513513514 0.0013513513513513514
0.0013513513513513514 0.0013513513513513514 0.0013513513513513514 0.0013513513513513514 0.0013513513513513514 0.0013513513513513514 0.0013513513513513514 0.0013513513513513514
0.0013513513513513514 0.0013513513513513514 0.0013513513513513514 0.0013513513513513514 0.0013513513513513514 0.0013513513513513514 0.0013513513513513514 0.0013513513513513514
0.0013513513513513514 0.0013513513513513514 0.0013513513513513514 0.0013513513513513514 0.0013513513513513514 0.0013513513513513514 0.0013513513513513514 0.0013513513513513514
0.0013513513513513514 0.0013513513513513514 0.0013513513513513514 0.0013513513513513514 0.0013513513513513514 0.0013513513513513514 0.0013513513513513514 0.0013513513513513514
0.0013513513513513514 0.0013513513513513514 0.0013513513513513514 0.0013513513513513514 0.0013513513513513514 0.0013513513513513514 0.0013513513513513514 0.0013513513513513514
0.0013513513513513514 0.0013513513513513514 0.0013513513513513514 0.0013513513513513514 0.0013513513513513514 0.0013513513513513514 0.0013513513513513514 0.0013513513513513514
0.0013513513513513514 0.0013513513513513514 0.0013513513513513514 0.0013513513513513514 0.0013513513513513514 0.0013513513513513514 0.0013513513513513514 0.0013513513513513514
0.0013513513513513514 0.0013513513513513514 0.0013513513513513514 0.0013513513513513514 0.0013513513513513514 0.0013513513513513514 0.0013513513513513514 0.0013513513513513514
0.0013513513513513514 0.0013513513513513514 0.0013513513513513514 0.0013513513513513514 0.0013513513513513514 0.0013513513513513514 0.0013513513513513514 0.0013513513513513514
0.0013513513513513514 0.0013513513513513514 0.0013513513513513514 0.0013513513513513514 0.0013513513513513514 0.0013513513513513514 0.0013513513513513514 0.0013513513513513514
0.0013513513513513514 0.0013513513513513514 0.0013513513513513514 0.0013513513513513514 0.0013513513513513514 0.0013513513513513514 0.0013513513513513514 0.0013513513513513514
0.0013513513513513514 0.0013513513513513514 0.0013513513513513514 0.0013513513513513514 0.0013513513513513514 0.0013513513513513514 0.0013513513513513514 0.0013513513513513514
0.0013513513513513514 0.0013513513513513514 0.0013513513513513514 0.0013513513513513514 0.0013513513513513514 0.0013513513513513514 0.0013513513513513514 0.0013513513513513514
0.0013513513513513514 0.0013513513513513514 0.0013513513513513514 0.0013513513513513514 0.0013513513513513514 0.0013513513513513514 0.0013513513513513514 0.0013513513513513514
0.0013513513513513514 0.0013513513513513514 0.0013513513513513514 0.0013513513513513514 0.0013513513513513514 0.0013513513513513514 0.0013513513513513514 0.0013513513513513514
0.0013513513513513514 0.0013513513513513514 0.0013513513513513514 0.0013513513513513514 0.0013513513513513514 0.0013513513513513514 0.0013513513513513514 0.0013513513513513514
0.0013513513513513514 0.0013513513513513514 0.0013513513513513514 0.0013513513513513514 0.0013513513513513514 0.0013513513513513514 0.0013513513513513514 0.0013513513513513514
0.0013513513513513514 0.0013513513513513514 0.0013513513513513514 0.0013513513513513514 0.0013513513513513514 0.0013513513513513514 0.0013513513513513514 0.0013513513513513514
0.0013513513513513514 0.0013513513513513514 0.0013513513513513514 0.0013513513513513514 0.0013513513513513514 0.0013513513513513514 0.0013513513513513514 0.0013513513513513514
0.0013513513513513514 0.0013513513513513514 0.0013513513513513514 0.0013513513513513514 0.0013513513513513514 0.0013513513513513514 0.0013513513513513514 0.0013513513513513514
0.0013513513513513514 0.0013513513513513514 0.0013513513513513514 0.0013513513513513514 0.0013513513513513514 0.0013513513513513514 0.0013513513513513514 0.0013513513513513514
0.0013513513513513514 0.0013513513513513514 0.0013513513513513514 0.0013513513513513514 0.0013513513513513514 0.0013513513513513514 0.0013513513513513514 0.0013513513513513514
0.0013513513513513514 0.0013513513513513514 0.0013513513513513514 0.0013513513513513514 0.0013513513513513514 0.0013513513513513514 0.0013513513513513514 0.0013513513513513514
00000000: 4062 0177 fa23 563f 4062 0177 fa23 563f
00000010: 4062 0177 fa23 563f 4062 0177 fa23 563f
00000020: 4062 0177 fa23 563f 4062 0177 fa23 563f
00000030: 4062 0177 fa23 563f 4062 0177 fa23 563f
00000040: 4062 0177 fa23 563f 4062 0177 fa23 563f
00000050: 4062 0177 fa23 563f 4062 0177 fa23 563f
00000060: 4062 0177 fa23 563f 4062 0177 fa23 563f
00000070: 4062 0177 fa23 563f 4062 0177 fa23 563f
00000080: 4062 0177 fa23 563f 4062 0177 fa23 563f
00000090: 4062 0177 fa23 563f 4062 0177 fa23 563f
000000a0: 4062 0177 fa23 563f 4062 0177 fa23 563f
000000b0: 4062 0177 fa23 563f 4062 0177 fa23 563f
000000c0: 4062 0177 fa23 563f 4062 0177 fa23 563f
000000d0: 4062 0177 fa23 563f 4062 0177 fa23 563f
000000e0: 4062 0177 fa23 563f 4062 0177 fa23 563f
000000f0: 4062 0177 fa23 563f 4062 0177 fa23 563f
00000100: 4062 0177 fa23 563f 4062 0177 fa23 563f
00000110: 4062 0177 fa23 563f 4062 0177 fa23 563f
00000120: 4062 0177 fa23 563f 4062 0177 fa23 563f
00000130: 4062 0177 fa23 563f 4062 0177 fa23 563f
00000140: 4062 0177 fa23 563f 4062 0177 fa23 563f
00000150: 4062 0177 fa23 563f 4062 0177 fa23 563f
00000160: 4062 0177 fa23 563f 4062 0177 fa23 563f
00000170: 4062 0177 fa23 563f 4062 0177 fa23 563f
00000180: 4062 0177 fa23 563f 4062 0177 fa23 563f
00000190: 4062 0177 fa23 563f 4062 0177 fa23 563f
000001a0: 4062 0177 fa23 563f 4062 0177 fa23 563f
000001b0: 4062 0177 fa23 563f 4062 0177 fa23 563f
000001c0: 4062 0177 fa23 563f 4062 0177 fa23 563f
000001d0: 4062 0177 fa23 563f 4062 0177 fa23 563f
000001e0: 4062 0177 fa23 563f 4062 0177 fa23 563f
000001f0: 4062 0177 fa23 563f 4062 0177 fa23 563f
00000200: 4062 0177 fa23 563f 4062 0177 fa23 563f
00000210: 4062 0177 fa23 563f 4062 0177 fa23 563f
00000220: 4062 0177 fa23 563f 4062 0177 fa23 563f
00000230: 4062 0177 fa23 563f 4062 0177 fa23 563f
00000240: 4062 0177 fa23 563f 4062 0177 fa23 563f
00000250: 4062 0177 fa23 563f 4062 0177 fa23 563f
00000260: 4062 0177 fa23 563f 4062 0177 fa23 563f
00000270: 4062 0177 fa23 563f 4062 0177 fa23 563f
00000280: 4062 0177 fa23 563f 4062 0177 fa23 563f
00000290: 4062 0177 fa23 563f 4062 0177 fa23 563f
000002a0: 4062 0177 fa23 563f 4062 0177 fa23 563f
000002b0: 4062 0177 fa23 563f 4062 0177 fa23 563f
000002c0: 4062 0177 fa23 563f 4062 0177 fa23 563f
000002d0: 4062 0177 fa23 563f 4062 0177 fa23 563f
000002e0: 4062 0177 fa23 563f 4062 0177 fa23 563f
000002f0: 4062 0177 fa23 563f 4062 0177 fa23 563f
00000300: 4062 0177 fa23 563f 4062 0177 fa23 563f
00000310: 4062 0177 fa23 563f 4062 0177 fa23 563f
00000320: 4062 0177 fa23 563f 4062 0177 fa23 563f
00000330: 4062 0177 fa23 563f 4062 0177 fa23 563f
00000340: 4062 0177 fa23 563f 4062 0177 fa23 563f
00000350: 4062 0177 fa23 563f 4062 0177 fa23 563f
00000360: 4062 0177 fa23 563f 4062 0177 fa23 563f
00000370: 4062 0177 fa23 563f 4062 0177 fa23 563f
00000380: 4062 0177 fa23 563f 4062 0177 fa23 563f
00000390: 4062 0177 fa23 563f 4062 0177 fa23 563f
000003a0: 4062 0177 fa23 563f 4062 0177 fa23 563f
000003b0: 4062 0177 fa23 563f 4062 0177 fa23 563f
000003c0: 4062 0177 fa23 563f 4062 0177 fa23 563f
000003d0: 4062 0177 fa23 563f 4062 0177 fa23 563f
000003e0: 4062 0177 fa23 563f 4062 0177 fa23 563f
000003f0: 4062 0177 fa23 563f 4062 0177 fa23 563f
00000400: 4062 0177 fa23 563f 4062 0177 fa23 563f
00000410: 4062 0177 fa23 563f 4062 0177 fa23 563f
00000420: 4062 0177 fa23 563f 4062 0177 fa23 563f
00000430: 4062 0177 fa23 563f 4062 0177 fa23 563f
00000440: 4062 0177 fa23 563f 4062 0177 fa23 563f
00000450: 4062 0177 fa23 563f 4062 0177 fa23 563f
00000460: 4062 0177 fa23 563f 4062 0177 fa23 563f
00000470: 4062 0177 fa23 563f 4062 0177 fa23 563f
00000480: 4062 0177 fa23 563f 4062 0177 fa23 563f
00000490: 4062 0177 fa23 563f 4062 0177 fa23 563f
000004a0: 4062 0177 fa23 563f 4062 0177 fa23 563f
000004b0: 4062 0177 fa23 563f 4062 0177 fa23 563f
000004c0: 4062 0177 fa23 563f 4062 0177 fa23 563f
000004d0: 4062 0177 fa23 563f 4062 0177 fa23 563f
000004e0: 4062 0177 fa23 563f 4062 0177 fa23 563f
000004f0: 4062 0177 fa23 563f 4062 0177 fa23 563f
00000500: 4062 0177 fa23 563f 4062 0177 fa23 563f
00000510: 4062 0177 fa23 563f 4062 0177 fa23 563f
00000520: 4062 0177 fa23 563f 4062 0177 fa23 563f
00000530: 4062 0177 fa23 563f 4062 0177 fa23 563f
00000540: 4062 0177 fa23 563f 4062 0177 fa23 563f
00000550: 4062 0177 fa23 563f 4062 0177 fa23 563f
00000560: 4062 0177 fa23 563f 4062 0177 fa23 563f
00000570: 4062 0177 fa23 563f 4062 0177 fa23 563f
00000580: 4062 0177 fa23 563f 4062 0177 fa23 563f
00000590: 4062 0177 fa23 563f 4062 0177 fa23 563f
000005a0: 4062 0177 fa23 563f 4062 0177 fa23 563f
000005b0: 4062 0177 fa23 563f 4062 0177 fa23 563f
000005c0: 4062 0177 fa23 563f 4062 0177 fa23 563f
000005d0: 4062 0177 fa23 563f 4062 0177 fa23 563f
000005e0: 4062 0177 fa23 563f 4062 0177 fa23 563f
000005f0: 4062 0177 fa23 563f 4062 0177 fa23 563f
00000600: 4062 0177 fa23 563f 4062 0177 fa23 563f
00000610: 4062 0177 fa23 563f 4062 0177 fa23 563f
00000620: 4062 0177 fa23 563f 4062 0177 fa23 563f
00000630: 4062 0177 fa23 563f 4062 0177 fa23 563f
00000640: 4062 0177 fa23 563f 4062 0177 fa23 563f
00000650: 4062 0177 fa23 563f 4062 0177 fa23 563f
00000660: 4062 0177 fa23 563f 4062 0177 fa23 563f
00000670: 4062 0177 fa23 563f 4062 0177 fa23 563f
00000680: 4062 0177 fa23 563f 4062 0177 fa23 563f
00000690: 4062 0177 fa23 563f 4062 0177 fa23 563f
000006a0: 4062 0177 fa23 563f 4062 0177 fa23 563f
000006b0: 4062 0177 fa23 563f 4062 0177 fa23 563f
000006c0: 4062 0177 fa23 563f 4062 0177 fa23 563f
000006d0: 4062 0177 fa23 563f 4062 0177 fa23 563f
000006e0: 4062 0177 fa23 563f 4062 0177 fa23 563f
000006f0: 4062 0177 fa23 563f 4062 0177 fa23 563f
00000700: 4062 0177 fa23 563f 4062 0177 fa23 563f
00000710: 4062 0177 fa23 563f 4062 0177 fa23 563f
00000720: 4062 0177 fa23 563f 4062 0177 fa23 563f
00000730: 4062 0177 fa23 563f 4062 0177 fa23 563f
00000740: 4062 0177 fa23 563f 4062 0177 fa23 563f
00000750: 4062 0177 fa23 563f 4062 0177 fa23 563f
00000760: 4062 0177 fa23 563f 4062 0177 fa23 563f
00000770: 4062 0177 fa23 563f 4062 0177 fa23 563f
00000780: 4062 0177 fa23 563f 4062 0177 fa23 563f
00000790: 4062 0177 fa23 563f 4062 0177 fa23 563f
000007a0: 4062 0177 fa23 563f 4062 0177 fa23 563f
000007b0: 4062 0177 fa23 563f 4062 0177 fa23 563f
000007c0: 4062 0177 fa23 563f 4062 0177 fa23 563f
000007d0: 4062 0177 fa23 563f 4062 0177 fa23 563f
000007e0: 4062 0177 fa23 563f 4062 0177 fa23 563f
000007f0: 4062 0177 fa23 563f 4062 0177 fa23 563f
