OASIS3_VNN_NeurIPS/test24.pth (torch, 10139 bytes, 5 tensors)

GFL.0.weight f8 [5, 1, 6, 1]
1.1634276624714783 0.053506116521567955 -0.48843338239580175 0.09006899519660132 -0.2999172860390719 -0.23316756343570513 0.6923184928683906 -0.11707719872164511
-0.43209722284863916 0.15331069126279934 -0.49224760998155553 0.2301179452578413 1.2985228758170022 -0.07202049837849475 -0.6368464443340827 -0.11615907454222875
-0.21248987978452974 0.002022255578247243 -1.1505266039851065 -0.3876856053637877 0.34779803645270185 -0.20099936019927017 0.1247107576830362 -0.28210680091701407
0.2872605370057183 -0.1523959643293708 0.2833598251885613 -0.11013544296805686 -0.3780303686709085 -0.3962977241274216
00000000: 453a 1953 669d f23f f933 3159 2765 ab3f
00000010: 4f89 ea16 7e42 dfbf 8bc3 c0fc c20e b73f
00000020: bbbe c245 d831 d3bf c1e0 b849 6fd8 cdbf
00000030: d724 a91c 7927 e63f e7e3 9d73 c5f8 bdbf
00000040: f6f2 341c 7ba7 dbbf 82e9 8c4a af9f c33f
00000050: 9bea 991e fc80 dfbf 7275 8d3c 8174 cd3f
00000060: ccde 4bec bfc6 f43f a660 2d75 ef6f b2bf
00000070: 00a4 5fcb 0b61 e4bf 31e1 4ae2 99bc bdbf
00000080: 4de8 334e de32 cbbf 62c4 5332 fa90 603f
00000090: 20b4 9495 8e68 f2bf 2eb7 0a49 d7cf d8bf
000000a0: 095a 0bb2 5242 d63f 2a51 49d7 58ba c9bf
000000b0: e140 b551 0bed bf3f 8dbc faae 090e d2bf
000000c0: c6bd f704 7a62 d23f ce23 6b01 b681 c3bf
000000d0: 76d9 8b3f 9122 d23f 96a3 ad1d d631 bcbf
000000e0: 2b87 9549 a631 d8bf fed0 2621 f15c d9bf

GFL.0.bias f8 [5, 1]
2.018107804301158 2.136818462666076 1.860567997778264 1.373017088827782 1.9180823186660718
00000000: ed34 5ab4 1525 0040 4c1e 3547 3418 0140
00000010: cc11 e7f2 e2c4 fd3f cad4 55c4 e0f7 f53f
00000020: 5a4e db15 77b0 fe3f

GFL.3.weight f8 [5, 1, 10, 5]
1.3825737865644447 1.2175523213820356 1.1255832724893278 0.3731796033801288 0.8067798173764956 0.9646846514590175 1.1006609309176352 0.6887686026644716
0.40063550056774366 0.775567195215435 0.9778812811683681 1.009491605164047 0.6370313889579273 0.7108594276695357 0.7310371984856402 1.0043371605283034
0.9744293284379135 0.680956059379513 0.6151427904113942 0.5430177165688217 0.7217771736742125 0.8737005826791037 0.6997603224881004 0.6901765163982099
0.6646974000780235 0.7603349243096537 0.8427191339375764 0.7126335114980868 0.6788535857054018 0.7802597190869186 0.8706813649555002 0.84746384421316
0.7356450287563061 0.45732419063699353 0.7898350278121065 0.8794605926668396 0.8409086664236197 0.5577741571858912 0.6143288907955644 0.6914624669232916
0.7392593515737365 0.801819154172246 0.7623008262396689 0.6520246350760687 0.7943791245505183 0.7796052798256672 0.998775751593416 0.75574840484362
0.518496311521482 0.6556247888508908 1.3272659922940935 1.1031185415778655 1.2666066131852765 0.21241300732734777 0.7422569409525416 1.074902809940392
0.8003490040266429 0.8421371476321315 0.5514931622638147 0.5770589755247165 0.757846077690792 1.0043651201043204 0.6884499640046984 0.605178898125462
0.6066368890532764 0.8081179251723836 1.012167366954751 0.6699861511154982 0.42041316049822675 0.4896351465186855 0.9181777399831569 0.895491789999568
0.6144826027896653 0.466340068862516 0.7523195830841332 0.7899454770071082 0.9981844476541342 0.7318944637566103 0.5649089258580067 0.6064845786863946
0.7207033117135887 0.7452022023431472 0.5291880623612684 0.6017899458650297 0.67835374875605 0.9200633339560295 0.9206408773058373 0.4922513476527763
0.4463855817159339 0.6163465583136274 0.8986252651767349 1.009100794517815 0.7320846289275719 0.5219161411596753 0.5841579663182643 0.7228772015334237
0.7546781527252053 0.65797922947206 0.5467139417703962 0.7598468087444566 1.3341200198398322 1.1721483637924879 1.187950650075915 0.374577497965775
0.6989289045373005 0.9659877767386525 0.97930450228171 0.6941045730900514 0.5949332483372466 0.7037931614544389 1.0092573788063046 0.958033334316194
0.726158667979017 0.42367120485361337 0.5600768069893753 0.8833016978849085 0.9290269463329723 0.5515856299157059 0.4514924557135117 0.6962109489221984
1.0003825989049522 0.9078967556975063 0.6512565936239718 0.5953764209360031 0.65809768762604 0.9180350550348418 0.9285365181395866 0.7210907819321017
0.630177681502571 0.5655566780006055 0.9793179364200968 1.0137331627251307 0.5777278684973438 0.5274209576399902 0.5426508543681248 0.8795675083122689
0.833247845380403 0.4863218695486648 0.46197593451044966 0.5254327864454063 0.7886017945350499 0.8385381653672886 0.7599005059487799 0.6654452153225036
0.5208653278817965 0.8563246473181068 1.0542400894443353 0.5968589466919796 0.4882947682626913 0.7414059922925054 1.551207781279977 1.1660376259769538
1.2150747104037158 0.32949976305485207 0.6967125502135795 1.0852315084198514 1.0203361688576593 0.7805941341512607 0.38032961765203127 0.5657242724086436
0.7913850095440392 0.8807754636587352 0.49780352341952677 0.526508162381636 0.6321102349608823 0.787095619188726 0.9133315644127535 0.5146112905896225
0.4725647555840774 0.6627783426507744 0.8913962357696331 1.0429548522356884 0.6453155739544534 0.6624656778976385 0.5520354474389014 0.8325281641313176
1.0020039521481698 0.5198991064292747 0.46442834591448345 0.8088503072115456 0.7479186938034037 0.9272489091958636 0.5223290414563928 0.6658410956169318
0.6045368593991091 0.8410187518254921 0.8822026575018632 0.6215308637917453 0.5905288306381986 0.6596292076108683 0.7450474481415393 0.9024808749015448
0.6353751876709501 0.6869090008003065 0.7778764692611326 0.9959330458950701 0.8362642082119146 0.7442472910915899 0.5833433547758887 0.7765183357276012
1.3025238671414248 1.168428426775667 1.2399073617145941 0.44169708469112257 0.7954630849087584 0.9753829616931432 1.0570641201796545 0.5926343650290856
0.6491548904416122 0.8259368037088207 0.8487257277578842 0.8791722625114096 0.6745306002150436 0.5059914592866538 0.747172842152082 0.9870962274804777
0.8815020313201269 0.6940091827036526 0.49614141848465826 0.5608943588072497 0.7912101543340283 0.9984449462281567 0.6456160110038234 0.6254932548558345
0.609841518372153 0.8156080169307984 0.9096080317347532 0.5030749552576024 0.6160035984173414 0.6692798969949648 0.7563132922463612 1.0304751041075473
0.7680071821950263 0.47829867091458883 0.579790873519972 0.8423208005648435 0.9596364724993514 0.7315148717132857 0.6299770651576264 0.7001563270151417
0.9009791728843666 0.8865450727845439 0.6560320644964074 0.599096288000836 0.5306215269696615 0.771235209409454 1.0343263911818363 0.620131578574543
0.7260512021885387 0.5646124006481631
00000000: 699e d9b0 051f f63f 5a13 9824 187b f33f
00000010: d842 049b 6302 f23f 6652 03b4 2ce2 d73f
00000020: 8d8e 56e8 23d1 e93f 4807 9f58 b2de ee3f
00000030: 256b e4a2 4e9c f13f a793 de73 640a e63f
00000040: ea85 2315 03a4 d93f ac9f 694b 72d1 e83f
00000050: 9ca3 3faf cd4a ef3f 0e42 5cab e026 f03f
00000060: 2e31 c3a6 8f62 e43f 1a9b 3c45 5cbf e63f
00000070: 19f8 741f a864 e73f 6906 aad7 c311 f03f
00000080: 3cee 3c6a 862e ef3f 9089 a15c 64ca e53f
00000090: e4fc e5ee 3faf e33f 56f9 b9b0 6660 e13f
000000a0: 02c3 7d71 cc18 e73f e94a a3ec 5af5 eb3f
000000b0: 66fe 83c2 6f64 e63f 7ab8 cc0f ed15 e63f
000000c0: 6848 627b 3345 e53f c554 3de8 a954 e83f
000000d0: f035 ff1d 8ef7 ea3f a05f 3dcb e4cd e63f
000000e0: a910 ac27 2bb9 e53f ada9 fb3a e3f7 e83f
000000f0: 730e 772a 9fdc eb3f c703 ee7e 6c1e eb3f
00000100: 6425 7f71 678a e73f d727 9dae cc44 dd3f
00000110: 2006 b61b 5446 e93f cdfe 738a 8a24 ec3f
00000120: 25cc a64a b9e8 ea3f 105b 7530 49d9 e13f
00000130: 948e de0f 95a8 e33f c81a 3be5 7520 e63f
00000140: 04af 483a 03a8 e73f db3c 8fa4 80a8 e93f
00000150: 9438 cdb3 c464 e83f 4dd1 7ac4 62dd e43f
00000160: 0e3a 12c5 8d6b e93f 447c 94c5 86f2 e83f
00000170: 9735 a490 f8f5 ef3f 2cd7 5947 172f e83f
00000180: c69a a293 8597 e03f a8f7 51d6 e0fa e43f
00000190: 1bf0 df43 7b3c f53f a802 bba0 5fa6 f13f
000001a0: 0973 c84b 0544 f43f cfa4 db73 5930 cb3f
000001b0: 6dd8 d3a0 91c0 e73f e828 f149 cd32 f13f
000001c0: 81c7 b583 759c e93f 9074 7a9a c9f2 ea3f
000001d0: a980 fcfc d4a5 e13f d3bd 7762 4477 e23f
000001e0: b6ae e26a 4640 e83f 6d75 0129 e111 f03f
000001f0: 4ea4 0a38 c807 e63f 9cb3 f522 a05d e33f
00000200: f9fd e0c3 9169 e33f 0aa8 7d1f 1adc e93f
00000210: a962 b268 d631 f03f 1d0c facb 8670 e53f
00000220: ea76 c999 0ce8 da3f 6946 51a7 2e56 df3f
00000230: 3b92 a448 b661 ed3f 024f fc65 dea7 ec3f
00000240: 8a29 5e6b d7a9 e33f 9a0c 2504 84d8 dd3f
00000250: 1a93 af84 0013 e83f facb abbc 3b47 e93f
00000260: 4e9c c182 20f1 ef3f bea8 3ef0 ad6b e73f
00000270: 84ea 38e2 bb13 e23f 9e90 df58 5268 e33f
00000280: 61b8 3d64 0010 e73f 5d12 ff49 b2d8 e73f
00000290: e6ce a8cd 1bef e03f 45a9 11fd dc41 e33f
000002a0: ecd6 c0eb 12b5 e53f 3de0 32a9 2871 ed3f
000002b0: 4f75 6cdb e375 ed3f 8f28 e5cb 0b81 df3f
000002c0: 480e b8d4 9491 dc3f a8b1 de6a 1cb9 e33f
000002d0: 9163 a9c5 89c1 ec3f 6725 eddf 4625 f03f
000002e0: 31be 64be 3c6d e73f 6221 b17a 89b3 e03f
000002f0: 341d 210c 6cb1 e23f 9485 735e cf21 e73f
00000300: 02bc 1ecc 5226 e83f eff3 0075 2a0e e53f
00000310: a779 853c ae7e e13f 87e0 3041 aa50 e83f
00000320: 4b6a e23b 8e58 f53f 41c7 88a4 1ec1 f23f
00000330: 6d68 758a d801 f33f 1427 e5e5 13f9 d73f
00000340: 1ff0 6626 a05d e63f 53b4 ad32 5fe9 ee3f
00000350: 1c04 4465 7656 ef3f 41a0 2dcb 1a36 e63f
00000360: 2d2b 9d73 b109 e33f 650c 733c 7985 e63f
00000370: 2584 b310 eb25 f03f 5ab5 eb85 35a8 ee3f
00000380: 59a8 551a b13c e73f 999a 46d4 6d1d db3f
00000390: 208f 2832 26ec e13f b157 1dec 0144 ec3f
000003a0: a84a f3b7 96ba ed3f fbce 2de8 96a6 e13f
000003b0: 6689 eb9c 40e5 dc3f 709d 172f 5c47 e63f
000003c0: 4f8c 1c2f 9101 f03f 77b0 3b7f 7d0d ed3f
000003d0: 146b 5d11 18d7 e43f 6659 17da 520d e33f
000003e0: 86aa bde1 220f e53f 3d99 3e0d 8b60 ed3f
000003f0: b8a3 5137 92b6 ed3f e20d bbf9 2c13 e73f
00000400: ec1f 9762 6a2a e43f 0d81 8151 0a19 e23f
00000410: ceef a991 9256 ef3f bd66 cc43 4038 f03f
00000420: 59e2 a527 bf7c e23f 843d 89ea a1e0 e03f
00000430: b00a 1553 655d e13f b469 5ac2 6a25 ec3f
00000440: a7e1 ab62 f7a9 ea3f 47a1 42c3 e51f df3f
00000450: 17bb 9082 0391 dd3f faee 406b 58d0 e03f
00000460: d609 a3d4 393c e93f 3969 96fd 4dd5 ea3f
00000470: 9171 a8dd 1a51 e83f e5df a2c3 534b e53f
00000480: 9cec 9bc3 edaa e03f 1aae 5ff2 0267 eb3f
00000490: 83ba 24db 2ade f03f f4be 0bef 7719 e33f
000004a0: 0dc1 1fb3 3840 df3f 388d 3e0f 99b9 e73f
000004b0: 1e5f 1e40 bfd1 f83f bb9f d711 17a8 f23f
000004c0: 1017 f62d f270 f33f ca0f 972c 8616 d53f
000004d0: a129 3c1e 784b e63f 3c08 d4b6 1b5d f13f
000004e0: 9ab6 c204 4c53 f03f 9921 b48c a0fa e83f
000004f0: 8d00 6109 5257 d83f 798d 11ca 691a e23f
00000500: 5729 d1a7 0653 e93f 7712 7106 502f ec3f
00000510: 73e8 3a4f 03dc df3f a932 50a5 27d9 e03f
00000520: b4f6 533e 3f3a e43f c0b1 e726 e32f e93f
00000530: 5ad5 f11d 033a ed3f 5483 e718 b277 e03f
00000540: 4274 9e3e 803e de3f 3dd4 45ed 7a35 e53f
00000550: fd0e 0d66 5186 ec3f a1e8 586d f1af f03f
00000560: ac7b b7d8 6ca6 e43f d85e a938 eb32 e53f
00000570: 2b73 1f3e 46aa e13f 7a2c be1a 12a4 ea3f
00000580: b606 cf4b 3508 f03f dfaa 6a73 03a3 e03f
00000590: ee6f 42ab 31b9 dd3f 18a9 1a0a 1ae2 e93f
000005a0: 2a7c 3e2f f3ee e73f dcee 87e7 05ac ed3f
000005b0: aecc d964 ebb6 e03f b23d 40fc 914e e53f
000005c0: 2b10 0baf 5d58 e33f 2c39 4d28 a0e9 ea3f
000005d0: f945 4d11 013b ec3f ed15 aeb1 94e3 e33f
000005e0: 3cf5 ddb7 9ce5 e23f 349a 45b6 ae1b e53f
000005f0: af8e f7be 6dd7 e73f 99f6 5e92 1fe1 ec3f
00000600: 2c92 7758 fe54 e43f c87d b895 28fb e53f
00000610: 94be 7931 5de4 e83f f2ff a3fa aede ef3f
00000620: 7bbc 2228 adc2 ea3f c3ff ebb1 dfd0 e73f
00000630: 673e e3ae bfaa e23f 7d38 16fb 3cd9 e83f
00000640: 221c 3a44 23d7 f43f d57d 8b01 e2b1 f23f
00000650: 2524 0a1a a9d6 f33f 9829 5fd9 c344 dc3f
00000660: eb77 dbff 6e74 e93f 8586 3154 5636 ef3f
00000670: 6525 1f11 bce9 f03f 0924 0958 dcf6 e23f
00000680: a886 0f7a e0c5 e43f bfbf 0f05 136e ea3f
00000690: 21ce 7fdb c228 eb3f b82d 61de 2d22 ec3f
000006a0: 4765 8232 c195 e53f b720 3600 1531 e03f
000006b0: fe14 3005 d7e8 e73f 7b13 e1d3 4a96 ef3f
000006c0: 9614 7cbf 4335 ec3f 81bf dabe 5235 e63f
000006d0: 414a a5ef c7c0 df3f 1ed1 f2b9 d8f2 e13f
000006e0: a516 24f5 9751 e93f 5301 ddd0 42f3 ef3f
000006f0: fa21 a1e8 e2a8 e43f 4e2e 2f6e 0a04 e43f
00000700: 1bd8 245c d283 e33f 9a57 e2fb 7519 ea3f
00000710: aa59 8f4d 821b ed3f fe93 08a6 3019 e03f
00000720: 2f77 ad2d 4db6 e33f ffd5 aeac bd6a e53f
00000730: 834d f7ee b733 e83f ebbe 7776 d37c f03f
00000740: 32dd 53cc 8393 e83f 6719 5307 729c de3f
00000750: a133 0997 a58d e23f 4e54 65c0 4af4 ea3f
00000760: 60df 2d8c 57b5 ee3f 737a 51e0 9168 e73f
00000770: 4aa0 82a9 c528 e43f afc2 d33d ae67 e63f
00000780: a64b 3d46 d2d4 ec3f 0a44 c1c5 935e ec3f
00000790: 3b76 c4f4 36fe e43f 79cb 83fa cb2b e33f
000007a0: c66c 1cff d9fa e03f 7ffe 3d76 f5ad e83f
000007b0: 4440 78d4 998c f03f 7b39 262e 1ed8 e33f
000007c0: 57e1 13bb cf3b e73f a965 7606 4e11 e23f

GFL.3.bias f8 [5, 1]
1.426236635923906 1.3137029477314937 1.5089561114085268 1.5218683658689103 1.5387461792581594
00000000: 5d67 ba81 ddd1 f63f 25a6 d261 ed04 f53f
00000010: 5295 d929 af24 f83f 3a95 c3a4 9259 f83f
00000020: d523 4c50 b49e f83f

MLP.0.weight f8 [1, 740]
0.0013513513513513514 0.0013513513513513514 0.0013513513513513514 0.0013513513513513514 0.0013513513513513514 0.0013513513513513514 0.0013513513513513514 0.0013513513513513514
0.0013513513513513514 0.0013513513513513514 0.0013513513513513514 0.0013513513513513514 0.0013513513513513514 0.0013513513513513514 0.0013513513513513514 0.0013513513513513514
0.0013513513513513514 0.0013513513513513514 0.0013513513513513514 0.0013513513513513514 0.0013513513513513514 0.0013513513513513514 0.0013513513513513514 0.0013513513513513514
0.0013513513513513514 0.0013513513513513514 0.0013513513513513514 0.0013513513513513514 0.0013513513513513514 0.0013513513513513514 0.0013513513513513514 0.0013513513513513514
0.0013513513513513514 0.0013513513513513514 0.0013513513513513514 0.0013513513513513514 0.0013513513513513514 0.0013513513513513514 0.0013513513513513514 0.0013513513513513514
0.0013513513513513514 0.0013513513513513514 0.0013513513513513514 0.0013513513513513514 0.0013513513513513514 0.0013513513513513514 0.0013513513513513514 0.0013513513513513514
0.0013513513513513514 0.0013513513513513514 0.0013513513513513514 0.0013513513513513514 0.0013513513513513514 0.0013513513513513514 0.0013513513513513514 0.0013513513513513514
0.0013513513513513514 0.0013513513513513514 0.0013513513513513514 0.0013513513513513514 0.0013513513513513514 0.0013513513513513514 0.0013513513513513514 0.0013513513513513514
0.0013513513513513514 0.0013513513513513514 0.0013513513513513514 0.0013513513513513514 0.0013513513513513514 0.0013513513513513514 0.0013513513513513514 0.0013513513513513514
0.0013513513513513514 0.0013513513513513514 0.0013513513513513514 0.0013513513513513514 0.0013513513513513514 0.0013513513513513514 0.0013513513513513514 0.0013513513513513514
0.0013513513513513514 0.0013513513513513514 0.0013513513513513514 0.0013513513513513514 0.0013513513513513514 0.0013513513513513514 0.0013513513513513514 0.0013513513513513514
0.0013513513513513514 0.0013513513513513514 0.0013513513513513514 0.0013513513513513514 0.0013513513513513514 0.0013513513513513514 0.0013513513513513514 0.0013513513513513514
0.0013513513513513514 0.0013513513513513514 0.0013513513513513514 0.0013513513513513514 0.0013513513513513514 0.0013513513513513514 0.0013513513513513514 0.0013513513513513514
0.0013513513513513514 0.0013513513513513514 0.0013513513513513514 0.0013513513513513514 0.0013513513513513514 0.0013513513513513514 0.0013513513513513514 0.0013513513513513514
0.0013513513513513514 0.0013513513513513514 0.0013513513513513514 0.0013513513513513514 0.0013513513513513514 0.0013513513513513514 0.0013513513513513514 0.0013513513513513514
0.0013513513513513514 0.0013513513513513514 0.0013513513513513514 0.0013513513513513514 0.0013513513513513514 0.0013513513513513514 0.0013513513513513514 0.0013513513513513514
0.0013513513513513514 0.0013513513513513514 0.0013513513513513514 0.0013513513513513514 0.0013513513513513514 0.0013513513513513514 0.0013513513513513514 0.0013513513513513514
0.0013513513513513514 0.0013513513513513514 0.0013513513513513514 0.0013513513513513514 0.0013513513513513514 0.0013513513513513514 0.0013513513513513514 0.0013513513513513514
0.0013513513513513514 0.0013513513513513514 0.0013513513513513514 0.0013513513513513514 0.0013513513513513514 0.0013513513513513514 0.0013513513513513514 0.0013513513513513514
0.0013513513513513514 0.0013513513513513514 0.0013513513513513514 0.0013513513513513514 0.0013513513513513514 0.0013513513513513514 0.0013513513513513514 0.0013513513513513514
0.0013513513513513514 0.0013513513513513514 0.0013513513513513514 0.0013513513513513514 0.0013513513513513514 0.0013513513513513514 0.0013513513513513514 0.0013513513513513514
0.0013513513513513514 0.0013513513513513514 0.0013513513513513514 0.0013513513513513514 0.0013513513513513514 0.0013513513513513514 0.0013513513513513514 0.0013513513513513514
0.0013513513513513514 0.0013513513513513514 0.0013513513513513514 0.0013513513513513514 0.0013513513513513514 0.0013513513513513514 0.0013513513513513514 0.0013513513513513514
0.0013513513513513514 0.0013513513513513514 0.0013513513513513514 0.0013513513513513514 0.0013513513513513514 0.0013513513513513514 0.0013513513513513514 0.0013513513513513514
0.0013513513513513514 0.0013513513513513514 0.0013513513513513514 0.0013513513513513514 0.0013513513513513514 0.0013513513513513514 0.0013513513513513514 0.0013513513513513514
0.0013513513513513514 0.0013513513513513514 0.0013513513513513514 0.0013513513513513514 0.0013513513513513514 0.0013513513513513514 0.0013513513513513514 0.0013513513513513514
0.0013513513513513514 0.0013513513513513514 0.0013513513513513514 0.0013513513513513514 0.0013513513513513514 0.0013513513513513514 0.0013513513513513514 0.0013513513513513514
0.0013513513513513514 0.0013513513513513514 0.0013513513513513514 0.0013513513513513514 0.0013513513513513514 0.0013513513513513514 0.0013513513513513514 0.0013513513513513514
0.0013513513513513514 0.0013513513513513514 0.0013513513513513514 0.0013513513513513514 0.0013513513513513514 0.0013513513513513514 0.0013513513513513514 0.0013513513513513514
0.0013513513513513514 0.0013513513513513514 0.0013513513513513514 0.0013513513513513514 0.0013513513513513514 0.0013513513513513514 0.0013513513513513514 0.0013513513513513514
0.0013513513513513514 0.0013513513513513514 0.0013513513513513514 0.0013513513513513514 0.0013513513513513514 0.0013513513513513514 0.0013513513513513514 0.0013513513513513514
0.0013513513513513514 0.0013513513513513514 0.0013513513513513514 0.0013513513513513514 0.0013513513513513514 0.0013513513513513514 0.0013513513513513514 0.0013513513513513514
00000000: 4062 0177 fa23 563f 4062 0177 fa23 563f
00000010: 4062 0177 fa23 563f 4062 0177 fa23 563f
00000020: 4062 0177 fa23 563f 4062 0177 fa23 563f
00000030: 4062 0177 fa23 563f 4062 0177 fa23 563f
00000040: 4062 0177 fa23 563f 4062 0177 fa23 563f
00000050: 4062 0177 fa23 563f 4062 0177 fa23 563f
00000060: 4062 0177 fa23 563f 4062 0177 fa23 563f
00000070: 4062 0177 fa23 563f 4062 0177 fa23 563f
00000080: 4062 0177 fa23 563f 4062 0177 fa23 563f
00000090: 4062 0177 fa23 563f 4062 0177 fa23 563f
000000a0: 4062 0177 fa23 563f 4062 0177 fa23 563f
000000b0: 4062 0177 fa23 563f 4062 0177 fa23 563f
000000c0: 4062 0177 fa23 563f 4062 0177 fa23 563f
000000d0: 4062 0177 fa23 563f 4062 0177 fa23 563f
000000e0: 4062 0177 fa23 563f 4062 0177 fa23 563f
000000f0: 4062 0177 fa23 563f 4062 0177 fa23 563f
00000100: 4062 0177 fa23 563f 4062 0177 fa23 563f
00000110: 4062 0177 fa23 563f 4062 0177 fa23 563f
00000120: 4062 0177 fa23 563f 4062 0177 fa23 563f
00000130: 4062 0177 fa23 563f 4062 0177 fa23 563f
00000140: 4062 0177 fa23 563f 4062 0177 fa23 563f
00000150: 4062 0177 fa23 563f 4062 0177 fa23 563f
00000160: 4062 0177 fa23 563f 4062 0177 fa23 563f
00000170: 4062 0177 fa23 563f 4062 0177 fa23 563f
00000180: 4062 0177 fa23 563f 4062 0177 fa23 563f
00000190: 4062 0177 fa23 563f 4062 0177 fa23 563f
000001a0: 4062 0177 fa23 563f 4062 0177 fa23 563f
000001b0: 4062 0177 fa23 563f 4062 0177 fa23 563f
000001c0: 4062 0177 fa23 563f 4062 0177 fa23 563f
000001d0: 4062 0177 fa23 563f 4062 0177 fa23 563f
000001e0: 4062 0177 fa23 563f 4062 0177 fa23 563f
000001f0: 4062 0177 fa23 563f 4062 0177 fa23 563f
00000200: 4062 0177 fa23 563f 4062 0177 fa23 563f
00000210: 4062 0177 fa23 563f 4062 0177 fa23 563f
00000220: 4062 0177 fa23 563f 4062 0177 fa23 563f
00000230: 4062 0177 fa23 563f 4062 0177 fa23 563f
00000240: 4062 0177 fa23 563f 4062 0177 fa23 563f
00000250: 4062 0177 fa23 563f 4062 0177 fa23 563f
00000260: 4062 0177 fa23 563f 4062 0177 fa23 563f
00000270: 4062 0177 fa23 563f 4062 0177 fa23 563f
00000280: 4062 0177 fa23 563f 4062 0177 fa23 563f
00000290: 4062 0177 fa23 563f 4062 0177 fa23 563f
000002a0: 4062 0177 fa23 563f 4062 0177 fa23 563f
000002b0: 4062 0177 fa23 563f 4062 0177 fa23 563f
000002c0: 4062 0177 fa23 563f 4062 0177 fa23 563f
000002d0: 4062 0177 fa23 563f 4062 0177 fa23 563f
000002e0: 4062 0177 fa23 563f 4062 0177 fa23 563f
000002f0: 4062 0177 fa23 563f 4062 0177 fa23 563f
00000300: 4062 0177 fa23 563f 4062 0177 fa23 563f
00000310: 4062 0177 fa23 563f 4062 0177 fa23 563f
00000320: 4062 0177 fa23 563f 4062 0177 fa23 563f
00000330: 4062 0177 fa23 563f 4062 0177 fa23 563f
00000340: 4062 0177 fa23 563f 4062 0177 fa23 563f
00000350: 4062 0177 fa23 563f 4062 0177 fa23 563f
00000360: 4062 0177 fa23 563f 4062 0177 fa23 563f
00000370: 4062 0177 fa23 563f 4062 0177 fa23 563f
00000380: 4062 0177 fa23 563f 4062 0177 fa23 563f
00000390: 4062 0177 fa23 563f 4062 0177 fa23 563f
000003a0: 4062 0177 fa23 563f 4062 0177 fa23 563f
000003b0: 4062 0177 fa23 563f 4062 0177 fa23 563f
000003c0: 4062 0177 fa23 563f 4062 0177 fa23 563f
000003d0: 4062 0177 fa23 563f 4062 0177 fa23 563f
000003e0: 4062 0177 fa23 563f 4062 0177 fa23 563f
000003f0: 4062 0177 fa23 563f 4062 0177 fa23 563f
00000400: 4062 0177 fa23 563f 4062 0177 fa23 563f
00000410: 4062 0177 fa23 563f 4062 0177 fa23 563f
00000420: 4062 0177 fa23 563f 4062 0177 fa23 563f
00000430: 4062 0177 fa23 563f 4062 0177 fa23 563f
00000440: 4062 0177 fa23 563f 4062 0177 fa23 563f
00000450: 4062 0177 fa23 563f 4062 0177 fa23 563f
00000460: 4062 0177 fa23 563f 4062 0177 fa23 563f
00000470: 4062 0177 fa23 563f 4062 0177 fa23 563f
00000480: 4062 0177 fa23 563f 4062 0177 fa23 563f
00000490: 4062 0177 fa23 563f 4062 0177 fa23 563f
000004a0: 4062 0177 fa23 563f 4062 0177 fa23 563f
000004b0: 4062 0177 fa23 563f 4062 0177 fa23 563f
000004c0: 4062 0177 fa23 563f 4062 0177 fa23 563f
000004d0: 4062 0177 fa23 563f 4062 0177 fa23 563f
000004e0: 4062 0177 fa23 563f 4062 0177 fa23 563f
000004f0: 4062 0177 fa23 563f 4062 0177 fa23 563f
00000500: 4062 0177 fa23 563f 4062 0177 fa23 563f
00000510: 4062 0177 fa23 563f 4062 0177 fa23 563f
00000520: 4062 0177 fa23 563f 4062 0177 fa23 563f
00000530: 4062 0177 fa23 563f 4062 0177 fa23 563f
00000540: 4062 0177 fa23 563f 4062 0177 fa23 563f
00000550: 4062 0177 fa23 563f 4062 0177 fa23 563f
00000560: 4062 0177 fa23 563f 4062 0177 fa23 563f
00000570: 4062 0177 fa23 563f 4062 0177 fa23 563f
00000580: 4062 0177 fa23 563f 4062 0177 fa23 563f
00000590: 4062 0177 fa23 563f 4062 0177 fa23 563f
000005a0: 4062 0177 fa23 563f 4062 0177 fa23 563f
000005b0: 4062 0177 fa23 563f 4062 0177 fa23 563f
000005c0: 4062 0177 fa23 563f 4062 0177 fa23 563f
000005d0: 4062 0177 fa23 563f 4062 0177 fa23 563f
000005e0: 4062 0177 fa23 563f 4062 0177 fa23 563f
000005f0: 4062 0177 fa23 563f 4062 0177 fa23 563f
00000600: 4062 0177 fa23 563f 4062 0177 fa23 563f
00000610: 4062 0177 fa23 563f 4062 0177 fa23 563f
00000620: 4062 0177 fa23 563f 4062 0177 fa23 563f
00000630: 4062 0177 fa23 563f 4062 0177 fa23 563f
00000640: 4062 0177 fa23 563f 4062 0177 fa23 563f
00000650: 4062 0177 fa23 563f 4062 0177 fa23 563f
00000660: 4062 0177 fa23 563f 4062 0177 fa23 563f
00000670: 4062 0177 fa23 563f 4062 0177 fa23 563f
00000680: 4062 0177 fa23 563f 4062 0177 fa23 563f
00000690: 4062 0177 fa23 563f 4062 0177 fa23 563f
000006a0: 4062 0177 fa23 563f 4062 0177 fa23 563f
000006b0: 4062 0177 fa23 563f 4062 0177 fa23 563f
000006c0: 4062 0177 fa23 563f 4062 0177 fa23 563f
000006d0: 4062 0177 fa23 563f 4062 0177 fa23 563f
000006e0: 4062 0177 fa23 563f 4062 0177 fa23 563f
000006f0: 4062 0177 fa23 563f 4062 0177 fa23 563f
00000700: 4062 0177 fa23 563f 4062 0177 fa23 563f
00000710: 4062 0177 fa23 563f 4062 0177 fa23 563f
00000720: 4062 0177 fa23 563f 4062 0177 fa23 563f
00000730: 4062 0177 fa23 563f 4062 0177 fa23 563f
00000740: 4062 0177 fa23 563f 4062 0177 fa23 563f
00000750: 4062 0177 fa23 563f 4062 0177 fa23 563f
00000760: 4062 0177 fa23 563f 4062 0177 fa23 563f
00000770: 4062 0177 fa23 563f 4062 0177 fa23 563f
00000780: 4062 0177 fa23 563f 4062 0177 fa23 563f
00000790: 4062 0177 fa23 563f 4062 0177 fa23 563f
000007a0: 4062 0177 fa23 563f 4062 0177 fa23 563f
000007b0: 4062 0177 fa23 563f 4062 0177 fa23 563f
000007c0: 4062 0177 fa23 563f 4062 0177 fa23 563f
000007d0: 4062 0177 fa23 563f 4062 0177 fa23 563f
000007e0: 4062 0177 fa23 563f 4062 0177 fa23 563f
000007f0: 4062 0177 fa23 563f 4062 0177 fa23 563f
