OASIS3_VNN_NeurIPS/test9.pth (torch, 10139 bytes, 5 tensors)

GFL.0.weight f8 [5, 1, 6, 1]
0	0x3fd770c845ab43da	0.36625868610013657
1	0xbfd867a042db1393	-0.3813248303306917
2	0x3fcbc799df1f7ef5	0.2170288409679341
3	0xbfbbfddbd50909e3	-0.10934232665116599
4	0x3fce79252e4e6e8e	0.2380720592599243
5	0x3fd18665d54450ef	0.27382798983423035
6	0xbfe0f420ed32edc2	-0.5298008568565182
7	0xbfcfd32f6c5e38bc	-0.24863236228379104
8	0x3fbd75782cadedea	0.11507369128042169
9	0xbfa370d87795db8e	-0.0379703184107064
10	0xbfe466302e3d6c58	-0.6374741461871833
11	0xbfde838544320f36	-0.4767773786518207
12	0x3fe7609328c84ef4	0.7305389210254973
13	0xbf99f426eefa1467	-0.025345428787222703
14	0xbfc14cabb7de1c09	-0.1351523063460436
15	0x3fc42d98e370656c	0.1576415167371964
16	0xbfb105278ca619e7	-0.066484901273817
17	0xbf8deedaff16299b	-0.014615736875175858
18	0x3fd2b69ff8677eac	0.2923965383360876
19	0x3fcc0972634ac0a8	0.21903829429857535
20	0xbfd24bf03656e447	-0.2858849077852636
21	0x3fa688ccbc43f4be	0.044012449247000415
22	0xbfb8c4a4b6d4c8b4	-0.09675054038669623
23	0xbfd6c785e7b42255	-0.3559279215556093
24	0x3fc75d73ea51d0bc	0.18253945294748586
25	0xbfbf97bae00f35c5	-0.12340896578026335
26	0x3fcca153e371cb15	0.22367333036125872
27	0xbfcd3f306c2161e4	-0.22849087981991467
28	0x3fa727e88ab7845c	0.04522635167428099
29	0xbf6027f0739f417a	-0.001972169525267184

GFL.0.bias f8 [5, 1]
0	0x400288f0f9c0c74b	2.316865874477036
1	0x4001e6dd0ca9f646	2.237726305901364
2	0x3ffc7e7748b8a59f	1.7808754769015207
3	0x3ffa681d4a8d4669	1.6504185592824803
4	0x3ffbd4b319abe192	1.7394286158360939

GFL.3.weight f8 [5, 1, 10, 5]
0	0x3ff0dbf414937997	1.0536995700600522
1	0x3fea8b5f73c40635	0.8295132885979856
2	0x3fee8027d00e2dd0	0.9531439841825264
3	0x3fe54ab26a87b3f1	0.6653682785669145
4	0x3fe39e0559880f1b	0.6130396603261689
5	0x3ff08e90f17ecca6	1.0348061974916987
6	0x3fefd00186dc92cd	0.9941413530364912
7	0x3fe9b37d28518a9c	0.8031602656813734
8	0x3fdbbbc5e81b466a	0.4333357588448964
9	0x3fe34255c7bbf928	0.6018475438175175
10	0x3ff03d10388e3f00	1.0149080476002723
11	0x3ff0aa4a126b2a4e	1.041574546764099
12	0x3fe757034656d70c	0.7293716787159794
13	0x3fe48b3c7f5054f3	0.6419966208074172
14	0x3fdfdb8850e82d18	0.4977741994959657
15	0x3ff053932cf16979	1.0204040294252918
16	0x3fee3fbb4da653a5	0.9452797428699468
17	0x3fe200c16b45dcb8	0.5625922293828785
18	0x3fda5e67a8c4c6e7	0.4120120189792104
19	0x3fe4a72dd3d9bea8	0.6454075944620472
20	0x3ff051a28f57c5eb	1.0199304198580375
21	0x3ff0960a2356352d	1.036630762132812
22	0x3fe32ce2c0c91564	0.599229218038698
23	0x3fe2a0c88a6d9d2a	0.5821268752742175
24	0x3fde1b4163cd0e5f	0.47041353937331637
25	0x3feede62546ec95e	0.964646496684775
26	0x3fee631b4d91a40a	0.9495979800241241
27	0x3fe438e60610f47c	0.6319456213456216
28	0x3fdf006639726202	0.48439937219657747
29	0x3fddd92a07a51a32	0.46637964960646905
30	0x3feda30759df4dbd	0.9261509661977737
31	0x3ff12e56fa57c920	1.0738134173412348
32	0x3fe4db3bcd6655c4	0.6517619144166749
33	0x3fdf655e2838b39e	0.49056199958686786
34	0x3fe067a1347dab3f	0.5126501107418803
35	0x3feef75a5d15381c	0.967694455912127
36	0x3fedfd711e61f66f	0.9371877282535034
37	0x3fe5d2aebd4952a1	0.6819680878639539
38	0x3fddd6315cf9035e	0.4661982925354574
39	0x3fe55988feeec51b	0.6671795825151635
40	0x3fef873cf6cd0e16	0.9852585621196706
41	0x3ff15442386e38f7	1.0830709652250883
42	0x3fe5c72a705a51c2	0.6805622286215611
43	0x3fde21c139717aaf	0.4708102284402384
44	0x3fe54db7819e198d	0.6657369166940029
45	0x3feab34a5a6f5a89	0.8343860403354749
46	0x3ff04f219f091061	1.0193191730804971
47	0x3fe4c64a4c9bfb40	0.6492053505206528
48	0x3fdeb2473c9ea625	0.4796312419881324
49	0x3fe162037f2328ba	0.5432145579482246
50	0x3feb471a5aac12b5	0.8524295588436731
51	0x3fec16c1f6fd43eb	0.8777780364999875
52	0x3ff111ddd260025e	1.0668619363570069
53	0x3fe37714911c5d85	0.6082861742205955
54	0x3fe77cf7168acdf9	0.7340045395162057
55	0x3fe8d3ed9b6c4038	0.7758701358416209
56	0x3feffe1f0cf916f7	0.9997706654910122
57	0x3fe707b77ef22a7e	0.7196919898427294
58	0x3fd9eed0a49feb33	0.4052011115706364
59	0x3fe15e06d51b1551	0.5427278673384227
60	0x3fe7247e2ca7d6b6	0.7232046959095075
61	0x3ff0a7d5e15b1ee3	1.0409754565206917
62	0x3fe2882788aed1a2	0.579120413740885
63	0x3fde42d9348b897d	0.4728301060805718
64	0x3fe167b9678d48bc	0.5439116499421952
65	0x3feb4369336d6c02	0.8519788746301631
66	0x3fee80956aef7448	0.9531962479192169
67	0x3fe2f50dc454466c	0.5924137911371878
68	0x3fda9ad929dafb93	0.41570118987504506
69	0x3fe0820f74064d3d	0.5158765092950613
70	0x3feed03873fff1f5	0.9629175439472976
71	0x3fee1d6737865ce5	0.9410892567128967
72	0x3fe60de87df6a809	0.6891977749085082
73	0x3fd713188ee89fa0	0.3605405231087335
74	0x3fda9671262eecf8	0.41543225029791087
75	0x3fed011df69e9dcc	0.9063863579548808
76	0x3fef36768c2f04de	0.9753983247720972
77	0x3fe47357b9bd8c3b	0.6390799167387579
78	0x3fd7b7110fc66378	0.3705485014011667
79	0x3fe0e74f9462ec01	0.5282361887142316
80	0x3feca65e071e1caa	0.8953085078254805
81	0x3ff0cacc642f4d10	1.0495113290278972
82	0x3fe59be683d69fcb	0.6752808165519978
83	0x3fdba4a1e2fe1469	0.4319233624194739
84	0x3fda19b2c303c3e2	0.4078184990349297
85	0x3feb74a20a68395d	0.8579874232544104
86	0x3fef0df40a2f7fe5	0.970453281301158
87	0x3fe2ff12da3378e1	0.5936369191874996
88	0x3fddb3bd216efef4	0.46409538521764593
89	0x3fe04c9c84f79a05	0.5093519780173784
90	0x3fe8b0af140a83a6	0.7715678588320898
91	0x3ff03ebd453b525f	1.0153172211040766
92	0x3fe130ad1be5920d	0.5371919197901335
93	0x3fd90a27e1ec53c0	0.3912448602944174
94	0x3fe44dc588f5a469	0.6344936060896887
95	0x3fede028ba4b0967	0.9336131704842899
96	0x3fefec55e60d0061	0.9975995534114298
97	0x3fe36d8d80d12316	0.6071231380420581
98	0x3fe1fb4d84d86514	0.561926612342321
99	0x3fe15fb77d736f48	0.5429341745579928
100	0x3ff01efe9feca105	1.0075670477909295
101	0x3feb146e3e968789	0.8462439749166474
102	0x3ff18e9dd6f87996	1.097318496445586
103	0x3fe083a74c4ca7c7	0.5160709848616926
104	0x3fe10de20463055a	0.5329446874313064
105	0x3feab21994665781	0.8342407129700719
106	0x3fea5a8e6e7caa11	0.8235542447994836
107	0x3fe4edf8df9cc5b3	0.654049336188271
108	0x3fe0625c7c55eead	0.5120069912367932
109	0x3fe0ddc4828a2a13	0.5270712422946552
110	0x3fed547b46171991	0.9165626877736931
111	0x3febd0b5da63196f	0.86922733930332
112	0x3fe8e7f8f80026ff	0.7783169597398397
113	0x3fd58050b293ac2c	0.335956739798976
114	0x3fe57bcf4685c9c6	0.6713634850878456
115	0x3feb0f3d1820ebf8	0.8456101866971713
116	0x3fec305eec7d9a12	0.880904638191
117	0x3fe79cc970706690	0.7378890224528778
118	0x3fd963e13b17489b	0.39672117968178505
119	0x3fdb0bb5115e6f5f	0.42258955665760384
120	0x3fe913498ece7215	0.7836044110477497
121	0x3fea5fc68d27b098	0.8241913563665717
122	0x3fe737b727d07816	0.7255512025474242
123	0x3fe259ff7cca41a5	0.5734860837274495
124	0x3fddbc0a80f2b858	0.4646021136530911
125	0x3feb740cb80c6356	0.8579162211127407
126	0x3feaeb85db75dde9	0.8412503515564228
127	0x3fe51f3f3543dc2f	0.6600643196424069
128	0x3fe34a01285f181a	0.6027837551598652
129	0x3fdcccbb6eeecf6f	0.44999585946356196
130	0x3fe7fd38be19236b	0.7496608460288433
131	0x3fede1a6d6fb367e	0.9337953757146378
132	0x3fe5b8d5d23f8745	0.6788128954324085
133	0x3fe1d8b3456c7e68	0.5577026706632298
134	0x3fe21913476a4962	0.5655609507396486
135	0x3fe8c8ffaadf79bd	0.7745359742510157
136	0x3ff001091f071b92	1.0002528392812775
137	0x3fe45b26d0e7dbd0	0.6361269073666964
138	0x3fddd7ff4e40dd61	0.46630842821055835
139	0x3fdc0ec86cf3f8f2	0.43840227737372495
140	0x3fee51c96e2970c5	0.9474837447737846
141	0x3fea977891f6c41e	0.8309901095254906
142	0x3fdfc53abe5a9cba	0.4964129313397724
143	0x3fd8424323718cea	0.37904432736668403
144	0x3fdd3511a4771e8f	0.4563640695673507
145	0x3fedd8c2a1a4a9ec	0.932709994992647
146	0x3fee5c4243d08ee6	0.948762066317127
147	0x3fdfd24fbd5a079b	0.4972113942277418
148	0x3fde5ce89aeb4214	0.4744206917648921
149	0x3fe2616535fc680f	0.5743890814221703
150	0x3ff224406c1d4be7	1.1338505004139223
151	0x3fefb79a25d8eada	0.9911623706060155
152	0x3ff03e9eed783040	1.0152882839347654
153	0x3fe1d664c537075f	0.5574210979323019
154	0x3fe3716127ef3e63	0.6075902729007335
155	0x3feefecfd243add4	0.968604956314659
156	0x3feba5262f67c6f0	0.8639098096739115
157	0x3fe7d9d0e992c8cc	0.7453388750057228
158	0x3fdc73e5c8e08076	0.444573827904612
159	0x3fdee85d39007e1f	0.4829323822650355
160	0x3fe9ea271c9072dd	0.8098331029792366
161	0x3ff0c5b5283db36c	1.0482684680857473
162	0x3fe57804a39cc23c	0.670900649600362
163	0x3fe3c9db8c65fcc9	0.6183908216625237
164	0x3fe590f56a24e3b3	0.6739451478125517
165	0x3febf2c108a705dc	0.8733830613129459
166	0x3fee76daf384813b	0.9520087009623589
167	0x3fe3de9d04354b68	0.6209244806471874
168	0x3fe0485edb287ffe	0.5088342934068348
169	0x3fe5fdfe20f5b85a	0.6872549670931776
170	0x3fee6f9e70a02860	0.9511253547400536
171	0x3fed008125e07c10	0.9063115825446193
172	0x3fe3ec7d70643f44	0.622618407740426
173	0x3fe44a8c5f4dd8c2	0.634100137844847
174	0x3fe61f89f72823d9	0.6913499667435828
175	0x3fef4f11ce20f2f6	0.9784020448638262
176	0x3ff07c5eccb7626f	1.0303638455135589
177	0x3fe409079034e068	0.6261022392782367
178	0x3fe3b5248fa7f248	0.6158621602804226
179	0x3fe4b10e4b01fb9d	0.6466132607455283
180	0x3fee0482f0e335eb	0.938050718768577
181	0x3fef5459b736f5ff	0.9790466860210357
182	0x3fe1d5d68a1f04fc	0.5573532769850824
183	0x3fdfc8d8a0aaa222	0.4966336792954583
184	0x3fe71f61909a5003	0.7225807022355187
185	0x3ff030aac5b54ddf	1.011881611154301
186	0x3ff22cc706ec0f6b	1.135931994475835
187	0x3fe16217b6f65e09	0.543224198673614
188	0x3fe2a21e759a19d5	0.5822899147904602
189	0x3fe0b5b27b123f55	0.5221798328147808
190	0x3fe906ae5a480abe	0.782065559702765
191	0x3feed1b79f5e792a	0.9631002533604136
192	0x3fe57f1ec612bad8	0.6717676037422633
193	0x3fd6c4a9ddc391b3	0.35575338989863353
194	0x3fe50a4a32f2164f	0.6575060839683803
195	0x3fec1b0107dbe209	0.8782963899130333
196	0x3ff1963c7a4314f0	1.0991787696705693
197	0x3fe375f2453bb720	0.6081477501117867
198	0x3fd9fab4feb1d881	0.4059269416096712
199	0x3fe6de8b73f309aa	0.7146661057125148
200	0x3ff17e20e85e2230	1.0932931019652976
201	0x3fe9a972b64578c0	0.8019345817554253
202	0x3ff1f7d36a786d15	1.1230043562889638
203	0x3fe36223e36fccb3	0.6057300035594352
204	0x3fe6921bf726bd09	0.7053356005834824
205	0x3fedc7d974410677	0.9306456823907884
206	0x3feb99801072c392	0.86248782360609
207	0x3fe76c9ac4cf7886	0.7320073932603612
208	0x3fd87d0245044dc2	0.38262993564532277
209	0x3fdc902b07843ef6	0.4462993214992673
210	0x3fe6acd1900dcf64	0.7085960210374478
211	0x3fede471d5fe6b67	0.9341363124434395
212	0x3fe0a878d0f0c012	0.5205654221408642
213	0x3fdc99a46755102c	0.44687757578890586
214	0x3fe0a78bef71e58c	0.5204524685533882
215	0x3fea3fa118c032e4	0.8202672465718845
216	0x3fefec6b39735814	0.9976097223359397
217	0x3fe4655e9c7d012e	0.6373742157375426
218	0x3fe0fb594db74746	0.5306822317017825
219	0x3fe0fc3a97059d71	0.5307896566054479
220	0x3fea7d25f86638d8	0.8277768947171138
221	0x3ff02d19fd2f777b	1.0110111131720874
222	0x3fdf44e520a30cac	0.48858001887510727
223	0x3fe094e1ef559e68	0.5181741404057449
224	0x3fe4436f269099eb	0.6332317116946887
225	0x3fe820c537156417	0.7540002895212891
226	0x3fec5415afabc652	0.8852642470430487
227	0x3fe03347747c275a	0.5062596583459069
228	0x3fe04ba5b8c92253	0.509234295758754
229	0x3fe0d0b47d2373da	0.5254766887770714
230	0x3fe9c0f03a06dfc9	0.8048020490014035
231	0x3fec6ec50afa3571	0.8885216917421258
232	0x3fe16aea30834d9a	0.5443011233823427
233	0x3fd68bb3570acda9	0.35227664470877557
234	0x3fe08fb86f91dca9	0.5175440005395063
235	0x3fec378aaab2c2f1	0.8817799886656684
236	0x3fed67224d37f5e5	0.9188395984817218
237	0x3fe20fcf90327be8	0.564430028567469
238	0x3fd8ea3a07d3512a	0.38929606212811285
239	0x3fdc590e1dccb844	0.44293549451947833
240	0x3fe89e1326612cd0	0.7692962407685631
241	0x3ff0de8f4582ad47	1.0543358531238753
242	0x3fe377036d3e2530	0.6082780011794622
243	0x3fe2fce13995dd90	0.5933691143717841
244	0x3fdc04f916295d5b	0.4378035274907767
245	0x3feb3d4047f06588	0.8512269406375461
246	0x3fed5953daee9a46	0.917154243089336
247	0x3fe483af2920be76	0.6410747340468805
248	0x3fe1ed93faacabb7	0.5602512260423883
249	0x3fe38ca6efa90040	0.6109194451200963

GFL.3.bias f8 [5, 1]
0	0x3ff9ff23c727a082	1.6247899798854921
1	0x3ff84a7da7e55fee	1.5181862410008722
2	0x3ff9b19e0f86c42b	1.6058636290074542
3	0x3ff950587b010070	1.5821156315651272
4	0x3ff82cd198e9ae5f	1.5109420750767624

MLP.0.weight f8 [1, 740]
0	0x3f5623fa77016240	0.0013513513513513514
1	0x3f5623fa77016240	0.0013513513513513514
2	0x3f5623fa77016240	0.0013513513513513514
3	0x3f5623fa77016240	0.0013513513513513514
4	0x3f5623fa77016240	0.0013513513513513514
5	0x3f5623fa77016240	0.0013513513513513514
6	0x3f5623fa77016240	0.0013513513513513514
7	0x3f5623fa77016240	0.0013513513513513514
8	0x3f5623fa77016240	0.0013513513513513514
9	0x3f5623fa77016240	0.0013513513513513514
10	0x3f5623fa77016240	0.0013513513513513514
11	0x3f5623fa77016240	0.0013513513513513514
12	0x3f5623fa77016240	0.0013513513513513514
13	0x3f5623fa77016240	0.0013513513513513514
14	0x3f5623fa77016240	0.0013513513513513514
15	0x3f5623fa77016240	0.0013513513513513514
16	0x3f5623fa77016240	0.0013513513513513514
17	0x3f5623fa77016240	0.0013513513513513514
18	0x3f5623fa77016240	0.0013513513513513514
19	0x3f5623fa77016240	0.0013513513513513514
20	0x3f5623fa77016240	0.0013513513513513514
21	0x3f5623fa77016240	0.0013513513513513514
22	0x3f5623fa77016240	0.0013513513513513514
23	0x3f5623fa77016240	0.0013513513513513514
24	0x3f5623fa77016240	0.0013513513513513514
25	0x3f5623fa77016240	0.0013513513513513514
26	0x3f5623fa77016240	0.0013513513513513514
27	0x3f5623fa77016240	0.0013513513513513514
28	0x3f5623fa77016240	0.0013513513513513514
29	0x3f5623fa77016240	0.0013513513513513514
30	0x3f5623fa77016240	0.0013513513513513514
31	0x3f5623fa77016240	0.0013513513513513514
32	0x3f5623fa77016240	0.0013513513513513514
33	0x3f5623fa77016240	0.0013513513513513514
34	0x3f5623fa77016240	0.0013513513513513514
35	0x3f5623fa77016240	0.0013513513513513514
36	0x3f5623fa77016240	0.0013513513513513514
37	0x3f5623fa77016240	0.0013513513513513514
38	0x3f5623fa77016240	0.0013513513513513514
39	0x3f5623fa77016240	0.0013513513513513514
40	0x3f5623fa77016240	0.0013513513513513514
41	0x3f5623fa77016240	0.0013513513513513514
42	0x3f5623fa77016240	0.0013513513513513514
43	0x3f5623fa77016240	0.0013513513513513514
44	0x3f5623fa77016240	0.0013513513513513514
45	0x3f5623fa77016240	0.0013513513513513514
46	0x3f5623fa77016240	0.0013513513513513514
47	0x3f5623fa77016240	0.0013513513513513514
48	0x3f5623fa77016240	0.0013513513513513514
49	0x3f5623fa77016240	0.0013513513513513514
50	0x3f5623fa77016240	0.0013513513513513514
51	0x3f5623fa77016240	0.0013513513513513514
52	0x3f5623fa77016240	0.0013513513513513514
53	0x3f5623fa77016240	0.0013513513513513514
54	0x3f5623fa77016240	0.0013513513513513514
55	0x3f5623fa77016240	0.0013513513513513514
56	0x3f5623fa77016240	0.0013513513513513514
57	0x3f5623fa77016240	0.0013513513513513514
58	0x3f5623fa77016240	0.0013513513513513514
59	0x3f5623fa77016240	0.0013513513513513514
60	0x3f5623fa77016240	0.0013513513513513514
61	0x3f5623fa77016240	0.0013513513513513514
62	0x3f5623fa77016240	0.0013513513513513514
63	0x3f5623fa77016240	0.0013513513513513514
64	0x3f5623fa77016240	0.0013513513513513514
65	0x3f5623fa77016240	0.0013513513513513514
66	0x3f5623fa77016240	0.0013513513513513514
67	0x3f5623fa77016240	0.0013513513513513514
68	0x3f5623fa77016240	0.0013513513513513514
69	0x3f5623fa77016240	0.0013513513513513514
70	0x3f5623fa77016240	0.0013513513513513514
71	0x3f5623fa77016240	0.0013513513513513514
72	0x3f5623fa77016240	0.0013513513513513514
73	0x3f5623fa77016240	0.0013513513513513514
74	0x3f5623fa77016240	0.0013513513513513514
75	0x3f5623fa77016240	0.0013513513513513514
76	0x3f5623fa77016240	0.0013513513513513514
77	0x3f5623fa77016240	0.0013513513513513514
78	0x3f5623fa77016240	0.0013513513513513514
79	0x3f5623fa77016240	0.0013513513513513514
80	0x3f5623fa77016240	0.0013513513513513514
81	0x3f5623fa77016240	0.0013513513513513514
82	0x3f5623fa77016240	0.0013513513513513514
83	0x3f5623fa77016240	0.0013513513513513514
84	0x3f5623fa77016240	0.0013513513513513514
85	0x3f5623fa77016240	0.0013513513513513514
86	0x3f5623fa77016240	0.0013513513513513514
87	0x3f5623fa77016240	0.0013513513513513514
88	0x3f5623fa77016240	0.0013513513513513514
89	0x3f5623fa77016240	0.0013513513513513514
90	0x3f5623fa77016240	0.0013513513513513514
91	0x3f5623fa77016240	0.0013513513513513514
92	0x3f5623fa77016240	0.0013513513513513514
93	0x3f5623fa77016240	0.0013513513513513514
94	0x3f5623fa77016240	0.0013513513513513514
95	0x3f5623fa77016240	0.0013513513513513514
96	0x3f5623fa77016240	0.0013513513513513514
97	0x3f5623fa77016240	0.0013513513513513514
98	0x3f5623fa77016240	0.0013513513513513514
99	0x3f5623fa77016240	0.0013513513513513514
100	0x3f5623fa77016240	0.0013513513513513514
101	0x3f5623fa77016240	0.0013513513513513514
102	0x3f5623fa77016240	0.0013513513513513514
103	0x3f5623fa77016240	0.0013513513513513514
104	0x3f5623fa77016240	0.0013513513513513514
105	0x3f5623fa77016240	0.0013513513513513514
106	0x3f5623fa77016240	0.0013513513513513514
107	0x3f5623fa77016240	0.0013513513513513514
108	0x3f5623fa77016240	0.0013513513513513514
109	0x3f5623fa77016240	0.0013513513513513514
110	0x3f5623fa77016240	0.0013513513513513514
111	0x3f5623fa77016240	0.0013513513513513514
112	0x3f5623fa77016240	0.0013513513513513514
113	0x3f5623fa77016240	0.0013513513513513514
114	0x3f5623fa77016240	0.0013513513513513514
115	0x3f5623fa77016240	0.0013513513513513514
116	0x3f5623fa77016240	0.0013513513513513514
117	0x3f5623fa77016240	0.0013513513513513514
118	0x3f5623fa77016240	0.0013513513513513514
119	0x3f5623fa77016240	0.0013513513513513514
120	0x3f5623fa77016240	0.0013513513513513514
121	0x3f5623fa77016240	0.0013513513513513514
122	0x3f5623fa77016240	0.0013513513513513514
123	0x3f5623fa77016240	0.0013513513513513514
124	0x3f5623fa77016240	0.0013513513513513514
125	0x3f5623fa77016240	0.0013513513513513514
126	0x3f5623fa77016240	0.0013513513513513514
127	0x3f5623fa77016240	0.0013513513513513514
128	0x3f5623fa77016240	0.0013513513513513514
129	0x3f5623fa77016240	0.0013513513513513514
130	0x3f5623fa77016240	0.0013513513513513514
131	0x3f5623fa77016240	0.0013513513513513514
132	0x3f5623fa77016240	0.0013513513513513514
133	0x3f5623fa77016240	0.0013513513513513514
134	0x3f5623fa77016240	0.0013513513513513514
135	0x3f5623fa77016240	0.0013513513513513514
136	0x3f5623fa77016240	0.0013513513513513514
137	0x3f5623fa77016240	0.0013513513513513514
138	0x3f5623fa77016240	0.0013513513513513514
139	0x3f5623fa77016240	0.0013513513513513514
140	0x3f5623fa77016240	0.0013513513513513514
141	0x3f5623fa77016240	0.0013513513513513514
142	0x3f5623fa77016240	0.0013513513513513514
143	0x3f5623fa77016240	0.0013513513513513514
144	0x3f5623fa77016240	0.0013513513513513514
145	0x3f5623fa77016240	0.0013513513513513514
146	0x3f5623fa77016240	0.0013513513513513514
147	0x3f5623fa77016240	0.0013513513513513514
148	0x3f5623fa77016240	0.0013513513513513514
149	0x3f5623fa77016240	0.0013513513513513514
150	0x3f5623fa77016240	0.0013513513513513514
151	0x3f5623fa77016240	0.0013513513513513514
152	0x3f5623fa77016240	0.0013513513513513514
153	0x3f5623fa77016240	0.0013513513513513514
154	0x3f5623fa77016240	0.0013513513513513514
155	0x3f5623fa77016240	0.0013513513513513514
156	0x3f5623fa77016240	0.0013513513513513514
157	0x3f5623fa77016240	0.0013513513513513514
158	0x3f5623fa77016240	0.0013513513513513514
159	0x3f5623fa77016240	0.0013513513513513514
160	0x3f5623fa77016240	0.0013513513513513514
161	0x3f5623fa77016240	0.0013513513513513514
162	0x3f5623fa77016240	0.0013513513513513514
163	0x3f5623fa77016240	0.0013513513513513514
164	0x3f5623fa77016240	0.0013513513513513514
165	0x3f5623fa77016240	0.0013513513513513514
166	0x3f5623fa77016240	0.0013513513513513514
167	0x3f5623fa77016240	0.0013513513513513514
168	0x3f5623fa77016240	0.0013513513513513514
169	0x3f5623fa77016240	0.0013513513513513514
170	0x3f5623fa77016240	0.0013513513513513514
171	0x3f5623fa77016240	0.0013513513513513514
172	0x3f5623fa77016240	0.0013513513513513514
173	0x3f5623fa77016240	0.0013513513513513514
174	0x3f5623fa77016240	0.0013513513513513514
175	0x3f5623fa77016240	0.0013513513513513514
176	0x3f5623fa77016240	0.0013513513513513514
177	0x3f5623fa77016240	0.0013513513513513514
178	0x3f5623fa77016240	0.0013513513513513514
179	0x3f5623fa77016240	0.0013513513513513514
180	0x3f5623fa77016240	0.0013513513513513514
181	0x3f5623fa77016240	0.0013513513513513514
182	0x3f5623fa77016240	0.0013513513513513514
183	0x3f5623fa77016240	0.0013513513513513514
184	0x3f5623fa77016240	0.0013513513513513514
185	0x3f5623fa77016240	0.0013513513513513514
186	0x3f5623fa77016240	0.0013513513513513514
187	0x3f5623fa77016240	0.0013513513513513514
188	0x3f5623fa77016240	0.0013513513513513514
189	0x3f5623fa77016240	0.0013513513513513514
190	0x3f5623fa77016240	0.0013513513513513514
191	0x3f5623fa77016240	0.0013513513513513514
192	0x3f5623fa77016240	0.0013513513513513514
193	0x3f5623fa77016240	0.0013513513513513514
194	0x3f5623fa77016240	0.0013513513513513514
195	0x3f5623fa77016240	0.0013513513513513514
196	0x3f5623fa77016240	0.0013513513513513514
197	0x3f5623fa77016240	0.0013513513513513514
198	0x3f5623fa77016240	0.0013513513513513514
199	0x3f5623fa77016240	0.0013513513513513514
200	0x3f5623fa77016240	0.0013513513513513514
201	0x3f5623fa77016240	0.0013513513513513514
202	0x3f5623fa77016240	0.0013513513513513514
203	0x3f5623fa77016240	0.0013513513513513514
204	0x3f5623fa77016240	0.0013513513513513514
205	0x3f5623fa77016240	0.0013513513513513514
206	0x3f5623fa77016240	0.0013513513513513514
207	0x3f5623fa77016240	0.0013513513513513514
208	0x3f5623fa77016240	0.0013513513513513514
209	0x3f5623fa77016240	0.0013513513513513514
210	0x3f5623fa77016240	0.0013513513513513514
211	0x3f5623fa77016240	0.0013513513513513514
212	0x3f5623fa77016240	0.0013513513513513514
213	0x3f5623fa77016240	0.0013513513513513514
214	0x3f5623fa77016240	0.0013513513513513514
215	0x3f5623fa77016240	0.0013513513513513514
216	0x3f5623fa77016240	0.0013513513513513514
217	0x3f5623fa77016240	0.0013513513513513514
218	0x3f5623fa77016240	0.0013513513513513514
219	0x3f5623fa77016240	0.0013513513513513514
220	0x3f5623fa77016240	0.0013513513513513514
221	0x3f5623fa77016240	0.0013513513513513514
222	0x3f5623fa77016240	0.0013513513513513514
223	0x3f5623fa77016240	0.0013513513513513514
224	0x3f5623fa77016240	0.0013513513513513514
225	0x3f5623fa77016240	0.0013513513513513514
226	0x3f5623fa77016240	0.0013513513513513514
227	0x3f5623fa77016240	0.0013513513513513514
228	0x3f5623fa77016240	0.0013513513513513514
229	0x3f5623fa77016240	0.0013513513513513514
230	0x3f5623fa77016240	0.0013513513513513514
231	0x3f5623fa77016240	0.0013513513513513514
232	0x3f5623fa77016240	0.0013513513513513514
233	0x3f5623fa77016240	0.0013513513513513514
234	0x3f5623fa77016240	0.0013513513513513514
235	0x3f5623fa77016240	0.0013513513513513514
236	0x3f5623fa77016240	0.0013513513513513514
237	0x3f5623fa77016240	0.0013513513513513514
238	0x3f5623fa77016240	0.0013513513513513514
239	0x3f5623fa77016240	0.0013513513513513514
240	0x3f5623fa77016240	0.0013513513513513514
241	0x3f5623fa77016240	0.0013513513513513514
242	0x3f5623fa77016240	0.0013513513513513514
243	0x3f5623fa77016240	0.0013513513513513514
244	0x3f5623fa77016240	0.0013513513513513514
245	0x3f5623fa77016240	0.0013513513513513514
246	0x3f5623fa77016240	0.0013513513513513514
247	0x3f5623fa77016240	0.0013513513513513514
248	0x3f5623fa77016240	0.0013513513513513514
249	0x3f5623fa77016240	0.0013513513513513514
250	0x3f5623fa77016240	0.0013513513513513514
251	0x3f5623fa77016240	0.0013513513513513514
252	0x3f5623fa77016240	0.0013513513513513514
253	0x3f5623fa77016240	0.0013513513513513514
254	0x3f5623fa77016240	0.0013513513513513514
255	0x3f5623fa77016240	0.0013513513513513514
